Models/GNNs/Oryx2/model_RGCN_10000_samples_20_epochs.pth (torch, 10898 bytes, 14 tensors)

weight f4 [8, 10]
-8.154633e-05 -0.5670318 0.07004758 0.10318156 0.28437823 -0.011386756 0.1720629 -0.65216297
-0.29863405 -0.11147672 0.26863798 -0.40633178 0.591533 0.26902243 -0.15391879 -0.35459223
0.6088537 0.21972755 -0.058206204 -0.052546218 -0.35645655 0.017306387 -0.039058175 -0.29317656
0.56633663 0.31187466 0.79645705 0.5328684 0.035263527 0.65343666 -0.35327822 -0.0007491112
0.5943149 -0.07434274 0.028626569 0.39412934 0.8688276 0.8318569 0.1290933 0.7731719
0.12735069 -0.2556172 0.051305473 -0.47708628 -0.49543267 0.13794166 -0.4085857 -0.32844636
-0.37489635 0.37606353 -0.4084269 0.466169 -0.18955395 0.028498769 0.041727304 0.5484687
-0.0440256 -0.34870446 0.09026641 0.49096942 -0.28458202 0.19049829 -0.37557906 -0.053173482
-0.5427974 -0.4699252 -0.10895258 0.56455445 0.041239917 -0.067209065 0.49449003 -0.35386705
0.40322262 -0.26712337 -0.3178245 -0.44653767 -0.058186054 0.058391035 0.50832176 0.3590147
00000000: da03 abb8 ff28 11bf 1b75 8f3d db50 d33d
00000010: 069a 913e 848f 3abc 4231 303e 27f4 26bf
00000020: 90e6 98be e84d e4bd eb8a 893e b80a d0be
00000030: b56e 173f 4fbd 893e e39c 1dbe 1d8d b5be
00000040: d6dd 1b3f 4200 613e a169 6ebd b43a 57bd
00000050: 7981 b6be 20c6 8d3c 77fb 1fbd 3d1b 96be
00000060: 70fb 103f 09ae 9f3e 9ce4 4b3f 106a 083f
00000070: 7d70 103d a047 273f e2e0 b4be 0060 44ba
00000080: 0525 183f 0241 98bd 4482 ea3c 52cb c93e
00000090: 7c6b 5e3f 93f4 543f 0931 043e 98ee 453f
000000a0: 3868 023e 42e0 82be b025 523d a744 f4be
000000b0: 5aa9 fdbe 9440 0d3e 2532 d1be 1f2a a8be
000000c0: 6af2 bfbe 668b c03e 551d d1be b4ad ee3e
000000d0: 6e1a 42be 4076 e93c 40ea 2a3d 7268 0c3f
000000e0: 3054 34bd 6489 b2be 98dd b83d 5860 fb3e
000000f0: bcb4 91be fc11 433e e64b c0be 70cc 59bd
00000100: c5f4 0abf 099a f0be 8822 dfbd a486 103f
00000110: 30eb 283d e8a4 89bd cc2d fd3e 102e b5be
00000120: 3273 ce3e 65c4 88be e5b9 a2be 96a0 e4be
00000130: 8054 6ebd 702b 6f3d 6021 023f c6d0 b73e

bias f4 [10]
-0.013958721 0.0 0.50710654 -0.10885508 0.32442415 -0.0513277 0.4414823 0.41091383
-0.016938195 0.4339397
00000000: 1fb3 64bc 0000 0000 bcd1 013f 6aef debd
00000010: ec1a a63e ff3c 52bd f809 e23e 4c63 d23e
00000020: f8c1 8abc 582d de3e

weight f4 [8, 10]
-0.0940339 -0.40455115 0.10122025 -0.50900364 -0.41263413 0.5661696 0.3329085 0.56141317
-0.2285864 -0.36377946 0.48824382 -0.17420769 -0.119793415 -0.10741013 0.3187816 0.20476156
-0.18009228 -0.46960267 -0.14637625 -0.46100244 0.32045257 0.37228787 0.121810496 0.1473555
0.49731505 -0.49819016 0.395918 -0.23865342 0.2520067 -0.4970432 0.28702903 -0.13260159
-0.10868284 -0.4134686 -0.36362207 -0.29788193 -0.43760934 0.39195317 -0.11756459 -0.0063274503
0.0005749464 -0.25720465 -0.32709512 -0.2307621 0.09487319 0.0098180175 -0.12191358 0.41794622
0.19958758 0.32989806 0.023098886 -0.15195426 -0.20303863 -0.55802345 -0.22866714 0.5327159
-0.5303 0.21561837 -0.49493942 -0.5239099 -0.32954895 -0.31244278 -0.09733525 0.19083142
0.028733492 0.4041289 0.5678748 0.40191627 -0.5069055 -0.46941802 0.47996247 0.15322787
-0.010930777 -0.5662768 -0.012091041 -0.42400926 0.5154185 0.103235245 0.20824778 -0.5535057
00000000: d894 c0bd 5421 cfbe 904c cf3d 104e 02bf
00000010: c844 d3be 7ef0 103f fc72 aa3e c6b8 0f3f
00000020: 8e12 6abe 4d41 babe 18fb f93e 8063 32be
00000030: 4056 f5bd d8f9 dbbd 5837 a33e 04ad 513e
00000040: 1c6a 38be c36f f0be a8e3 15be 8308 ecbe
00000050: 5c12 a43e 849c be3e c877 f93d 5ce4 163e
00000060: 14a0 fe3e c812 ffbe c4b5 ca3e 9061 74be
00000070: 0607 813e 727c febe 78f5 923e b6c8 07be
00000080: 1c95 debd 28b2 d3be ac2c babe fb83 98be
00000090: 550e e0be 16ae c83e b4c5 f0bd 8056 cfbb
000000a0: 00b8 163a 54b0 83be 0379 a7be e64c 6cbe
000000b0: e04c c23d c0db 203c d4ad f9bd 0cfd d53e
000000c0: b060 4c3e 66e8 a83e e039 bd3c e699 1bbe
000000d0: 5ce9 4fbe a0da 0ebf b827 6abe 1260 083f
000000e0: bec1 07bf 10cb 5c3e b368 fdbe f61e 06bf
000000f0: a4ba a8be 80f8 9fbe b457 c7bd 5069 433e
00000100: 8062 eb3c fce9 ce3e 3e60 113f f8c7 cd3e
00000110: 8fc4 01bf 8f57 f0be a4bd f53e c4e7 1c3e
00000120: 0017 33bc 84f7 10bf 8019 46bc be17 d9be
00000130: 78f2 033f 006d d33d e83e 553e 8db2 0dbf

bias f4 [10]
0.0 0.0 0.0 0.0 0.0 0.0 0.0 0.0
0.0 0.0
00000000: 0000 0000 0000 0000 0000 0000 0000 0000
00000010: 0000 0000 0000 0000 0000 0000 0000 0000
00000020: 0000 0000 0000 0000

weight f4 [8, 10]
-0.19782972 0.22006518 -0.49672976 -0.1331265 -0.22445157 0.36274183 0.45709157 -0.21280298
-0.033727646 -0.5313063 -0.18946266 -0.16920334 -0.5079957 -0.22214514 0.1924504 0.1044718
-0.27632293 -0.0077352524 0.06540185 0.4403175 -0.5672573 0.16884518 -0.3538993 -0.26375684
0.052457213 -0.46409816 0.52272666 -0.5116054 0.09444964 0.232351 0.5098746 -0.092592
-0.23649755 -0.51750684 0.21368039 0.4008398 -0.27672234 -0.21083108 -0.4785379 -0.09996912
0.18407667 0.49969983 0.18898523 -0.061585426 -0.18726549 -0.35089582 0.47254288 0.4340204
-0.30461442 -0.13579342 0.11178762 0.2690912 -0.003878653 0.4944353 -0.23605818 -0.32398793
-0.44811115 -0.26919007 -0.3190121 -0.16688013 0.44556463 0.29602778 -0.044170797 -0.54060954
0.15882188 -0.2847078 0.56451035 -0.5757804 0.36739838 -0.20775428 -0.49479067 0.15996855
0.040948153 0.4871565 -0.06568879 0.50398934 0.42893243 0.21144634 -0.39447707 -0.024845779
00000000: e093 4abe c458 613e 5d53 febe 5052 08be
00000010: a2d6 65be 4cb9 b93e e807 ea3e 06e9 59be
00000020: 0026 0abd b103 08bf 8002 42be a443 2dbe
00000030: 020c 02bf 047a 63be b811 453e 50f5 d53d
00000040: 337a 8dbe 0078 fdbb 68f1 853d 4c71 e13e
00000050: c637 11bf c0e5 2c3e 4a32 b5be 230b 87be
00000060: 60dd 563d 469e edbe 6ad1 053f 92f8 02bf
00000070: d06e c13d 6ced 6d3e 2487 023f e0a0 bdbd
00000080: 6a2c 72be 547b 04bf 08cf 5a3e e03a cd3e
00000090: 8dae 8dbe 1ae4 57be eb02 f5be 9cbc ccbd
000000a0: 987e 3c3e a8d8 ff3e 5885 413e 0041 7cbd
000000b0: 86c2 3fbe 9ea8 b3be 24f1 f13e ec37 de3e
000000c0: 6cf6 9bbe 6e0d 0bbe e8f0 e43d 52c6 893e
000000d0: 0031 7ebb a026 fd3e 3cb9 71be bfe1 a5be
000000e0: d36e e5be 48d3 89be 8e55 a3be a0e2 2abe
000000f0: 0c21 e43e f490 973e 70ec 34bd 6365 0abf
00000100: 34a2 223e 39c5 91be c083 103f 5866 13bf
00000110: a41b bc3e 8abd 54be 3455 fdbe ccce 233e
00000120: 40b9 273d 946c f93e d887 86bd 7205 013f
00000130: 089d db3e 6485 583e e6f8 c9be 6089 cbbc

bias f4 [10]
0.0 0.0 0.0 0.0 0.0 0.0 0.0 0.0
0.0 0.0
00000000: 0000 0000 0000 0000 0000 0000 0000 0000
00000010: 0000 0000 0000 0000 0000 0000 0000 0000
00000020: 0000 0000 0000 0000

weight f4 [10, 5]
0.31542897 -0.41941655 -0.5502293 -0.36525983 -0.62227374 -0.037283003 -0.16329259 -0.38438618
0.24701399 0.32734764 -0.06617862 0.8186699 -0.40138265 -0.36690557 -0.3003682 0.38201135
0.45334235 -0.23037677 0.34215558 0.37750682 0.20420668 0.114425205 -0.15362665 -0.5824395
-0.3671528 -0.5296786 -0.41333237 0.21523175 -0.10370612 -0.061753083 0.45871606 0.05374349
-0.40208486 -0.9087687 -0.837814 0.43098107 0.3618963 -0.74450177 -0.21519631 -0.18661469
0.36287117 0.5494066 -0.3238363 -0.010215759 0.44525522 0.07338418 0.1586788 0.063159026
-0.53516287 -0.06762213
00000000: e87f a13e c4bd d6be d4db 0cbf 5603 bbbe
00000010: 554d 1fbf 10b6 18bd 2c36 27be 44ce c4be
00000020: 3cf1 7c3e 1c9a a73e a888 87bd 5a94 513f
00000030: 0782 cdbe 0cdb bbbe dcc9 99be fe96 c33e
00000040: 7d1c e83e e3e7 6bbe 042f af3e 9348 c13e
00000050: 8e1b 513e c357 ea3d 4e50 1dbe c11a 15bf
00000060: 74fb bbbe 0499 07bf 4da0 d3be b665 5c3e
00000070: e063 d4bd cdf0 7cbd d5dc ea3e 2222 5c3d
00000080: 11de cdbe 11a5 68bf fa7a 56bf 8da9 dc3e
00000090: 794a b93e ab97 3ebf 6c5c 5cbe ec17 3fbe
000000a0: 40ca b93e e9a5 0c3f dfcd a5be 0060 27bc
000000b0: 7ef8 e33e 724a 963d b27c 223e 8559 813d
000000c0: 6f00 09bf 797d 8abd

bias f4 [5]
0.30055103 0.25109893 -0.24966027 -0.3700927 -0.27041632
00000000: d3e1 993e 0a90 803e f1a6 7fbe ca7c bdbe
00000010: 0274 8abe

weight f4 [10, 5]
-0.1563527 -0.28781193 0.615678 -0.25290805 0.18942837 -0.01865381 0.62636405 -0.215633
0.44883794 0.1672656 0.19998129 0.544614 -0.19629796 -1.208253 -1.0816065 -0.26545897
0.1567301 0.36374736 0.5539756 0.32684508 0.45721835 0.55742013 0.64045024 -0.2082388
-0.25997686 -0.3438923 0.38026068 -0.08020079 -0.64289784 -0.004490594 0.9466281 -0.10969533
-0.075055666 -1.1434958 -0.17274745 -0.028970778 1.004222 0.3963861 -0.8097479 -0.7951379
-0.13686709 0.44387844 0.36740187 0.58911943 0.054727327 0.7953256 1.1399755 0.5099541
-0.78449315 -1.1035597
00000000: ec1a 20be 165c 93be 139d 1d3f 2a7d 81be
00000010: 83f9 413e e0cf 98bc 6559 203f e6ce 5cbe
00000020: 16ce e53e ac47 2b3e e5c7 4c3e d36b 0b3f
00000030: 5502 49be 09a8 9abf 1572 8abf 3dea 87be
00000040: db7d 203e 183d ba3e 58d1 0d3f 3d58 a73e
00000050: 8618 ea3e 16b3 0e3f 8cf4 233f 8d3c 55be
00000060: b01b 85be a712 b0be 87b1 c23e 5040 a4bd
00000070: f494 24bf d525 93bb 3856 723f f2a7 e0bd
00000080: c9b6 99bd 125e 92bf b5e4 30be 2054 edbc
00000090: 598a 803f 1ef3 ca3e a34b 4fbf 288e 4bbf
000000a0: e326 0cbe 0944 e33e 191c bc3e 88d0 163f
000000b0: c329 603d 759a 4b3f b8ea 913f 5a8c 023f
000000c0: 8bd4 48bf 7241 8dbf

bias f4 [5]
-0.33543682 -0.24161938 -0.22229612 -0.260961 0.20697178
00000000: 60be abbe 126b 77be 98a1 63be ae9c 85be
00000010: 69f0 533e

weight f4 [10, 5]
-0.28824043 0.2930147 0.560909 0.0648665 -0.4768392 -0.24476856 -0.49272835 -0.14924026
0.34982532 -0.47693056 -0.71774876 -0.016302597 -0.74938405 -1.2966521 0.022446705 -0.6462698
0.38990542 0.23970914 0.5150334 0.312811 -0.7853387 -0.19314933 -0.6222181 -0.5533596
0.10390729 -0.22322838 0.45469752 0.35242888 -0.11738391 -0.29190168 -1.1232346 -0.67245495
-0.21902038 -0.41061282 0.87619394 -0.9380712 -0.9420943 -0.9744004 -1.1472086 0.42707205
-0.2517006 0.46640894 0.15238911 -0.24391949 0.10258548 -0.8248201 -0.3477491 -0.6223872
-1.3068882 0.77682817
00000000: 4094 93be 0606 963e bb97 0f3f bad8 843d
00000010: 4524 f4be 9ca4 7abe e446 fcbe 70d2 18be
00000020: 4e1c b33e 3e30 f4be 62be 37bf 068d 85bc
00000030: a2d7 3fbf b2f8 a5bf 27e2 b73c f071 25bf
00000040: afa1 c73e 5076 753e 3bd9 033f c328 a03e
00000050: f50b 49bf f0c8 45be af49 1fbf faa8 0dbf
00000060: 58cd d43d fb95 64be 1dce e83e 8f71 b43e
00000070: fa66 f0bd 2374 95be 27c6 8fbf 0226 2cbf
00000080: e146 60be d83b d2be 3f4e 603f 6f25 70bf
00000090: 182d 71bf 4e72 79bf bbd7 92bf 30a9 da3e
000000a0: e7de 80be 27cd ee3e e40b 1c3e 08c6 79be
000000b0: 5618 d23d 6927 53bf 2c0c b2be c454 1fbf
000000c0: 1d48 a7bf 36de 463f

bias f4 [5]
-0.33543682 -0.24161938 -0.22229612 -0.260961 0.20697178
00000000: 60be abbe 126b 77be 98a1 63be ae9c 85be
00000010: 69f0 533e

weight f4 [3, 10]
-0.55911314 -0.53320503 0.6718578 0.27220216 0.664751 0.23943147 0.12314299 0.5052799
0.83697 -0.13055524 0.07755766 0.03558335 -0.27693054 -0.29816335 0.11992193 0.36406305
0.65176135 0.40237212 -0.6160707 -0.6045965 0.35067412 0.4837088 -0.5739415 -0.5283237
-0.25899655 -0.48398522 -0.48634925 -0.6478346 -0.67696685 0.6401544
00000000: 0a22 0fbf 2080 08bf dffe 2b3f 155e 8b3e
00000010: 1f2d 2a3f 862d 753e 6432 fc3d 065a 013f
00000020: aa43 563f 46b0 05be 8dd6 9e3d d9bf 113d
00000030: d7c9 8dbe dea8 98be a199 f53d 7966 ba3e
00000040: d5d9 263f b803 ce3e cfb6 1dbf d6c6 1abf
00000050: 8f8b b33e aea8 f73e d5ed 12bf 3940 07bf
00000060: 329b 84be e9cc f7be c502 f9be 7dd8 25bf
00000070: b34d 2dbf 29e1 233f

bias f4 [3]
0.04905505 -0.27515647 -0.12282752
00000000: f3ed 483d 4fe1 8cbe ff8c fbbd
