Models/GNNs/Oryx2/model_RGCN_1000_samples_100_epochs_64_batchsize.pth (torch, 59964 bytes, 14 tensors)

weight f4 [8, 300]
000000 88 41 9a 3e 6e 86 9a 3d ed 64 00 3e fe 80 7f bd
       0.3012812 0.07545172 0.125385 -0.062378876
000010 63 65 a7 bd 3a 3f 3b bd 08 30 4a 3e 9f df ea bd
       -0.08173635 -0.045714594 0.19744885 -0.114684336
000020 5a 58 a1 3a 83 98 72 3e af 92 00 3e 0a 05 8d bd
       0.0012309656 0.23690991 0.12555955 -0.06885727
000030 aa da 53 bd 1d 0d 8a 3d 55 de 57 3e 4e 85 32 3e
       -0.051722206 0.067407824 0.21080907 0.17433664
000040 64 db 26 bd fd 8e 2e 3e 7f 30 15 be d7 29 12 be
       -0.04073657 0.17046733 -0.14569281 -0.14273773
000050 b0 5d aa bc 60 e0 ed bc bc 29 75 bd 81 ab 02 be
       -0.020796627 -0.029037654 -0.059854254 -0.12760736
000060 d5 a4 fe 3d da b6 b2 bd 1f 5e ad 3b a5 29 34 3e
       0.12433783 -0.087262824 0.005290761 0.17594011
000070 c4 07 09 bd 48 f2 9b 3e 58 ff fe bc b9 13 9c 3e
       -0.03345467 0.30458283 -0.031127617 0.30483797
000080 a1 a7 08 be c8 7d 0b be 7a 6a c3 bd f2 b8 2e bd
       -0.13345195 -0.136222 -0.09541793 -0.042656846
000090 3d 97 43 3e 3c f0 07 be 37 cf ea 3c f2 c5 da bd
       0.19100662 -0.13275236 0.02866326 -0.10682286
0000a0 8a ab 76 3e 3c a4 16 bd 35 b0 18 3e 21 bc 88 3b
       0.24088874 -0.03677772 0.14910968 0.0041728173
0000b0 3b b8 2b 3e c0 b8 57 bb dd 9d c5 bc 32 b8 e8 bd
       0.16769497 -0.0032916516 -0.024123127 -0.113632575
0000c0 2c a0 87 3e 89 95 1d 3c cc a7 82 3e fc 53 a0 bc
       0.2648939 0.0096181715 0.25518644 -0.019571297
0000d0 74 8e ec bd f2 b6 2b 3e 4a 86 0d 3e a0 35 f4 bc
       -0.11550608 0.16769007 0.13820758 -0.029810727
0000e0 5e f3 a9 3d e5 7d 8b bd 86 29 87 bd c0 e5 37 3b
       0.08298372 -0.06811122 -0.06599717 0.0028060526
0000f0 84 8c 14 3e a4 e7 ca 3d 87 6f 64 3d 01 06 4d 3e
       0.14506727 0.09907463 0.055770423 0.20021822
000100 99 3a 8d bd e2 bf 0d be c6 6d e0 bd 10 3b 35 bd
       -0.06895942 -0.13842729 -0.109584376 -0.04424578
000110 16 c3 62 3e d0 4c 14 bc 46 0d 2a 3e 11 b0 2f bd
       0.22144732 -0.009051517 0.16606626 -0.04289252
000120 8a 18 d2 bd 6b 83 42 3e 74 0e 98 3d 91 27 93 3e
       -0.10258587 0.18995444 0.07424632 0.28741124
000130 36 1d 1b 3e e6 d6 26 3e 62 5e f3 bd 08 3b 42 bd
       0.15147862 0.16292915 -0.118832365 -0.047419578
000140 58 cf a5 bb 5a 24 34 3e 8c aa 03 bd 7e 46 a8 bd
       -0.0050601177 0.17591992 -0.032145068 -0.0821657
000150 4b d1 fc 3d 00 e0 e8 b9 90 fa 14 3d f2 8b 79 bd
       0.12344607 -0.0004441738 0.036371768 -0.060924478
000160 60 03 90 bc 19 23 f0 3d 45 83 4a 3e c4 ac c6 bd
       -0.017579734 0.11725444 0.19776638 -0.09700921
000170 74 98 ea bc 9b 13 19 3e 33 5a 9f 3c 62 b9 09 be
       -0.028637148 0.14948885 0.01945219 -0.13449624
000180 81 69 f2 3d 82 f2 25 bd e2 ae 52 3e f5 a3 42 3b
       0.118365295 -0.040514477 0.20574525 0.0029699777
000190 44 0c 06 be 54 a5 01 bd 69 08 0e be 60 9b 0b 3c
       -0.13090616 -0.03165181 -0.13870396 0.008520931
0001a0 71 fe 32 3d 37 55 cc bd 19 f1 c2 bc 62 73 7e bd
       0.043699685 -0.09977191 -0.023796605 -0.062121756
0001b0 14 29 08 be 77 48 4b 3e d9 45 a1 3e af 66 25 3e
       -0.1329692 0.19851862 0.31498602 0.16152452
0001c0 14 e4 fb 3c 36 77 65 bd 88 55 cd bd 39 34 7a 3d
       0.030748405 -0.05602189 -0.100260794 0.06108496
0001d0 65 43 2a 3e 26 3d 31 bd 42 ea 96 3d d0 88 5b bc
       0.16627271 -0.043271206 0.073689 -0.013399318
0001e0 e5 fa fb 3d 95 50 22 be d1 a5 58 3c 29 d4 a8 3d
       0.12303714 -0.15851052 0.013223127 0.08243591
0001f0 86 1b d6 bd 42 ba 2e 3e 73 69 28 be b8 a3 f2 bd
       -0.104544684 0.17063239 -0.16446476 -0.11847633
000200 fe 6f 0e be dd f0 e9 bd 9c 2f 6a bd cd e5 81 bd
       -0.13909909 -0.11422894 -0.05717431 -0.06342659
000210 75 5a ff bd 70 ad ba 3d 13 b1 96 bd 10 5c c7 bd
       -0.12468425 0.09115112 -0.07357993 -0.097343564
000220 5a 82 1e 3c 1f 47 b6 bd e5 11 a2 bd a5 fa 0d be
       0.009674633 -0.08900284 -0.07913569 -0.13865145
000230 88 4a 70 bc 6b 70 9a bd f7 72 a1 bd 93 b5 c5 3d
       -0.014666207 -0.07540973 -0.07883256 0.09653773
000240 ef c9 43 bc ca 14 2a be f1 c5 08 be 9e a3 aa 3b
       -0.01195 -0.16609493 -0.13356759 0.005207493
000250 a7 5a 92 3e d3 03 a6 bd 1e 3a cf 3d 7c 13 44 3e
       0.28584787 -0.08106198 0.10118507 0.19148058
000260 b8 0c 4e bd 59 b6 8a 3e 00 20 45 39 d0 f4 85 3d
       -0.0503051 0.27092245 0.00018799305 0.06540835
000270 ce 74 08 be 8c 6e 82 be 36 b3 8a 3e f6 47 2d 3e
       -0.13325807 -0.25474966 0.27089852 0.16921982
000280 44 ff 01 be b8 b5 72 3e cb ce 47 3e 52 02 f1 bd
       -0.12695032 0.23702133 0.19512479 -0.11768021
000290 d9 dd 8d 3d 22 e6 0d 3e f2 65 ed bd bf 38 3f 3e
       0.0692708 0.1385732 -0.1159171 0.1867399
0002a0 cc 26 d8 3d 61 52 09 be f0 33 38 bd 01 90 16 3e
       0.10554275 -0.13410331 -0.044971406 0.1470337
0002b0 da e4 a6 bd ac 65 b7 bd d7 a4 97 3e 78 51 52 bd
       -0.08149119 -0.08954939 0.2961795 -0.051347226
0002c0 f3 a9 fe 3b 46 c6 4d bd a6 26 f8 3b 27 50 01 3e
       0.0077717244 -0.050237916 0.0075729666 0.12628232
0002d0 88 3b 73 3e 12 eb 78 bd 05 55 9b 3e 88 4c db 3d
       0.23753178 -0.060771056 0.30338302 0.107079566
0002e0 31 cc 7c 3e 11 70 33 3d 4c 94 9d 3d 21 26 18 3e
       0.24687268 0.043808047 0.07694301 0.14858295
0002f0 62 02 80 3d c2 f1 b7 bd 97 00 a4 bd f5 9e 63 3e
       0.062504545 -0.089816585 -0.08007925 0.22228606
000300 ce 04 04 3e 50 a6 41 bd 94 a9 c0 bd ec 64 4a 3b
       0.12892458 -0.04727775 -0.094073445 0.0030882908
000310 e8 2a 03 3e ed 21 30 3e 69 83 a5 3e 1f 26 a5 bd
       0.12809336 0.17200442 0.3232682 -0.08063912
000320 2e 2a 6c 3d 69 cd 89 3d f8 cb 48 3e dc 86 d3 bd
       0.057657413 0.06728632 0.19609058 -0.10328457
000330 30 e6 6d 3e d6 6a d5 bd 06 1b e2 3c c6 89 7e bd
       0.23232341 -0.10420768 0.027600776 -0.06214311
000340 bf 23 2d bc f2 5a 39 3e d2 bd f1 3c b6 ae c1 3d
       -0.010567605 0.18101099 0.029509459 0.094571516
000350 0c 3d 2a bd 95 aa 06 be 52 a7 a3 3e 59 e2 d6 3c
       -0.041562125 -0.1315101 0.31963593 0.026230978
000360 a4 b5 03 bd 26 3b d0 bd c4 a0 08 3b 22 2b 19 3e
       -0.032155648 -0.10167532 0.0020847777 0.1495786
000370 d2 65 3f 3e e3 08 96 3e 00 7e aa 3d da c7 ce bd
       0.18691185 0.29303655 0.08324814 -0.100967124
000380 07 3f 6d 3e 00 d8 aa ba 5c 04 65 3e 08 f2 d9 bd
       0.23168574 -0.0013034344 0.22364944 -0.10641867
000390 40 0d 9f bc ba 04 06 be 38 45 79 bd 96 f4 8c 3e
       -0.019415498 -0.1308774 -0.060857028 0.27530354
0003a0 bd 5d 70 3c 47 bc 51 3e 00 80 db 36 b9 07 12 3e
       0.014670786 0.20481978 6.5416098e-06 0.14260758
0003b0 58 a5 6e 3d 17 0a 91 bd f9 67 7d 3e ca ac 6a bd
       0.058263153 -0.070820026 0.24746694 -0.05729369
0003c0 cb b3 1e 3e 88 9b 46 3d 40 da 55 3b 67 f3 86 bd
       0.15498273 0.04848817 0.0032631308 -0.06589394
0003d0 0c 72 3d 3e 4b 51 97 bd 06 23 7f bd 13 64 77 3e
       0.18500537 -0.07388552 -0.06228926 0.24159269
0003e0 c6 3a 36 bd 96 7a 74 3e 9c 3f d8 bd 59 c3 5c 3e
       -0.044489644 0.23874888 -0.105590075 0.21558894
0003f0 b8 b6 06 3d 31 29 8e bd 08 ea a7 bc 48 37 03 3e
       0.032889098 -0.069414504 -0.020497337 0.12814057

bias f4 [300]
000000 74 64 57 3e f1 5d f1 3d 9f 16 25 3e 00 00 00 00
       0.21034414 0.11785496 0.1612191 0.0
000010 00 00 00 00 00 00 00 00 9f 92 39 3e 86 c7 8c bc
       0.0 0.0 0.18122338 -0.017184984
000020 19 6e 6c bc aa e4 31 3e 61 52 07 3e 00 bb 0a bc
       -0.014430546 0.17372385 0.13215019 -0.008467436
000030 00 00 00 00 1e 27 34 3e 53 86 0a 3e 33 e6 18 3e
       0.0 0.17593047 0.13527803 0.14931564
000040 1b e3 2f 3e 78 ae fe 3d b0 ea 1f 3e d0 0e 3d 3e
       0.17176478 0.12435621 0.1561687 0.18462682
000050 00 00 00 00 00 00 00 00 36 07 44 bc 00 00 00 00
       0.0 0.0 -0.01196461 0.0
000060 69 01 0c 3e 00 00 00 00 e7 cb 88 bc ac 9f 58 3e
       0.13672413 0.0 -0.01669879 0.2115466
000070 00 00 00 00 83 23 3a 3e 00 00 00 00 58 2e 25 3e
       0.0 0.18177609 0.0 0.1613096
000080 c8 b2 6f bc 00 00 00 00 33 1a 29 bc ef bd c4 bb
       -0.014630027 0.0 -0.010321188 -0.006004087
000090 80 6d 22 3e 47 ba 70 bc 83 8c ef bc 00 00 00 00
       0.15862083 -0.0146928495 -0.029241806 0.0
0000a0 b6 09 0b 3e 48 9b dd bb 96 ad 2a 3e b0 63 3a 3e
       0.13577923 -0.0067628957 0.1666778 0.1820209
0000b0 b7 0a 15 3e 00 00 00 00 72 c9 14 3e 71 dd 33 3e
       0.14554869 0.0 0.1452997 0.17564942
0000c0 62 6b 87 3e 1e 25 84 bc 28 2f 1e 3e 00 00 00 00
       0.26449114 -0.01613098 0.15447676 0.0
0000d0 00 00 00 00 44 27 2a 3e 0c ca f6 3d 30 81 07 bc
       0.0 0.16616541 0.12050256 -0.008270547
0000e0 6b 12 79 3e fe 2b 44 bc 00 00 00 00 00 00 00 00
       0.24323432 -0.011973379 0.0 0.0
0000f0 3f 0b 23 3e 92 d2 3b 3e 84 b3 16 bd ec fc 1b 3e
       0.15922259 0.18342045 -0.036792293 0.15233201
000100 0c 80 55 bc 00 00 00 00 00 00 00 00 00 00 00 00
       -0.013031017 0.0 0.0 0.0
000110 e6 75 0e 3e 25 81 0a bc 86 e2 01 3e b7 8d 8a bc
       0.13912162 -0.008453642 0.12684068 -0.016913278
000120 00 00 00 00 2c ec 2b 3e f8 5e 3e bd cd 43 2c 3e
       0.0 0.16789311 -0.046477288 0.16822739
000130 00 0b 0c 3e 5a 78 26 3e 00 00 00 00 00 00 00 00
       0.13676071 0.16256848 0.0 0.0
000140 35 0d a6 bc 9f 73 1d 3e 00 00 00 00 83 c1 63 3e
       -0.02026997 0.15376137 0.0 0.22241788
000150 a2 a8 38 3e 00 00 00 00 85 e7 0d bd 00 00 00 00
       0.18033078 0.0 -0.034644622 0.0
000160 00 00 00 00 cd 81 e7 3d 00 41 22 3e 00 00 00 00
       0.0 0.113040544 0.15845108 0.0
000170 0f 3d 5a bc 3b 10 3a 3e 70 38 49 bc 00 00 00 00
       -0.013320222 0.18170254 -0.012281522 0.0
000180 12 25 20 3e 00 00 00 00 58 06 f8 3d cc c8 7c bc
       0.15639141 0.0 0.12110585 -0.015428733
000190 00 00 00 00 00 00 00 00 00 00 00 00 00 00 00 00
       0.0 0.0 0.0 0.0
0001a0 f5 81 25 bd 00 00 00 00 c4 53 38 bc 83 c5 c4 bb
       -0.04040714 0.0 -0.01125044 -0.0060049905
0001b0 d6 d7 18 3e e9 b7 26 3e 34 91 79 3e ab 55 f2 3d
       0.14926085 0.16281094 0.24371797 0.11832746
0001c0 08 26 36 3e 00 00 00 00 00 00 00 00 ea 5e e9 3d
       0.17787945 0.0 0.0 0.113950565
0001d0 81 68 00 3e a5 40 91 bc c0 ba 6b bd 6a 74 52 bb
       0.12539865 -0.01773102 -0.057551146 -0.0032112845
0001e0 17 6e 3a 3e b3 27 9d 3e e0 99 d7 bc 46 19 26 3e
       0.18206058 0.3069435 -0.02631849 0.16220579
0001f0 00 00 00 00 d2 20 16 3e ef 06 18 3e 00 00 00 00
       0.0 0.14660957 0.14846395 0.0
000200 00 00 00 00 3a 7e 82 bc 00 00 00 00 b7 eb 87 bc
       0.0 -0.01592933 0.0 -0.01659189
000210 95 a8 79 bc b7 a9 06 3e 1c 18 34 3e 00 00 00 00
       -0.015237947 0.13150679 0.17587322 0.0
000220 3a 66 58 3e ff 43 27 3e 6b 21 1f 3e 36 6b 0a bc
       0.21132746 0.16334532 0.15540092 -0.008448413
000230 00 00 00 00 00 00 00 00 00 00 00 00 03 1e 11 3e
       0.0 0.0 0.0 0.14171605
000240 66 0d 63 bc f4 72 27 3e 00 00 00 00 98 7b a9 bc
       -0.013858175 0.16352445 0.0 -0.020688817
000250 cc a1 2f 3e 00 00 00 00 9c 95 fc 3d f1 5e 0f 3e
       0.17151564 0.0 0.12333223 0.14001061
000260 a8 b2 43 bc 37 5a 39 3e 00 00 00 00 e8 3a 32 3e
       -0.01194445 0.1810082 0.0 0.17405283
000270 00 00 00 00 5b c8 1c 3e b3 84 5c 3e c9 a4 24 3e
       0.0 0.15310805 0.21534996 0.16078486
000280 75 76 65 bc ce 66 5c 3c b6 50 00 3e e3 00 20 3e
       -0.014005293 0.013452245 0.12530789 0.15625338
000290 0d 5a 13 3e 35 4e 0d 3e 00 00 00 00 84 ea 18 3e
       0.1438982 0.13799365 0.0 0.1493321
0002a0 00 4a 8b 3e 00 00 00 00 00 00 00 00 bc 22 15 3e
       0.27204895 0.0 0.0 0.14564031
0002b0 00 00 00 00 00 00 00 00 ae 47 3a 3e 00 00 00 00
       0.0 0.0 0.18191406 0.0
0002c0 ae 6e 59 bc 00 00 00 00 30 c6 17 3e 81 64 1e 3e
       -0.013271017 0.0 0.14821696 0.15468027
0002d0 83 41 2a 3e 00 00 00 00 5d 78 44 3e eb cd 06 3e
       0.16626553 0.0 0.1918654 0.13164489
0002e0 a9 e2 54 3e be 93 0b bd 74 68 f6 3d 5b a9 05 3e
       0.20789589 -0.034076445 0.120316416 0.13052885
0002f0 20 a1 23 3e f9 dd ce bb 66 39 14 3e 4d a9 eb 3d
       0.15979433 -0.0063130823 0.14475021 0.11506901
000300 27 a8 07 3e 00 00 00 00 00 00 00 00 44 da 33 3e
       0.13247739 0.0 0.0 0.1756373
000310 f4 26 a8 3b 13 a8 02 3e bd 4d 2e 3e 00 00 00 00
       0.0051315967 0.12759428 0.17021842 0.0
000320 4b 4d 0e 3e 11 0e d4 3d 12 47 18 3e 00 00 00 00
       0.13896672 0.103542455 0.14870861 0.0
000330 2c 59 7d 3e 00 00 00 00 4e fe 17 3e 00 00 00 00
       0.24741048 0.0 0.14843103 0.0
000340 1f d3 75 3e 6e a8 22 3e 6d 56 e6 bc 84 c3 16 3e
       0.24006318 0.15884563 -0.028117383 0.14723021
000350 00 00 00 00 00 00 00 00 32 2c 5b 3e 0b 9c 2b 3e
       0.0 0.0 0.21403578 0.16758744
000360 99 08 43 bc 00 00 00 00 da fe 58 3e 49 7b 25 3e
       -0.011903905 0.0 0.21190968 0.16160311
000370 dc 4a 0e 3e 54 32 30 3e 06 ae 0b 3e 65 be c4 bb
       0.13895744 0.17206699 0.13640603 -0.006004142
000380 64 4a 2f 3e 00 00 00 00 4d f5 21 3e 00 00 00 00
       0.17118222 0.0 0.15816231 0.0
000390 00 00 00 00 ac 60 81 3e 00 00 00 00 d8 8f 2b 3e
       0.0 0.25269067 0.0 0.16754091
0003a0 43 42 ca bc 98 77 05 3e 00 00 00 00 49 22 1d 3e
       -0.0246898 0.13033903 0.0 0.1534511
0003b0 f5 75 29 3e 00 00 00 00 0e cb 21 3e 00 00 00 00
       0.16548903 0.0 0.15800115 0.0
0003c0 23 5c f9 3d 7b 60 0d bd 00 00 00 00 f1 a2 0a bc
       0.12175777 -0.03451584 0.0 -0.0084617
0003d0 0a 66 13 3e 00 00 00 00 00 00 00 00 46 b7 16 3e
       0.14394394 0.0 0.0 0.14718351
0003e0 00 00 00 00 46 b9 1f 3e 00 00 00 00 32 d8 1c 3e
       0.0 0.1559802 0.0 0.15316847
0003f0 5e b7 5c 3e 8c 11 29 bc 37 2f 73 3e 3e 52 47 bc
       0.21554324 -0.010319125 0.2374848 -0.012165604

weight f4 [8, 300]
000000 78 f5 97 3d 3a 22 e2 bd d8 cf 0c be 18 05 ba 3c
       0.07419866 -0.110416844 -0.13751161 0.022707507
000010 ca 3c 7c bd 73 0b 9f bd b6 24 cb bd e0 35 e6 bb
       -0.06158141 -0.07765856 -0.099191114 -0.0070254654
000020 26 49 cb bd ac 67 0a be c6 1f 9f 3d 8b 45 96 bd
       -0.09926061 -0.1351611 0.07769732 -0.07337483
000030 ed f3 e1 bd 22 62 1e bd 16 12 18 bd ac bf dd bd
       -0.11032853 -0.038667805 -0.037126623 -0.10827574
000040 f0 cd a4 3c 02 ce 0d bd e2 5f fe 3d 68 67 3e 3d
       0.02011773 -0.034620292 0.12420632 0.046485335
000050 9a 00 85 3d 20 c4 d3 3d 5a e4 44 bd 2c 03 d5 bc
       0.06494255 0.10340142 -0.048069336 -0.026002489
000060 90 77 02 bc c0 07 bd 3d 60 c7 1b bd 2b 44 aa bd
       -0.007963076 0.09229994 -0.038031936 -0.08313783
000070 5e 9b a0 bd 52 06 cb 3d 5c ee a9 bd 2a cd d4 bd
       -0.07842134 0.09913315 -0.082974166 -0.103906944
000080 89 df 01 3e 20 21 c9 bb 3c 57 32 3d 64 96 3e 3d
       0.12682928 -0.006137982 0.043540224 0.046530142
000090 b5 bb 0c 3e 80 1b 01 bd 6c 7d fc bd 40 5f 24 3c
       0.1374348 -0.031520367 -0.1232861 0.010032475
0000a0 82 0a d5 3d 1c 3c de bc da 05 e9 3d d0 20 43 bc
       0.10402395 -0.027128272 0.11378069 -0.011909679
0000b0 d2 34 ef 3d aa e3 a7 bd 10 27 00 bc b8 1e 5d bd
       0.116799966 -0.0819772 -0.007821813 -0.053984374
0000c0 60 69 57 bc b6 c0 ed bd 94 2e 98 3d 38 73 62 bd
       -0.013147682 -0.11609022 0.07430759 -0.055285662
0000d0 e9 67 02 be a8 f4 89 3c e4 83 9b bd 42 ce df 3d
       -0.12734951 0.016840294 -0.075935155 0.109280124
0000e0 42 95 00 be 00 5e 31 bc c0 e8 14 3c da 95 32 bd
       -0.12556937 -0.010825634 0.009088695 -0.04359994
0000f0 60 7e 3f bc 40 b4 20 bb c1 11 0e be 76 7e e7 bd
       -0.011687845 -0.00245215 -0.1387396 -0.113034174
000100 62 96 ce 3d e8 21 8f 3d 44 01 0b 3d d6 f0 fb bd
       0.10087277 0.06988889 0.033936754 -0.12301795
000110 fa b2 9e bd 0e d1 f0 3d 72 70 80 3d 20 3a b8 bb
       -0.07748981 0.11758624 0.06271447 -0.0056221634
000120 28 10 d1 bd 54 62 01 3d b4 32 ca bd e6 75 f7 bd
       -0.1020816 0.031587914 -0.09872952 -0.12083034
000130 5c 52 45 3d 14 7d 63 3d d0 e1 41 bc cd 24 e6 bd
       0.048174247 0.055539206 -0.011833623 -0.11237488
000140 c2 a1 4f bd a4 72 9a 3d ba d6 b0 bd 00 0e e6 3c
       -0.050691374 0.07541397 -0.08634706 0.028082848
000150 e0 4b d5 3d fe 34 a8 3d be cc 06 be 17 09 0a 3e
       0.10414863 0.082132325 -0.1316404 0.1348003
000160 4e 82 96 3d 57 d0 01 be 48 76 f5 bc dc 44 5d 3d
       0.073490724 -0.12677132 -0.029963627 0.054020748
000170 e1 26 0a 3e eb a6 01 3e ba 7c c6 bd b2 7d a1 3d
       0.13491394 0.1266133 -0.096917585 0.078853026
000180 0d b8 99 bd 20 ac 58 3d af f7 07 be 04 33 6c 3d
       -0.07505808 0.052898526 -0.13278078 0.05766584
000190 40 c0 b4 bb 04 5f 09 bd 74 a4 dc bd e8 73 53 3d
       -0.005516082 -0.03353788 -0.107735544 0.05162421
0001a0 64 fc 79 bd ca 22 c9 3d 6c f5 61 3d 72 ba 70 bd
       -0.061031714 0.098210886 0.055165693 -0.058771558
0001b0 80 22 af 3b 38 68 11 3d 56 51 d7 3d 97 b0 09 3e
       0.005344689 0.03549978 0.105135605 0.1344627
0001c0 3c cb 9b 3d d6 6f d5 3d 1a 79 97 3d 50 be c5 bd
       0.07607123 0.10421722 0.07396145 -0.0965544
0001d0 98 97 c2 bd fd 81 82 bd 48 8f 19 3d 7c f9 20 3d
       -0.095015705 -0.063724495 0.03749016 0.039300427
0001e0 c6 83 7d bd ad e2 85 bd 58 4c ac bd 00 e8 96 3a
       -0.061893247 -0.065373756 -0.08412999 0.0011513233
0001f0 ac 0d 13 3d 64 f3 3a 3d e2 96 a3 3d f4 94 dc bc
       0.03590171 0.04564227 0.07987763 -0.026926495
000200 40 c6 b5 bd 36 cd d6 bd dc 17 89 3d 4a 81 be 3d
       -0.08875704 -0.1048836 0.06694004 0.09302004
000210 8c 7c aa 3d 66 46 e1 3d ca ad 1c bd e4 86 33 3d
       0.08324537 0.109997556 -0.038251676 0.043829814
000220 8f 5e cc bd 70 d0 12 bc 58 78 f5 3c 82 98 35 bd
       -0.09978973 -0.008960828 0.029964611 -0.044334896
000230 50 f9 35 bd 50 2c 21 bc 94 6d 6d 3d 94 9e 37 3d
       -0.044427216 -0.009837225 0.05796583 0.044828966
000240 30 8e b9 3d f2 94 cf bd a9 d9 a0 bd c0 fd 6e bc
       0.09060323 -0.10135831 -0.078540154 -0.014586866
000250 62 93 00 be 5e 99 b9 3d f4 80 e0 3d e4 14 7c bd
       -0.12556222 0.090624556 0.10962096 -0.06154336
000260 87 36 0e 3e 22 9c e7 3d 44 b1 e3 bc bf e6 0e 3e
       0.13887988 0.11309077 -0.027794488 0.1395521
000270 cc 87 f7 bc 89 c8 f0 bd 5b 88 0e 3e d4 fc 10 bd
       -0.03021612 -0.11756999 0.13919203 -0.035397366
000280 e9 73 81 bd 42 d3 1a bd 50 37 06 bc 65 42 bb bd
       -0.06320936 -0.037799127 -0.008191898 -0.09143523
000290 aa fa e9 3d 60 73 9c 3c e8 62 0e 3d 16 e1 00 bd
       0.114247635 0.019097984 0.034762293 -0.03146466
0002a0 6a 57 f1 bd 38 29 b4 bd ff 64 d0 bd 10 e9 11 3c
       -0.11784251 -0.08796924 -0.101755135 0.008905664
0002b0 2d 18 0a 3e 68 8d 8e 3d e0 4f 71 3c d4 48 06 3d
       0.13485785 0.06960565 0.014728516 0.032784298
0002c0 02 ff c1 bd 9c 55 db bd ec f6 07 3d 0e 8a ad 3d
       -0.09472467 -0.10709688 0.033194467 0.084735975
0002d0 80 e1 02 be cc 70 37 3d 1d 43 8e bd 62 09 91 bd
       -0.12781334 0.044785306 -0.069463946 -0.07081868
0002e0 20 59 55 3d b0 5f 47 bc 54 a2 b7 bc 3a 49 e7 3d
       0.05208695 -0.01216881 -0.022416271 0.11293264
0002f0 c0 40 52 3d 02 47 e2 3d 46 b1 91 3d 3c 1d c5 bc
       0.05133128 0.110487 0.0711389 -0.024061792
000300 6b 0c c0 bd 8e c5 87 3d ea 0b bb 3d 0e 2e 1d bd
       -0.093773685 0.066294774 0.09133132 -0.038374
000310 ba 18 a2 bd f5 6c 90 bd ec 22 72 3d 1f 71 de bd
       -0.079148725 -0.07052032 0.059115335 -0.1086142
000320 b6 c2 07 be 73 4e a9 bd d1 af a4 bd 40 7c c4 3b
       -0.1325787 -0.08266916 -0.08041347 0.005996257
000330 a8 33 0a 3d b2 dc 2b bd de 7a 32 bd fc dc 03 be
       0.03374067 -0.04195852 -0.043574207 -0.12877268
000340 d0 64 07 3c d0 9d 1e bd 69 18 fd bd 34 ef c0 3d
       0.008263782 -0.03872472 -0.123581715 0.094206244
000350 8c a0 ab 3d 9c fc 9c bc cb 43 0e 3e 10 0f cd 3c
       0.08380231 -0.019163422 0.13893048 0.025031596
000360 05 3b 08 3e 7c cb d3 bd 64 0a 0a be 98 25 52 bd
       0.13303764 -0.10341546 -0.13480526 -0.051305383
000370 35 18 dc bd 47 3b 07 3e c2 63 f0 3d 0c e5 1e bd
       -0.107468046 0.13206206 0.11737777 -0.038792655
000380 9e 2d 8f 3d 40 c5 ab bd 00 3e b4 3c 14 28 48 3d
       0.06991123 -0.08387232 0.02200222 0.048866346
000390 6c 60 9e bd 24 98 a8 3d c2 16 bb 3d a0 23 e0 3d
       -0.07733235 0.082321435 0.091352 0.10944295
0003a0 b3 22 f1 bd fa a5 34 bd 03 c9 0a 3e b8 a2 2b bd
       -0.117741965 -0.0441036 0.13553242 -0.041903228
0003b0 70 11 65 bc 50 e6 49 bd 80 e1 3d bd 40 f5 8d bd
       -0.013981208 -0.04929191 -0.04635763 -0.06931543
0003c0 46 b8 b2 3d 26 17 d7 3d 98 11 a0 bd ca 6b 8e 3d
       0.087265536 0.10502462 -0.07815856 0.06954153
0003d0 1e 4a d7 3d 04 0d c7 bd 5d e1 8d bd 00 cc cd bd
       0.105121836 -0.097192794 -0.0692775 -0.100486755
0003e0 c4 2b 69 3d 01 d9 fe bd cc f0 75 3d 90 d3 db 3c
       0.056926504 -0.12443734 0.060044095 0.02683428
0003f0 78 23 3a 3d 35 17 fa bd d3 51 04 3e c8 e4 3c 3d
       0.045443982 -0.12211458 0.12921838 0.04611662

bias f4 [300]
000000 00 00 00 00 00 00 00 00 00 00 00 00 00 00 00 00
       0.0 0.0 0.0 0.0
000010 00 00 00 00 00 00 00 00 00 00 00 00 00 00 00 00
       0.0 0.0 0.0 0.0
000020 00 00 00 00 00 00 00 00 00 00 00 00 00 00 00 00
       0.0 0.0 0.0 0.0
000030 00 00 00 00 00 00 00 00 00 00 00 00 00 00 00 00
       0.0 0.0 0.0 0.0
000040 00 00 00 00 00 00 00 00 00 00 00 00 00 00 00 00
       0.0 0.0 0.0 0.0
000050 00 00 00 00 00 00 00 00 00 00 00 00 00 00 00 00
       0.0 0.0 0.0 0.0
000060 00 00 00 00 00 00 00 00 00 00 00 00 00 00 00 00
       0.0 0.0 0.0 0.0
000070 00 00 00 00 00 00 00 00 00 00 00 00 00 00 00 00
       0.0 0.0 0.0 0.0
000080 00 00 00 00 00 00 00 00 00 00 00 00 00 00 00 00
       0.0 0.0 0.0 0.0
000090 00 00 00 00 00 00 00 00 00 00 00 00 00 00 00 00
       0.0 0.0 0.0 0.0
0000a0 00 00 00 00 00 00 00 00 00 00 00 00 00 00 00 00
       0.0 0.0 0.0 0.0
0000b0 00 00 00 00 00 00 00 00 00 00 00 00 00 00 00 00
       0.0 0.0 0.0 0.0
0000c0 00 00 00 00 00 00 00 00 00 00 00 00 00 00 00 00
       0.0 0.0 0.0 0.0
0000d0 00 00 00 00 00 00 00 00 00 00 00 00 00 00 00 00
       0.0 0.0 0.0 0.0
0000e0 00 00 00 00 00 00 00 00 00 00 00 00 00 00 00 00
       0.0 0.0 0.0 0.0
0000f0 00 00 00 00 00 00 00 00 00 00 00 00 00 00 00 00
       0.0 0.0 0.0 0.0
000100 00 00 00 00 00 00 00 00 00 00 00 00 00 00 00 00
       0.0 0.0 0.0 0.0
000110 00 00 00 00 00 00 00 00 00 00 00 00 00 00 00 00
       0.0 0.0 0.0 0.0
000120 00 00 00 00 00 00 00 00 00 00 00 00 00 00 00 00
       0.0 0.0 0.0 0.0
000130 00 00 00 00 00 00 00 00 00 00 00 00 00 00 00 00
       0.0 0.0 0.0 0.0
000140 00 00 00 00 00 00 00 00 00 00 00 00 00 00 00 00
       0.0 0.0 0.0 0.0
000150 00 00 00 00 00 00 00 00 00 00 00 00 00 00 00 00
       0.0 0.0 0.0 0.0
000160 00 00 00 00 00 00 00 00 00 00 00 00 00 00 00 00
       0.0 0.0 0.0 0.0
000170 00 00 00 00 00 00 00 00 00 00 00 00 00 00 00 00
       0.0 0.0 0.0 0.0
000180 00 00 00 00 00 00 00 00 00 00 00 00 00 00 00 00
       0.0 0.0 0.0 0.0
000190 00 00 00 00 00 00 00 00 00 00 00 00 00 00 00 00
       0.0 0.0 0.0 0.0
0001a0 00 00 00 00 00 00 00 00 00 00 00 00 00 00 00 00
       0.0 0.0 0.0 0.0
0001b0 00 00 00 00 00 00 00 00 00 00 00 00 00 00 00 00
       0.0 0.0 0.0 0.0
0001c0 00 00 00 00 00 00 00 00 00 00 00 00 00 00 00 00
       0.0 0.0 0.0 0.0
0001d0 00 00 00 00 00 00 00 00 00 00 00 00 00 00 00 00
       0.0 0.0 0.0 0.0
0001e0 00 00 00 00 00 00 00 00 00 00 00 00 00 00 00 00
       0.0 0.0 0.0 0.0
0001f0 00 00 00 00 00 00 00 00 00 00 00 00 00 00 00 00
       0.0 0.0 0.0 0.0
000200 00 00 00 00 00 00 00 00 00 00 00 00 00 00 00 00
       0.0 0.0 0.0 0.0
000210 00 00 00 00 00 00 00 00 00 00 00 00 00 00 00 00
       0.0 0.0 0.0 0.0
000220 00 00 00 00 00 00 00 00 00 00 00 00 00 00 00 00
       0.0 0.0 0.0 0.0
000230 00 00 00 00 00 00 00 00 00 00 00 00 00 00 00 00
       0.0 0.0 0.0 0.0
000240 00 00 00 00 00 00 00 00 00 00 00 00 00 00 00 00
       0.0 0.0 0.0 0.0
000250 00 00 00 00 00 00 00 00 00 00 00 00 00 00 00 00
       0.0 0.0 0.0 0.0
000260 00 00 00 00 00 00 00 00 00 00 00 00 00 00 00 00
       0.0 0.0 0.0 0.0
000270 00 00 00 00 00 00 00 00 00 00 00 00 00 00 00 00
       0.0 0.0 0.0 0.0
000280 00 00 00 00 00 00 00 00 00 00 00 00 00 00 00 00
       0.0 0.0 0.0 0.0
000290 00 00 00 00 00 00 00 00 00 00 00 00 00 00 00 00
       0.0 0.0 0.0 0.0
0002a0 00 00 00 00 00 00 00 00 00 00 00 00 00 00 00 00
       0.0 0.0 0.0 0.0
0002b0 00 00 00 00 00 00 00 00 00 00 00 00 00 00 00 00
       0.0 0.0 0.0 0.0
0002c0 00 00 00 00 00 00 00 00 00 00 00 00 00 00 00 00
       0.0 0.0 0.0 0.0
0002d0 00 00 00 00 00 00 00 00 00 00 00 00 00 00 00 00
       0.0 0.0 0.0 0.0
0002e0 00 00 00 00 00 00 00 00 00 00 00 00 00 00 00 00
       0.0 0.0 0.0 0.0
0002f0 00 00 00 00 00 00 00 00 00 00 00 00 00 00 00 00
       0.0 0.0 0.0 0.0
000300 00 00 00 00 00 00 00 00 00 00 00 00 00 00 00 00
       0.0 0.0 0.0 0.0
000310 00 00 00 00 00 00 00 00 00 00 00 00 00 00 00 00
       0.0 0.0 0.0 0.0
000320 00 00 00 00 00 00 00 00 00 00 00 00 00 00 00 00
       0.0 0.0 0.0 0.0
000330 00 00 00 00 00 00 00 00 00 00 00 00 00 00 00 00
       0.0 0.0 0.0 0.0
000340 00 00 00 00 00 00 00 00 00 00 00 00 00 00 00 00
       0.0 0.0 0.0 0.0
000350 00 00 00 00 00 00 00 00 00 00 00 00 00 00 00 00
       0.0 0.0 0.0 0.0
000360 00 00 00 00 00 00 00 00 00 00 00 00 00 00 00 00
       0.0 0.0 0.0 0.0
000370 00 00 00 00 00 00 00 00 00 00 00 00 00 00 00 00
       0.0 0.0 0.0 0.0
000380 00 00 00 00 00 00 00 00 00 00 00 00 00 00 00 00
       0.0 0.0 0.0 0.0
000390 00 00 00 00 00 00 00 00 00 00 00 00 00 00 00 00
       0.0 0.0 0.0 0.0
0003a0 00 00 00 00 00 00 00 00 00 00 00 00 00 00 00 00
       0.0 0.0 0.0 0.0
0003b0 00 00 00 00 00 00 00 00 00 00 00 00 00 00 00 00
       0.0 0.0 0.0 0.0
0003c0 00 00 00 00 00 00 00 00 00 00 00 00 00 00 00 00
       0.0 0.0 0.0 0.0
0003d0 00 00 00 00 00 00 00 00 00 00 00 00 00 00 00 00
       0.0 0.0 0.0 0.0
0003e0 00 00 00 00 00 00 00 00 00 00 00 00 00 00 00 00
       0.0 0.0 0.0 0.0
0003f0 00 00 00 00 00 00 00 00 00 00 00 00 00 00 00 00
       0.0 0.0 0.0 0.0

weight f4 [8, 300]
000000 f4 5e 0b bd 1c 91 66 bd bc d3 e8 bd f6 b6 f5 bd
       -0.0340261 -0.05629073 -0.1136851 -0.11997788
000010 90 ca 15 bc bf fd 8c bd 54 fc e1 bc 20 60 ad 3b
       -0.009142533 -0.06884336 -0.02758614 0.005291
000020 c0 72 24 3d 44 81 11 bd f0 68 ed bd 30 fd 88 bc
       0.040148497 -0.035523668 -0.11592281 -0.016722292
000030 ae f2 92 3d ac 5a 9f bc b3 da 04 3e f0 ba 13 3c
       0.07175194 -0.019452415 0.12974052 0.009016737
000040 14 0d 88 bd 10 d3 41 3d fa ed e6 3d 3d ec 90 bd
       -0.066431195 0.047320426 0.11275859 -0.07076309
000050 32 5c c3 3d 4f 38 06 3e ac 1c f8 bd fe 55 bd 3d
       0.09539069 0.13107418 -0.12114844 0.09244917
000060 70 72 37 bd ea 2e af bd 22 c3 18 bd 74 a8 17 3d
       -0.04478687 -0.0855387 -0.03729547 0.037025884
000070 d8 10 8f 3c 17 bf 09 3e 64 0e 05 be f0 86 d1 3c
       0.017464086 0.13451801 -0.12993771 0.025577039
000080 9a 28 e6 3d 40 b7 4e 3d ae a3 ae bd 14 f3 90 3d
       0.11238213 0.05046773 -0.08527313 0.070776135
000090 8a 4e fa bd d4 0a 8f 3d 54 f2 60 bd 98 32 a5 3c
       -0.122220114 0.06984487 -0.054918602 0.020165727
0000a0 c0 d9 05 3d 42 3d 09 bd 28 81 39 bd 21 22 05 3e
       0.032678366 -0.033505686 -0.04528919 0.130013
0000b0 b0 bc 9d 3c 7a 85 4d bd 36 ed c0 3d 80 8e 16 3c
       0.019255012 -0.05017612 0.094202444 0.009189248
0000c0 50 cf 1d 3c 88 7c a8 3d c9 03 f1 bd 02 5d cc bd
       0.009631947 0.082268775 -0.117683 -0.09978677
0000d0 e9 9c 91 bd 42 d9 9a 3d 0a bc e5 3d b8 0f 4c bd
       -0.07110006 0.0756097 0.11217506 -0.049819678
0000e0 4a a0 f8 3d b5 c3 99 bd 77 63 ef bd fc cd 1c 3d
       0.12139948 -0.07508031 -0.11688893 0.03828238
0000f0 06 55 9d 3d b0 1a a9 bd 3e 02 11 bd cc 70 f1 bc
       0.076822326 -0.08257043 -0.03540253 -0.029472731
000100 60 ec 94 bc 5a 3c 38 bd 80 d2 3c bb 83 e6 f8 bd
       -0.018179119 -0.04497943 -0.0028811991 -0.121533416
000110 d8 ed 7e bd 56 07 9a 3d 40 11 60 bb 1c 1b b9 3d
       -0.062238544 0.075209305 -0.003418997 0.09038374
000120 60 96 bf 3c ac 1c 16 3d 00 a4 98 b9 a0 ba 8c 3c
       0.023387134 0.036648437 -0.0002911389 0.017178833
000130 72 77 a7 bd 82 05 9c bd 08 79 71 3d 8c 67 b8 3d
       -0.08177079 -0.07618238 0.058953315 0.09004125
000140 c0 a6 72 3c 78 c5 bd bc e0 24 4d 3c 84 4d d5 bd
       0.014810264 -0.02316545 0.012520999 -0.104151756
000150 00 70 88 b9 64 ea 55 bd bb d2 b4 bd 3a 37 f5 bd
       -0.00026023388 -0.052225485 -0.08829256 -0.11973424
000160 5c 5a fa bd f2 e9 0a be 21 af 08 3e a0 8a d6 bb
       -0.12224266 -0.13565806 0.13348056 -0.006547287
000170 9c 0c 45 3d 00 c2 b6 bc 98 55 76 3d 60 d7 38 bc
       0.04810773 -0.022309303 0.060140222 -0.011281818
000180 1a 51 96 bd 88 7e 06 be b6 82 96 bd 2c 12 52 3d
       -0.07339688 -0.13134205 -0.0734915 0.05128686
000190 24 bb aa bc fc 67 5f 3d 58 9d 44 3d 85 48 00 3e
       -0.020841189 0.054542527 0.048001617 0.12527664
0001a0 80 3d 52 bb f0 aa 68 bd 28 71 ad bc 22 71 dc 3d
       -0.0032080114 -0.056803644 -0.021172121 0.10763766
0001b0 7c 38 cb bd 2c 7d 4d bd 40 15 bf bd 3c 6d 9e 3d
       -0.09922883 -0.0501682 -0.09330225 0.077356786
0001c0 7c 30 9e bc e0 5c 04 bc bc b3 2b bd 80 60 a6 3a
       -0.019310229 -0.008078784 -0.041919455 0.0012693554
0001d0 cd 06 03 be f2 c4 f1 3d f5 34 cc bd e0 b3 c4 bb
       -0.12795563 0.118051425 -0.09971038 -0.006002888
0001e0 5a 94 89 3d a7 2a 98 bd 70 62 a3 bd c8 ad 24 3d
       0.06717749 -0.0743001 -0.0797776 0.040204793
0001f0 68 15 26 3d 80 ec f7 bd 0b f4 02 3e f8 10 b5 3d
       0.04054776 -0.12105656 0.12788408 0.08841127
000200 20 4e d7 bd ae b3 07 bd 5c a3 f4 bd 52 df c6 3d
       -0.10512948 -0.03313034 -0.11945221 0.09710564
000210 b0 68 bb bd 6a 9b 7d bd 90 45 1d 3c 0a cb ca 3d
       -0.09150827 -0.061915793 0.0095991045 0.09902008
000220 ea 2b e8 3d 1e eb a5 bd 76 7a 14 bd ce 81 04 be
       0.11336501 -0.08101486 -0.0362496 -0.12940142
000230 e7 91 83 bd 56 dd ea 3d c2 52 69 bd 90 ac f1 bd
       -0.06424313 0.11467998 -0.05696369 -0.11800492
000240 34 b7 76 3d 08 25 d5 3d 00 59 f4 3b 7d 71 a4 bd
       0.06023331 0.10407454 0.0074568987 -0.08029459
000250 d0 28 49 bc f6 4e 91 3d 0c 41 7d 3d d3 a6 b0 bd
       -0.012277797 0.07095139 0.06182961 -0.08625569
000260 20 dc 9c 3c 98 6c fe 3c b0 d8 51 bd 9e c3 c6 3d
       0.019147933 0.03105764 -0.05123204 0.0970528
000270 ae e4 f4 bd 1c ca f2 bd 38 a2 d9 3c 28 64 ee 3c
       -0.1195768 -0.118549556 0.02656661 0.029100493
000280 a0 4a bc 3b 50 ae 9b 3d 32 97 a3 bd 76 ba a8 bd
       0.0057462007 0.07601607 -0.079878226 -0.082386896
000290 ec c2 12 3d bd ba f1 bd 1e 53 f7 3d 5c 15 0a 3d
       0.035830423 -0.118031956 0.120764 0.033711776
0002a0 54 fd e0 bd 1a 86 1c bd c0 d1 95 bd cd 96 03 be
       -0.109858185 -0.038213827 -0.07315397 -0.12850495
0002b0 45 db dc bd 58 f0 c5 bd a0 1f f6 3c 18 54 9e 3d
       -0.1078401 -0.096649826 0.030044377 0.07730883
0002c0 ea 29 c8 bd 5a 2f 84 bd 94 c4 88 3d 84 ed 62 3d
       -0.097736195 -0.06454344 0.06678119 0.055402294
0002d0 a2 a8 b9 3d f0 13 e1 3d c1 a6 e3 bd 8c 73 ac bd
       0.09065367 0.10990131 -0.1111579 -0.08420476
0002e0 10 d7 59 bc 28 76 19 bd 1c 72 98 bc a9 61 0c be
       -0.013295904 -0.0374662 -0.0186091 -0.1370913
0002f0 3a 97 44 bd 06 24 70 bd da 2e bf 3d 40 fc e3 bc
       -0.047995783 -0.058628105 0.09335108 -0.027830243
000300 90 0c b6 3d 34 69 c5 bd 74 ef b2 bd 47 13 07 3e
       0.08889115 -0.096392065 -0.08737078 0.13190947
000310 76 35 04 be 31 e8 e1 bd e0 23 c4 bd e0 74 a0 3d
       -0.12911019 -0.11030615 -0.09577155 0.07834792
000320 d6 91 a4 bd 43 df ab bd dc 5f d4 bd de cb ae bd
       -0.080356285 -0.08392193 -0.10369846 -0.08534978
000330 7e 5f f0 3d db b9 a7 bd 2a 10 a4 3d 0a e0 c0 3d
       0.11736964 -0.08189746 0.080108956 0.09417732
000340 70 b0 5b 3c d8 34 f7 3c 8f 1c 0a 3e 66 1a 56 bd
       0.013408765 0.030176565 0.13487457 -0.05227127
000350 30 83 e3 bd 20 de 97 3d d0 da 9f 3c 3a 7a a3 bd
       -0.111090064 0.07415414 0.019513518 -0.07982297
000360 f4 66 46 bd 20 52 ed 3b 96 00 07 be 86 79 58 bd
       -0.048438028 0.007242456 -0.13183817 -0.05285027
000370 22 f3 aa 3d 8e f0 b1 3d 2e dd f5 bd 7a 3d ca 3d
       0.08347155 0.0868846 -0.12005077 0.09875007
000380 a0 7e 1a bc cc 2e 81 3d 1c 5a 8b bc 58 e7 7c 3d
       -0.009429604 0.06307754 -0.017010741 0.061744064
000390 d4 55 b9 3d 1e 21 ce bd e6 d1 9f 3d 5e 84 7b bd
       0.090495735 -0.1006491 0.07803707 -0.061405532
0003a0 a1 c0 0e 3e 66 ed 8f 3d ae 93 89 3d 40 03 65 bc
       0.1394067 0.07027702 0.06717621 -0.013977826
0003b0 e8 c5 b3 bc 98 55 aa 3c 45 de d8 bd aa b7 06 bd
       -0.021944955 0.020792767 -0.105892695 -0.03289
0003c0 e7 27 a2 bd 2d 13 0c 3e ea f2 89 3d 86 b8 98 3d
       -0.07917767 0.1367919 0.06735785 0.0745707
0003d0 21 86 84 bd ef 35 07 be c1 7d 06 3e 58 f2 0f 3d
       -0.064708956 -0.13204168 0.13133909 0.035143226
0003e0 30 cb db bd 2c bc 07 be 90 25 67 bd a5 67 9b bd
       -0.10732114 -0.13255376 -0.056432307 -0.07588128
0003f0 a2 9f c2 3d 28 68 91 3d 88 cf 31 3d b8 2d ab bc
       0.09503104 0.07099944 0.043410808 -0.020895824

bias f4 [300]
000000 00 00 00 00 00 00 00 00 00 00 00 00 00 00 00 00
       0.0 0.0 0.0 0.0
000010 00 00 00 00 00 00 00 00 00 00 00 00 00 00 00 00
       0.0 0.0 0.0 0.0
000020 00 00 00 00 00 00 00 00 00 00 00 00 00 00 00 00
       0.0 0.0 0.0 0.0
000030 00 00 00 00 00 00 00 00 00 00 00 00 00 00 00 00
       0.0 0.0 0.0 0.0
000040 00 00 00 00 00 00 00 00 00 00 00 00 00 00 00 00
       0.0 0.0 0.0 0.0
000050 00 00 00 00 00 00 00 00 00 00 00 00 00 00 00 00
       0.0 0.0 0.0 0.0
000060 00 00 00 00 00 00 00 00 00 00 00 00 00 00 00 00
       0.0 0.0 0.0 0.0
000070 00 00 00 00 00 00 00 00 00 00 00 00 00 00 00 00
       0.0 0.0 0.0 0.0
000080 00 00 00 00 00 00 00 00 00 00 00 00 00 00 00 00
       0.0 0.0 0.0 0.0
000090 00 00 00 00 00 00 00 00 00 00 00 00 00 00 00 00
       0.0 0.0 0.0 0.0
0000a0 00 00 00 00 00 00 00 00 00 00 00 00 00 00 00 00
       0.0 0.0 0.0 0.0
0000b0 00 00 00 00 00 00 00 00 00 00 00 00 00 00 00 00
       0.0 0.0 0.0 0.0
0000c0 00 00 00 00 00 00 00 00 00 00 00 00 00 00 00 00
       0.0 0.0 0.0 0.0
0000d0 00 00 00 00 00 00 00 00 00 00 00 00 00 00 00 00
       0.0 0.0 0.0 0.0
0000e0 00 00 00 00 00 00 00 00 00 00 00 00 00 00 00 00
       0.0 0.0 0.0 0.0
0000f0 00 00 00 00 00 00 00 00 00 00 00 00 00 00 00 00
       0.0 0.0 0.0 0.0
000100 00 00 00 00 00 00 00 00 00 00 00 00 00 00 00 00
       0.0 0.0 0.0 0.0
000110 00 00 00 00 00 00 00 00 00 00 00 00 00 00 00 00
       0.0 0.0 0.0 0.0
000120 00 00 00 00 00 00 00 00 00 00 00 00 00 00 00 00
       0.0 0.0 0.0 0.0
000130 00 00 00 00 00 00 00 00 00 00 00 00 00 00 00 00
       0.0 0.0 0.0 0.0
000140 00 00 00 00 00 00 00 00 00 00 00 00 00 00 00 00
       0.0 0.0 0.0 0.0
000150 00 00 00 00 00 00 00 00 00 00 00 00 00 00 00 00
       0.0 0.0 0.0 0.0
000160 00 00 00 00 00 00 00 00 00 00 00 00 00 00 00 00
       0.0 0.0 0.0 0.0
000170 00 00 00 00 00 00 00 00 00 00 00 00 00 00 00 00
       0.0 0.0 0.0 0.0
000180 00 00 00 00 00 00 00 00 00 00 00 00 00 00 00 00
       0.0 0.0 0.0 0.0
000190 00 00 00 00 00 00 00 00 00 00 00 00 00 00 00 00
       0.0 0.0 0.0 0.0
0001a0 00 00 00 00 00 00 00 00 00 00 00 00 00 00 00 00
       0.0 0.0 0.0 0.0
0001b0 00 00 00 00 00 00 00 00 00 00 00 00 00 00 00 00
       0.0 0.0 0.0 0.0
0001c0 00 00 00 00 00 00 00 00 00 00 00 00 00 00 00 00
       0.0 0.0 0.0 0.0
0001d0 00 00 00 00 00 00 00 00 00 00 00 00 00 00 00 00
       0.0 0.0 0.0 0.0
0001e0 00 00 00 00 00 00 00 00 00 00 00 00 00 00 00 00
       0.0 0.0 0.0 0.0
0001f0 00 00 00 00 00 00 00 00 00 00 00 00 00 00 00 00
       0.0 0.0 0.0 0.0
000200 00 00 00 00 00 00 00 00 00 00 00 00 00 00 00 00
       0.0 0.0 0.0 0.0
000210 00 00 00 00 00 00 00 00 00 00 00 00 00 00 00 00
       0.0 0.0 0.0 0.0
000220 00 00 00 00 00 00 00 00 00 00 00 00 00 00 00 00
       0.0 0.0 0.0 0.0
000230 00 00 00 00 00 00 00 00 00 00 00 00 00 00 00 00
       0.0 0.0 0.0 0.0
000240 00 00 00 00 00 00 00 00 00 00 00 00 00 00 00 00
       0.0 0.0 0.0 0.0
000250 00 00 00 00 00 00 00 00 00 00 00 00 00 00 00 00
       0.0 0.0 0.0 0.0
000260 00 00 00 00 00 00 00 00 00 00 00 00 00 00 00 00
       0.0 0.0 0.0 0.0
000270 00 00 00 00 00 00 00 00 00 00 00 00 00 00 00 00
       0.0 0.0 0.0 0.0
000280 00 00 00 00 00 00 00 00 00 00 00 00 00 00 00 00
       0.0 0.0 0.0 0.0
000290 00 00 00 00 00 00 00 00 00 00 00 00 00 00 00 00
       0.0 0.0 0.0 0.0
0002a0 00 00 00 00 00 00 00 00 00 00 00 00 00 00 00 00
       0.0 0.0 0.0 0.0
0002b0 00 00 00 00 00 00 00 00 00 00 00 00 00 00 00 00
       0.0 0.0 0.0 0.0
0002c0 00 00 00 00 00 00 00 00 00 00 00 00 00 00 00 00
       0.0 0.0 0.0 0.0
0002d0 00 00 00 00 00 00 00 00 00 00 00 00 00 00 00 00
       0.0 0.0 0.0 0.0
0002e0 00 00 00 00 00 00 00 00 00 00 00 00 00 00 00 00
       0.0 0.0 0.0 0.0
0002f0 00 00 00 00 00 00 00 00 00 00 00 00 00 00 00 00
       0.0 0.0 0.0 0.0
000300 00 00 00 00 00 00 00 00 00 00 00 00 00 00 00 00
       0.0 0.0 0.0 0.0
000310 00 00 00 00 00 00 00 00 00 00 00 00 00 00 00 00
       0.0 0.0 0.0 0.0
000320 00 00 00 00 00 00 00 00 00 00 00 00 00 00 00 00
       0.0 0.0 0.0 0.0
000330 00 00 00 00 00 00 00 00 00 00 00 00 00 00 00 00
       0.0 0.0 0.0 0.0
000340 00 00 00 00 00 00 00 00 00 00 00 00 00 00 00 00
       0.0 0.0 0.0 0.0
000350 00 00 00 00 00 00 00 00 00 00 00 00 00 00 00 00
       0.0 0.0 0.0 0.0
000360 00 00 00 00 00 00 00 00 00 00 00 00 00 00 00 00
       0.0 0.0 0.0 0.0
000370 00 00 00 00 00 00 00 00 00 00 00 00 00 00 00 00
       0.0 0.0 0.0 0.0
000380 00 00 00 00 00 00 00 00 00 00 00 00 00 00 00 00
       0.0 0.0 0.0 0.0
000390 00 00 00 00 00 00 00 00 00 00 00 00 00 00 00 00
       0.0 0.0 0.0 0.0
0003a0 00 00 00 00 00 00 00 00 00 00 00 00 00 00 00 00
       0.0 0.0 0.0 0.0
0003b0 00 00 00 00 00 00 00 00 00 00 00 00 00 00 00 00
       0.0 0.0 0.0 0.0
0003c0 00 00 00 00 00 00 00 00 00 00 00 00 00 00 00 00
       0.0 0.0 0.0 0.0
0003d0 00 00 00 00 00 00 00 00 00 00 00 00 00 00 00 00
       0.0 0.0 0.0 0.0
0003e0 00 00 00 00 00 00 00 00 00 00 00 00 00 00 00 00
       0.0 0.0 0.0 0.0
0003f0 00 00 00 00 00 00 00 00 00 00 00 00 00 00 00 00
       0.0 0.0 0.0 0.0

weight f4 [300, 5]
000000 aa 35 01 3e 34 0d a4 3d e8 af e4 3d f3 d4 2b be
       0.12618127 0.08010331 0.11166364 -0.16780452
000010 91 47 7b be d7 c4 fb 3d c6 63 34 be 95 99 71 be
       -0.24539019 0.122934036 -0.17616186 -0.23593743
000020 ff d9 58 3e 9b 49 ec 3d 80 5a 50 3e 04 2a 51 bd
       0.21176909 0.11537477 0.20347023 -0.05106546
000030 bb dc 48 bd ef ee 5d bd f7 0d 0b 3e c0 ca 5c 3c
       -0.04903863 -0.054182943 0.13579546 0.013476074
000040 9a c7 fa 3d 03 c5 d4 bd e9 b1 f1 bd 76 a7 d6 3d
       0.12245102 -0.103891395 -0.11801512 0.104811594
000050 06 8e d6 3d 2b 05 0a 3e 2a 31 fd bd e0 99 35 bc
       0.104763076 0.13478534 -0.12362893 -0.01108405
000060 4a 56 9c 3d 68 66 c4 bc 57 21 e6 bd e8 ec cf bc
       0.07633646 -0.023974612 -0.11236828 -0.02538152
000070 0b 7e 94 bd 04 02 ed bd c4 01 82 3d 86 95 b0 3d
       -0.07250603 -0.1157265 0.06347993 0.08622269
000080 4a c4 59 be 8f ed 0e 3e e7 a1 24 be de b7 aa 3d
       -0.21266285 0.13957809 -0.16077386 0.08335851
000090 ee c4 82 3d 87 5c 05 3e a8 07 50 3d e2 8b a4 3d
       0.063852176 0.13023578 0.05078855 0.08034493
0000a0 72 cd 01 be e8 35 eb bc c7 9f 12 be a8 97 bd bd
       -0.12676027 -0.028712228 -0.14318763 -0.09257442
0000b0 94 5e d9 3b eb b3 92 3d 6a db d8 bd d1 2c 91 bd
       0.006633589 0.07163223 -0.10588725 -0.07088626
0000c0 2a 89 29 3d a8 a3 32 bd 6a 53 91 3d f9 0f da bd
       0.041390575 -0.043613106 0.07095988 -0.10647578
0000d0 e3 b0 28 be 15 89 d8 3d 2e a3 f3 3d c0 cc 3a 3c
       -0.16473727 0.10573021 0.118963584 0.011401355
0000e0 5e ea a8 bd 56 29 8c 3d 48 65 83 3c 68 67 52 3d
       -0.08247827 0.06843822 0.016039506 0.051368147
0000f0 60 b5 56 3c 58 e6 cd bd 44 48 8a 3d 3a 15 8d 3d
       0.013104767 -0.100537 0.06752065 0.06888814
000100 b0 fc 48 3d 25 02 89 3d ba 71 c9 bd 74 b1 2f be
       0.049069107 0.06689862 -0.09836145 -0.17157537
000110 08 3a f1 bb 0f 7b ab 3d d0 04 8f 3c 26 22 22 bc
       -0.007361654 0.08373081 0.01745835 -0.009895837
000120 ab f5 44 be 0b 46 1e 3e 7a 7d 90 3d 28 14 ce 3d
       -0.1923434 0.15456407 0.07055183 0.10062438
000130 99 63 cb bd aa 92 26 be cb 8d 00 3e 8f 48 8f bd
       -0.09931106 -0.16266885 0.1255409 -0.06996261
000140 c9 ab f9 3d b8 c7 ba bd 06 67 22 be 8b 44 0b 3e
       0.121909685 -0.091201246 -0.15859613 0.13600366
000150 58 9b 3b 3d a7 6f d6 bc 6e 63 7d 3d c4 02 46 3a
       0.045802444 -0.026176287 0.0618624 0.00075535127
000160 d0 c4 4a 3e 08 26 20 3e 58 4c 01 3e 15 17 68 be
       0.1980164 0.15639508 0.12626779 -0.22665055
000170 41 49 ec bd 00 cd be 3c 7a 3d 41 3e 40 af 4b 3e
       -0.115374096 0.023291111 0.18871108 0.19891071
000180 6b fa 40 be 69 24 9f bd f0 4e 09 3e 95 c5 c0 bc
       -0.18845527 -0.077706166 0.13409019 -0.023531714
000190 34 0d 8f bc 80 d1 93 3c 5e 29 e1 3d 18 ce b9 3c
       -0.01746235 0.018044233 0.10994218 0.022681281
0001a0 c6 d7 74 bd 83 18 0b be 15 41 c5 bd 80 9f c5 3a
       -0.05977609 -0.13583569 -0.09631554 0.0015077442
0001b0 e0 24 57 bc fa b8 62 bd 61 77 08 3e 90 8e 1d bc
       -0.01313135 -0.05535219 0.1332679 -0.009616509
0001c0 c8 2a d8 bd 92 70 da 3d 30 07 be bc 4e ee fb 3d
       -0.10555035 0.10666002 -0.023196787 0.123013124
0001d0 d4 c5 98 3d 9c ec cd bd a0 3d 3c 3d 42 1b 24 bd
       0.07459608 -0.10054895 0.045957208 -0.040065058
0001e0 57 80 ab 3c 3e a9 16 be 80 19 2b be 32 35 1e 3e
       0.02093522 -0.14712998 -0.16708946 0.1544998
0001f0 cf 8c f0 3c 0a 56 3e bd c0 9d 5a bb 8f 56 8a bd
       0.029364018 -0.046468772 -0.0033358186 -0.06754791
000200 dc 71 5a bd 44 f2 89 3d 8c 96 8a bd 45 18 e9 bd
       -0.05333124 0.067356616 -0.06766996 -0.11381582
000210 ef 79 e5 bd 37 fd de bd 80 c6 00 bd d8 af fc bc
       -0.112048976 -0.10888141 -0.031439304 -0.030845568
000220 4d 52 ea 3d 1f d9 09 be ed bf 1d be 44 17 76 be
       0.11441479 -0.13461731 -0.15405245 -0.24032313
000230 be 0f b4 3d 7a 32 9a 3d 42 a0 0b be a0 2a e8 bc
       0.08792065 0.07529159 -0.13635352 -0.028340638
000240 3e ae 44 bd 44 a2 fc bc 56 d3 06 3e f6 e6 34 3c
       -0.048017733 -0.030839093 0.13166556 0.0110413935
000250 01 a6 5b 3d f5 20 d9 bd 50 15 7a 3c 0c 0c 10 bd
       0.05362511 -0.10601989 0.01526387 -0.03516774
000260 18 16 be 3d d3 8f 9e bd e0 b5 e9 3c 25 0e be 3d
       0.09281558 -0.07742276 0.028529108 0.092800416
000270 cd d6 ab 3d 08 ff 64 be ee 4a 46 3d 07 14 0d be
       0.083905794 -0.22362912 0.048411302 -0.13777171
000280 0b 5b e9 bd f5 b0 96 bd 3a 5e ff 3d 1a 3d f7 bd
       -0.11394318 -0.073579706 0.12469144 -0.12072201
000290 67 5d 06 be 36 d3 fc bd a3 51 9e bd 80 08 50 bd
       -0.13121568 -0.12344973 -0.07730415 -0.050789356
0002a0 d0 8b 53 3d 48 60 c4 bc a0 aa d9 bb 58 a3 c4 3c
       0.051647007 -0.023971692 -0.0066426545 0.02400367
0002b0 1b ec 84 bd e7 1e 0f be 9c 79 2a 3d 7a 5c e4 bd
       -0.06490346 -0.13976632 0.041619882 -0.11150451
0002c0 24 c8 cd 3d 4e 9f 86 3d 0a b3 a5 3d 00 12 b3 bc
       0.100479394 0.06573354 0.080907896 -0.021859169
0002d0 50 b2 36 3e a8 3a 20 be 74 9b d9 bd 2a 80 d0 3d
       0.17841458 -0.15647376 -0.106253535 0.10180695
0002e0 e2 b0 b9 bd 90 7a 2e 3c 68 dd 97 bd 90 0d 4b 3d
       -0.09066941 0.010649338 -0.07415277 0.04957348
0002f0 90 34 35 3c a0 38 d0 3d 52 a7 c5 bd dc 35 b8 3d
       0.011059895 0.1016705 -0.096510544 0.08994648
000300 61 69 94 3d 22 35 97 bd 5a 1f e2 3c a2 6d db 3d
       0.07246662 -0.07383181 0.02760284 0.1071427
000310 52 98 e1 3d 54 91 32 3d a2 50 b9 3d a0 3f 0f 3d
       0.11015381 0.043595627 0.090485826 0.034972787
000320 b8 e9 2d bd 7b 4b 1e 3d 2a 16 57 bd c1 8b 3f 3e
       -0.04245922 0.038646203 -0.05251137 0.18705656
000330 8b 46 00 3e e7 e5 03 be 36 1a dd 3d 7e 38 f7 3d
       0.1252691 -0.1288067 0.10796015 0.12071322
000340 6e 56 5d bd f2 86 ac bd dd 6a 23 3e 54 e2 85 bc
       -0.054037504 -0.08424176 0.15958734 -0.016343273
000350 14 09 f8 bd 0e 0a f2 3d 34 62 71 bd 43 40 63 3e
       -0.121111065 0.11818324 -0.058931544 0.22192483
000360 f9 6b ed bc 00 3b 12 be 02 ec 7c bd 18 b8 1e 3e
       -0.02898215 -0.14280319 -0.061748512 0.15499914
000370 db d4 dc 3d 20 46 59 3d 46 74 32 be b2 49 f9 3d
       0.107827865 0.053045392 -0.17427167 0.121722594
000380 59 12 cd 3c d6 2b e1 bd c0 21 ab bd a8 a4 04 be
       0.025033163 -0.10994689 -0.08356047 -0.12953436
000390 b8 7d df 3d 4e 6d d3 3d 22 41 36 3d 1c a0 1c bd
       0.10912651 0.103235826 0.04449571 -0.03823863
0003a0 a8 cc ec bd b8 7e 3d 3e 3b a6 22 3e 3b e4 70 3d
       -0.115624726 0.1850537 0.15883724 0.058811408
0003b0 d7 13 68 be 8b d9 42 be b8 53 a6 3d f1 47 9b 3c
       -0.22663818 -0.19028299 0.08121437 0.018955203
0003c0 cc da 9f 3d 63 eb 89 3e 06 23 b4 ba 4c cc 6a be
       0.07805404 0.26937398 -0.0013743348 -0.22929496
0003d0 d0 e7 1b be b9 33 d0 ba 73 32 0d be 6a 19 e6 bb
       -0.15225148 -0.0015884555 -0.13788776 -0.0070220726
0003e0 11 fe e3 bd f5 56 eb 3c a9 26 46 3d 5e 76 6e 3d
       -0.11132444 0.028727988 0.048376713 0.058218352
0003f0 49 d9 e9 bd e2 a7 d6 3d b4 0a d7 bd b0 c2 04 3c
       -0.11418397 0.1048124 -0.10500088 0.008103058

bias f4 [5]
000000 74 24 23 3e 0c 12 fe bd 77 94 17 be b3 01 ed 3d
       0.15931875 -0.12405786 -0.14802729 0.1157259
000010 bc 0b de 3d
       0.10842082
