Models/GNNs/Oryx2/model_RGCN_300_samples_100_epochs.pth (torch, 10880 bytes, 14 tensors)

weight f4 [8, 10]
00000000: c420 bebe 49ee 243e bd95 b43e 2bfd b53d
00000010: cefd 4f3f ec05 2d3e e8c4 12bf 78d5 07bf
00000020: 016f e73e e02e f3bd bd2e 533e c249 123f
00000030: 3ecc d8be 6602 393f 81a5 283f f14d 623f
00000040: 1db0 423f a738 96be 7c61 10bf def3 293f
00000050: 0b61 aebe 5b05 a63e 2648 193f eb0e ed3e
00000060: 9f12 a7bd 627c 513e 92b9 473f d30b 0e3d
00000070: 49a4 f43e 44cc 463e b61f 843d 9e5d 3d3f
00000080: a767 aabe d84c 233f ee72 4a3e 9675 983e
00000090: 0ef3 973e 440b c53e bc27 38be cd55 583f
000000a0: b17d a6be 2787 c7be dad6 d13e 90db eb3e
000000b0: e89f 953e e09b 553e e759 babe 8e13 a83e
000000c0: 50f6 98bd 2cf3 303e 9239 efbe ae5a 98be
000000d0: 9253 4cbe 0086 22bb 4867 f73d 2ca4 d5be
000000e0: 9509 f3be 40ca 7dbd 0ccb 963e c0ce b7bc
000000f0: 4924 11bf b4e6 0b3f e8cf ea3e 0038 56bc
00000100: 426b ecbe 2c42 093f b49e 093f c0d0 f03e
00000110: f276 84be f08d ea3d f0c8 7a3e f876 d8be
00000120: 961f 133f c699 9abe acdd 0a3f c40c 4f3e
00000130: 081b 38be 52a3 8b3e 8024 ae3b 34f0 ea3e
-0.37134373 0.16106524 0.3527049 0.088861786 0.8124665 0.1689679 -0.57331705 -0.530601
0.45201877 -0.11874175 0.20623298 0.57143795 -0.42343324 0.72269285 0.6587754 0.8840018
0.7604998 -0.29340097 -0.5639875 0.66387737 -0.34058413 0.3242596 0.59875715 0.46300444
-0.081578486 0.20457605 0.7801753 0.034679245 0.4778159 0.19413859 0.06451361 0.73970973
-0.33282205 0.6378913 0.19770405 0.2977721 0.29677624 0.38485157 -0.17983907 0.8450592
-0.3251777 -0.389703 0.4098423 0.4606595 0.2922356 0.20860243 -0.36396715 0.3282742
-0.074688554 0.17280263 -0.4672361 -0.29756683 -0.19953755 -0.0024799109 0.12080246 -0.41726816
-0.47468248 -0.06196046 0.29451787 -0.022437453 -0.5669599 0.546489 0.45861745 -0.013074875
-0.4617558 0.53616595 0.53757787 0.47034264 -0.25871998 0.11452854 0.24490714 -0.42278266
0.5747007 -0.30195445 0.54244494 0.20219713 -0.17979062 0.2727304 0.0053144097 0.45886385

bias f4 [10]
00000000: 0b30 ee3d e299 853e c5b5 a03e 5ab1 d93e
00000010: 38af bc3e 1e93 b73e 969a 9d3e 8056 debc
00000020: 17db 31bd 6f75 913e
0.11630257 0.26093966 0.3138868 0.4251812 0.3685243 0.3585443 0.30782002 -0.027140856
-0.04342183 0.28409907

weight f4 [8, 10]
00000000: 1022 803e 0a79 8ebe cc65 4a3e 1a84 03bf
00000010: 2c63 e03e 5ca8 6c3e 80e3 813c e6aa b03e
00000020: c844 90be 906e 01be e287 3cbe c660 963e
00000030: 00fb 47be 766e b13e 0c12 363e 6cb5 743e
00000040: dafd bb3e 985a ecbd c8b7 a13d f5d3 05bf
00000050: b497 b83e 5006 b7bd a88d ca3d 8a73 8f3e
00000060: 35be edbe e487 0b3e fc7f dbbd 7c6f 293e
00000070: 7438 933e 80a9 103f 0824 4d3e 9c21 853e
00000080: b0fe df3e 069f 1cbe 6806 7e3e 6cf8 e4be
00000090: 8526 88be 51d0 b2be 20d6 02bd f040 fc3e
000000a0: 1639 dbbe 3d1a 90be c0fd 793e ec1e 2fbe
000000b0: 004e 623c 46d2 093f 30a9 39be 195d febe
000000c0: 481a b13e 3647 8c3e c061 f6bc 7840 d83d
000000d0: 1a4f 053f b805 fa3e b46e c7be a89f afbe
000000e0: ceae ab3e acef 78be 3094 3a3e 804e 3ebd
000000f0: 70fe 913d d649 123f 2883 e63e bcd6 de3e
00000100: fcc3 3a3e 185d 0fbe 04be 893e ee70 1abe
00000110: 7884 abbe 882e 033f 208a 05bf ddc2 02bf
00000120: 9667 9f3e 7025 5bbd 7b8a 09bf 35d0 fdbe
00000130: 6bf3 d9be 6076 523e 5ece a83e 562f 023f
0.25025988 -0.2782672 0.19765395 -0.51373446 0.43825662 0.23111099 0.01585555 0.34505385
-0.28177476 -0.12639832 -0.1841121 0.29370707 -0.19529343 0.34654588 0.17780322 0.23897332
0.3671711 -0.11540717 0.078963816 -0.52276546 0.3605324 -0.08936751 0.098903 0.28017837
-0.4643418 0.13626057 -0.107177705 0.16546434 0.28754008 0.56508636 0.20033276 0.26002204
0.43749 -0.15295038 0.24807131 -0.4472078 -0.26591888 -0.34924558 -0.031942487 0.49268293
-0.4281699 -0.28145018 0.24413204 -0.1710164 0.013812542 0.53836477 -0.18130946 -0.49680403
0.34590364 0.2739808 -0.030075908 0.105591714 0.52073824 0.48832488 -0.38951647 -0.34301496
0.33531803 -0.24310178 0.18220592 -0.046461582 0.07128608 0.57143915 0.4502194 0.43523204
0.18238825 -0.14000356 0.26902783 -0.15082142 -0.33499503 0.51242876 -0.5216389 -0.5107859
0.31133717 -0.0535025 -0.5372693 -0.49572912 -0.42568526 0.20552969 0.32969946 0.5085348

bias f4 [10]
00000000: 0000 0000 0000 0000 0000 0000 0000 0000
00000010: 0000 0000 0000 0000 0000 0000 0000 0000
00000020: 0000 0000 0000 0000
0.0 0.0 0.0 0.0 0.0 0.0 0.0 0.0
0.0 0.0

weight f4 [8, 10]
00000000: ecf7 ed3e 7808 cf3e 1822 ddbd ba2b a63e
00000010: 0018 aabb 1cce f23e e6aa a7be 1c10 77be
00000020: 0839 fcbe 285b f23e 217a 8bbe 380a 923d
00000030: 0080 473e e815 a73d e4db 493e e452 d4bd
00000040: a2cd 00bf fc3e 98be 3ccf 4bbe 84e7 d93e
00000050: 3b0f b4be 3019 1b3d e0b4 50bd fa76 a0be
00000060: 54eb 9d3e 6079 6cbe 8a97 a7be eeab 923e
00000070: 15d1 0dbf 4060 723e fcb7 39be a823 0d3f
00000080: 121e 073f d066 e93e 7428 4b3e 683b 2dbe
00000090: 5863 eb3e c492 5ebe 80e8 043f 36f5 a23e
000000a0: e6a0 fcbe 64f8 563e cacc 6dbe 8ab6 bc3e
000000b0: 40cf 31bc 60b1 ab3e f404 023f 96bd 88be
000000c0: 2890 5ebe 7009 ffbd 525b bbbe 68bd b33e
000000d0: 8c2a 4a3e 3417 b2be 3eb0 ba3e 6517 07bf
000000e0: 4085 b0be 0017 3e3c d437 a33e a805 e63d
000000f0: 5427 083f 00c0 64b9 8475 013f a82e 883d
00000100: aa61 cbbe 7466 a23e 504d 9ebd 8094 29bd
00000110: 7451 e9bd 6404 353e 6047 fe3d 4feb d9be
00000120: 84b0 0cbf 4012 7a3c dbb1 83be 2c95 b93e
00000130: 0000 013a 9965 82be cee0 30be 4089 af3d
0.46478212 0.4043615 -0.107975185 0.32455236 -0.0051908493 0.47422874 -0.32747573 -0.24127239
-0.4926226 0.47335172 -0.27241614 0.07130855 0.19482422 0.08158475 0.19712788 -0.10367373
-0.5031377 -0.29735553 -0.19903272 0.42559445 -0.3516787 0.037865818 -0.050953746 -0.31340772
0.30843604 -0.23093176 -0.32732803 0.28646797 -0.5539716 0.23669529 -0.1813659 0.5513253
0.5278026 0.45586252 0.1983965 -0.16917193 0.4597423 -0.21735674 0.51917267 0.31827706
-0.49341506 0.20993191 -0.23222652 0.36858016 -0.010852635 0.33533764 0.5078881 -0.26707143
-0.21734679 -0.12452972 -0.3659311 0.35105443 0.19742793 -0.34783328 0.36462587 -0.5277007
-0.34476662 0.011602163 0.3187853 0.112315476 0.5318501 -0.000218153 0.5056994 0.06649524
-0.3972295 0.3171879 -0.0772959 -0.041401386 -0.11392489 0.17677456 0.124159575 -0.4256234
-0.5495684 0.01526314 -0.2572163 0.36246622 0.00049209595 -0.25468138 -0.17273256 0.085711

bias f4 [10]
00000000: 0000 0000 0000 0000 0000 0000 0000 0000
00000010: 0000 0000 0000 0000 0000 0000 0000 0000
00000020: 0000 0000 0000 0000
0.0 0.0 0.0 0.0 0.0 0.0 0.0 0.0
0.0 0.0

weight f4 [10, 5]
00000000: cdbe 46bf e8c6 a53d 67ba 093f b6d4 a9be
00000010: 4f12 f43e 6144 6fbe 13ea 8e3e 5093 b53e
00000020: 033d f7be 659e 403f bcb1 41bf d671 113f
00000030: bfa0 433e 4b2a 8abe 3cce 133f 66b0 bcbe
00000040: 2cf2 203f be0b 433e 4f5b 2d3e 94d6 93ba
00000050: 122c 14bf 81b6 4c3f 9c2d 233e 62f5 afbc
00000060: c64a 3f3f c76d febe 6122 0bbe 4cfa 123f
00000070: 8599 b73e 198a 5f3f 476e ba3d 69c3 c43e
00000080: 93b4 8c3d a39d 49bf 87b0 adbe 90f5 abbd
00000090: a6fc d83e aea1 f4be 904f a93e 26f1 68be
000000a0: f17c d33e 4e2b c9bc 8778 b9be efa6 b93e
000000b0: b19d dcbe a814 43bf e0f9 5c3f b5e4 363f
000000c0: 3465 21bf ba19 0f3f
-0.7763489 0.08094579 0.5380005 -0.33170098 0.47670218 -0.23365928 0.2791296 0.35463953
-0.48288736 0.7524169 -0.75661826 0.56814325 0.19104289 -0.26985392 0.57736564 -0.3685333
0.62869525 0.19047448 0.16929363 -0.0011279159 -0.57879746 0.7996598 0.15935367 -0.021479312
0.7472347 -0.49693128 -0.13587333 0.5741317 0.35859314 0.87320095 0.09103065 0.38430336
0.06870379 -0.7875616 -0.33923742 -0.08396447 0.42380255 -0.47779602 0.33068514 -0.22748241
0.4130626 -0.024556782 -0.36224768 0.36260173 -0.4308906 -0.76203394 0.8631878 0.7144273
-0.6304505 0.5589863

bias f4 [5]
00000000: 0e48 61be a8e4 5e3e 6575 793e df35 15be
00000010: 019c 553e
-0.22000143 0.21766913 0.24361189 -0.14571331 0.20860292

weight f4 [10, 5]
00000000: 79d6 e4bd 89ce df3d 04b6 34bd 1f09 c83e
00000010: f86b ac3b 8261 a33e 90b6 b9bd cf2b 433e
00000020: 82a0 33bc 2585 f0be 972c 823e 416e e53b
00000030: 46ce 803e a7f4 bfbd fccb 02bf d027 313f
00000040: fc48 4ebf 60bc 473f c4d3 b3bb 13d4 babd
00000050: b2b7 3b3f 1279 07bf aabc 25be 4277 4d3f
00000060: af32 0bbf d9fe d2be e761 28bf f143 633f
00000070: 827b 403f 88e2 01bf ed77 5b3e 5a23 d6be
00000080: 4b48 1e3f 8833 c4bd e53a b2be b316 78be
00000090: 08aa aabc dbaf d5be a501 81bc 7a97 653e
000000a0: d210 e03e 988e 53be e8e5 ea3e 677f 843d
000000b0: 43f3 be3b 635e 313f ddf3 a7be f593 283f
000000c0: e0fa 85bd cde0 113e
-0.1117372 0.10928065 -0.044118896 0.3906946 0.0052618943 0.3191033 -0.09068024 0.1905968
-0.010963561 -0.4697658 0.25424644 0.0070016687 0.25157374 -0.093728356 -0.51092505 0.69201374
-0.80580115 0.7802181 -0.005487891 -0.09122481 0.7332717 -0.52919114 -0.16185251 0.802601
-0.5437421 -0.41210058 -0.6577439 0.88775545 0.7518846 -0.50736284 0.21432467 -0.41823846
0.6182906 -0.09580141 -0.34810558 -0.24227409 -0.02083303 -0.4173573 -0.015747854 0.22421065
0.43762833 -0.20659864 0.4587853 0.064696126 0.005827339 0.6928465 -0.3280324 0.65850765
-0.06541991 0.14245911

bias f4 [5]
00000000: 7011 4e3e 75c2 123e 656f 1cbe b566 3dbe
00000010: c4f3 2d3e
0.2012384 0.14331992 -0.15276869 -0.18496211 0.1698752

weight f4 [10, 5]
00000000: 483b 083f 5b65 4d3f f170 52bf 7027 5fbe
00000010: 4547 613d be3d dc3e 714a ad3d 7dff 9abe
00000020: a8f9 4fbf 38d8 ca3e 6792 00be 4ee1 153f
00000030: 593d a0be 2f05 78bf 2f2e 69be a19d 323f
00000040: 7408 1c3f ed83 7abe 2f80 9fbe 3528 263f
00000050: e901 163e 19f7 09be 17ce 18bf 7525 1fbf
00000060: 9ab9 783d c520 e43e c985 9f3d 4bf5 18bf
00000070: 74c2 7cbf 990a ba3c 2fa6 22bd d672 243f
00000080: 2e73 cfbe af34 6fbf fdcf 6d3f 7626 f13e
00000090: 9b47 bf3e 573e 193f 6f8e 043f 361f cb3c
000000a0: 4fb3 94bd 38fd ff3e 50d6 00bf 0935 803e
000000b0: de41 59be 3b50 1d3e b2ec 4a3f 265d a7be
000000c0: cf39 74bf 371d eabd
0.53215456 0.8023278 -0.82203585 -0.21792388 0.05499961 0.43015856 0.08461464 -0.30273047
-0.8124032 0.39618087 -0.12555848 0.5854691 -0.31296805 -0.9688291 -0.22771524 0.6977177
0.609504 -0.24464388 -0.31152484 0.649051 0.14649166 -0.13473167 -0.5968947 -0.6216653
0.06072388 0.4455625 0.07789189 -0.5974929 -0.9873421 0.022710131 -0.039709266 0.64237726
-0.40517563 -0.93439764 0.9289549 0.47099656 0.37359318 0.5986075 0.51779836 0.024795156
-0.07260763 0.49997878 -0.50327015 0.25040463 -0.21216533 0.15362637 0.7926742 -0.32688254
-0.9540071 -0.114313535

bias f4 [5]
00000000: 7011 4e3e 75c2 123e 656f 1cbe b566 3dbe
00000010: c4f3 2d3e
0.2012384 0.14331992 -0.15276869 -0.18496211 0.1698752

weight f4 [3, 10]
00000000: ee3f c13e 8984 e7bd 40ef f7be 4471 053f
00000010: 32fc 14bf 6174 04bf 5206 d3bd 0d1e 773e
00000020: a72a 143f a820 e6be 3360 5b3e 13b9 2a3e
00000030: ac25 803e 7ac1 8f3e 3598 90bd 154d b03e
00000040: 5e6c 19bf f37d 0e3f db1b c83e 951c bebe
00000050: 7814 fabd 61fa de3e 872e 9b3e 0336 c1be
00000060: e0a0 193e 66fa 8f3e 131c 023f 3cf3 00bf
00000070: 6938 aebe a5fc 073f
0.37744087 -0.11304576 -0.4842472 0.52125955 -0.5819732 -0.5174008 -0.1030394 0.24132557
0.5787758 -0.4494679 0.21423416 0.16672163 0.2502874 0.28077298 -0.07060281 0.3443381
-0.5993098 0.55660933 0.39083752 -0.3713118 -0.12210935 0.435504 0.30308935 -0.3773652
0.15002775 0.28120726 0.5082409 -0.50371146 -0.34027413 0.5311988

bias f4 [3]
00000000: b9a7 5bbe 9024 cfbd 2eb5 be3e
-0.214507 -0.101143956 0.37247604
