Models/GNNs/Oryx2/model_RGCN_100_samples_30_epochs.pth (torch, 10862 bytes, 14 tensors)

weight f4 [8, 10]
0	0xbe3ec736	-0.1863068
1	0xbe381c22	-0.17979482
2	0x3e72c290	0.23707032
3	0xbe92ea3d	-0.28694335
4	0x3ebbe7e3	0.36700353
5	0xbec3875e	-0.38189214
6	0x3f0a32aa	0.5398356
7	0x3e772879	0.24136533
8	0xbea09364	-0.3136245
9	0x3f075821	0.5286885
10	0x3d958c28	0.07302123
11	0x3eb583fa	0.35452253
12	0x3e6c0d96	0.23052058
13	0x3e93fd9c	0.28904426
14	0x3e92f6e5	0.2870399
15	0x3df0bf46	0.117552325
16	0xbe957747	-0.29192564
17	0xbec666ce	-0.3875031
18	0x3de67e0c	0.1125451
19	0x3f25164d	0.64487153
20	0x3ec0bc00	0.37643433
21	0x3efd731c	0.49501884
22	0xbf17d44a	-0.593083
23	0xbf00162a	-0.5003382
24	0x3f15c575	0.5850442
25	0x3ec36bb0	0.38168097
26	0xbda3bacf	-0.07994615
27	0x3da42a6b	0.08015903
28	0x3e728529	0.23683609
29	0xbee366ac	-0.4441427
30	0xbee9790a	-0.45600158
31	0xbedd39ec	-0.43208253
32	0x3ec5212f	0.3850188
33	0x3e9f39e9	0.3109887
34	0x3e07c594	0.13258964
35	0x3e6751b1	0.22589757
36	0x3d7128c2	0.05887676
37	0xbf0c53a1	-0.5481511
38	0x3eb1a2ce	0.34694523
39	0x3db13774	0.08653155
40	0xbe491414	-0.19636565
41	0xbeeb5613	-0.45964107
42	0x3efc6140	0.49292946
43	0x3e0ec8e4	0.13943821
44	0x3eb08e7a	0.344837
45	0x3dfad610	0.122478604
46	0x3e1d0c60	0.15336752
47	0xbca34920	-0.01993233
48	0xbe4f28b0	-0.20230365
49	0x3e7f0704	0.2490502
50	0xbed221fa	-0.41041547
51	0x3eb68ee6	0.35655898
52	0xbe89e2b3	-0.2693077
53	0xbe6d4c04	-0.23173529
54	0xbe57f77e	-0.21090505
55	0x3c8a60e0	0.016891897
56	0x3e8cb662	0.27482897
57	0x3ef69708	0.48162103
58	0xbdab2730	-0.08357084
59	0xbe64bb30	-0.22337031
60	0xbee1102e	-0.43957657
61	0x3d74efb0	0.059798896
62	0xbea0af7a	-0.31383878
63	0xbec57208	-0.3856356
64	0xbe90b3bb	-0.28262123
65	0x3e6e5d04	0.2327767
66	0x3ea5e714	0.3240286
67	0x3edf06b0	0.4355979
68	0xbec01014	-0.37512267
69	0xbe737462	-0.23774865
70	0xbee19304	-0.44057477
71	0x3df838c0	0.12120199
72	0x3edc356c	0.43009508
73	0x3be30700	0.0069283247
74	0x3d7625b0	0.060094535
75	0xbdde39c8	-0.10850865
76	0x3d8ffcb0	0.07030618
77	0x3f047cb2	0.5175277
78	0x3e35411c	0.17700619
79	0x3e797e7c	0.24364656

bias f4 [10]
0	0x00000000	0.0
1	0xbc62ae6e	-0.013835533
2	0xbd4ec1de	-0.050477855
3	0x3d8539ce	0.06505166
4	0x3d0d1dfa	0.034452416
5	0x3d836580	0.06415844
6	0x3d86a3de	0.06574224
7	0x3c207fb6	0.009796074
8	0xbd1b5a45	-0.037927885
9	0x3d8fe2f2	0.07025708

weight f4 [8, 10]
0	0x3e346028	0.17614806
1	0x3eed54f4	0.46353877
2	0x3c84b100	0.016197681
3	0x3e9806a8	0.29692578
4	0x3f0a6d64	0.54073167
5	0x3e2cd544	0.1687823
6	0xbee0cb4a	-0.43905097
7	0x3e3b1070	0.18267989
8	0xbe67fc6a	-0.22654882
9	0x3f090d02	0.53535473
10	0xbececb2a	-0.40389377
11	0xbb506500	-0.0031798482
12	0x3e72df48	0.23717988
13	0x3eb4eae0	0.35335445
14	0x3e30ce7c	0.17266268
15	0x3d6d69d0	0.05796224
16	0xbe0227f2	-0.1271055
17	0x3d1b7030	0.037948787
18	0xbe8dbe7e	-0.27684397
19	0x3e5274ec	0.20552415
20	0xbed3b910	-0.4135213
21	0xbe7ade84	-0.24498945
22	0x3e7fe3c8	0.24989235
23	0x3d438960	0.047738433
24	0x3ec55092	0.38538033
25	0x3d756e10	0.059919417
26	0x3f0116dc	0.50425506
27	0xbdad55e0	-0.08463645
28	0x3ee81bb8	0.45333648
29	0xbf01c0ca	-0.506848
30	0xbecc93a8	-0.39956403
31	0x3ddae1d0	0.106876016
32	0xbe871bfd	-0.2638854
33	0xbf0d150b	-0.55110234
34	0xbee70dae	-0.45127624
35	0x3ca069e0	0.019581735
36	0x3e8a06c6	0.26958293
37	0x3ea434a6	0.32071418
38	0xbe8de4a9	-0.27713516
39	0xbe6bd528	-0.23030531
40	0x3edf9a98	0.43672633
41	0x3f089ab0	0.53361034
42	0xbe5e100a	-0.21685806
43	0x3f0adb6a	0.5424105
44	0x3e2f6150	0.17126966
45	0x3e5d56ac	0.21615094
46	0xbefeba30	-0.49751425
47	0x3f00020e	0.50003135
48	0xbdc08b50	-0.09401572
49	0xbd8fa968	-0.070147336
50	0xbeab5e3b	-0.3347033
51	0x3d735510	0.059407294
52	0x3dcda280	0.1004076
53	0xbe7fd698	-0.24984205
54	0xbef8627b	-0.48512635
55	0xbddb8304	-0.107183486
56	0xbcad3240	-0.021142125
57	0x3ed0dbc0	0.40792656
58	0x3dbb7238	0.09152645
59	0xbe310274	-0.17286092
60	0xbed027d8	-0.40655398
61	0xbef6a752	-0.4817453
62	0xbe23e28c	-0.1600439
63	0xbf119a31	-0.568759
64	0xbed8ff46	-0.42382258
65	0xbe9e2b98	-0.30892634
66	0xbccdde20	-0.025130332
67	0xbe8c9445	-0.2745687
68	0xbf0b540e	-0.5442513
69	0xbee4953a	-0.446451
70	0xbe44786e	-0.19186565
71	0xbeda55db	-0.42643628
72	0x3e6a7528	0.22896254
73	0xbce3ab60	-0.027791679
74	0xbeec07eb	-0.4609979
75	0xbe8c9e54	-0.27464545
76	0xbdf53e8c	-0.119748205
77	0xbe2d4368	-0.16920245
78	0xbea9f7d0	-0.33196878
79	0xbf09c858	-0.53821325

bias f4 [10]
0	0x00000000	0.0
1	0x00000000	0.0
2	0x00000000	0.0
3	0x00000000	0.0
4	0x00000000	0.0
5	0x00000000	0.0
6	0x00000000	0.0
7	0x00000000	0.0
8	0x00000000	0.0
9	0x00000000	0.0

weight f4 [8, 10]
0	0x3dc4bff0	0.09606922
1	0x3cef7340	0.02922976
2	0x3c2109c0	0.009828985
3	0x3ec269ba	0.37971288
4	0xbe2cf056	-0.16888556
5	0xbe769428	-0.24079955
6	0xbde59580	-0.112101555
7	0x3cdfe8c0	0.027332664
8	0x3e97de4a	0.2966178
9	0x3e16bb8c	0.14719981
10	0x3f01d340	0.50712967
11	0xbf0b3fad	-0.54394037
12	0x3e2f3074	0.17108327
13	0x3ef017c4	0.46893132
14	0xbeefb4db	-0.4681767
15	0xbed31121	-0.41224006
16	0x3ef248dc	0.47321212
17	0x3f0a4cf4	0.5402367
18	0x3eee2314	0.46511137
19	0x3f0d57ca	0.5521208
20	0x3e921db2	0.2853828
21	0x3e025f00	0.12731552
22	0x3bc30a00	0.00595212
23	0xbd87a650	-0.066235185
24	0x3eaaddce	0.3337235
25	0xbe76d89c	-0.24106067
26	0xbf0cddda	-0.5502602
27	0x3ea83dbe	0.32859606
28	0xbf01631e	-0.50541866
29	0xbeb79a52	-0.35859925
30	0x3e908ba6	0.28231543
31	0xbdd7cb30	-0.10536802
32	0x3e6ab324	0.22919899
33	0xbea56340	-0.32302284
34	0xbeb0753d	-0.34464446
35	0x3ea1033a	0.31447774
36	0x3dce1c30	0.1006397
37	0x3dbed6e8	0.09318334
38	0xbe045582	-0.12923244
39	0x3f101df2	0.5629569
40	0xbf063781	-0.5242844
41	0xbf10153e	-0.56282413
42	0x3ec3e48c	0.38260305
43	0xbdef7074	-0.116913706
44	0x3f0a7b4e	0.540944
45	0xbe8d95c5	-0.27653328
46	0x3da60ff8	0.081085145
47	0xbe4994ec	-0.19685715
48	0x3e805fce	0.25073093
49	0x3ef1cdcc	0.47227323
50	0xbed40adc	-0.41414535
51	0x3e92fd02	0.28708655
52	0x3cf69660	0.030101001
53	0x3ea5812a	0.32325107
54	0xbec79e0a	-0.38987762
55	0x3ec90ede	0.39269155
56	0xbed38e7e	-0.4131965
57	0x3eaa03e2	0.33206087
58	0xbecb2f02	-0.39684302
59	0x3e0e3d4c	0.1389057
60	0x3d8f7f20	0.07006669
61	0x3e58be94	0.2116645
62	0x3ee7d208	0.4527743
63	0x3e811630	0.2521224
64	0xbee4e8ea	-0.4470895
65	0x3bb42400	0.0054974556
66	0x3ede5cc8	0.4343016
67	0x3e6ae008	0.22937024
68	0xbe0576ec	-0.13033646
69	0xbe9012fc	-0.28139484
70	0xbe79463c	-0.24343199
71	0xbd0dc170	-0.034608305
72	0x3f0b59b2	0.5443374
73	0xbf13c018	-0.57714987
74	0x3efc0f64	0.49230492
75	0xbe0faab6	-0.14029965
76	0xbd397bd0	-0.045284092
77	0x3ea6475e	0.32476324
78	0x3e9d129a	0.30678254
79	0x3eb2cf3c	0.34923732

bias f4 [10]
0	0x00000000	0.0
1	0x00000000	0.0
2	0x00000000	0.0
3	0x00000000	0.0
4	0x00000000	0.0
5	0x00000000	0.0
6	0x00000000	0.0
7	0x00000000	0.0
8	0x00000000	0.0
9	0x00000000	0.0

weight f4 [10, 5]
0	0xbe99f1ef	-0.30067393
1	0xbf1dbe02	-0.61618054
2	0xbde2b200	-0.11069107
3	0xbed62595	-0.41825548
4	0x3e6ee964	0.23331219
5	0x3efb8bda	0.49130136
6	0x3f1848e9	0.5948625
7	0xbd190ac0	-0.037363768
8	0x3db04478	0.086068094
9	0x3edca4fe	0.4309463
10	0x3f20118d	0.6252678
11	0x3da71232	0.08157767
12	0x3eda328b	0.42616686
13	0x3ed641de	0.41847128
14	0xbed9b94a	-0.42524177
15	0x3e0f6753	0.14004259
16	0x3e482d20	0.19548464
17	0xbeb97d09	-0.36228207
18	0x3db6a345	0.0891786
19	0x3f1bc17a	0.60842097
20	0x3eb5e27a	0.3552435
21	0x3e23877b	0.1596965
22	0x3ee36018	0.4440925
23	0x3ef98e7c	0.4874152
24	0xbef2f21f	-0.4745035
25	0x3e7a1b16	0.24424395
26	0x3d90db10	0.07073033
27	0x3e873e8a	0.264149
28	0xbf0b6bdf	-0.54461473
29	0x3e086eb8	0.13323486
30	0x3ef069e1	0.4695578
31	0x3e6908d4	0.22757274
32	0xbd22f505	-0.03978445
33	0x3e5cc85a	0.21560803
34	0x3ee7ba7f	0.45259473
35	0x3f28628a	0.6577536
36	0x3ece2c03	0.40267953
37	0x3dd20808	0.10255438
38	0xbe950d4b	-0.29111704
39	0x3e5f0e4a	0.21782795
40	0x3f0989e5	0.53726035
41	0x3efbb29a	0.491597
42	0x3ef697ee	0.48162788
43	0xbe00e044	-0.1258555
44	0x3ea99d72	0.33127934
45	0x3e5be5d1	0.21474387
46	0xbe192d49	-0.14958681
47	0xbe29fe94	-0.1660102
48	0xbe5e76c9	-0.21725
49	0xbece62fa	-0.40309888

bias f4 [5]
0	0x3d7e9c36	0.062160693
1	0x3d851e64	0.06499937
2	0xbd6cf3a6	-0.05784955
3	0xbd6d8689	-0.05798963
4	0x3d6cd2a0	0.057818055

weight f4 [10, 5]
0	0x3f0fa767	0.5611481
1	0xbcd949c0	-0.026524425
2	0xbec3757d	-0.38175574
3	0xbc613ec0	-0.013747871
4	0xbeccab04	-0.39974225
5	0xbe632f7a	-0.2218608
6	0x3c3d32cd	0.011547756
7	0x3f17db8e	0.5931939
8	0xbe3618ae	-0.17782852
9	0xbf0d1fbe	-0.5512656
10	0xbef9335d	-0.48672
11	0x3f0726c3	0.5279352
12	0x3f083de2	0.53219426
13	0xbe17b528	-0.148152
14	0x3eccbaaf	0.39986178
15	0x3dd70152	0.10498299
16	0xbe8faf80	-0.28063583
17	0xbdae1b9f	-0.08501362
18	0x3f03b64e	0.5145005
19	0x3f074cfa	0.5285183
20	0x3d9c7cc9	0.076409884
21	0xbf0e0392	-0.554742
22	0x3eda60bd	0.4265193
23	0xbf0b9687	-0.5452656
24	0x3e115a1f	0.14194535
25	0x3e95cf34	0.29259646
26	0xbf0bcfec	-0.5461414
27	0x3f2da1ad	0.6782482
28	0x3d930d3b	0.07180258
29	0x3e3b0c31	0.1826637
30	0x3ec225ae	0.37919372
31	0xbdaf58c4	-0.085618526
32	0xbe77c81f	-0.24197434
33	0xbf2ab541	-0.6668282
34	0x3ec2ef11	0.38073018
35	0x3f1c9fa0	0.6118107
36	0xbf0e6b0e	-0.556321
37	0x3de9f318	0.114233196
38	0x3e9a4208	0.30128503
39	0xbec047c1	-0.37554744
40	0x3efd303d	0.49450865
41	0xbeb9ea38	-0.36311507
42	0xbe369506	-0.17830285
43	0x3e9c0ee8	0.30480123
44	0xbef25651	-0.4733148
45	0xbe3f8e72	-0.18706682
46	0xbe748387	-0.23878299
47	0xbf167b88	-0.58782244
48	0x3ee93d54	0.45554602
49	0x3f0df9ac	0.55459094

bias f4 [5]
0	0xbd779d41	-0.060452703
1	0x3d72867a	0.059210278
2	0x3d66512f	0.056229766
3	0xbd836331	-0.06415404
4	0x3d68d6e6	0.056845568

weight f4 [10, 5]
0	0xbe9a1c6b	-0.30099806
1	0xbf1d830b	-0.6152808
2	0xbf09d52a	-0.5384089
3	0xbef17392	-0.47158486
4	0x3ef761be	0.4831676
5	0xbe82866c	-0.2549318
6	0x3d44311d	0.0478984
7	0xbf19857c	-0.59969306
8	0x3e89cf49	0.2691596
9	0x3efd0230	0.4941573
10	0x3d092201	0.033479694
11	0xbed4a9ea	-0.41535884
12	0xbe059a3f	-0.13047121
13	0xbd7d1a7e	-0.061792843
14	0xbe1d53e8	-0.15364039
15	0xbdaf9d5d	-0.085749365
16	0xbf0685ef	-0.52548116
17	0x3f189d5a	0.596151
18	0xbdc8a86d	-0.0979775
19	0xbe115c93	-0.1419547
20	0xbf207960	-0.62685204
21	0x3dca5097	0.098786525
22	0xbee17895	-0.4403731
23	0x3d0578f8	0.032586068
24	0xbee7980d	-0.45233193
25	0xbee52358	-0.44753528
26	0x3cbb4b93	0.022863185
27	0x3da8c1be	0.082400784
28	0x3edcb290	0.43104982
29	0xbf0d9dcc	-0.55318904
30	0xbe6e7016	-0.23284945
31	0xbed0c60f	-0.40776107
32	0xbf08b8d0	-0.53407
33	0xbf267874	-0.65027547
34	0xbea75ee5	-0.32689586
35	0x3ef0ad26	0.47007102
36	0xbef1250c	-0.47098577
37	0x3e7faf54	0.24969226
38	0xbea97f6f	-0.33105037
39	0x3ead4124	0.3383876
40	0x3dc51b7d	0.096243836
41	0xbd287c74	-0.041134313
42	0x3eec4c3b	0.4615191
43	0x3e52a07f	0.20569037
44	0x3eb32ec1	0.34996608
45	0xbf0d9855	-0.55310565
46	0xbe6258fd	-0.22104259
47	0xbed9407a	-0.42432004
48	0xbf0a81db	-0.54104394
49	0x3e171b73	0.14756565

bias f4 [5]
0	0xbd779d41	-0.060452703
1	0x3d72867a	0.059210278
2	0x3d66512f	0.056229766
3	0xbd836331	-0.06415404
4	0x3d68d6e6	0.056845568

weight f4 [3, 10]
0	0xbe8338f3	-0.25629386
1	0xbe51d8d0	-0.20492864
2	0x3e036db0	0.12834811
3	0x3dd5be14	0.10436645
4	0xbe772a3a	-0.24137202
5	0x3ea1bc8e	0.31589168
6	0xbe2dda24	-0.16977745
7	0xbe8f5580	-0.2799492
8	0x3ebe8234	0.37208712
9	0xbea370ad	-0.31921902
10	0x3e4a1880	0.19735909
11	0x3e1261d2	0.14295128
12	0xbe1a3cd1	-0.15062262
13	0x3e9c373e	0.30510896
14	0xbe0eef8a	-0.13958564
15	0x3e464fbd	0.19366355
16	0xbe0a6e53	-0.13518648
17	0xbe477bfe	-0.19480893
18	0x3e1847d8	0.14871156
19	0x3e757098	0.23968732
20	0x3e41fc8f	0.18944
21	0x3e0e0c6f	0.1387193
22	0xbdcc15e5	-0.099651136
23	0xbde77987	-0.113024764
24	0x3db20bd6	0.08693664
25	0xbe80a2fe	-0.25124353
26	0xbd585c1e	-0.052822225
27	0xbd9f1c14	-0.07769027
28	0x3d4ca068	0.049957663
29	0xbd955c52	-0.07292999

bias f4 [3]
0	0xbe0414c6	-0.1289855
1	0xbeb8adf1	-0.36070207
2	0x3e254062	0.16137841
