Models/GNNs/SecureWebContainer/1-hidden-layer/FocalLoss-aggreg-mean/model_RGCN_1000_samples_20_epochs_256_batchsize.pth (torch, 11132 bytes, 14 tensors)

weight f4 [8, 10]
00000000: 645c d9be 89b7 b1be 6c97 5a3e 0f5a 013f
00000010: c0bd 76bd 51c3 6b3e c1b8 28be 1d9e febe
00000020: 55a8 ecbe fef6 153f 6ec7 90be 3604 a23e
00000030: 42f1 f0be e09e 123f 6809 fdbe d0b0 9d3e
00000040: 4ef4 adbe d81f eebe 0eba be3e ac8d df3e
00000050: a17b 67bd 1309 26be 5c87 b83e a802 803d
00000060: 7957 d6bd 10e3 64be e39e 833e 9866 413e
00000070: f2e7 abbe f3c1 81bd 24c3 fe3e 6abc a13d
00000080: 583f 05bf 00bc 293e b69d 6c3e 2201 8e3d
00000090: 7b0a f03e 6ac3 01be 200b 8abc 536d c23d
000000a0: 826b aabe fac9 04bf f0d6 953d d2ce 65be
000000b0: baec aa3e 0e2d 043f acef cd3e 8058 2bbd
000000c0: 7476 083e 270b f2be c8dc 4f3e f6e6 03be
000000d0: 2768 10bf 00c8 e53e a0a1 89bd d821 f93e
000000e0: 46d0 9ebe 8baf 81be 945b 9c3e b611 6fbe
000000f0: 9e82 c03e f883 22be 1ad4 003f a020 273e
00000100: ce5a ecbe 7207 c0be c8ef cbbe 0a8b 11bf
00000110: b0e4 bd3d cbb3 08bf 4bdb 09bd 2349 00bd
00000120: 62b6 09bf a64a b33e 51bb 383e c6c4 e63e
00000130: 5b17 243f 82a8 80be be7e 73be 7fe6 fcbe
-0.424533 -0.3471034 0.21346825 0.50528044 -0.060239553 0.23023726 -0.16476728 -0.49730006
-0.46222177 0.58580005 -0.28277153 0.31643838 -0.47059065 0.57273674 -0.4942124 0.3079896
-0.33975452 -0.4650867 0.37251323 0.43662775 -0.056514386 -0.16214399 0.3604077 0.06250507
-0.10465903 -0.22352242 0.25707158 0.18886793 -0.33575398 -0.06335821 0.49758255 0.07897265
-0.5204978 0.16575623 0.23107037 0.0693381 0.46882996 -0.12672201 -0.016851008 0.09493508
-0.33285147 -0.5187069 0.07316387 -0.22442177 0.33383733 0.5163125 0.40221918 -0.041832447
0.13326436 -0.47274134 0.20299065 -0.12881073 -0.56408924 0.4487915 -0.06720281 0.48658633
-0.31018275 -0.2532924 0.3053862 -0.233466 0.37599653 -0.15870655 0.5032364 0.16321039
-0.46163028 -0.3750568 -0.39831376 -0.5685278 0.09272134 -0.5339934 -0.0336564 -0.03131975
-0.5379392 0.3501789 0.18040206 0.45072 0.6409814 -0.2512856 -0.23778817 -0.49394605

bias f4 [10]
00000000: e67c 5abc a6b4 963d 0000 0000 d85f 893d
00000010: b798 bfbc 6d26 41bd d063 853d 0000 0000
00000020: 0000 0000 b49d 7b3d
-0.013335442 0.07358675 0.0 0.06707734 -0.02338825 -0.047155786 0.06513178 0.0
0.0 0.061429694

weight f4 [8, 10]
00000000: 40e2 e2be 2ce9 abbe f418 453e 3f96 00bf
00000010: ca32 12bf 4cd8 11bf 40f1 3cbd b841 063f
00000020: dce8 39be 4cd9 dcbe ad12 febe 69bd 8ebe
00000030: 66c4 0c3f 2cae bb3e b0b2 473e c2fd 823e
00000040: 1e1d 973e e000 cdbc 84c0 5a3e 06de 5fbe
00000050: 4c07 f23e 5848 d73e 10f0 82be 128b 48be
00000060: fcd3 d3be 28e1 c53d c242 843e dcac a43e
00000070: f0c2 143d 68c2 ab3e 5961 cdbe c971 0dbf
00000080: d0f0 f13d 58ae 0b3f a805 e83e 09dc e7be
00000090: 1279 50be 7841 843e 3a5d 62be fa93 85be
000000a0: c0f6 17bc b8cb 36be 88e0 d83e c841 943e
000000b0: fc09 da3e f246 e8be 4b5c 94be 0ef7 083f
000000c0: c232 9c3e 50bd 673e 7237 8fbe ac05 acbe
000000d0: 9282 2ebe e288 5cbe baa3 c2be 0413 4bbe
000000e0: 3fa8 90be 8447 c4be 4000 b33d 8473 dbbe
000000f0: d4bd eabd 7eb6 ad3e f4c3 7f3e 3487 ab3e
00000100: 2ce4 e33e 946e ca3e 401f 863d 5aa3 bc3e
00000110: c6f8 10bf f058 05be 3ee9 cebe b8d3 77be
00000120: 8018 c9be b0e0 3bbe 129f bd3e 1834 f93d
00000130: d824 e33e be92 003f f89e 783e 2014 c93d
-0.4431324 -0.33576334 0.192478 -0.5022926 -0.5710875 -0.5697067 -0.04612851 0.5244403
-0.18155235 -0.43134534 -0.49623623 -0.27878883 0.5498718 0.3665632 0.19501758 0.25584227
0.29514402 -0.025024831 0.21362501 -0.21862039 0.47271192 0.4204738 -0.25573778 -0.19584301
-0.4137267 0.09662086 0.25832182 0.3216313 0.03631872 0.33546758 -0.40113333 -0.5525175
0.118135095 0.545629 0.45316815 -0.4528506 -0.20358685 0.258312 -0.22105876 -0.2608946
-0.009275138 -0.1785115 0.42358804 0.28956437 0.42585742 -0.45366627 -0.28976664 0.53501976
0.30507475 0.2263081 -0.2797199 -0.33598077 -0.17041996 -0.21536592 -0.38015538 -0.19831473
-0.28253362 -0.38335812 0.08740282 -0.4286157 -0.11461988 0.33928293 0.24977094 0.3350159
0.4451002 0.3953749 0.06548929 0.36843377 -0.566296 -0.13022208 -0.40412325 -0.24201858
-0.39276505 -0.1834743 0.37035424 0.12168139 0.44364047 0.5022391 0.24279392 0.09818292

bias f4 [10]
00000000: 0000 0000 0000 0000 0000 0000 0000 0000
00000010: 0000 0000 0000 0000 0000 0000 0000 0000
00000020: 0000 0000 0000 0000
0.0 0.0 0.0 0.0 0.0 0.0 0.0 0.0
0.0 0.0

weight f4 [8, 10]
00000000: 4446 943e 60f1 44bd e0b7 7d3d 001a a1bb
00000010: 50a7 023e 60bd 7e3e 0427 1fbe 2af4 01bf
00000020: d495 a2be 981f 853d 7fdb 8fbe 8256 ba3e
00000030: 6d9f 90be 7c88 c3bd 06e9 083f 9cd6 383e
00000040: 2a21 bf3e 346d 303e 4043 eb3c be13 c6be
00000050: 4820 473e 404f a93c ef41 0ebf 3680 85be
00000060: 0c50 79be d896 ff3d ea0d b2be ecd9 d3be
00000070: f023 87bd b823 8d3e 06c1 0d3f 8075 4dbd
00000080: 314b f1be a449 d9be c422 1abe 3950 fbbe
00000090: f8f6 a43e 1528 07bf 46ba 953e 94d8 a5be
000000a0: b85e 113f c444 d23e c018 983d 8261 b3be
000000b0: a04a 7ebe 08df e63e ec08 07be 84d0 8ebe
000000c0: ae84 cc3e 844a 5e3e eca0 ee3e f4ba f33e
000000d0: 9089 7c3d 80a1 6b3c 3d88 07bf 407f afbc
000000e0: 64d2 333e a0f2 44bd 64e2 793e 18a4 4dbe
000000f0: c41c e23e 70c6 3e3e 1490 703e a25c c63e
00000100: fc18 abbe a72f 11bf e02b f63e 84b9 6d3e
00000110: 509f 90bd 982d ac3d a1c2 c8be 302f 183d
00000120: 805a b3bb 8409 97be e44f 99be d2cc b83e
00000130: bea4 cabe dddb b3be 26a2 c5be e831 f1be
0.28959858 -0.048081756 0.061942935 -0.0049164295 0.12759137 0.24876928 -0.15542227 -0.5076319
-0.31754935 0.06500167 -0.2809715 0.36394125 -0.28246632 -0.09547517 0.53480566 0.18050617
0.3732999 0.17229158 0.02871859 -0.38686937 0.19445908 0.020667672 -0.55569357 -0.2607438
-0.24346942 0.12479943 -0.3477624 -0.413772 -0.065986514 0.27566314 0.55372655 -0.050160885
-0.4712768 -0.42438996 -0.15052325 -0.49084643 0.32219672 -0.52795535 0.29243678 -0.32391798
0.56785154 0.4106809 0.07426596 -0.3503533 -0.24833155 0.45092034 -0.13186997 -0.2789346
0.39944977 0.21708113 0.4660715 0.4760357 0.061654627 0.014381766 -0.5294226 -0.021422982
0.17560726 -0.048082948 0.24402767 -0.20082128 0.4416257 0.18630385 0.23492461 0.38742548
-0.334175 -0.56713337 0.4808035 0.232153 -0.070616364 0.08407134 -0.3921099 0.037154377
-0.005473435 -0.29499447 -0.29943764 0.36093765 -0.39578813 -0.3512868 -0.38600272 -0.47108388

bias f4 [10]
00000000: 0000 0000 0000 0000 0000 0000 0000 0000
00000010: 0000 0000 0000 0000 0000 0000 0000 0000
00000020: 0000 0000 0000 0000
0.0 0.0 0.0 0.0 0.0 0.0 0.0 0.0
0.0 0.0

weight f4 [10, 5]
00000000: 8088 313c 30ea 783d 2095 613d 2c01 0ebe
00000010: 5580 c3be 35ac ed3e 8c3b e63e 8fd0 f5be
00000020: 9b48 4c3e 65bb d23e 4036 d9bd 928f e63e
00000030: ea02 97be c2a4 bbbe 323b 4ebe aed6 8ebe
00000040: 9701 3d3e ec31 c5be 9972 323f 863b 0a3f
00000050: 887b 0e3f 5367 9e3e 47d7 bc3e a68f db3e
00000060: ca66 573d 655d b83e e6b0 a5be 0607 f6be
00000070: 1400 c93e 516f 4abe 6b5d 1e3d bd85 283f
00000080: 4778 ac3e 3c45 6ebe fdf6 db3e b80c e03d
00000090: 8a69 c23e fc16 433e 320f ff3e e0fa 8dbe
000000a0: b6d1 f7be 9779 91be 4641 ea3e 00f9 b6bd
000000b0: 4069 4c3c 29a3 17bf f7de 94be 99b4 acbe
000000c0: 9548 04bf 1595 4f3e
0.010835767 0.060770214 0.055073857 -0.13867635 -0.38183847 0.46420446 0.44967306 -0.4801068
0.19949572 0.41158596 -0.106060505 0.4503141 -0.2949441 -0.36649138 -0.20139769 -0.27898163
0.18457638 -0.3851465 0.6970611 0.53997076 0.55657244 0.30938205 0.36882994 0.42883033
0.05258826 0.36008754 -0.32361525 -0.48052233 0.39257872 -0.19769026 0.03866331 0.6582907
0.33685514 -0.23268598 0.42961875 0.10939926 0.37971145 0.19051737 0.4981628 -0.27730465
-0.48402184 -0.28413078 0.45752925 -0.08934212 0.012476265 -0.5923334 -0.2907636 -0.33731535
-0.5167325 0.20271714

bias f4 [5]
00000000: 565b 70bd 115c 7e3d d3f0 91bd 2598 8a3d
00000010: 2a51 833d
-0.058680855 0.06209952 -0.07126012 0.067673005 0.06411965

weight f4 [10, 5]
00000000: a723 1e3f c6b9 123e 5b7e f23d 8990 37bb
00000010: f201 e5be 34a3 d0be 4452 463e bbc1 db3d
00000020: 5652 27bf 971e c33e 003d ae3d 8089 083e
00000030: bb24 0abf a015 54bd f912 1b3f c1ec aa3e
00000040: 967b 8e3e 870e 9b3e b1b6 1b3d a025 1d3f
00000050: dc45 6bbe da8e c73e d701 4c3c bc9a 4abb
00000060: 644d cf3e b4d2 ebbd ddeb 023f 09ab d33e
00000070: 9982 5dbd 66b1 1c3f e003 f63e bd72 cebe
00000080: 62e2 1f3e 8709 08bf aca8 313f 4467 213e
00000090: 4cf4 86be 51b5 a6be 4f6a 153f dd41 103f
000000a0: 866c ef3e 2a25 c4be 808c 663e 84df 893e
000000b0: f622 c7be 3698 d4be 0646 21bf 65db 2dbe
000000c0: 2564 b3be a750 8b3e
0.6177315 0.1432868 0.11840507 -0.0028009734 -0.44728047 -0.40749514 0.1936732 0.107303105
-0.6536001 0.38109276 0.085077286 0.13333702 -0.53962296 -0.051778436 0.60575825 0.33383754
0.27828664 0.3028452 0.038016025 0.61385536 -0.22975868 0.38976175 0.0124516105 -0.0030914983
0.40488732 -0.11514798 0.5114115 0.41341427 -0.054079626 0.6120819 0.4804983 -0.40321913
0.15613702 -0.5313954 0.69398 0.15762049 -0.2635826 -0.32560208 0.5836534 0.563505
0.46762484 -0.38309604 0.22514534 0.2692834 -0.3889386 -0.41522378 -0.6299747 -0.16978224
-0.35037342 0.2720997

bias f4 [5]
00000000: 7254 653d dc90 8d3d 4e4e 87bd 410c 613d
00000010: 0b32 7fbd
0.055988736 0.06912395 -0.06606732 0.054943327 -0.062303584

weight f4 [10, 5]
00000000: 9959 b7bd 05e0 403d 32d8 1cbf 7ee2 cebe
00000010: c3f1 193d 6042 f73b 0ed4 783e c7f1 cebe
00000020: cb6b c63e 6d45 edbe 202d abbe b21a bd3e
00000030: 30bb 0abf c072 ea3c 4880 0d3e 1f5f e4be
00000040: 3edf 023f 0af8 0c3f 6d51 dabe a5f9 b03e
00000050: 44fe f9be 6237 11bf f12b d9be 61c9 32be
00000060: 33cb 8a3e 1f35 50be 4fae 2c3f 04ba c9be
00000070: 1d0c efbe 9ace 16bf c085 ffbe 6a44 2c3e
00000080: 0dd3 00bf c2bc bd3d f2d0 1fbf 30d4 9cbe
00000090: 1c18 13bf cec7 c9be 1b78 c9be 860e d63e
000000a0: b14e 073f 227e 1abe cda1 16bf 5274 9fbe
000000b0: 682b 0f3e 418c 6c3e 8bbc 08bf 770c cdbe
000000c0: 5162 61bd 961b 64be
-0.08952636 0.04708864 -0.6126739 -0.40407175 0.037584078 0.0075457543 0.24299642 -0.40418836
0.38754115 -0.4634203 -0.33432865 0.3693443 -0.54191875 0.02861917 0.13818467 -0.44603822
0.5112189 0.5506598 -0.42640248 0.34565464 -0.48826802 -0.5672513 -0.42416337 -0.17459632
0.27108154 -0.20332764 0.67453474 -0.3939973 -0.4668893 -0.58909 -0.4990673 0.16822973
-0.5032204 0.09264518 -0.624282 -0.30630636 -0.57458663 -0.3941025 -0.39349446 0.41807956
0.5285445 -0.15087178 -0.5884064 -0.31143433 0.13981402 0.23100378 -0.53412694 -0.40048572
-0.055025402 -0.22276148

bias f4 [5]
00000000: 7254 653d dc90 8d3d 4e4e 87bd 410c 613d
00000010: 0b32 7fbd
0.055988736 0.06912395 -0.06606732 0.054943327 -0.062303584

weight f4 [3, 10]
00000000: 8295 183d 7149 163e c65f 6fbe 3804 92be
00000010: b017 88be df64 a6be 5d6c 2a3e ea2e d13d
00000020: 79d6 01be db83 a33d f2f1 893e e72e a4be
00000030: ca84 c13d a371 bdbd d390 243e 8d77 6fbe
00000040: 0535 873c 00ec b4bc 60c1 5ebe 36b5 9b3e
00000050: acd5 0cbe 9a79 553e ccae 6fbe d71f c2bc
00000060: 7d0b 453e 1d8a 83bd 6719 8c3e 568f 0abe
00000070: a78a b53b fc6b 8cbd
0.037251957 0.14676453 -0.23376378 -0.28518844 -0.26580572 -0.32498834 0.166429 0.10214026
-0.12679471 0.07984134 0.26942402 -0.32067034 0.09449156 -0.0925019 0.16070871 -0.23385449
0.016504774 -0.02208519 -0.21753454 0.3041169 -0.13753384 0.20847169 -0.23406523 -0.023696823
0.19242664 -0.064228274 0.2736313 -0.13531241 0.0055402103 -0.06856534

bias f4 [3]
00000000: 011d adbe e094 a7be 2a13 263e
-0.3381119 -0.3273077 0.16218248
