Models/GNNs/Models_40_36_Datasets/Oryx2/model_RGCN_1000_samples_1000_epochs_64_batchsize.pth (torch, 59982 bytes, 14 tensors)

weight f4 [8, 300]
00000000: 711e 99bd 5915 0a3e 3785 323b 2889 d1bd
00000010: 402b f9bd e24b fe3d d5cd bdbd 9179 183e
00000020: aabf 65bd ea9f 1d3c 01bd 8dbd c931 b93c
00000030: b016 f6bc 6305 483e d83e e9bc 70c3 6dbc
00000040: 9e44 44bd 80de f0bc 9cc8 9dbd 8d54 433e
00000050: e2d1 5b3e ce5f 48bd 4bb8 293e 36bb 0cbe
00000060: 660e 2fbd 08a4 e7bd 48af c0bd e489 97bd
00000070: 60ce 36bc c535 d33d 3f87 88bc 9fce bbbd
00000080: 20c9 67bd ae23 1fbd 26f2 5bbd ddcd 0e3e
00000090: 0216 0b3e a66a f5bd 73e1 98bd 80e4 4d3b
000000a0: 19ac 1e3e 159f 6d3e 79a1 3fbe 554d ec3c
000000b0: a7fe ca3d f193 47bd 5827 43bd c784 863a
000000c0: 575f d53c a802 c9bc 21d8 723c 3e8a ea3c
000000d0: 4e90 b53e 4b15 cdbd 0ce3 753e 5f93 0dbe
000000e0: d5d2 513e 8547 d13d 67ba a03e 4ec5 2dbd
000000f0: 1377 163d b639 533e 96d7 593e a6e9 843e
00000100: 808b ea3a 19e8 f9bd 0959 4fbc 1d2e 703d
00000110: e8b6 423e 7075 203e 00fa 9f39 18d4 b8bd
00000120: 3bc3 f93d 4066 b4bb 4711 523d 1dff c2bc
00000130: 1894 63bd 4e57 853c 8826 32bd cbbe e2bd
00000140: 29d7 3d3e 0989 8bbd 53a6 8a3e 87a6 99bd
00000150: 6467 c2bd 74ad 80bd c38e cd3e 649b 5dbd
00000160: 16f0 bd3c 5724 363d 98fd 69bd 1c20 633d
00000170: dfeb ac3e 44e2 383c 1b66 b6bd d38a 9ebd
00000180: 55ce 9e3e d5f0 acbd 4517 313b 4c9c 053f
00000190: dc3a c3bc a08b 04bc de89 61bd 789c cdbd
000001a0: e415 a9bd 16b2 1ebd 9451 b6bc 8308 023e
000001b0: 7e5c dc3b 8e66 f13d 13db 9a3e b4fe 5fbd
000001c0: e347 013e 176f 7a3b 8b34 633e ca3f 363d
000001d0: b80b 57bd 2c2c 44bd a95a b3bd ead4 dbbd
000001e0: bfe4 673e 9afb 48bd 974a cbbb b0ef 00bd
000001f0: 20e6 3bbd 0c54 833d 4653 cabd c04f 663e
00000200: 7d49 613e c400 adbc e391 8e3e ea40 853e
00000210: e2d0 953e e2ab 00bd e005 47bc 5d02 cbbd
00000220: 0854 7c3c a8dd 683d 003a 33bc b53a 01be
00000230: c3e6 87bd 0e9e 37bd 9016 47bc 9483 3abd
00000240: d8ce 1bbd de76 07be f182 ad3e e085 3a3e
00000250: 92e4 23bd 0861 b3bc ff37 373e 6063 9dbb
00000260: 9207 4b3c 9c76 783e d0c7 ecbd 44f5 d9bd
00000270: 8088 b8ba 7e6d fb3c c983 033e 60f3 043f
00000280: 7612 d83d b54d a33e a40b 38bd 6e6e aabd
00000290: 1cc9 223e 0473 823e a414 e63d f0a0 e9bc
000002a0: be8a 35bd ae9f d53e 2f6a e33e 00d6 3a3c
000002b0: 6091 98bc 4e67 05be 6100 89bd 8938 00be
000002c0: d53b 373e 268b 89bd 18a6 b73d 75aa 013e
000002d0: d35a 123e 0835 84bc f240 5dbd a2d4 acbd
000002e0: 0542 b23c 3f5c cd3d 36c7 6cbd 60b0 babd
000002f0: ac0a 42bd d60c 89bd fe48 aabd 6c0d 5d3e
00000300: 6f3d 453d 95c7 06be 0068 a2ba 5a0c 173e
00000310: 9c74 813d 01b3 253e ac47 67bd 8668 d73d
00000320: b323 183d 06f4 943a 1f08 7d3e 2d7c 103e
00000330: 3eab 6fbd cb0b 403e 60e0 b8bb b83e a43d
00000340: 8cff e2bd 3ae7 8a3e 981a ccbc 1ec6 f0bd
00000350: c3c4 b5bd bc73 02be 1647 50bd 5286 e83d
00000360: 32bc b7bd 5a92 ce3c 4570 03be 7ee4 483d
00000370: a705 003d c7cc 353d 2c23 d33d 8829 783e
00000380: 009a 353e f64f 093e fd2d 153e 3dfc 4cbd
00000390: ff8d be3d 031e 023e 766a a9bd bd6d 2b3e
000003a0: ab2b 713e 4110 623e dc26 babd d6ae 883d
000003b0: 5a07 683e 431a 3c3e db3c 1a3d 54c1 c13d
000003c0: aa93 6f3e 770c 0bbe 48a4 a53c aae1 a8bd
000003d0: 5a84 5f3d fc81 453e 84a8 8abd db9f 373f
000003e0: d9b5 c03e 2247 c4bd a870 c3bd ec8c 8dbc
000003f0: d89f 2cbf 7cd9 e2bd a017 33bd 0265 443d
-0.07476509 0.13484706 0.0027240047 -0.102312386 -0.121664524 0.12416817 -0.09267775 0.14890124
-0.05609099 0.009620646 -0.06920815 0.022606747 -0.030040115 0.19533305 -0.028472349 -0.014511928
-0.047917 -0.029402971 -0.07704279 0.19075222 0.21466783 -0.04891949 0.16574208 -0.1374329
-0.04273834 -0.11310583 -0.09408432 -0.073993474 -0.011157602 0.1031299 -0.016666053 -0.09170269
-0.056588292 -0.038852386 -0.053697728 0.13945718 0.13582614 -0.11983232 -0.07464876 0.0031416714
0.15495338 0.23205216 -0.1871394 0.028845469 0.09911852 -0.048725072 -0.047644943 0.0010262959
0.026046438 -0.0245374 0.014822037 0.028630372 0.35461658 -0.10013827 0.24012393 -0.13825749
0.20490582 0.102187194 0.31392214 -0.042424493 0.03673465 0.20627484 0.21273646 0.2595951
0.0017894357 -0.12202472 -0.012655505 0.058637727 0.19015086 0.15669799 0.00030513108 -0.09024829
0.121954404 -0.005505353 0.05128601 -0.023803288 -0.055561155 0.016276982 -0.043493778 -0.11071547
0.18539108 -0.06813247 0.2708002 -0.07502466 -0.094923764 -0.062830836 0.4014798 -0.05410327
0.023185771 0.04446825 -0.05712661 0.055450544 0.33773705 0.011284415 -0.08906194 -0.07741322
0.31016794 -0.084443726 0.0027021926 0.52191615 -0.023831777 -0.00808993 -0.05506312 -0.1003961
-0.082561284 -0.038744055 -0.022255696 0.1269856 0.006724893 0.11787139 0.30245265 -0.054686263
0.12625079 0.0038213187 0.22188012 0.044494428 -0.05250141 -0.047893688 -0.087575264 -0.107339695
0.22645853 -0.04906807 -0.00620396 -0.031478584 -0.04587376 0.06412515 -0.098791644 0.2249136
0.2200069 -0.02111853 0.27845678 0.26026088 0.29260927 -0.03141392 -0.012147397 -0.0991256
0.015400894 0.056852013 -0.010939121 -0.12620051 -0.06635811 -0.044828467 -0.012151375 -0.04553564
-0.03803906 -0.13228938 0.33888963 0.18215132 -0.040012904 -0.021896854 0.17892455 -0.004803106
0.012391942 0.24263996 -0.11561549 -0.10642484 -0.0014078766 0.030691858 0.12843241 0.5193386
0.10550396 0.31895223 -0.044932976 -0.08321844 0.1589703 0.25478375 0.11234406 -0.028519124
-0.044321768 0.41723388 0.4441695 0.011403561 -0.018624008 -0.13027689 -0.066895254 -0.12521566
0.17893918 -0.067159936 0.08967227 0.1266268 0.14292459 -0.016138569 -0.054017015 -0.08438994
0.021759996 0.1002736 -0.05780717 -0.09115672 -0.04737346 -0.066919014 -0.083147034 0.21587151
0.04815429 -0.13162072 -0.0012390614 0.14750805 0.063210696 0.16181566 -0.056464836 0.10517983
0.03714342 0.0011364229 0.24710129 0.1410987 -0.05851292 0.18754499 -0.005641982 0.08019775
-0.11083898 0.27129537 -0.024915025 -0.11756538 -0.0887542 -0.12739462 -0.050849043 0.113537446
-0.08971442 0.02521627 -0.12835796 0.049046032 0.03125539 0.044384744 0.10309443 0.24234593
0.17734528 0.13409409 0.14568324 -0.05004524 0.09304427 0.12706761 -0.08272259 0.1674108
0.23551814 0.22076513 -0.09089443 0.06673972 0.22659054 0.18369393 0.037655693 0.094607025
0.23396173 -0.13578974 0.020219937 -0.08246167 0.05456958 0.19287866 -0.06770423 0.71728295
0.3763874 -0.0958388 -0.09542972 -0.01727911 -0.674314 -0.11076638 -0.043723702 0.04794789

bias f4 [300]
00000000: 87b0 29bc 384d 403e 2fcf 70bc 0000 0000
00000010: 0000 0000 7366 143e bd66 71bc 56a2 3e3e
00000020: 0000 0000 7ec4 f4bc 0000 0000 955a f4bc
00000030: 0000 0000 2c6c 443e 0000 0000 0000 0000
00000040: 0000 0000 0000 0000 0000 0000 64b8 243e
00000050: 5000 613e 0000 0000 d90e 603e 4563 453e
00000060: ff1b dcbb 0000 0000 0000 0000 2ad7 bdbb
00000070: 0000 0000 7200 753e 0b82 59bc 41a1 0abc
00000080: 0000 0000 0000 0000 a6ae 71bc 27d0 403e
00000090: 6e4f 4a3e 0000 0000 3dc2 c4bb 0000 0000
000000a0: c8a2 5d3e 2b82 573e 9d08 573e dbb8 b3bc
000000b0: e474 5a3e c2df 313e bcab 0abc 85c3 c4bb
000000c0: 3411 febc 0000 0000 ed6a 95bc a733 fabc
000000d0: 9416 953e 0000 0000 de15 473e 0000 0000
000000e0: d5c8 2d3e f959 533e 9ac3 a83e c2dd 40bc
000000f0: 0956 253e a217 833e 243e 393e 0084 9e3e
00000100: 0000 0000 4646 563e 1e6b 0abc c8fe 1d3e
00000110: 40c7 4b3e 02d9 803e 0000 0000 8cc7 c4bb
00000120: fef9 683e 0000 0000 a9ff 1cbd ffc8 363e
00000130: 0000 0000 3e1a cabc d8bf c4bb 0000 0000
00000140: 3e0a 523e 6148 dfbb 7aa3 263f ea19 44bc
00000150: 0000 0000 0000 0000 25cb 953e 41c6 43bc
00000160: b2e9 273e 5454 3c3e 0000 0000 1a42 273e
00000170: 9be5 823e 0cdf b9bc 6ee0 263e 0000 0000
00000180: 9aca 883e 0000 0000 c1ed 9fbc ded0 a83e
00000190: 0000 0000 0000 0000 2ec2 c4bb b71a 20bc
000001a0: 0000 0000 0000 0000 0000 0000 934d 293e
000001b0: fec8 c4bb 536b 4f3e 09ca 6b3e 0000 0000
000001c0: 3bbe 583e f0c8 c4bb 2fa1 8e3e 2650 23bd
000001d0: 0000 0000 0000 0000 27a0 84bc 0000 0000
000001e0: b55b 233e eb37 5abc c13d dbbc 0000 0000
000001f0: 0000 0000 9d82 333e 0000 0000 90e8 423e
00000200: 1c50 403e 0000 0000 4130 463e 1a0d 5c3e
00000210: 08bd 44be a339 a43e 0000 0000 1f64 653e
00000220: fa6c b5bc 5ef2 413e 0000 0000 fcae 0abc
00000230: befc 653e 2394 29bc 0000 0000 c481 8cbc
00000240: 0000 0000 0000 0000 bbb7 9f3e e81a 3a3e
00000250: 8622 5a3e 0000 0000 57a1 1e3e 0000 0000
00000260: 0765 d2bc 89f7 743e 0000 0000 ee27 6dbc
00000270: 0000 0000 b0c1 2c3e b8c9 653e 4a12 da3e
00000280: bf4e 1f3e 6857 8d3e 0000 0000 386d 43bc
00000290: 446e 563e 6be1 863e 02a8 303e 1056 0abc
000002a0: 0000 0000 e4b7 ea3e d4de 5d3e 0000 0000
000002b0: 0482 0abc 0000 0000 0000 0000 0000 0000
000002c0: 8ad4 213e 0000 0000 535f 373e bd45 1f3e
000002d0: cf94 2b3e 0000 0000 0000 0000 d45c 29bc
000002e0: f29d 333e c8fb 823e 0000 0000 bab6 0abc
000002f0: 0000 0000 0000 0000 0000 0000 f367 4f3e
00000300: a3ef 413e 0000 0000 0000 0000 ad75 643e
00000310: 082e 353e 0581 5a3e 0000 0000 608b 643e
00000320: 3495 3e3e a27e 41bc fb34 5a3e b78a 4b3e
00000330: 4fe9 59bc 27c8 493e 0000 0000 6a14 3b3e
00000340: 0000 0000 d243 003f 0000 0000 0000 0000
00000350: db23 4c3e 0000 0000 0000 0000 9628 443e
00000360: 0000 0000 3267 323e 0000 0000 2c03 1bbd
00000370: cec5 d1bc 9481 2c3e 9bc0 4d3e b4af 563e
00000380: c580 203e 2e19 253e d4e2 093e 4699 9cbc
00000390: 7242 2b3e 2920 353e 0000 0000 b8cf 293e
000003a0: c9a3 483e c9ce b33e 0000 0000 ca3e 583e
000003b0: 2ce3 2d3e 8148 1d3e 47c9 3e3e 2804 693e
000003c0: 9bc4 733e ffc1 c4bb 1cc2 11bd 0000 0000
000003d0: ce58 6d3e e700 203e 0000 0000 bbcf e83e
000003e0: 0e23 d93e 0000 0000 49da 8bbc 3615 29bc
000003f0: ba4a f33d f215 70bc 0000 0000 7304 19bd
-0.010357029 0.18779457 -0.014697834 0.0 0.0 0.14492206 -0.014733967 0.18616614
0.0 -0.029878851 0.0 -0.02982835 0.0 0.1918189 0.0 0.0
0.0 0.0 0.0 0.16085964 0.21972775 0.0 0.21880664 0.1927615
-0.0067172046 0.0 0.0 -0.005793472 0.0 0.23925951 -0.013275634 -0.0084612975
0.0 0.0 -0.014751112 0.18829404 0.19756863 0.0 -0.0060046003 0.0
0.21644127 0.21045749 0.2099938 -0.021938732 0.21333653 0.17370513 -0.008463796 -0.006004753
-0.031014062 0.0 -0.018239463 -0.030542208 0.29118788 0.0 0.19441935 0.0
0.16971143 0.2063979 0.32961732 -0.011771621 0.16146101 0.25603968 0.18090111 0.30960083
0.0 0.20925245 -0.00844839 0.15429223 0.19900227 0.25165564 0.0 -0.006005233
0.22751614 0.0 -0.038329754 0.17850111 0.0 -0.024670716 -0.006004315 0.0
0.2051172 -0.006814048 0.65093195 -0.011969069 0.0 0.0 0.2925655 -0.011949123
0.16397741 0.18391544 0.0 0.1633381 0.255658 -0.022689365 0.1629655 0.0
0.26717073 0.0 -0.01952255 0.32971853 0.0 0.0 -0.0060045933 -0.009771994
0.0 0.0 0.0 0.16533498 -0.0060054054 0.20255785 0.23026289 0.0
0.21166317 -0.006005399 0.27857348 -0.039871357 0.0 0.0 -0.016189648 0.0
0.15952952 -0.013318996 -0.026762845 0.0 0.0 0.17530294 0.0 0.19034028
0.1878056 0.0 0.19354345 0.21489373 -0.19212735 0.32075223 0.0 0.22401474
-0.02214669 0.18940112 0.0 -0.008464571 0.22459695 -0.01035026 0.0 -0.01715172
0.0 0.0 0.31194863 0.18174326 0.21302232 0.0 0.15491234 0.0
-0.02568294 0.23922552 0.0 -0.014474852 0.0 0.16870761 0.22440231 0.42592078
0.15557383 0.27605748 0.0 -0.011927895 0.209405 0.26343855 0.1725159 -0.00844337
0.0 0.45843422 0.21667033 0.0 -0.00845385 0.0 0.0 0.0
0.15803733 0.0 0.17907457 0.15553947 0.16755985 0.0 0.0 -0.010337073
0.1754072 0.2558272 0.0 -0.008466417 0.0 0.0 0.0 0.20254497
0.1893907 0.0 0.0 0.22310515 0.17693341 0.2133828 0.0 0.22318792
0.18611604 -0.011809977 0.21309273 0.19877134 -0.013300254 0.19705258 0.0 0.18269506
0.0 0.50103486 0.0 0.0 0.19935553 0.0 0.0 0.19156107
0.0 0.17422178 0.0 -0.03784482 -0.025607016 0.16846305 0.20093004 0.20965463
0.15674122 0.16122887 0.13465434 -0.019116055 0.16724566 0.1768805 0.0 0.16583145
0.19593729 0.35118702 0.0 0.21117702 0.1698119 0.1535969 0.18631469 0.22755492
0.23805468 -0.0060045714 -0.035585508 0.0 0.23178408 0.15625344 0.0 0.45470986
0.42409557 0.0 -0.01707186 -0.0103199985 0.11879487 -0.01465367 0.0 -0.03735776

weight f4 [8, 300]
00000000: fd23 c0bd b0a0 963c 3a2c ce3d 94e8 783d
00000010: d890 f9bd 8824 cd3d 0628 67bd e14f 033e
00000020: faf6 8c3d 9682 be3d 9237 9e3d b8e8 f13c
00000030: 6cbb 04be 882e c33d 66bc 0dbd b59c 0abe
00000040: 4c5c 0ebe 2093 bebc 34bb cabd 6036 ecbb
00000050: 80a2 d63a 7bf4 93bd 5430 2b3d 0601 e53d
00000060: f316 edbd 00d5 323b 358e f2bd 04a9 a83d
00000070: a094 cebb d31e 82bd b1b4 0c3e a061 02bd
00000080: 0475 723d e0a3 d73c 7a49 b4bd 42c1 963d
00000090: 06b5 10bd 800e 40bb 4017 6a3b b005 20bd
000000a0: 08d8 b23d f6d0 94bd 0223 acbd fe74 9c3d
000000b0: 0e6c ca3d ca68 fc3d 5628 e3bd 85b5 033e
000000c0: 061a a6bd 3b5b 88bd 4c1d ad3d 8059 5dbc
000000d0: 5e18 07be 20b6 813d 184a be3c d0fb 58bc
000000e0: f567 02be 6c21 323d 803b 373c 6930 c4bd
000000f0: 8e86 923d 8bfb 07be 00bf eaba f079 393c
00000100: 9223 39bd 725f d73d 1f0e 0d3e 0ea5 acbd
00000110: 51b3 e3bd e0dd 08be 667d 13bd 1c51 33bd
00000120: c634 47bd c8a4 b53c 8465 a1bc c59f bfbd
00000130: 9258 c83d ab7b 053e 9bb5 0a3e a225 eebd
00000140: f0cc 37bc 18c0 dabd a035 d23d fedb d13d
00000150: a45d 1c3d 2dce 063e 80f6 d7bd 9aa9 ab3d
00000160: 78ed 163d d844 3e3d 78b1 a2bd af83 013e
00000170: 3f41 8abd 7020 dbbd 60b4 3a3d 204c 7fbd
00000180: 6af5 cabd b026 383d 18a9 c33c bfb4 023e
00000190: 28ac 4abd 3869 523d 5827 debc 1010 0a3d
000001a0: dc3a cfbd 90cf e93c 5f75 093e 085d 4f3d
000001b0: 789e d53d 8cb6 9ebd d2fd 09be 04bc dcbd
000001c0: 00e6 09ba 3653 f33d 0cc0 adbd 8058 403d
000001d0: 301c c53c 9cfb debd f2ae c53d 70fb 0cbe
000001e0: 6030 0d3c 0d44 9abd 542c a7bd 4492 4b3d
000001f0: 101a 583d 901c 54bd 2c13 783d 8c3d c9bc
00000200: a6cb 1bbd 2923 a3bd 8ed1 77bd 70e3 853c
00000210: b832 8f3c 62b5 04be b870 a53c 80c8 093c
00000220: 4534 0c3e 495b f0bd 4b66 9bbd 3a75 4ebd
00000230: ba3e a53d 1073 813d 5c53 2bbd b0e9 ca3c
00000240: c400 943d 5de7 033e bcce c0bd e883 2e3d
00000250: 6653 e83d 114c c9bd 8a1b 8ebd 0477 c1bd
00000260: 0cd9 babc 5057 8f3c e430 ac3d 541d 043d
00000270: 8ea2 ac3d 0c58 9f3d b035 313c b228 a2bd
00000280: c0d8 26bd 63c5 0c3e b4c5 18bd 80dc 973d
00000290: 3ca7 5d3d ccbe 91bc 4c3d 5f3d 10cd bcbd
000002a0: 3c74 00be 50f1 7cbd e09c 2d3d aa77 25bd
000002b0: f973 08be d616 0abe 2e55 61bd 0443 30bd
000002c0: 188b 4fbd 8c5b ecbd 802e 7a3b c693 ab3d
000002d0: bafa f6bd 04be c83d 2069 ce3b 7cdf 863d
000002e0: 9e33 a93d 980f c23c 50fa 673c b017 07be
000002f0: b391 93bd a8b7 c1bc 2c27 b5bd eaa2 07bd
00000300: b2a4 fdbd 348b 4fbd cc5e 683d d43b e7bc
00000310: c9bc f3bd bb75 97bd 8451 b6bd 0a9d 3bbd
00000320: 6d1f 8abd e2e8 63bd 0be8 9fbd e483 8dbc
00000330: 3a0e 933d 418c 083e 20da 35bc c07f 333d
00000340: d9cd 063e f209 72bd 7070 423d 1011 dc3d
00000350: 2293 2fbd bef0 3cbd 9088 3dbc 7096 473d
00000360: dc8f 283d 4ee9 bbbd b43a 4cbd dbfa f2bd
00000370: 40f5 d93d 7df9 0b3e e20d c33d 12c0 f53d
00000380: b0cb 453c 807c d83c c479 cc3d 8025 a13b
00000390: 808b 4fbb 4433 cc3d e229 ff3d 8623 f7bd
000003a0: 7026 863c bcaf c83d d235 aabd 1221 e6bd
000003b0: a98d 003e af9d b4bd 502e c33d 4cee f0bd
000003c0: 8c84 a83d e04f 55bc 4a7d eb3d 9600 e33d
000003d0: 2d7a 07be 906e 4c3c d3b1 c9bd aa21 ed3d
000003e0: 4c95 aebd 972f 94bd 50e1 053d d7d6 d2bd
000003f0: e66b b83d f4f1 a53d 2db4 8ebd 37f1 0c3e
-0.09381864 0.018387169 0.10067029 0.06076868 -0.1218583 0.100167334 -0.056434654 0.1282344
0.068830445 0.09302251 0.07725443 0.029529914 -0.12962121 0.095303595 -0.0346035 -0.13536341
-0.13902396 -0.023263514 -0.098989874 -0.0072086304 0.0016375333 -0.07224365 0.041794136 0.11181836
-0.11576643 0.0027287602 -0.1184353 0.08235362 -0.0063043386 -0.063535355 0.13740803 -0.031831384
0.059193626 0.026323259 -0.08803077 0.0736108 -0.035328887 -0.0029305518 0.0035719424 -0.039067924
0.08732611 -0.07266419 -0.08405115 0.07639502 0.09883891 0.123246744 -0.11091678 0.12862213
-0.08110432 -0.06658026 0.084528536 -0.013510108 -0.13192889 0.06333566 0.02322869 -0.0132436305
-0.12734969 0.043488905 0.0111836195 -0.09579546 0.071545705 -0.1327955 -0.0017909706 0.011320576
-0.045199938 0.105162516 0.13774918 -0.08429919 -0.11118186 -0.13365889 -0.03600826 -0.043778524
-0.048634313 0.0221733 -0.019701727 -0.093566455 0.097825184 0.13035457 0.1354584 -0.11628272
-0.0112182945 -0.1068117 0.102641344 0.10247038 0.03817524 0.13164587 -0.10545063 0.08381958
0.03684756 0.046452373 -0.07944006 0.1264789 -0.06750726 -0.10699546 0.045582175 -0.062328458
-0.0991009 0.04495877 0.023884341 0.12764262 -0.049480587 0.051369876 -0.02711837 0.033706725
-0.101186484 0.028541356 0.1342368 0.05062583 0.10430616 -0.07749662 -0.13475731 -0.10778049
-0.0005260408 0.118811056 -0.08483896 0.0469594 0.024061292 -0.108878344 0.09652509 -0.13767791
0.0086174905 -0.07532511 -0.08162752 0.049700037 0.05275923 -0.05178505 0.06056516 -0.02456548
-0.03803601 -0.07965691 -0.06050258 0.016343802 0.01748024 -0.12959817 0.02019535 0.008409619
0.13691814 -0.11736161 -0.0758787 -0.050404765 0.08068605 0.063207746 -0.041827545 0.024769634
0.072267085 0.12881227 -0.094144315 0.042606264 0.11344032 -0.09828962 -0.069388464 -0.094465286
-0.022808574 0.017497689 0.08407763 0.032254532 0.08429442 0.077804655 0.010816023 -0.07917918
-0.040734053 0.13747172 -0.03729792 0.07415104 0.054114565 -0.017791174 0.054501817 -0.092188
-0.1254434 -0.06175357 0.042385936 -0.040397324 -0.1332549 -0.13485274 -0.055012874 -0.04303266
-0.05066976 -0.11540899 0.0038174689 0.08377795 -0.12059541 0.098018676 0.006299153 0.06585595
0.08261798 0.023689076 0.0141588 -0.1319263 -0.07205524 -0.023647144 -0.08845362 -0.03311435
-0.12384929 -0.050669864 0.05673103 -0.02822677 -0.11901242 -0.07395502 -0.089022666 -0.04580406
-0.06744275 -0.055642016 -0.078079306 -0.017274804 0.07180448 0.13334753 -0.011099368 0.043823004
0.13164462 -0.059091516 0.04747051 0.10745442 -0.042864926 -0.046128027 -0.011568204 0.048727453
0.04115282 -0.09175359 -0.04986067 -0.11864253 0.10642481 0.13669391 0.09524132 0.11999525
0.012072489 0.026426554 0.099841624 0.0049178004 -0.0031668842 0.09970716 0.124591604 -0.120673224
0.01637575 0.09799144 -0.08311047 -0.112367764 0.12554039 -0.08819138 0.09530318 -0.117642015
0.08228406 -0.013019532 0.11498506 0.11084096 -0.132302 0.012477532 -0.098483704 0.115786865
-0.0852457 -0.072356395 0.032685578 -0.10294884 0.09004955 0.081027895 -0.069679596 0.13763891

bias f4 [300]
00000000: 0000 0000 0000 0000 0000 0000 0000 0000
00000010: 0000 0000 0000 0000 0000 0000 0000 0000
00000020: 0000 0000 0000 0000 0000 0000 0000 0000
00000030: 0000 0000 0000 0000 0000 0000 0000 0000
00000040: 0000 0000 0000 0000 0000 0000 0000 0000
00000050: 0000 0000 0000 0000 0000 0000 0000 0000
00000060: 0000 0000 0000 0000 0000 0000 0000 0000
00000070: 0000 0000 0000 0000 0000 0000 0000 0000
00000080: 0000 0000 0000 0000 0000 0000 0000 0000
00000090: 0000 0000 0000 0000 0000 0000 0000 0000
000000a0: 0000 0000 0000 0000 0000 0000 0000 0000
000000b0: 0000 0000 0000 0000 0000 0000 0000 0000
000000c0: 0000 0000 0000 0000 0000 0000 0000 0000
000000d0: 0000 0000 0000 0000 0000 0000 0000 0000
000000e0: 0000 0000 0000 0000 0000 0000 0000 0000
000000f0: 0000 0000 0000 0000 0000 0000 0000 0000
00000100: 0000 0000 0000 0000 0000 0000 0000 0000
00000110: 0000 0000 0000 0000 0000 0000 0000 0000
00000120: 0000 0000 0000 0000 0000 0000 0000 0000
00000130: 0000 0000 0000 0000 0000 0000 0000 0000
00000140: 0000 0000 0000 0000 0000 0000 0000 0000
00000150: 0000 0000 0000 0000 0000 0000 0000 0000
00000160: 0000 0000 0000 0000 0000 0000 0000 0000
00000170: 0000 0000 0000 0000 0000 0000 0000 0000
00000180: 0000 0000 0000 0000 0000 0000 0000 0000
00000190: 0000 0000 0000 0000 0000 0000 0000 0000
000001a0: 0000 0000 0000 0000 0000 0000 0000 0000
000001b0: 0000 0000 0000 0000 0000 0000 0000 0000
000001c0: 0000 0000 0000 0000 0000 0000 0000 0000
000001d0: 0000 0000 0000 0000 0000 0000 0000 0000
000001e0: 0000 0000 0000 0000 0000 0000 0000 0000
000001f0: 0000 0000 0000 0000 0000 0000 0000 0000
00000200: 0000 0000 0000 0000 0000 0000 0000 0000
00000210: 0000 0000 0000 0000 0000 0000 0000 0000
00000220: 0000 0000 0000 0000 0000 0000 0000 0000
00000230: 0000 0000 0000 0000 0000 0000 0000 0000
00000240: 0000 0000 0000 0000 0000 0000 0000 0000
00000250: 0000 0000 0000 0000 0000 0000 0000 0000
00000260: 0000 0000 0000 0000 0000 0000 0000 0000
00000270: 0000 0000 0000 0000 0000 0000 0000 0000
00000280: 0000 0000 0000 0000 0000 0000 0000 0000
00000290: 0000 0000 0000 0000 0000 0000 0000 0000
000002a0: 0000 0000 0000 0000 0000 0000 0000 0000
000002b0: 0000 0000 0000 0000 0000 0000 0000 0000
000002c0: 0000 0000 0000 0000 0000 0000 0000 0000
000002d0: 0000 0000 0000 0000 0000 0000 0000 0000
000002e0: 0000 0000 0000 0000 0000 0000 0000 0000
000002f0: 0000 0000 0000 0000 0000 0000 0000 0000
00000300: 0000 0000 0000 0000 0000 0000 0000 0000
00000310: 0000 0000 0000 0000 0000 0000 0000 0000
00000320: 0000 0000 0000 0000 0000 0000 0000 0000
00000330: 0000 0000 0000 0000 0000 0000 0000 0000
00000340: 0000 0000 0000 0000 0000 0000 0000 0000
00000350: 0000 0000 0000 0000 0000 0000 0000 0000
00000360: 0000 0000 0000 0000 0000 0000 0000 0000
00000370: 0000 0000 0000 0000 0000 0000 0000 0000
00000380: 0000 0000 0000 0000 0000 0000 0000 0000
00000390: 0000 0000 0000 0000 0000 0000 0000 0000
000003a0: 0000 0000 0000 0000 0000 0000 0000 0000
000003b0: 0000 0000 0000 0000 0000 0000 0000 0000
000003c0: 0000 0000 0000 0000 0000 0000 0000 0000
000003d0: 0000 0000 0000 0000 0000 0000 0000 0000
000003e0: 0000 0000 0000 0000 0000 0000 0000 0000
000003f0: 0000 0000 0000 0000 0000 0000 0000 0000
0.0 0.0 0.0 0.0 0.0 0.0 0.0 0.0
0.0 0.0 0.0 0.0 0.0 0.0 0.0 0.0
0.0 0.0 0.0 0.0 0.0 0.0 0.0 0.0
0.0 0.0 0.0 0.0 0.0 0.0 0.0 0.0
0.0 0.0 0.0 0.0 0.0 0.0 0.0 0.0
0.0 0.0 0.0 0.0 0.0 0.0 0.0 0.0
0.0 0.0 0.0 0.0 0.0 0.0 0.0 0.0
0.0 0.0 0.0 0.0 0.0 0.0 0.0 0.0
0.0 0.0 0.0 0.0 0.0 0.0 0.0 0.0
0.0 0.0 0.0 0.0 0.0 0.0 0.0 0.0
0.0 0.0 0.0 0.0 0.0 0.0 0.0 0.0
0.0 0.0 0.0 0.0 0.0 0.0 0.0 0.0
0.0 0.0 0.0 0.0 0.0 0.0 0.0 0.0
0.0 0.0 0.0 0.0 0.0 0.0 0.0 0.0
0.0 0.0 0.0 0.0 0.0 0.0 0.0 0.0
0.0 0.0 0.0 0.0 0.0 0.0 0.0 0.0
0.0 0.0 0.0 0.0 0.0 0.0 0.0 0.0
0.0 0.0 0.0 0.0 0.0 0.0 0.0 0.0
0.0 0.0 0.0 0.0 0.0 0.0 0.0 0.0
0.0 0.0 0.0 0.0 0.0 0.0 0.0 0.0
0.0 0.0 0.0 0.0 0.0 0.0 0.0 0.0
0.0 0.0 0.0 0.0 0.0 0.0 0.0 0.0
0.0 0.0 0.0 0.0 0.0 0.0 0.0 0.0
0.0 0.0 0.0 0.0 0.0 0.0 0.0 0.0
0.0 0.0 0.0 0.0 0.0 0.0 0.0 0.0
0.0 0.0 0.0 0.0 0.0 0.0 0.0 0.0
0.0 0.0 0.0 0.0 0.0 0.0 0.0 0.0
0.0 0.0 0.0 0.0 0.0 0.0 0.0 0.0
0.0 0.0 0.0 0.0 0.0 0.0 0.0 0.0
0.0 0.0 0.0 0.0 0.0 0.0 0.0 0.0
0.0 0.0 0.0 0.0 0.0 0.0 0.0 0.0
0.0 0.0 0.0 0.0 0.0 0.0 0.0 0.0

weight f4 [8, 300]
00000000: b802 7bbd ccb5 5b3d 889d d8bd 54bc f9bd
00000010: d058 223d 7867 23bd 9031 523d 09c2 093e
00000020: 06b9 30bd 6a11 90bd 40e3 2b3b ad71 0a3e
00000030: 8086 873c 04e2 343d e282 a73d aaf0 e73d
00000040: 0c3d 263d 9cf5 833d e880 b43c 9243 833d
00000050: b1e1 063e 908d 573d ac06 d4bd 00f4 4fba
00000060: e0b5 7e3c 4005 e33c 80c9 d33b 9024 0f3c
00000070: 0e99 833d 4209 a03d 6d6d 8bbd 3074 adbd
00000080: 6e65 9a3d 30c7 dfbd 76f3 0dbe 6c82 9c3d
00000090: 5fa7 03be 6cc7 133d 94fc 0cbd a434 af3d
000000a0: 32fd ff3d 7c62 b1bc 2013 b3bc a015 a53b
000000b0: 760e a03d e9f7 c3bd 809b 7d3d 4068 37bc
000000c0: 8a02 50bd a224 b6bd e233 db3d 2cf8 ebbd
000000d0: a02d 6abd e0bd 923c 5f76 ecbd d6d4 b63d
000000e0: 0cfd 413d 1c0c dcbd 7efb e23d 22d2 acbd
000000f0: 20c8 523d 9eb8 f23d 80a4 043d c766 0ebe
00000100: 80d2 30bb f202 e03d 1269 bdbd ec6e 7ebd
00000110: 9298 e63d ecf6 dbbd b6f5 94bd 9873 3e3d
00000120: ae31 fc3d 961d 52bd 06c3 f4bd acd7 7a3d
00000130: 8040 59bd 0bc3 0bbe d064 893c cc48 ddbd
00000140: 82d1 bcbd 96d2 9cbd 3e09 02be a14b a0bd
00000150: cc72 a53d 6034 d5bd 7698 fb3d f88c 093d
00000160: 17ea 053e 245d 8fbd 2a4e 50bd a24e 67bd
00000170: 39ea ddbd e85a b7bd bde1 91bd 981d 593d
00000180: 10b5 cd3c e0c1 fa3c 7fbf 08be a5bb a0bd
00000190: 6097 1e3d 5f2f 013e 34ab d0bd d0f3 333c
000001a0: 286e 423d 0e23 dd3d 4084 40bd 003f 12ba
000001b0: 0481 143d d00c c83d a56c c4bd d818 8f3d
000001c0: 28fc e03d 759a c7bd f880 c03d 38bd 613d
000001d0: 8cc7 26bd 601e 02be f214 d43d 5a31 15bd
000001e0: 8f51 0dbe 10df d93c 0cbb 153d 40cf a93b
000001f0: 68fb 883c ee8e 873d bc1c 93bd 00ed 49ba
00000200: 90e0 2abc 9076 a63c 32b7 fcbd fc72 d63d
00000210: f9cd 9cbd 300a 053d 5c93 8dbd f817 83bc
00000220: 38dd 5d3d 5439 053d ca09 ee3d 78d2 dc3c
00000230: 1cf7 2e3d e89d 8a3d fe23 67bd 8e0b 64bd
00000240: 00f6 163a 226d 91bd 807a 7d3d c0fb df3d
00000250: 92be f6bd f4fb bebd 45d8 06be cbeb 063e
00000260: 5e50 8ebd a81b 643d 0344 a7bd f830 c93c
00000270: 1e73 853d 02b6 c73d 405b 533d 1a17 ea3d
00000280: 68a7 a03c d027 473d 68ef 993d c40e c23d
00000290: c094 0cbb d042 5a3c c2b8 fd3d 3cf7 1dbd
000002a0: b0f6 c63d f41d a73d 64d6 80bd 1484 883d
000002b0: a409 2ebd f12e 0c3e f057 7e3c 6cdf 473d
000002c0: 9ef8 9b3d 5226 3dbd f570 053e 86d7 f33d
000002d0: 4050 953b b081 d63c 7496 f1bc a66b ce3d
000002e0: 38c8 9f3d 00ea 2c3a 0e8c 0cbe 70ce 81bc
000002f0: 6eab 9ebd b822 673d 3c72 d6bd 8212 e53d
00000300: ecba a7bd 3ade 9ebd b1e3 0b3e 544b 7b3d
00000310: 30b0 2c3d d4b5 44bd f817 283d 6a33 9e3d
00000320: bc20 073d f0c0 763d f435 0ebd cbad f9bd
00000330: e65f 1ebd 34b7 7c3d 9a7c 8a3d 0004 023a
00000340: c0eb c33c 0c76 903d d0b9 aebd 0089 5d3d
00000350: c5e3 e1bd 9010 b9bc 2294 a5bd cc10 d23d
00000360: 80d6 aa3d 4065 dbbc 1672 c13d eef9 923d
00000370: a486 463d b06b 1f3d a0e5 7e3d a21e 52bd
00000380: 4067 933c 1c34 0dbd 08f0 e13c a6b1 58bd
00000390: 5205 ea3d 4e68 ccbd 685a 6fbc c408 b7bd
000003a0: 765d dfbd acad 16bd fb97 043e 0040 2f3a
000003b0: ba5c 39bd 229f fa3d ac6c dbbd c65d f73d
000003c0: f0b3 c23c 8842 c23d 6680 cb3d b0a3 f3bd
000003d0: 50ad 4a3d 58c5 eb3c d0ef 07be 301f 12bc
000003e0: 0541 91bd b07f 113c 9c7d 0f3d 28ef f2bd
000003f0: 76d8 c23d d0ac 21bc 90aa e03c 220c 7fbd
-0.06128189 0.053640172 -0.10576922 -0.12194124 0.03963548 -0.039893597 0.051316798 0.13452925
-0.043145202 -0.070345715 0.002622798 0.13519926 0.016543627 0.044160858 0.08179261 0.113252
0.040585563 0.06443331 0.022034124 0.064093724 0.13172032 0.05262524 -0.10352835 -0.0007932782
0.015546292 0.027712464 0.0064632297 0.0087367445 0.06425677 0.07814266 -0.06807981 -0.08469427
0.075388774 -0.10926664 -0.13862404 0.076420635 -0.12856816 0.036078855 -0.034420565 0.08554962
0.12499465 -0.021653406 -0.021859705 0.0050379783 0.07815258 -0.095687695 0.061915874 -0.011194289
-0.05078367 -0.08893706 0.10703255 -0.115219444 -0.057172418 0.017912805 -0.11546015 0.08927314
0.047360465 -0.10744497 0.110831246 -0.08438517 0.051460385 0.11851619 0.032383442 -0.13906394
-0.0026980937 0.10938062 -0.09248556 -0.062117502 0.11259569 -0.10740456 -0.07273428 0.046496958
0.12314163 -0.051297747 -0.1195126 0.061240837 -0.053040028 -0.13648622 0.016771704 -0.108049005
-0.09219648 -0.076573536 -0.12698838 -0.07826925 0.080785364 -0.1041038 0.12284939 0.033581704
0.1307758 -0.07000187 -0.050855793 -0.056471474 -0.1083569 -0.08952886 -0.07123134 0.05300674
0.025110751 0.030610025 -0.133543 -0.0784829 0.03871858 0.12615727 -0.101889044 0.010983422
0.047468334 0.10797702 -0.047001123 -0.0005578846 0.03625585 0.09768069 -0.09591035 0.069871604
0.10985595 -0.09746257 0.09399599 0.055112094 -0.040717646 -0.127069 0.103555575 -0.03642402
-0.13800643 0.026595622 0.036555335 0.005182177 0.016721442 0.066190585 -0.07183215 -0.0007702857
-0.010429516 0.020320207 -0.12339629 0.1047115 -0.07656474 0.03248042 -0.06912872 -0.01600264
0.05416605 0.032525375 0.11622961 0.026955828 0.04271613 0.067683995 -0.05643081 -0.055675082
0.0005758703 -0.071008936 0.061884403 0.109366894 -0.12048067 -0.093254 -0.13168438 0.13175885
-0.069489226 0.055690438 -0.08167269 0.024559483 0.065160975 0.09751512 0.051600695 0.114301875
0.019611076 0.048621953 0.07516366 0.094754726 -0.0021450967 0.013321593 0.123887554 -0.03856586
0.09715021 0.0816001 -0.06290892 0.06665817 -0.042489663 0.13689782 0.015523896 0.048797056
0.07615779 -0.046179123 0.13031371 0.11906342 0.0045566857 0.026184887 -0.029490687 0.10079126
0.078018606 0.0006596148 -0.13725302 -0.015845507 -0.07747541 0.056429595 -0.10471007 0.11185171
-0.081899494 -0.0775723 0.13661076 0.061351135 0.042160213 -0.048024967 0.041038483 0.0772465
0.032990202 0.060242593 -0.034719422 -0.121913515 -0.038665675 0.061698154 0.06762047 0.00049597025
0.023916125 0.07053766 -0.08531535 0.05408573 -0.11029772 -0.022590905 -0.08084895 0.1025711
0.08341694 -0.026781678 0.09445588 0.071765766 0.048468247 0.03892106 0.062230706 -0.051298745
0.01799357 -0.034473523 0.027580276 -0.052903794 0.11426796 -0.09980832 -0.014608957 -0.08937219
-0.10906498 -0.03678672 0.12948601 0.0006685257 -0.045254447 0.122373834 -0.10714087 0.12078433
0.023767442 0.09485346 0.099365994 -0.11896455 0.04948169 0.028780624 -0.13275075 -0.0089185685
-0.070924796 0.008880541 0.0350319 -0.11862022 0.09513943 -0.009867862 0.02742508 -0.06226743

bias f4 [300]
00000000: 0000 0000 0000 0000 0000 0000 0000 0000
00000010: 0000 0000 0000 0000 0000 0000 0000 0000
00000020: 0000 0000 0000 0000 0000 0000 0000 0000
00000030: 0000 0000 0000 0000 0000 0000 0000 0000
00000040: 0000 0000 0000 0000 0000 0000 0000 0000
00000050: 0000 0000 0000 0000 0000 0000 0000 0000
00000060: 0000 0000 0000 0000 0000 0000 0000 0000
00000070: 0000 0000 0000 0000 0000 0000 0000 0000
00000080: 0000 0000 0000 0000 0000 0000 0000 0000
00000090: 0000 0000 0000 0000 0000 0000 0000 0000
000000a0: 0000 0000 0000 0000 0000 0000 0000 0000
000000b0: 0000 0000 0000 0000 0000 0000 0000 0000
000000c0: 0000 0000 0000 0000 0000 0000 0000 0000
000000d0: 0000 0000 0000 0000 0000 0000 0000 0000
000000e0: 0000 0000 0000 0000 0000 0000 0000 0000
000000f0: 0000 0000 0000 0000 0000 0000 0000 0000
00000100: 0000 0000 0000 0000 0000 0000 0000 0000
00000110: 0000 0000 0000 0000 0000 0000 0000 0000
00000120: 0000 0000 0000 0000 0000 0000 0000 0000
00000130: 0000 0000 0000 0000 0000 0000 0000 0000
00000140: 0000 0000 0000 0000 0000 0000 0000 0000
00000150: 0000 0000 0000 0000 0000 0000 0000 0000
00000160: 0000 0000 0000 0000 0000 0000 0000 0000
00000170: 0000 0000 0000 0000 0000 0000 0000 0000
00000180: 0000 0000 0000 0000 0000 0000 0000 0000
00000190: 0000 0000 0000 0000 0000 0000 0000 0000
000001a0: 0000 0000 0000 0000 0000 0000 0000 0000
000001b0: 0000 0000 0000 0000 0000 0000 0000 0000
000001c0: 0000 0000 0000 0000 0000 0000 0000 0000
000001d0: 0000 0000 0000 0000 0000 0000 0000 0000
000001e0: 0000 0000 0000 0000 0000 0000 0000 0000
000001f0: 0000 0000 0000 0000 0000 0000 0000 0000
00000200: 0000 0000 0000 0000 0000 0000 0000 0000
00000210: 0000 0000 0000 0000 0000 0000 0000 0000
00000220: 0000 0000 0000 0000 0000 0000 0000 0000
00000230: 0000 0000 0000 0000 0000 0000 0000 0000
00000240: 0000 0000 0000 0000 0000 0000 0000 0000
00000250: 0000 0000 0000 0000 0000 0000 0000 0000
00000260: 0000 0000 0000 0000 0000 0000 0000 0000
00000270: 0000 0000 0000 0000 0000 0000 0000 0000
00000280: 0000 0000 0000 0000 0000 0000 0000 0000
00000290: 0000 0000 0000 0000 0000 0000 0000 0000
000002a0: 0000 0000 0000 0000 0000 0000 0000 0000
000002b0: 0000 0000 0000 0000 0000 0000 0000 0000
000002c0: 0000 0000 0000 0000 0000 0000 0000 0000
000002d0: 0000 0000 0000 0000 0000 0000 0000 0000
000002e0: 0000 0000 0000 0000 0000 0000 0000 0000
000002f0: 0000 0000 0000 0000 0000 0000 0000 0000
00000300: 0000 0000 0000 0000 0000 0000 0000 0000
00000310: 0000 0000 0000 0000 0000 0000 0000 0000
00000320: 0000 0000 0000 0000 0000 0000 0000 0000
00000330: 0000 0000 0000 0000 0000 0000 0000 0000
00000340: 0000 0000 0000 0000 0000 0000 0000 0000
00000350: 0000 0000 0000 0000 0000 0000 0000 0000
00000360: 0000 0000 0000 0000 0000 0000 0000 0000
00000370: 0000 0000 0000 0000 0000 0000 0000 0000
00000380: 0000 0000 0000 0000 0000 0000 0000 0000
00000390: 0000 0000 0000 0000 0000 0000 0000 0000
000003a0: 0000 0000 0000 0000 0000 0000 0000 0000
000003b0: 0000 0000 0000 0000 0000 0000 0000 0000
000003c0: 0000 0000 0000 0000 0000 0000 0000 0000
000003d0: 0000 0000 0000 0000 0000 0000 0000 0000
000003e0: 0000 0000 0000 0000 0000 0000 0000 0000
000003f0: 0000 0000 0000 0000 0000 0000 0000 0000
0.0 0.0 0.0 0.0 0.0 0.0 0.0 0.0
0.0 0.0 0.0 0.0 0.0 0.0 0.0 0.0
0.0 0.0 0.0 0.0 0.0 0.0 0.0 0.0
0.0 0.0 0.0 0.0 0.0 0.0 0.0 0.0
0.0 0.0 0.0 0.0 0.0 0.0 0.0 0.0
0.0 0.0 0.0 0.0 0.0 0.0 0.0 0.0
0.0 0.0 0.0 0.0 0.0 0.0 0.0 0.0
0.0 0.0 0.0 0.0 0.0 0.0 0.0 0.0
0.0 0.0 0.0 0.0 0.0 0.0 0.0 0.0
0.0 0.0 0.0 0.0 0.0 0.0 0.0 0.0
0.0 0.0 0.0 0.0 0.0 0.0 0.0 0.0
0.0 0.0 0.0 0.0 0.0 0.0 0.0 0.0
0.0 0.0 0.0 0.0 0.0 0.0 0.0 0.0
0.0 0.0 0.0 0.0 0.0 0.0 0.0 0.0
0.0 0.0 0.0 0.0 0.0 0.0 0.0 0.0
0.0 0.0 0.0 0.0 0.0 0.0 0.0 0.0
0.0 0.0 0.0 0.0 0.0 0.0 0.0 0.0
0.0 0.0 0.0 0.0 0.0 0.0 0.0 0.0
0.0 0.0 0.0 0.0 0.0 0.0 0.0 0.0
0.0 0.0 0.0 0.0 0.0 0.0 0.0 0.0
0.0 0.0 0.0 0.0 0.0 0.0 0.0 0.0
0.0 0.0 0.0 0.0 0.0 0.0 0.0 0.0
0.0 0.0 0.0 0.0 0.0 0.0 0.0 0.0
0.0 0.0 0.0 0.0 0.0 0.0 0.0 0.0
0.0 0.0 0.0 0.0 0.0 0.0 0.0 0.0
0.0 0.0 0.0 0.0 0.0 0.0 0.0 0.0
0.0 0.0 0.0 0.0 0.0 0.0 0.0 0.0
0.0 0.0 0.0 0.0 0.0 0.0 0.0 0.0
0.0 0.0 0.0 0.0 0.0 0.0 0.0 0.0
0.0 0.0 0.0 0.0 0.0 0.0 0.0 0.0
0.0 0.0 0.0 0.0 0.0 0.0 0.0 0.0
0.0 0.0 0.0 0.0 0.0 0.0 0.0 0.0

weight f4 [300, 5]
00000000: 60e0 573c 6830 dc3d 3cb7 00be d89d 533d
00000010: 0aa8 bebd 68c1 c0bd 425c e83d bbeb 173e
00000020: 20cb f83c 7c03 51bc 222c 77bd 37f1 01bc
00000030: d076 b0bd d098 6dbc b25b ee3d 2046 02bc
00000040: 0069 453c 1086 0d3d 81b4 083e d0b1 18bc
00000050: 42e5 06bd a04b afbc 44f7 6c3d 522e 2dbd
00000060: eb0e 0b3e 5402 00be d454 2f3e ea46 453e
00000070: 788d 33be 9710 0bbe 14f7 d1bc faba c03d
00000080: 28b0 b53c 20ae ea3b ff1d 03be fc24 50bc
00000090: 87ec 123e fddc 113c 087f c53c 4c40 21be
000000a0: b0a4 a23c 2012 70bc fd34 f4bd c004 f7bc
000000b0: c0b4 843b bb93 03be ae94 d4bd c31e 70bb
000000c0: 9097 9fbd d6a5 d33d c877 8e3d 70ff 3d3d
000000d0: 0080 3637 24b0 d9bc 1f0d 0cbe b706 efbd
000000e0: 4389 b03c f72c b6bd feb9 cdbd aa89 8d3d
000000f0: 172c aabd c09e 1b3d 625b b93d 5cfc 863d
00000100: 1a56 fd3d b241 20be 27a1 31bd 6832 b6bc
00000110: 0818 353d 8663 f3bd a830 09be 941e 22bd
00000120: 3600 c43d c0f8 cb3b c277 9b3d 1c52 713d
00000130: 9ab2 00be 28ad 8fbd 6bf7 0c3e e653 c2bd
00000140: e8c3 d03c ace9 003d ecdd d93d 2219 983d
00000150: 6e5a 7abd 8991 adbd dc1e 233d 3a48 a4bd
00000160: 4fc8 97bd ecc6 14bd 02d8 fb3d f6b4 e4bd
00000170: 8e79 dabd 24c2 c53d 4692 26bd 151f 3cbe
00000180: 5c00 a0bd c086 473e f836 dbbc fbe7 01be
00000190: a8f9 3abe 474f 803d aafc 2f3e 04e0 533d
000001a0: dc48 483d 4f29 06be c045 2a3b 2851 ba3c
000001b0: eebd f23d 7092 b43c f3f7 073d 64d4 2bba
000001c0: 63eb 6c3e 1e7b 00be a625 893b b637 b1bd
000001d0: 4e69 923e 5adc b23d 021a b2bd 8d14 46be
000001e0: b694 fa3d c3b6 793d a0e6 73bc ea3c ad3c
000001f0: 2981 013e 101c 183c 762f e4bd f02d 703c
00000200: 0413 7a3d e0b5 b93b bc43 bb3d 52a6 fabd
00000210: 5edc 943d 2cf0 07bd 9423 8fbc ac04 443d
00000220: a8f9 a3bc 93c5 943d 2b1c 18bd 0a62 cd3d
00000230: 0691 ffbd 4898 87bd bc08 4ebd daf1 a4bd
00000240: 409d f6bc 81dc 2bbd 792a 853d b146 733e
00000250: 3c8d 24be b8b0 5cbc d610 013e 1c84 073e
00000260: d4bc 163d edfd 683c 1deb 053e 0f2f dbbd
00000270: c8a2 08be 1e2b eebd 4d6b 0c3e 807a 20bc
00000280: 6c5f cc3d 2670 d83d a42b 89bc 20d3 b5bd
00000290: 609e 6bbc c0fd 063d f253 1bbd f820 2b3d
000002a0: b6f9 e9bd fcc3 b43d 805f e33c 4880 163d
000002b0: be63 f13d dab9 f03d f3f0 cdbd ffc6 9cbc
000002c0: cca6 32bd 3476 2e3e a8ed 273d f7e8 e0bd
000002d0: 044c 6cbd e246 803d fb2f 673e 5204 57be
000002e0: 9898 31bd b464 e7bd 324a d1bd af81 f6bd
000002f0: d159 f4bd 2b5c 083e aa71 47bd 60ae 09bc
00000300: dc29 b03d 2016 9a3b 107d 8f3c 0edc 20bd
00000310: 2f1b 033e fe44 af3d 5d76 a6bd a291 af3d
00000320: 7a5a 123d f4cc 003e 7358 123e f5f1 0fbe
00000330: c3b9 f8ba 2f8e 16be edc4 e63b 8661 683e
00000340: 625f 8abc 475a e23c 62c8 00be 708e 9a3e
00000350: 78ec ab3d 11cb 68be ae59 24be eeb1 943d
00000360: 2c54 aa3d e1e9 0c3d cb2f 31bd 1e81 cd3d
00000370: 4e4f a2bc 3719 2c3e f2d1 433d e7ab 713b
00000380: 2381 f7bd ed22 fcbd 3381 e03d 5502 473e
00000390: 378a a4bc 75cf 71be a23a 893d 4648 7fbd
000003a0: e850 0e3d 9435 7e3d b866 f6bc 1398 123d
000003b0: 3817 4abd 903c f83d b302 55bd 712c 04bc
000003c0: 0a5c 43bd 3f1b b6bc 71b1 053d 638f 4bbd
000003d0: f857 ea3d 52d8 fdbd b047 9e3c 339b e5bd
000003e0: 7cf3 a7bd b87b d73d 49dd d93d 9594 0c3d
000003f0: 519f f4bd 7de1 b63b 5700 99bb a64e babd
0.013176054 0.1075142 -0.12569898 0.051664203 -0.09309395 -0.09411889 0.11345722 0.14836018
0.030370295 -0.012757178 -0.060344823 -0.007931045 -0.08616412 -0.014501765 0.11638583 -0.007951289
0.01204896 0.03455168 0.13350107 -0.009319738 -0.03293348 -0.021398365 0.057853 -0.042280503
0.1357991 -0.12500888 0.17122203 0.19265333 -0.17534435 -0.13580547 -0.025630511 0.09410663
0.022178724 0.0071618706 -0.12804411 -0.01270413 0.1434804 0.008902785 0.024108425 -0.15747184
0.01985392 -0.014652759 -0.11924169 -0.030153632 0.0040498674 -0.12849323 -0.10379921 -0.003663943
-0.0779258 0.10334365 0.0695644 0.046386182 1.0877848e-05 -0.026573248 -0.1367688 -0.11671203
0.021549826 -0.08895295 -0.10045241 0.06911023 -0.08309191 0.037993193 0.09050633 0.065911025
0.12369938 -0.15650061 -0.043366577 -0.022240832 0.04421237 -0.11884217 -0.13397467 -0.039579943
0.09570353 0.0062247217 0.07591201 0.058916196 -0.12568131 -0.07015449 0.13766257 -0.094886586
0.02548404 0.031472847 0.10638031 0.07426669 -0.061121397 -0.08475024 0.03982435 -0.080215886
-0.07411253 -0.03632252 0.122970596 -0.11167328 -0.10667716 0.0965617 -0.04066684 -0.18371232
-0.078125685 0.19484997 -0.02675961 -0.1268615 -0.18259299 0.06265121 0.17186227 0.05172731
0.04889761 -0.13101695 0.0025981516 0.022743776 0.118526325 0.022042483 0.033195447 -0.0006554781
0.23136668 -0.12546965 0.0041853962 -0.08653204 0.28595966 0.08733435 -0.08696367 -0.19343777
0.122353956 0.06096531 -0.014886528 0.02114721 0.12646927 0.009284034 -0.11141865 0.01465939
0.06105329 0.005667433 0.09143779 -0.12238754 0.07268594 -0.03318803 -0.01747302 0.047856018
-0.020016506 0.07264247 -0.037136238 0.10028465 -0.12478833 -0.06620842 -0.0503013 -0.08053942
-0.03010428 -0.041958336 0.06502242 0.23757435 -0.16069502 -0.013469867 0.12604079 0.1323399
0.036801174 0.014220697 0.1307797 -0.10702335 -0.13343346 -0.11629318 0.13712807 -0.009794831
0.09979138 0.105682656 -0.016744442 -0.088781595 -0.014381021 0.03295684 -0.037921853 0.04177949
-0.11424582 0.088264436 0.027755499 0.036743432 0.117866024 0.11754198 -0.10055723 -0.019137857
-0.0436161 0.17037278 0.04099813 -0.109819345 -0.05768968 0.0626352 0.22576897 -0.20997742
-0.043358415 -0.112985045 -0.1021923 -0.12036454 -0.119311936 0.1331641 -0.048692383 -0.008403391
0.08601734 0.0047023445 0.01751569 -0.03927236 0.12803338 0.08558081 -0.08128045 0.08572699
0.035730816 0.12578183 0.14291553 -0.14057143 -0.001897626 -0.14702676 0.0070425184 0.22693452
-0.016891185 0.027630938 -0.1257644 0.30186796 0.08394712 -0.22733714 -0.16049835 0.072605
0.08316836 0.03440273 -0.04325847 0.10034393 -0.019813206 0.16806494 0.04780764 0.0036876143
-0.12085178 -0.12311349 0.10962143 0.19434483 -0.020085437 -0.23614295 0.067006364 -0.062324785
0.034745127 0.062062815 -0.030078277 0.03578956 -0.04933855 0.121209264 -0.052004527 -0.008067236
-0.047695197 -0.022229789 0.032639924 -0.04969729 0.1144256 -0.123947755 0.019321293 -0.112112425
-0.08200738 0.10521644 0.1063791 0.034321386 -0.1194445 0.0055810795 -0.00466923 -0.09097032

bias f4 [5]
00000000: 4e7c 1bbe 3f0d 1d3e 4529 193e 4183 4ebe
00000010: 5497 f8bd
-0.15184137 0.15337084 0.1495715 -0.20167257 -0.121382385

weight f4 [300, 5]
00000000: 3c07 9e3d 2b64 a43c c261 b1bd 58de fbbd
00000010: f509 843d 86a3 a13d 3dd5 98bd d2c4 7fbe
00000020: 4bfe 513e 9248 a1be 9b6c cc3d 44d9 dc3d
00000030: b292 18bd 0108 dbbc 27ed 05bc aef4 8f3d
00000040: cc3b 07be 9063 cbbc a0f2 8dbd 0e49 c8bd
00000050: dcd5 283d 6410 f2bd 132f 0dbe a603 f03d
00000060: 0111 093e bb61 133e f7c3 7abd b5ab 733d
00000070: 41c7 383e f95b c3be 907b f6bd e61e b4bd
00000080: 8266 dc3d 9057 183c a84a b9bd 56e8 0e3e
00000090: 53ed b1bd d0ad c5bd b3fb 23bd 0984 a9be
000000a0: d9ef 06be 2033 423d 0c1d efbc 8273 2abd
000000b0: 98d0 a53c 9c3c dbbd 409d 16be f95c d1bc
000000c0: 500e 603d 04f6 87bc d8d8 8c3c c033 f7bd
000000d0: 0b49 013e 804a 6d3c 9b24 fdbd c857 0a3d
000000e0: 2ed2 bdbd 9ebd 473d c885 a33d 8879 dabd
000000f0: b032 47bd 9847 dbbc aa6b bdbd 7ee0 fcbd
00000100: d6e3 de3d 3171 303d 18e8 2abe ce6a fd3c
00000110: 0279 163d 1282 a3be d6a6 ee3d 347b 0dbe
00000120: df09 b6bd ee01 cb3d 08e9 3abd 4252 d33d
00000130: 50ab 0bbe c47b 133d 3448 3a3d 00d8 b03d
00000140: 4054 c43b de73 98bd 0e81 d5bd 8482 08be
00000150: ccf5 7f3d b621 ef3d 8699 873d c4cd 6abd
00000160: c055 323c 0b82 04be bcd0 a1bc 20f4 acbc
00000170: fcd4 ecbd 3009 883d d079 043c c4ee 66bd
00000180: 088c 2ebe 3658 9f3d 46bb 143e 704d 83be
00000190: b5fe 9cbd 07cc 59be 6d2c 1abe 8212 443e
000001a0: 99c7 e0be 8de3 d7bd 4cf6 5dbd 94df bb3d
000001b0: 448b eabc d8a1 873d d7a3 163e 9c9a 85bd
000001c0: f24c 56bc 3059 d83d be5d dbbe e6d3 923e
000001d0: e86b 5bbe 2f55 afbe 6469 d13e 52c2 65be
000001e0: b9d2 b8bd 0dab 04be 6a2b 9abd d796 953d
000001f0: ae22 fd3d 48a6 4f3d 9cdc 3cbd 6f14 09be
00000200: 3613 c83d b6cf 40bd f0e6 a33c e89c bd3c
00000210: 06a2 78bd e202 ef3d e014 b13d 1f3b 0a3e
00000220: 8656 883d 47cd c4bd a5f4 fb3d d093 8f3d
00000230: 3cb4 ad3d 3c74 843d 56c4 cc3d 92b9 74bd
00000240: a252 ef3d a30d 15bc 6764 83be 175b 89bd
00000250: da78 4ebd 73fe 8dbe 3188 163e 7019 1c3d
00000260: 214b d33d 1fab bb3d eeea f4bd 29e4 8c3a
00000270: 150a aa3d 9305 19bd bf5f a43d 1163 ee3d
00000280: b45f 3b3d a054 25bc d228 a8bd 48ff d83c
00000290: 7813 03be a8f9 cb3d 3a40 ebbd b7fd b0bd
000002a0: 6471 d63d 66c6 e5bd b105 8b3d 9897 353c
000002b0: 0a68 99bd 030c 8f3d 0568 ad3a aa2c 143e
000002c0: 17eb 0dbe 7caf f33c 567c 3e3e a745 92be
000002d0: 3df9 9f3c 3d1d a2bd 53de c23c acfb f43b
000002e0: cc5f 91be afa5 92bd 468a c2bd e0aa 66bc
000002f0: 301d 753d b505 d9bd e3bc ae3d e328 cf3d
00000300: 4943 933d 8b02 253d 515c de3d 1010 5fbc
00000310: 422a 5abd 45a7 0e3e 4c91 f2bd 003e 9cbc
00000320: 4aa3 393d 0cc1 24be db85 443c 07b5 093e
00000330: 13d1 dcbe 605d c5bc 60ab 8d3c 9b87 95bc
00000340: 0596 173e 775f ddbe a065 b43e b72b 99be
00000350: f5e9 d6be 6fe6 d33e 5207 3ebe e27e 51bd
00000360: 09fd 83bd 5389 d03d ec6f 1d3e b24c 19bc
00000370: 2596 d63d 6f0c 57be 143e 19be 4e2c 183e
00000380: 77e1 59be 06de 6c3e b7e5 f2bd 9ec1 90be
00000390: efec c13e 7bd4 b6be c84a 05be 8c30 fc3d
000003a0: b6ae 903d 3bd8 863d 528e 053e 9296 6b3d
000003b0: 5088 183c cf24 6d3c 7960 f03d d192 90bd
000003c0: 2059 acbd 369f 6a3d ee27 8abd 8827 01bd
000003d0: ff7b 423d 7336 0b3e 0a19 f63d 3f5c 86bd
000003e0: 7465 933d bec3 05be 16e3 013e 60e9 a0bc
000003f0: 55d6 ce3d 78fe 0f3e 7565 81bc 6e11 debd
0.077162236 0.020067295 -0.08661224 -0.12298268 0.06447212 0.07892518 -0.07462547 -0.24977425
0.20507161 -0.3150068 0.09981652 0.10783628 -0.037249275 -0.026737215 -0.008174217 0.07029091
-0.13206404 -0.024827749 -0.06931043 -0.09779559 0.041219577 -0.118195325 -0.13787489 0.11719446
0.13385393 0.1439275 -0.061222043 0.059489924 0.1804476 -0.38156107 -0.120352864 -0.08794956
0.10761739 0.00929822 -0.09047443 0.13955817 -0.08687844 -0.09652293 -0.04003496 -0.33108547
-0.13177432 0.047412038 -0.029188655 -0.041614063 0.020241067 -0.1070492 -0.14708424 -0.025557028
0.05470115 -0.016596802 0.017193243 -0.120704174 0.1262552 0.014483094 -0.123604976 0.03377512
-0.09268604 0.048764817 0.07984501 -0.106677115 -0.048632324 -0.026767537 -0.09249051 -0.12347506
0.108833 0.043076698 -0.16690099 0.030934718 0.036736496 -0.31935173 0.11652915 -0.1381653
-0.088886015 0.099124774 -0.045632392 0.10318424 -0.1363957 0.036006704 0.045479015 0.08634949
0.0059914887 -0.07443975 -0.10425006 -0.13331038 0.06249027 0.11676352 0.06621079 -0.05732514
0.010884702 -0.12940232 -0.019752853 -0.021112502 -0.11564061 0.066423774 0.008085683 -0.05638005
-0.17045605 0.07780497 0.14524564 -0.25645018 -0.07665769 -0.21269237 -0.1505601 0.19147685
-0.4390228 -0.10541449 -0.054189965 0.091735035 -0.02863086 0.06622666 0.14710937 -0.0652363
-0.013079869 0.10563886 -0.42844957 0.2867729 -0.21427882 -0.34244677 0.4090072 -0.22437409
-0.09024567 -0.12955876 -0.07527812 0.07304161 0.1236013 0.050695688 -0.046108827 -0.13386701
0.09769289 -0.04707309 0.02000758 0.023146108 -0.060701393 0.11670472 0.0864656 0.13499115
0.06657128 -0.09609466 0.123025216 0.07010615 0.084816426 0.064674824 0.099983856 -0.059747286
0.11685683 -0.0090974895 -0.25662538 -0.06706827 -0.05040822 -0.27733192 0.1470039 0.038110197
0.10317064 0.09163498 -0.11958872 0.0010749149 0.08302704 -0.03735883 0.080260746 0.11639989
0.045745566 -0.010090977 -0.08210911 0.026488915 -0.12800395 0.099597275 -0.114868596 -0.08642142
0.10470846 -0.11219482 0.06788195 0.011083506 -0.07490547 0.06984713 0.0013229853 0.14470163
-0.13859211 0.029746763 0.18602118 -0.28568766 0.019528026 -0.07915733 0.023787653 0.0074762907
-0.283934 -0.07160508 -0.0949903 -0.014078826 0.05984229 -0.10596792 0.08532121 0.101152204
0.07190568 0.04028563 0.10857452 -0.013614669 -0.053262956 0.13930996 -0.118441194 -0.019072533
0.04532174 -0.16089267 0.011994804 0.13447963 -0.4312826 -0.024092376 0.017293632 -0.018253138
0.14803322 -0.43236896 0.35233784 -0.29916164 -0.4197537 0.41386744 -0.1855748 -0.051146396
-0.06444747 0.101824425 0.15374726 -0.0093566645 0.104778565 -0.21000837 -0.14965087 0.14860651
-0.21277414 0.2313157 -0.11860221 -0.28272718 0.37876078 -0.35708985 -0.13016808 0.12313947
0.070645735 0.065842114 0.13042572 0.057516642 0.009309843 0.014474108 0.11737151 -0.07059253
-0.08415437 0.05728074 -0.06745897 -0.03153184 0.047481533 0.1359499 0.120164946 -0.06560563
0.07197085 -0.13062951 0.12684283 -0.019642532 0.10099474 0.14061916 -0.015795449 -0.10843168

bias f4 [5]
00000000: c955 f0bd ff3f 433e ab88 113e 43d8 1bbe
00000010: 04d4 2dbe
-0.11735112 0.19067381 0.14212291 -0.15219216 -0.16975409
