Models/GNNs/Models_40_36_Datasets/Oryx2/model_RGCN_1000_samples_100_epochs_32_batchsize.pth (torch, 59964 bytes, 14 tensors)

weight f4 [8, 300]
0	0x3db33e15	0.087520756
1	0x3e4e10ca	0.20123592
2	0x3bc280cb	0.0059357635
3	0x3bd1527a	0.006388006
4	0x3e227dc9	0.15868296
5	0xbda47c09	-0.0803147
6	0x3e3310ac	0.17486829
7	0x3e664c8e	0.22490141
8	0x3eba33e7	0.36367723
9	0x3ce80967	0.028324796
10	0xbd43bb08	-0.04778579
11	0xbd876533	-0.06611099
12	0x3d130b9d	0.035899747
13	0xbcc46eb1	-0.023978563
14	0x3e960b22	0.2930537
15	0x3e68f4cc	0.22749633
16	0x3ddf625d	0.10907433
17	0x3e8a4660	0.27006817
18	0x3d424398	0.047427744
19	0xbdaec096	-0.085328266
20	0x3e663530	0.22481227
21	0x3e3b66b4	0.18300897
22	0x3e6f9258	0.2339567
23	0x3d45f6d7	0.048331108
24	0xbcc05108	-0.023476139
25	0xbd26e6ba	-0.04074738
26	0x3df07fc8	0.11743122
27	0xbd5e1bd0	-0.054225743
28	0x3d2a95f8	0.041646928
29	0xbd848bbb	-0.06471964
30	0x3e4cb450	0.19990659
31	0xbe08331f	-0.13300751
32	0xbba85847	-0.0051374766
33	0x3e6fa2d4	0.23401958
34	0xbd8971bb	-0.067111455
35	0xbccc9008	-0.024971023
36	0xbdc48485	-0.095955886
37	0xbd6d59ea	-0.057947077
38	0x3eb0c8f4	0.34528315
39	0x3ca588a6	0.02020676
40	0x3e85e737	0.26152965
41	0xbc7c292a	-0.015390674
42	0x3e0a4ec2	0.13506606
43	0xbdc27727	-0.09495383
44	0xbe08e654	-0.13369113
45	0x3e616de8	0.22014582
46	0x3bf79e80	0.0075567365
47	0x3e30c795	0.17263635
48	0xbd224962	-0.039620765
49	0xba989a80	-0.0011642724
50	0x3e72f858	0.23727548
51	0x3e55ae92	0.20867375
52	0xbdde4129	-0.10852272
53	0xbdbb4fda	-0.0914609
54	0x3e67de3c	0.2264337
55	0xbdce581c	-0.10075399
56	0xbd33f68e	-0.043936305
57	0x3e5be7a8	0.21475089
58	0xbd9cd3fd	-0.07657621
59	0x3de5442a	0.11194642
60	0xbb7e82c0	-0.0038835257
61	0x3e703b82	0.234602
62	0xbd2db3c6	-0.042407773
63	0xbcfa3a14	-0.030545272
64	0x3e7035c0	0.23458004
65	0x3e6d8bd1	0.23197867
66	0xbd6c67c6	-0.057716154
67	0x3e10c57a	0.14137831
68	0xbd5c69d0	-0.05381185
69	0x3ecac371	0.39602235
70	0x3e1a0400	0.15040588
71	0xbc5b4070	-0.013382062
72	0x3e667596	0.22505793
73	0x3dc99acc	0.09843978
74	0x3cc92003	0.024551397
75	0xbd322ffb	-0.04350279
76	0xbd97d449	-0.07413537
77	0xbe2b1d14	-0.16710311
78	0x3e1d67b4	0.15371591
79	0xbd8ebc70	-0.06969535
80	0xbb06e3e0	-0.0020582601
81	0xbdb2f1af	-0.08737504
82	0xbe00c2ff	-0.12574385
83	0x3c613970	0.013746604
84	0xbe0b8bfe	-0.13627622
85	0xbdbb49de	-0.091449484
86	0x3d22c784	0.039741054
87	0x3deb8f14	0.11501899
88	0x3dc89f0a	0.09795959
89	0xbda22720	-0.07917619
90	0xbd59ccc6	-0.053173803
91	0x3c18603b	0.009300287
92	0x3d4edc45	0.050503034
93	0xbd87efff	-0.066375725
94	0xbde48499	-0.111581035
95	0x3cec2453	0.028825914
96	0x3da6b28a	0.081395224
97	0x3e2c3a25	0.16819055
98	0x3e9b231b	0.3030022
99	0xbd922d6e	-0.07137571
100	0x3e8e2d85	0.27769104
101	0xbdd89a9a	-0.10576363
102	0x3e0126fb	0.12612526
103	0x3e4f3fa4	0.2023912
104	0x3e6c201c	0.23059124
105	0xbddd0ba4	-0.10793236
106	0xbddf6aad	-0.10909019
107	0x3df3fc05	0.11913303
108	0xbca68d6c	-0.020331107
109	0x3e6cfc15	0.23143037
110	0x3ad6da00	0.0016391873
111	0x3e2a97f5	0.1665953
112	0x3e3811c8	0.17975533
113	0x3dd26c01	0.10274506
114	0x3e607160	0.21918249
115	0x3e782539	0.2423295
116	0xbd45ccc2	-0.048290975
117	0x3e9d4c5e	0.30722326
118	0xbd86b311	-0.06577123
119	0x3e02e30b	0.12781923
120	0x3e26a0b7	0.16272245
121	0xbcdf82ae	-0.027283993
122	0x3d4049ac	0.04694526
123	0x3cf8bef8	0.030364498
124	0x3d63f445	0.055652875
125	0x3da3bf26	0.07995443
126	0xbd4711fd	-0.04860114
127	0x3e7be81b	0.2460026
128	0x3e0449f2	0.12918833
129	0xbcd8b464	-0.026453204
130	0xbdbc9e04	-0.092098266
131	0xbd811153	-0.063021325
132	0x3e177d92	0.14793995
133	0xbe2d852c	-0.16945332
134	0xbd32f394	-0.043689325
135	0xbcf249e9	-0.029576259
136	0x3e72e757	0.23721062
137	0xbdca2550	-0.09870398
138	0x3e8c4f0c	0.27404058
139	0xbd29abd2	-0.041423626
140	0x3e96f2f3	0.2948223
141	0x3e8daa49	0.2766898
142	0xbb3245c5	-0.002720223
143	0x3e5d358a	0.21602455
144	0x3d13caee	0.0360822
145	0x3db6f1c2	0.089328304
146	0x39ac5abb	0.00032873996
147	0x3c8e3363	0.017358487
148	0x3cbe0fe5	0.023200938
149	0xbe0b2e54	-0.13591892
150	0xbceac390	-0.028657705
151	0x3e89cd82	0.26914603
152	0x3d22aa3f	0.03971314
153	0xbd7f2ea4	-0.06230034
154	0x3e7b7414	0.24555999
155	0xbd61e97a	-0.0551543
156	0x3ccf70d9	0.025322365
157	0x3c10e5f2	0.008843886
158	0x3e51a9ad	0.20474882
159	0xbcbfc25b	-0.023408106
160	0x3afb43e9	0.0019170019
161	0x3c702801	0.014657975
162	0x3e883abc	0.2660731
163	0x3e56c82c	0.20974797
164	0xbdd49e99	-0.103818126
165	0x3d244e13	0.04011352
166	0x3c48097c	0.0122092925
167	0xbbd5950b	-0.0065180114
168	0xbd3c9d31	-0.046048347
169	0x3e27fbfa	0.16404715
170	0x3cc0b2a4	0.023522682
171	0xbd140162	-0.03613413
172	0x3debc54a	0.11512239
173	0xbe3d592b	-0.18491046
174	0x3e8647b9	0.26226595
175	0x3e78fe66	0.24315795
176	0x3d3cdcce	0.046109013
177	0xbdede03f	-0.11615037
178	0x3bad8a49	0.005296026
179	0x3ee6d088	0.45080972
180	0xbded525d	-0.11587975
181	0xbe027316	-0.12739214
182	0x3d9c0543	0.07618191
183	0x3e7c3f02	0.2463341
184	0xbb622140	-0.0034504682
185	0xbd5128dc	-0.051064357
186	0x3cdb7236	0.026787858
187	0xbdce5f57	-0.100767784
188	0x3e2984d2	0.16554573
189	0xbde6b75f	-0.11265444
190	0x3e8d4a95	0.27595964
191	0xbcce8df0	-0.025214165
192	0x3e83079f	0.25591752
193	0x3da1c7cd	0.07899437
194	0x3e378a53	0.1792386
195	0xbdd68d2c	-0.10476145
196	0xbde2daed	-0.11076913
197	0xbd888369	-0.066656895
198	0xbd5230c3	-0.051316034
199	0xbde84ed1	-0.11343158
200	0x3df61bde	0.12017034
201	0x3e28e392	0.16493061
202	0xbd776764	-0.060401335
203	0xbbcde9e0	-0.0062839836
204	0xbcd291a8	-0.02570422
205	0xbda4c25c	-0.080448836
206	0x3e76beb9	0.24096192
207	0x3ea9906f	0.33118007
208	0x3bdbe0af	0.006710134
209	0x3e66f2c5	0.22553547
210	0xbd9cb83c	-0.076523274
211	0x3bb6b620	0.00557591
212	0xbe07d331	-0.13264157
213	0x3eb695d6	0.3566119
214	0xbd865268	-0.065586865
215	0x3dbd9305	0.092565574
216	0x3e8259f9	0.2545927
217	0x3e8d75d6	0.27628964
218	0xbd295442	-0.04134012
219	0xbde9efc2	-0.11422683
220	0xbdb6b57c	-0.08921334
221	0xbe0cbaa3	-0.13743071
222	0xbd84c591	-0.06482995
223	0x3ca7f9ac	0.020504795
224	0x3e4c7492	0.19966343
225	0x3e1cd2ea	0.15314832
226	0x3e82de0b	0.2556003
227	0x3e05a845	0.13052471
228	0xbdb15246	-0.086582705
229	0x3e366149	0.17810549
230	0xbdffd9c8	-0.1249271
231	0x3e2b380d	0.167206
232	0x3e6d5a74	0.23179036
233	0x3ef18364	0.47170556
234	0x3e42a2c5	0.19007404
235	0xbb55e840	-0.0032639652
236	0x3e918485	0.28421417
237	0x3e8d7c94	0.27634108
238	0x3e524269	0.20533146
239	0x3e0546b5	0.13015254
240	0x3d15c484	0.036564365
241	0x3ea0edfe	0.31431574
242	0xbd35c498	-0.04437694
243	0x3e5d2628	0.21596587
244	0x3d127f7b	0.035766106
245	0x3e49c38c	0.19703501
246	0xbdde2bfd	-0.10848234
247	0x3ea6e3ba	0.32595617
248	0x3e5f2c96	0.21794352
249	0xbdfd6120	-0.12372041
250	0xbdabc462	-0.083870664
251	0x3e54877d	0.2075481
252	0xbdbb3404	-0.091407806
253	0x3e8c855d	0.27445498
254	0x3dea2801	0.114334114
255	0xbd9c2562	-0.07624318

bias f4 [300]
0	0xbd4416ac	-0.047873184
1	0x3e0db43c	0.13838285
2	0xbc814582	-0.015780214
3	0xbc6ff67b	-0.014646168
4	0x3e391127	0.1807295
5	0x00000000	0.0
6	0x3e345df7	0.1761397
7	0x3e160fc9	0.14654459
8	0x3e487162	0.19574502
9	0x3e3d9ed3	0.18517618
10	0xbca6d8d2	-0.02036706
11	0xbc3b2a7e	-0.011423705
12	0x3e3e3c16	0.18577608
13	0x3e2ac1ba	0.16675463
14	0x3e2c469a	0.16823807
15	0x3e2773b6	0.16352734
16	0x3e1298d3	0.1431611
17	0x3e4cf21d	0.20014234
18	0xbd126457	-0.035740223
19	0xbc96121d	-0.018319184
20	0x3e04d805	0.1297303
21	0x3e1b85f4	0.15187818
22	0x3e107acb	0.14109342
23	0xbd335ecd	-0.04379158
24	0x3e240cdb	0.16020529
25	0x00000000	0.0
26	0x3e1867c4	0.14883333
27	0x00000000	0.0
28	0x3e41af22	0.18914464
29	0xbc5b8759	-0.013398969
30	0x3dff576f	0.124678485
31	0x00000000	0.0
32	0xbc081c82	-0.008307578
33	0x3e04e85b	0.12979262
34	0xbbc4c700	-0.006005168
35	0xbc0a9c03	-0.008460048
36	0x00000000	0.0
37	0x00000000	0.0
38	0x3eac72fc	0.33681476
39	0xbcad7b61	-0.021176996
40	0x3e1693a9	0.14704765
41	0xbc840163	-0.016113942
42	0x3e0179de	0.12644145
43	0x00000000	0.0
44	0x00000000	0.0
45	0x3deba5af	0.11506211
46	0x00000000	0.0
47	0x3e2a4bd6	0.16630492
48	0x00000000	0.0
49	0x00000000	0.0
50	0x3e2c2387	0.16810428
51	0x3e14f2df	0.14545773
52	0xbc952095	-0.018204013
53	0x00000000	0.0
54	0x3e33d976	0.17563424
55	0x00000000	0.0
56	0x00000000	0.0
57	0x3e04ada8	0.1295687
58	0x00000000	0.0
59	0x3e0430d3	0.1290925
60	0x00000000	0.0
61	0x3e523901	0.20529558
62	0x00000000	0.0
63	0x00000000	0.0
64	0x3e13517d	0.14386554
65	0x3e2e4ca7	0.17021428
66	0x00000000	0.0
67	0x3e174a2f	0.14774393
68	0xbc0a75b3	-0.008450913
69	0x3e3fbe8a	0.18725029
70	0x3e00ce97	0.12578808
71	0x00000000	0.0
72	0x3e2739a7	0.16330586
73	0x3de62d80	0.11239147
74	0xbcaccbca	-0.021093268
75	0x3e42be81	0.19017984
76	0x00000000	0.0
77	0x3e08add0	0.13347554
78	0x3df3cb7f	0.11904048
79	0xbc8325ae	-0.016009178
80	0xbc3df3c1	-0.01159376
81	0x00000000	0.0
82	0x00000000	0.0
83	0x00000000	0.0
84	0xbc9e2d98	-0.01930885
85	0xbc443662	-0.0119758565
86	0xbd0f081d	-0.034919847
87	0x3e07e8c8	0.13272393
88	0x3e514ceb	0.20439498
89	0x00000000	0.0
90	0x00000000	0.0
91	0xbcb462a8	-0.0220197
92	0xbd22943c	-0.03969215
93	0x3e2d071a	0.1689724
94	0x00000000	0.0
95	0x3e398387	0.1811658
96	0x3e0d9f1c	0.13830227
97	0x3e0a48d1	0.1350434
98	0x3e2b774a	0.16744724
99	0x00000000	0.0
100	0x3e354acc	0.17704314
101	0xbc885e34	-0.016646482
102	0x3deb1aee	0.11479746
103	0x3df01237	0.11722224
104	0x3e13cc77	0.14433466
105	0xbc9f4d35	-0.019445995
106	0x00000000	0.0
107	0xbca9a4bd	-0.020708436
108	0x00000000	0.0
109	0x3e213116	0.15741381
110	0x00000000	0.0
111	0x3df49154	0.11941782
112	0x3e1d8927	0.1538435
113	0x3e1fb71a	0.15597191
114	0x3e01e740	0.12685871
115	0x3e1f3396	0.15547022
116	0xbc296cba	-0.010340864
117	0x3e2d413b	0.16919415
118	0x3e40b0cb	0.18817441
119	0x3e0d5103	0.13800435
120	0x3e24bb47	0.16087066
121	0xbc63a43a	-0.013894135
122	0x3e11cef4	0.14239103
123	0xbcf2c0ed	-0.02963301
124	0x3df75823	0.120773576
125	0x3dfc2ced	0.123132564
126	0x3e128099	0.14306869
127	0x3e1a85f2	0.15090159
128	0x3e08f64f	0.1337521
129	0x00000000	0.0
130	0xbc43d696	-0.011953017
131	0x3e1dd7a8	0.15414298
132	0x3e0d35e2	0.13790086
133	0x3e3c5495	0.1839164
134	0x00000000	0.0
135	0xbc8660e3	-0.016403621
136	0x3e260634	0.16213304
137	0xbbc4c6ac	-0.006005129
138	0x3e20de27	0.15709744
139	0x00000000	0.0
140	0x3e3a8c23	0.1821752
141	0x3e1591d8	0.14606416
142	0x3e08700b	0.13323991
143	0x3e1e50a9	0.15460457
144	0xbd2d1b05	-0.042262096
145	0x3e28283a	0.16421595
146	0xbc0aa60d	-0.008462441
147	0x3e5fb2ac	0.21845502
148	0xbd012680	-0.031530857
149	0x00000000	0.0
150	0x00000000	0.0
151	0x3ed91307	0.4239733
152	0x3e2e7c4a	0.170396
153	0x00000000	0.0
154	0x3e14d1b7	0.14533125
155	0x00000000	0.0
156	0x3e72bc33	0.23704605
157	0xbc29ab2b	-0.010355751
158	0x3e0d7b33	0.13816528
159	0xbc5bb18f	-0.0134090325
160	0xbbc4c889	-0.006005351
161	0xbc43d881	-0.011953474
162	0x3e2360d9	0.15954913
163	0x3e0cae30	0.13738322
164	0x00000000	0.0
165	0xbd28c702	-0.041205414
166	0xbc5fd3fe	-0.013661383
167	0x3e55852c	0.20851582
168	0x3e1c56f6	0.15267548
169	0x3e215f3d	0.15758987
170	0xbca2a9d2	-0.019856367
171	0x00000000	0.0
172	0x3e2f22fe	0.17103192
173	0x3e361d7c	0.17784685
174	0x3e3c04b1	0.18361165
175	0x3e0c66db	0.13711111
176	0x3e11e659	0.14248027
177	0xbc43f5f1	-0.0119604925
178	0xbc93beb0	-0.018035263
179	0x3e90e1f9	0.28297403
180	0x00000000	0.0
181	0x00000000	0.0
182	0x3e43c7b7	0.19119154
183	0x3e102193	0.14075308
184	0x00000000	0.0
185	0x00000000	0.0
186	0xbcd0da2f	-0.025494663
187	0x00000000	0.0
188	0x3e190dfc	0.14946741
189	0xbc0ab446	-0.008465832
190	0x3e238859	0.15969981
191	0x00000000	0.0
192	0x3e1cdebd	0.15319343
193	0x3e073ae0	0.13206053
194	0x3e18aa8e	0.14908811
195	0xbca82e03	-0.020529753
196	0x00000000	0.0
197	0x00000000	0.0
198	0xbca22902	-0.019794945
199	0x3e5f5d83	0.21813016
200	0x3dfc3742	0.12315227
201	0x3df0ff17	0.117674045
202	0x00000000	0.0
203	0xbc0a922c	-0.008457702
204	0xbc96e69a	-0.018420506
205	0x00000000	0.0
206	0x3e132dba	0.14372912
207	0x3e446394	0.19178611
208	0xbc440e1e	-0.011966256
209	0x3e13d8e7	0.1443821
210	0x00000000	0.0
211	0x00000000	0.0
212	0x00000000	0.0
213	0x3e775bfc	0.24156183
214	0x00000000	0.0
215	0x3dfb24f3	0.12262907
216	0x3e209389	0.1568128
217	0x3e31c27d	0.17359348
218	0xbbc4c8d1	-0.0060053845
219	0xbc831229	-0.01599987
220	0x3e0c8236	0.13721547
221	0x00000000	0.0
222	0x00000000	0.0
223	0xbc99d888	-0.018780008
224	0x3df8b87a	0.12144561
225	0x3e1b0cbe	0.1514158
226	0x3e1084b4	0.14113122
227	0x3e1ec7ce	0.15505907
228	0xbc0abaad	-0.008467359
229	0x3e287a4a	0.164529
230	0x00000000	0.0
231	0x3df84807	0.12123113
232	0x3e36775a	0.17818967
233	0x3eaa672a	0.33281833
234	0x3e1dc11b	0.15405695
235	0x00000000	0.0
236	0x3e1f109a	0.15533677
237	0x3e1cbdc3	0.15306763
238	0x3e26f72d	0.16305228
239	0x3e132827	0.14370786
240	0xbd397d59	-0.045285556
241	0x3e6ed7f4	0.23324567
242	0x00000000	0.0
243	0x3e058104	0.13037497
244	0xbd2c1002	-0.042007454
245	0x3e1bb5d1	0.15206076
246	0x00000000	0.0
247	0x3e5205a5	0.20509966
248	0x3e09dd21	0.1346326
249	0xbc5a8370	-0.013337001
250	0x3e0d703f	0.1381235
251	0x3e23870c	0.15969485
252	0x00000000	0.0
253	0x3e10ac99	0.14128341
254	0x3e27f3a5	0.16401537
255	0xbc4280dd	-0.011871544

weight f4 [8, 300]
0	0x3cbaf6f0	0.022822827
1	0x3d46e6b4	0.04855986
2	0xbcc31df8	-0.023818001
3	0x3d81bd2c	0.0633491
4	0x3d79da8c	0.06099944
5	0x3db767fc	0.0895538
6	0xbd4be4ec	-0.049778864
7	0x3d722b68	0.059123427
8	0x3e0d04bb	0.13771336
9	0xbe0c8311	-0.13721873
10	0xbd05d4f6	-0.0326738
11	0xbd45eeec	-0.048323557
12	0x3dec0a02	0.11525346
13	0xbdc02d6b	-0.09383663
14	0x3dedaac2	0.11604835
15	0x3df3c662	0.11903073
16	0x3cdd7470	0.02703306
17	0x3ddb4a26	0.10707502
18	0xbd381fb8	-0.044952124
19	0xbd73c53e	-0.059514277
20	0xbd7a8fc4	-0.06117226
21	0x3cf61bb0	0.0300425
22	0x3d911178	0.0708341
23	0xbd8a1df6	-0.06743996
24	0x3d93de94	0.07220188
25	0x3d8f8606	0.07007985
26	0x3d17cc50	0.037060082
27	0x3c14b0b0	0.009075329
28	0xbdec2812	-0.1153108
29	0xbdb5001c	-0.088379115
30	0xbbc7dc60	-0.006099269
31	0x3dfcea2a	0.12349351
32	0xbd811e24	-0.06304577
33	0x3d1a0c90	0.037609637
34	0xbbfd7640	-0.0077350438
35	0xbcd3d87c	-0.025860064
36	0xbc90d6dc	-0.017680578
37	0x3d934842	0.071915165
38	0xbc9aea24	-0.018910475
39	0xbde6e3bf	-0.11273908
40	0x3d3f670c	0.046729133
41	0xbd977cc5	-0.07396845
42	0xbced3854	-0.028957523
43	0x3dd9ad34	0.10628739
44	0x3b651200	0.0034953356
45	0xbdb671d2	-0.08908428
46	0xbddb9284	-0.10721305
47	0x3db12328	0.08649284
48	0x3d1ba3e0	0.03799808
49	0xbd3fc31a	-0.046816923
50	0xbdb0a5bc	-0.08625361
51	0xbd0a923c	-0.033830866
52	0xbbfa2100	-0.0076333284
53	0xbdd0ea3c	-0.10200927
54	0x3d9da7fa	0.076980546
55	0xbdd52814	-0.10408035
56	0x3d370a30	0.04468745
57	0x3d98879c	0.074477404
58	0x3bee7ac0	0.0072778165
59	0xbd127f9e	-0.035766236
60	0x3d992644	0.07478002
61	0x3d70925c	0.05873333
62	0x3d78d838	0.060753077
63	0x3c342fb0	0.010997698
64	0xbdebec67	-0.115196995
65	0x3dd2d400	0.10294342
66	0xbe07cc25	-0.13261469
67	0xbd59fc56	-0.053219162
68	0x3d902ecc	0.07040176
69	0x3dd59c62	0.10430218
70	0x3c573be0	0.013136834
71	0xbc94fe08	-0.018187538
72	0xbd33c1fc	-0.04388617
73	0x3d68d86c	0.05684702
74	0xbd5f03aa	-0.054446854
75	0x39a76800	0.00031930208
76	0xbcd1e2f8	-0.025620922
77	0xbdc9e4e2	-0.09858109
78	0x3e038f05	0.12847526
79	0xbd816e67	-0.06319886
80	0xbdc8f326	-0.09812002
81	0x3e09b03b	0.13446133
82	0xbd62b81c	-0.05535136
83	0x3df2995a	0.11845656
84	0x3d05e20c	0.03268628
85	0x3d23b788	0.03996995
86	0x3dfbb1fa	0.12289806
87	0xbdcf22a8	-0.10114032
88	0x3dfd594e	0.12370549
89	0xbd0ef8e6	-0.034905337
90	0x3d435648	0.047689706
91	0xbdc223c2	-0.094794765
92	0x3e0dd2bd	0.13849922
93	0x3d22c008	0.039733917
94	0xbd27065c	-0.04077755
95	0xbd8ac2d5	-0.067754425
96	0xbde95934	-0.11393967
97	0x3e04672d	0.12929983
98	0xbdbefa98	-0.09325141
99	0x3dcf6df2	0.10128392
100	0xbd09d7de	-0.033653133
101	0xbdbcac41	-0.09212542
102	0xbdca9469	-0.09891588
103	0x3da278a6	0.07933168
104	0xbdb37d13	-0.087640904
105	0x3dd9ec2c	0.10640749
106	0xbd00f400	-0.031482697
107	0x3daa6a7e	0.08321093
108	0xbd90ceeb	-0.070707165
109	0x3dc3635a	0.09540434
110	0xbd28b466	-0.041187666
111	0x3cad9850	0.021190792
112	0x3c886b50	0.016652733
113	0x3d4c2974	0.04984422
114	0xbdc87a07	-0.097889
115	0x3dd486e0	0.10377288
116	0xbe051f3a	-0.13000193
117	0x3dfc93a6	0.12332849
118	0x3d079f08	0.03311065
119	0xbe01a030	-0.12658763
120	0xbc709bb8	-0.014685564
121	0xbd72923c	-0.05922149
122	0xbdc91066	-0.09817581
123	0x393e5c00	0.00018154085
124	0xbde562eb	-0.11200508
125	0xbdfd777e	-0.12376307
126	0x3c8c2330	0.017106622
127	0x3e02f02d	0.12786932
128	0x3c142990	0.009043112
129	0x3dd79afa	0.10527606
130	0x3d539d2c	0.051663563
131	0x3dd3e51a	0.10346432
132	0xbd9264ed	-0.07148156
133	0xbe009f30	-0.12560725
134	0x3bfd8280	0.007736504
135	0x3cb0d608	0.021586433
136	0xbdc8f032	-0.098114386
137	0xbce8af68	-0.028403953
138	0xbdcb0412	-0.09912886
139	0xbdd742b6	-0.10510771
140	0x3db4ffa0	0.08837819
141	0x3e024647	0.12722121
142	0xbcc9d74c	-0.024638794
143	0xbe08b37f	-0.13349722
144	0x3be96220	0.007122293
145	0x3d9226d8	0.07136315
146	0xbd80ca1c	-0.06288549
147	0xbcf7efd0	-0.030265719
148	0xbccc92d4	-0.024972357
149	0x3df83a0e	0.12120448
150	0xbc748968	-0.014925338
151	0xbdf97bf1	-0.12181843
152	0xbdca9bf5	-0.09893028
153	0xbd7cb4dc	-0.06169592
154	0x3d020d8c	0.0317512
155	0xbe020734	-0.1269806
156	0x3dfacd8e	0.12246238
157	0x3d7ec74c	0.062201783
158	0x3d90cd46	0.07070403
159	0xbb9ea080	-0.0048409104
160	0xbde8b292	-0.113621846
161	0xbb217d40	-0.0024641305
162	0xbde5be45	-0.11217932
163	0xbc9690b0	-0.01837954
164	0x3d5dd2b4	0.05415602
165	0xbde5ee58	-0.11227101
166	0x3d677dd0	0.05651647
167	0xbdde81cd	-0.10864601
168	0x3dc80d7c	0.09768197
169	0xbde5c99e	-0.11220096
170	0x3d895d54	0.06707254
171	0xbd587dba	-0.052854277
172	0x3d9836d4	0.07432333
173	0x3e0e0087	0.13867389
174	0x3e0c004d	0.1367199
175	0xbdba954a	-0.09110506
176	0x3da1b6a6	0.078961655
177	0x3e0cb1dd	0.13739724
178	0xbd6aeac2	-0.05735279
179	0xbd1ee834	-0.038795665
180	0xbc2b91e0	-0.010471791
181	0x3df02d1e	0.117273554
182	0x3dc6414c	0.09680423
183	0xbd7323be	-0.05936026
184	0x3d8a247c	0.0674524
185	0xbd2ba758	-0.04190764
186	0x3c56cb00	0.013109922
187	0xbd654e94	-0.05598314
188	0x3d0bf730	0.034171283
189	0xbc14ca90	-0.009081498
190	0x3dd38d38	0.1032967
191	0x3d96fbba	0.07372232
192	0xbd7b1248	-0.06129673
193	0x3de3b332	0.11118163
194	0xbd43a6d8	-0.047766536
195	0xbdc035c4	-0.09385255
196	0x3da29396	0.07938306
197	0xbe0b72a2	-0.13617948
198	0xbcdd17ac	-0.026988827
199	0x3d6027d8	0.054725498
200	0x3dd5160a	0.10404594
201	0x3cc17418	0.023614928
202	0xbe0567ef	-0.13027929
203	0x3d2e8c74	0.042614415
204	0x3ba43820	0.0050115734
205	0xbbad12c0	-0.005281776
206	0xbc987184	-0.018608816
207	0xbdd3ba54	-0.10338274
208	0x3cde58a8	0.027141884
209	0xbcc5071c	-0.024051242
210	0xbd45c6b4	-0.0482852
211	0xbd68d34e	-0.05684214
212	0xbd264606	-0.040594123
213	0x3c20f190	0.009823218
214	0xbae73680	-0.0017640144
215	0x3dbcf746	0.09226851
216	0xbbf4c720	-0.0074700266
217	0xbd1b80f2	-0.03796477
218	0x3da5d72c	0.080976814
219	0xbda8c10e	-0.08239947
220	0x3de29e3e	0.110653386
221	0xbe092f36	-0.13396916
222	0x3d0512cc	0.03248863
223	0x3c313c70	0.010817632
224	0x3e0a4d1f	0.13505982
225	0x3c1b1550	0.0094655305
226	0x3d845778	0.06461996
227	0xbcfee9e4	-0.031117387
228	0xbd616c7c	-0.0550351
229	0x3d95db32	0.07317199
230	0xbdb7d8f7	-0.0897693
231	0x3cd0bed0	0.025481611
232	0xbd83429c	-0.06409189
233	0x3de4171a	0.11137219
234	0xbdf8da38	-0.12150997
235	0x3df78976	0.120867655
236	0x3be46200	0.0069696903
237	0x3da6bcd2	0.08141483
238	0x3daaaaee	0.083333835
239	0xbdd098a1	-0.10185362
240	0xbde06acd	-0.10957871
241	0xbdd5add2	-0.10433544
242	0x3dc2a976	0.09504978
243	0x3d5b05d4	0.053472355
244	0x3d3dafc8	0.046310216
245	0xbcfe2c48	-0.031026974
246	0x3c87dc88	0.01658465
247	0x3dd545da	0.10413714
248	0x3e0e3c43	0.13890176
249	0xbe020705	-0.1269799
250	0x3ce56e10	0.028006583
251	0x3d175978	0.03695056
252	0xbc9ed540	-0.019388795
253	0x3df4b57a	0.119486764
254	0x3c479ae0	0.012182921
255	0x3cc217e8	0.02369304

bias f4 [300]
0	0x00000000	0.0
1	0x00000000	0.0
2	0x00000000	0.0
3	0x00000000	0.0
4	0x00000000	0.0
5	0x00000000	0.0
6	0x00000000	0.0
7	0x00000000	0.0
8	0x00000000	0.0
9	0x00000000	0.0
10	0x00000000	0.0
11	0x00000000	0.0
12	0x00000000	0.0
13	0x00000000	0.0
14	0x00000000	0.0
15	0x00000000	0.0
16	0x00000000	0.0
17	0x00000000	0.0
18	0x00000000	0.0
19	0x00000000	0.0
20	0x00000000	0.0
21	0x00000000	0.0
22	0x00000000	0.0
23	0x00000000	0.0
24	0x00000000	0.0
25	0x00000000	0.0
26	0x00000000	0.0
27	0x00000000	0.0
28	0x00000000	0.0
29	0x00000000	0.0
30	0x00000000	0.0
31	0x00000000	0.0
32	0x00000000	0.0
33	0x00000000	0.0
34	0x00000000	0.0
35	0x00000000	0.0
36	0x00000000	0.0
37	0x00000000	0.0
38	0x00000000	0.0
39	0x00000000	0.0
40	0x00000000	0.0
41	0x00000000	0.0
42	0x00000000	0.0
43	0x00000000	0.0
44	0x00000000	0.0
45	0x00000000	0.0
46	0x00000000	0.0
47	0x00000000	0.0
48	0x00000000	0.0
49	0x00000000	0.0
50	0x00000000	0.0
51	0x00000000	0.0
52	0x00000000	0.0
53	0x00000000	0.0
54	0x00000000	0.0
55	0x00000000	0.0
56	0x00000000	0.0
57	0x00000000	0.0
58	0x00000000	0.0
59	0x00000000	0.0
60	0x00000000	0.0
61	0x00000000	0.0
62	0x00000000	0.0
63	0x00000000	0.0
64	0x00000000	0.0
65	0x00000000	0.0
66	0x00000000	0.0
67	0x00000000	0.0
68	0x00000000	0.0
69	0x00000000	0.0
70	0x00000000	0.0
71	0x00000000	0.0
72	0x00000000	0.0
73	0x00000000	0.0
74	0x00000000	0.0
75	0x00000000	0.0
76	0x00000000	0.0
77	0x00000000	0.0
78	0x00000000	0.0
79	0x00000000	0.0
80	0x00000000	0.0
81	0x00000000	0.0
82	0x00000000	0.0
83	0x00000000	0.0
84	0x00000000	0.0
85	0x00000000	0.0
86	0x00000000	0.0
87	0x00000000	0.0
88	0x00000000	0.0
89	0x00000000	0.0
90	0x00000000	0.0
91	0x00000000	0.0
92	0x00000000	0.0
93	0x00000000	0.0
94	0x00000000	0.0
95	0x00000000	0.0
96	0x00000000	0.0
97	0x00000000	0.0
98	0x00000000	0.0
99	0x00000000	0.0
100	0x00000000	0.0
101	0x00000000	0.0
102	0x00000000	0.0
103	0x00000000	0.0
104	0x00000000	0.0
105	0x00000000	0.0
106	0x00000000	0.0
107	0x00000000	0.0
108	0x00000000	0.0
109	0x00000000	0.0
110	0x00000000	0.0
111	0x00000000	0.0
112	0x00000000	0.0
113	0x00000000	0.0
114	0x00000000	0.0
115	0x00000000	0.0
116	0x00000000	0.0
117	0x00000000	0.0
118	0x00000000	0.0
119	0x00000000	0.0
120	0x00000000	0.0
121	0x00000000	0.0
122	0x00000000	0.0
123	0x00000000	0.0
124	0x00000000	0.0
125	0x00000000	0.0
126	0x00000000	0.0
127	0x00000000	0.0
128	0x00000000	0.0
129	0x00000000	0.0
130	0x00000000	0.0
131	0x00000000	0.0
132	0x00000000	0.0
133	0x00000000	0.0
134	0x00000000	0.0
135	0x00000000	0.0
136	0x00000000	0.0
137	0x00000000	0.0
138	0x00000000	0.0
139	0x00000000	0.0
140	0x00000000	0.0
141	0x00000000	0.0
142	0x00000000	0.0
143	0x00000000	0.0
144	0x00000000	0.0
145	0x00000000	0.0
146	0x00000000	0.0
147	0x00000000	0.0
148	0x00000000	0.0
149	0x00000000	0.0
150	0x00000000	0.0
151	0x00000000	0.0
152	0x00000000	0.0
153	0x00000000	0.0
154	0x00000000	0.0
155	0x00000000	0.0
156	0x00000000	0.0
157	0x00000000	0.0
158	0x00000000	0.0
159	0x00000000	0.0
160	0x00000000	0.0
161	0x00000000	0.0
162	0x00000000	0.0
163	0x00000000	0.0
164	0x00000000	0.0
165	0x00000000	0.0
166	0x00000000	0.0
167	0x00000000	0.0
168	0x00000000	0.0
169	0x00000000	0.0
170	0x00000000	0.0
171	0x00000000	0.0
172	0x00000000	0.0
173	0x00000000	0.0
174	0x00000000	0.0
175	0x00000000	0.0
176	0x00000000	0.0
177	0x00000000	0.0
178	0x00000000	0.0
179	0x00000000	0.0
180	0x00000000	0.0
181	0x00000000	0.0
182	0x00000000	0.0
183	0x00000000	0.0
184	0x00000000	0.0
185	0x00000000	0.0
186	0x00000000	0.0
187	0x00000000	0.0
188	0x00000000	0.0
189	0x00000000	0.0
190	0x00000000	0.0
191	0x00000000	0.0
192	0x00000000	0.0
193	0x00000000	0.0
194	0x00000000	0.0
195	0x00000000	0.0
196	0x00000000	0.0
197	0x00000000	0.0
198	0x00000000	0.0
199	0x00000000	0.0
200	0x00000000	0.0
201	0x00000000	0.0
202	0x00000000	0.0
203	0x00000000	0.0
204	0x00000000	0.0
205	0x00000000	0.0
206	0x00000000	0.0
207	0x00000000	0.0
208	0x00000000	0.0
209	0x00000000	0.0
210	0x00000000	0.0
211	0x00000000	0.0
212	0x00000000	0.0
213	0x00000000	0.0
214	0x00000000	0.0
215	0x00000000	0.0
216	0x00000000	0.0
217	0x00000000	0.0
218	0x00000000	0.0
219	0x00000000	0.0
220	0x00000000	0.0
221	0x00000000	0.0
222	0x00000000	0.0
223	0x00000000	0.0
224	0x00000000	0.0
225	0x00000000	0.0
226	0x00000000	0.0
227	0x00000000	0.0
228	0x00000000	0.0
229	0x00000000	0.0
230	0x00000000	0.0
231	0x00000000	0.0
232	0x00000000	0.0
233	0x00000000	0.0
234	0x00000000	0.0
235	0x00000000	0.0
236	0x00000000	0.0
237	0x00000000	0.0
238	0x00000000	0.0
239	0x00000000	0.0
240	0x00000000	0.0
241	0x00000000	0.0
242	0x00000000	0.0
243	0x00000000	0.0
244	0x00000000	0.0
245	0x00000000	0.0
246	0x00000000	0.0
247	0x00000000	0.0
248	0x00000000	0.0
249	0x00000000	0.0
250	0x00000000	0.0
251	0x00000000	0.0
252	0x00000000	0.0
253	0x00000000	0.0
254	0x00000000	0.0
255	0x00000000	0.0

weight f4 [8, 300]
0	0x3dde9b26	0.10869436
1	0xbdc93320	-0.098242044
2	0x3e06cf37	0.13164984
3	0x3cf5bfc8	0.029998675
4	0xbdd9e9e0	-0.10640311
5	0x3e011bf9	0.12608327
6	0xbd80b08b	-0.06283673
7	0xbd99e5c7	-0.0751453
8	0x3d93d92a	0.07219155
9	0x3d13a22c	0.03604333
10	0xbccb6678	-0.024829134
11	0xbda4f40a	-0.08054359
12	0xbc274580	-0.010209441
13	0x3d8fb2b0	0.07016504
14	0xbd29051a	-0.04126463
15	0xbdf801be	-0.12109707
16	0x3df4c5e6	0.11951809
17	0xbe0cae30	-0.13738322
18	0x3e02c30f	0.12769721
19	0xbc932570	-0.017962188
20	0xbd25636e	-0.040378027
21	0x3dd1b8d6	0.10240333
22	0xbb19f140	-0.0023489743
23	0xbd69e074	-0.05709882
24	0xbc600520	-0.013673097
25	0x3e0c6f75	0.13714392
26	0x3dcbf604	0.09959033
27	0x3dfc683e	0.1232457
28	0x3c764190	0.01503028
29	0x3bd88a20	0.0066082627
30	0x3df005f2	0.11719884
31	0x3dcf9764	0.10136297
32	0xbcdba3a4	-0.026811428
33	0x3df45ea2	0.11932112
34	0x3d1e34c8	0.038624555
35	0xbcde361c	-0.02712541
36	0x3cfc77c8	0.030818835
37	0x3e0eea07	0.13956462
38	0xbd77ded4	-0.06051524
39	0xbd0bca2a	-0.034128346
40	0x3d14c980	0.036324978
41	0xbdca1602	-0.09867479
42	0x3ddf6d2e	0.10909496
43	0xbce29f80	-0.027663946
44	0xbcef0090	-0.029175073
45	0x3c424950	0.011858299
46	0xbd85d547	-0.0653482
47	0x3dce7b0e	0.100820646
48	0xbc01f8f0	-0.0079328865
49	0x3d65db74	0.05611749
50	0xbdd71f98	-0.10504073
51	0xbc4c5ff0	-0.012474045
52	0x3d607b24	0.054804936
53	0x3dd7b350	0.10532248
54	0x3b5f06c0	0.0034031123
55	0x3d0d7098	0.034531206
56	0x3d91165c	0.07084343
57	0x3e0d8d91	0.13823535
58	0x3dbc1080	0.091828346
59	0x3cd4cea8	0.025977448
60	0x3d3f3f5c	0.046691284
61	0xbdcf4c63	-0.101219915
62	0x3dba7266	0.09103851
63	0x3d67e514	0.05661495
64	0x3cfbeb30	0.030751795
65	0xbca70314	-0.02038721
66	0xbe0dd193	-0.13849477
67	0x3d25eca0	0.040508866
68	0xbdb471b1	-0.088107474
69	0xbd94db4f	-0.07268392
70	0xbd2d81d6	-0.04236015
71	0xbdb0f884	-0.086411506
72	0xbdd66b5c	-0.10469696
73	0xbca8376c	-0.02053424
74	0x3ce3de58	0.027815983
75	0xbe03ea28	-0.12882292
76	0xbd522e1c	-0.051313505
77	0x3d4d6cb4	0.050152496
78	0xbdb6f934	-0.089342505
79	0xbe089b2b	-0.13340442
80	0xbd992b1a	-0.07478924
81	0x3d56e244	0.052461877
82	0xbd823b0d	-0.06358919
83	0xbdf9d854	-0.121994644
84	0x3d92f930	0.07176435
85	0x3d31e510	0.04343134
86	0x3d834886	0.06410317
87	0xbbfe30c0	-0.0077572763
88	0x3df0ab8e	0.117514715
89	0x3d629fa4	0.055328026
90	0x3e003e61	0.12523796
91	0xbdff8b10	-0.12477696
92	0x3d2be314	0.041964605
93	0x3c963650	0.018336445
94	0x3db3da94	0.08781925
95	0xbe0451c6	-0.12921819
96	0xbc8ee1cc	-0.017441653
97	0x3dba9a40	0.09111452
98	0xbe058bb5	-0.13041575
99	0x3e0a1c1d	0.13487287
100	0x3d5205d8	0.051275104
101	0xbcebc250	-0.028779179
102	0x3cdbd868	0.026836589
103	0xbbe2d3a0	-0.0069222003
104	0x3c527d90	0.012847319
105	0xbd29803e	-0.041382067
106	0xbdb51212	-0.08841337
107	0xbdbe0d52	-0.092798844
108	0x3d39f034	0.04539509
109	0x3ddb961a	0.10721989
110	0xbcd91ed8	-0.026503965
111	0x3e00cf69	0.1257912
112	0x3ae2cd00	0.0017303526
113	0xbddd340a	-0.10800941
114	0x3dc20312	0.09473242
115	0x3deaf586	0.11472611
116	0x3b0b0600	0.0021213293
117	0xbd605ce6	-0.054776095
118	0xbdf30ebf	-0.11868047
119	0xbe0458be	-0.12924477
120	0xbdd62b65	-0.104574956
121	0xbcf35e0c	-0.029707931
122	0xbe0567eb	-0.13027923
123	0xbd21ce90	-0.039503634
124	0xbb39c140	-0.0028343946
125	0xbe0e7fad	-0.13915892
126	0x3d75fdd4	0.060056522
127	0xbe04a140	-0.12952137
128	0x3d9410a6	0.07229738
129	0x3d4b3b24	0.049616948
130	0x3dbe0f6a	0.09280284
131	0x3ca713b0	0.02039513
132	0xbd8cbd34	-0.06872025
133	0x3da1e2e0	0.07904601
134	0x3dacd50c	0.08439073
135	0x3da3cfaa	0.07998593
136	0x3cab56f0	0.020915478
137	0xbce2fd88	-0.027708784
138	0x3c8e58a0	0.017376244
139	0x3d20b724	0.039237157
140	0x3d8241f6	0.06360237
141	0xbc60e120	-0.013725549
142	0xbdd1cbe8	-0.1024397
143	0xbcd34794	-0.025790967
144	0xbded4d4c	-0.11587009
145	0xbd58ad40	-0.0528996
146	0xbd105b1a	-0.03524313
147	0xbd947490	-0.07248795
148	0xbc94c80c	-0.018161796
149	0xbdc0f417	-0.094215564
150	0x3d43de78	0.047819585
151	0x3d95edc0	0.07320738
152	0xbdbe32fa	-0.09287067
153	0x3c868f58	0.016425774
154	0xbd0b0d2a	-0.0339481
155	0x3db04248	0.08606392
156	0x3e0b74a1	0.13618709
157	0x3d83b086	0.064301535
158	0x3dddfbd2	0.108390465
159	0x3dea9d82	0.114558235
160	0xbd731ed2	-0.059355564
161	0xbdba7d8e	-0.09105979
162	0xbd874ff5	-0.066070475
163	0x3c0c7f20	0.008575231
164	0xbc301120	-0.01074627
165	0x3dcefa80	0.10106373
166	0x3d22745c	0.03966175
167	0x3e05b3ff	0.13056944
168	0xbe09261b	-0.13393442
169	0x3dfa9626	0.1223567
170	0xbbc58c40	-0.006028682
171	0xbdf0e742	-0.11762859
172	0x3e071a19	0.13193549
173	0xbcc030b8	-0.02346073
174	0x3d07b4e0	0.03313148
175	0x3da7b026	0.081878945
176	0xbdbf3720	-0.09336686
177	0x3dcfa7a6	0.10139398
178	0xbc81e694	-0.015857019
179	0x3df738ba	0.120713666
180	0x3e07b1e3	0.13251452
181	0xbd959762	-0.073042646
182	0xbddd46ec	-0.10804543
183	0x3de4afa6	0.11166315
184	0xbdf6109a	-0.12014885
185	0x3c504ab0	0.012713119
186	0xbcb6d374	-0.022317626
187	0x3deac1fa	0.11462779
188	0x3de20056	0.1103522
189	0xbd91f6e9	-0.071271725
190	0xbcd0c85c	-0.025486164
191	0x3e0027b1	0.12515141
192	0xbda43dbe	-0.08019589
193	0xbe05141e	-0.12995955
194	0xbe003a72	-0.12522295
195	0xbc8759e4	-0.016522355
196	0x3c36ada0	0.011149794
197	0x3d4542f4	0.048159555
198	0xbd47bdda	-0.04876504
199	0xbdd64e2e	-0.1046413
200	0xbd79660e	-0.060888343
201	0x3dc62276	0.09674542
202	0x3e0bc145	0.13647945
203	0x3dc00836	0.09376566
204	0x3da081b8	0.07837242
205	0xbd9e23c6	-0.07721667
206	0x3dc124a0	0.09430814
207	0xbdf2fd53	-0.11864724
208	0x3d3d3d58	0.04620108
209	0x3d637f30	0.055541217
210	0x3d5aaa74	0.053385213
211	0x3db1de30	0.08684957
212	0xbd2037be	-0.03911566
213	0xbdd5a4dd	-0.10431836
214	0xbd585192	-0.052812167
215	0x3d26baa4	0.040705338
216	0xbd3fc1f2	-0.04681582
217	0xbddf24e6	-0.1089571
218	0x3d213914	0.039361075
219	0x3daffb36	0.085928366
220	0x3dfabd0a	0.122430876
221	0x3da423b4	0.08014622
222	0x3d666108	0.05624488
223	0x3e06f311	0.1317866
224	0x3d877444	0.06613973
225	0xbd180b6c	-0.037120268
226	0x3dd0c964	0.10194662
227	0xbdbb093b	-0.0913262
228	0x3d9a670e	0.07539187
229	0xbc90e6d8	-0.0176882
230	0x3d826e36	0.06368677
231	0x3de14090	0.109986424
232	0x3e07e54b	0.13271062
233	0x3c2c8800	0.010530472
234	0x39404c00	0.00018338859
235	0xbcd84700	-0.026401043
236	0x3d104b2c	0.03522794
237	0xbdd499a0	-0.10380864
238	0x3dbb7408	0.091529906
239	0xbd778248	-0.06042698
240	0xbcde6274	-0.027146555
241	0xbd13e1e4	-0.036104098
242	0xbd81d2a0	-0.06339002
243	0x3d9c6d96	0.07638089
244	0xbd4da164	-0.050202742
245	0x3d87a52a	0.066232994
246	0xbdbbc4a8	-0.091683686
247	0xbd741b7c	-0.059596524
248	0x3db03022	0.086029306
249	0x3de89bfe	0.11357878
250	0xbd516d06	-0.051129363
251	0x3dd3667e	0.10322283
252	0xbdfcfd8f	-0.1235305
253	0xbded09e8	-0.11574155
254	0x3da57f36	0.08080904
255	0x3d1e53d0	0.03865415

bias f4 [300]
0	0x00000000	0.0
1	0x00000000	0.0
2	0x00000000	0.0
3	0x00000000	0.0
4	0x00000000	0.0
5	0x00000000	0.0
6	0x00000000	0.0
7	0x00000000	0.0
8	0x00000000	0.0
9	0x00000000	0.0
10	0x00000000	0.0
11	0x00000000	0.0
12	0x00000000	0.0
13	0x00000000	0.0
14	0x00000000	0.0
15	0x00000000	0.0
16	0x00000000	0.0
17	0x00000000	0.0
18	0x00000000	0.0
19	0x00000000	0.0
20	0x00000000	0.0
21	0x00000000	0.0
22	0x00000000	0.0
23	0x00000000	0.0
24	0x00000000	0.0
25	0x00000000	0.0
26	0x00000000	0.0
27	0x00000000	0.0
28	0x00000000	0.0
29	0x00000000	0.0
30	0x00000000	0.0
31	0x00000000	0.0
32	0x00000000	0.0
33	0x00000000	0.0
34	0x00000000	0.0
35	0x00000000	0.0
36	0x00000000	0.0
37	0x00000000	0.0
38	0x00000000	0.0
39	0x00000000	0.0
40	0x00000000	0.0
41	0x00000000	0.0
42	0x00000000	0.0
43	0x00000000	0.0
44	0x00000000	0.0
45	0x00000000	0.0
46	0x00000000	0.0
47	0x00000000	0.0
48	0x00000000	0.0
49	0x00000000	0.0
50	0x00000000	0.0
51	0x00000000	0.0
52	0x00000000	0.0
53	0x00000000	0.0
54	0x00000000	0.0
55	0x00000000	0.0
56	0x00000000	0.0
57	0x00000000	0.0
58	0x00000000	0.0
59	0x00000000	0.0
60	0x00000000	0.0
61	0x00000000	0.0
62	0x00000000	0.0
63	0x00000000	0.0
64	0x00000000	0.0
65	0x00000000	0.0
66	0x00000000	0.0
67	0x00000000	0.0
68	0x00000000	0.0
69	0x00000000	0.0
70	0x00000000	0.0
71	0x00000000	0.0
72	0x00000000	0.0
73	0x00000000	0.0
74	0x00000000	0.0
75	0x00000000	0.0
76	0x00000000	0.0
77	0x00000000	0.0
78	0x00000000	0.0
79	0x00000000	0.0
80	0x00000000	0.0
81	0x00000000	0.0
82	0x00000000	0.0
83	0x00000000	0.0
84	0x00000000	0.0
85	0x00000000	0.0
86	0x00000000	0.0
87	0x00000000	0.0
88	0x00000000	0.0
89	0x00000000	0.0
90	0x00000000	0.0
91	0x00000000	0.0
92	0x00000000	0.0
93	0x00000000	0.0
94	0x00000000	0.0
95	0x00000000	0.0
96	0x00000000	0.0
97	0x00000000	0.0
98	0x00000000	0.0
99	0x00000000	0.0
100	0x00000000	0.0
101	0x00000000	0.0
102	0x00000000	0.0
103	0x00000000	0.0
104	0x00000000	0.0
105	0x00000000	0.0
106	0x00000000	0.0
107	0x00000000	0.0
108	0x00000000	0.0
109	0x00000000	0.0
110	0x00000000	0.0
111	0x00000000	0.0
112	0x00000000	0.0
113	0x00000000	0.0
114	0x00000000	0.0
115	0x00000000	0.0
116	0x00000000	0.0
117	0x00000000	0.0
118	0x00000000	0.0
119	0x00000000	0.0
120	0x00000000	0.0
121	0x00000000	0.0
122	0x00000000	0.0
123	0x00000000	0.0
124	0x00000000	0.0
125	0x00000000	0.0
126	0x00000000	0.0
127	0x00000000	0.0
128	0x00000000	0.0
129	0x00000000	0.0
130	0x00000000	0.0
131	0x00000000	0.0
132	0x00000000	0.0
133	0x00000000	0.0
134	0x00000000	0.0
135	0x00000000	0.0
136	0x00000000	0.0
137	0x00000000	0.0
138	0x00000000	0.0
139	0x00000000	0.0
140	0x00000000	0.0
141	0x00000000	0.0
142	0x00000000	0.0
143	0x00000000	0.0
144	0x00000000	0.0
145	0x00000000	0.0
146	0x00000000	0.0
147	0x00000000	0.0
148	0x00000000	0.0
149	0x00000000	0.0
150	0x00000000	0.0
151	0x00000000	0.0
152	0x00000000	0.0
153	0x00000000	0.0
154	0x00000000	0.0
155	0x00000000	0.0
156	0x00000000	0.0
157	0x00000000	0.0
158	0x00000000	0.0
159	0x00000000	0.0
160	0x00000000	0.0
161	0x00000000	0.0
162	0x00000000	0.0
163	0x00000000	0.0
164	0x00000000	0.0
165	0x00000000	0.0
166	0x00000000	0.0
167	0x00000000	0.0
168	0x00000000	0.0
169	0x00000000	0.0
170	0x00000000	0.0
171	0x00000000	0.0
172	0x00000000	0.0
173	0x00000000	0.0
174	0x00000000	0.0
175	0x00000000	0.0
176	0x00000000	0.0
177	0x00000000	0.0
178	0x00000000	0.0
179	0x00000000	0.0
180	0x00000000	0.0
181	0x00000000	0.0
182	0x00000000	0.0
183	0x00000000	0.0
184	0x00000000	0.0
185	0x00000000	0.0
186	0x00000000	0.0
187	0x00000000	0.0
188	0x00000000	0.0
189	0x00000000	0.0
190	0x00000000	0.0
191	0x00000000	0.0
192	0x00000000	0.0
193	0x00000000	0.0
194	0x00000000	0.0
195	0x00000000	0.0
196	0x00000000	0.0
197	0x00000000	0.0
198	0x00000000	0.0
199	0x00000000	0.0
200	0x00000000	0.0
201	0x00000000	0.0
202	0x00000000	0.0
203	0x00000000	0.0
204	0x00000000	0.0
205	0x00000000	0.0
206	0x00000000	0.0
207	0x00000000	0.0
208	0x00000000	0.0
209	0x00000000	0.0
210	0x00000000	0.0
211	0x00000000	0.0
212	0x00000000	0.0
213	0x00000000	0.0
214	0x00000000	0.0
215	0x00000000	0.0
216	0x00000000	0.0
217	0x00000000	0.0
218	0x00000000	0.0
219	0x00000000	0.0
220	0x00000000	0.0
221	0x00000000	0.0
222	0x00000000	0.0
223	0x00000000	0.0
224	0x00000000	0.0
225	0x00000000	0.0
226	0x00000000	0.0
227	0x00000000	0.0
228	0x00000000	0.0
229	0x00000000	0.0
230	0x00000000	0.0
231	0x00000000	0.0
232	0x00000000	0.0
233	0x00000000	0.0
234	0x00000000	0.0
235	0x00000000	0.0
236	0x00000000	0.0
237	0x00000000	0.0
238	0x00000000	0.0
239	0x00000000	0.0
240	0x00000000	0.0
241	0x00000000	0.0
242	0x00000000	0.0
243	0x00000000	0.0
244	0x00000000	0.0
245	0x00000000	0.0
246	0x00000000	0.0
247	0x00000000	0.0
248	0x00000000	0.0
249	0x00000000	0.0
250	0x00000000	0.0
251	0x00000000	0.0
252	0x00000000	0.0
253	0x00000000	0.0
254	0x00000000	0.0
255	0x00000000	0.0

weight f4 [300, 5]
0	0x3e25c9cc	0.1619026
1	0x3dcc7648	0.09983498
2	0x3c57d880	0.013174176
3	0xbc848b13	-0.016179597
4	0x3c8c75a7	0.017145945
5	0x3dbab30a	0.0911618
6	0x3e02aaa4	0.12760407
7	0x3e2c34bd	0.16816993
8	0x3e17cf73	0.1482523
9	0x3d133161	0.035935763
10	0x3d24c4e0	0.040226817
11	0xbd6775f4	-0.056508973
12	0x3c35d982	0.011099221
13	0xbd2a473a	-0.041571833
14	0x3d91912a	0.07107766
15	0x3dbf4d60	0.0934093
16	0xbbc1cb67	-0.00591414
17	0xbd5896de	-0.052878253
18	0xbe02181b	-0.12704508
19	0x3d9357e5	0.07194499
20	0xbcd4e265	-0.02598686
21	0xbd72f9e6	-0.059320353
22	0xbcb54eee	-0.022132363
23	0x3e3c77ad	0.18405028
24	0x3c4b8f2d	0.0124242725
25	0xbd801234	-0.06253472
26	0x3d7f323c	0.062303767
27	0xbd030322	-0.03198541
28	0xbbb69a00	-0.0055725574
29	0xbd336eec	-0.043806955
30	0xbd041a37	-0.032251563
31	0x3e14e18f	0.14539169
32	0x3d1af395	0.037829954
33	0x3d322cf5	0.043499906
34	0x3c6c7ca9	0.014434018
35	0x3d93c1e4	0.07214716
36	0x3c0f4819	0.008745217
37	0xbda73664	-0.08164671
38	0x3df83123	0.12118747
39	0xbe0168de	-0.1263766
40	0x3e120dac	0.14263028
41	0xbe108151	-0.1411183
42	0xbe9464da	-0.28983194
43	0xbdd5029e	-0.1040089
44	0x3db8b19e	0.09018253
45	0x3da06d46	0.07833342
46	0x3d255ab7	0.040369716
47	0x3e41e445	0.18934734
48	0x3dbac314	0.091192394
49	0x3b0f93ec	0.0021908237
50	0xbda7fb67	-0.08202248
51	0x3dee7e4a	0.116451815
52	0xbd8bddca	-0.06829412
53	0x3dd64946	0.104631945
54	0xbd0986a2	-0.03357566
55	0xbc428080	-0.011871457
56	0x3d100bf0	0.035167634
57	0xbdf57b2d	-0.119863845
58	0x3d980aaa	0.07423909
59	0xbd159a1a	-0.036523916
60	0x3e6fcfa4	0.23419052
61	0x3c554f23	0.013019356
62	0x3dddb972	0.108263865
63	0xbd03d05c	-0.03218113
64	0xbdb869da	-0.090045646
65	0x3e20ec98	0.15715253
66	0x3ce7a9cb	0.028279206
67	0x3d300bda	0.042980053
68	0x3e184dd7	0.14873444
69	0xbe01d539	-0.12678994
70	0xbd1a9d83	-0.03774787
71	0xbdd61c98	-0.104546726
72	0x3e00f8d8	0.12594926
73	0xbad95dc0	-0.0016583726
74	0xbb8c1cc1	-0.0042758887
75	0x3df78050	0.120850205
76	0x3de23129	0.11044533
77	0xbcebb0b0	-0.028770775
78	0xbd1ab193	-0.037767004
79	0xbdb78eee	-0.089628085
80	0x3dd8025e	0.105473265
81	0x3dfd8d6e	0.12380491
82	0xbdab6c26	-0.08370237
83	0x3a6bf668	0.0009001256
84	0xbe56c0ab	-0.20971934
85	0x3d4068a1	0.046974782
86	0xbe35b4eb	-0.17744796
87	0xbe326a52	-0.1742337
88	0xbd875758	-0.066084564
89	0x3dfd3111	0.12362874
90	0x3da2b614	0.07944885
91	0xbdda057f	-0.106455795
92	0xbcc2be7f	-0.023772476
93	0xbdac2464	-0.084053785
94	0xbe1627f7	-0.14663683
95	0x3d8da104	0.06915477
96	0x3d88a124	0.0667136
97	0x3e01d543	0.12679009
98	0x3d7f9a34	0.06240292
99	0x3e0684bb	0.1313657
100	0xbc49f706	-0.012326961
101	0x3cbc2d5d	0.02297085
102	0x3da2b541	0.07944728
103	0x3e3c5c88	0.18394673
104	0xbdc1911a	-0.09451504
105	0x3e433b3a	0.19065562
106	0x3dd90df6	0.10598366
107	0xbda37d7b	-0.07982918
108	0x3dcf2e75	0.10116283
109	0xbd2fa054	-0.04287751
110	0x3e68d3db	0.22737066
111	0x3dc24cd7	0.09487312
112	0xbdd1ee5e	-0.10250543
113	0x3e282b9f	0.1642289
114	0xbc623abd	-0.01380795
115	0x3d81e960	0.06343341
116	0xbd782a0b	-0.06058697
117	0xbcd5002e	-0.026001062
118	0x3d8274fe	0.06369971
119	0x3d2e3f8c	0.04254107
120	0x3e04bd78	0.12962902
121	0xbc94cd98	-0.018164441
122	0x3e170cff	0.14751051
123	0x3dbcd59e	0.09220432
124	0xbe2a158f	-0.16609786
125	0x3de20df2	0.11037816
126	0x3d86c808	0.06581122
127	0xbde03b1c	-0.10948774
128	0x3d301e70	0.042997777
129	0xbdb4d404	-0.08829501
130	0x3cb6c271	0.022309514
131	0x3dfdb2aa	0.12387593
132	0x3e1556d3	0.14583902
133	0x3e564c11	0.20927455
134	0x385714ca	5.1279356e-05
135	0xbdba6c70	-0.09102714
136	0x3d6eeef4	0.058333352
137	0x3ddd02ca	0.107915476
138	0x3d4c09c8	0.049814016
139	0xbc91ad74	-0.017782904
140	0x3ca7929a	0.020455647
141	0x3d9abfcf	0.07556116
142	0x3dc66df0	0.09688938
143	0x3e25f0fd	0.16205211
144	0x3d3a2f3b	0.0454552
145	0xbd97c378	-0.074103296
146	0x3d3200f4	0.04345794
147	0x3c01b120	0.007915765
148	0x3d855e38	0.065121114
149	0x3d393eac	0.045225784
150	0x3deaa260	0.11456752
151	0x3d1d2b66	0.038371466
152	0xbda45028	-0.08023101
153	0x3e48e2ab	0.19617717
154	0xbe25376f	-0.16134427
155	0xbd1654f0	-0.036702096
156	0xbd33adf8	-0.04386708
157	0x3e08d2dd	0.13361688
158	0xbd548f9a	-0.05189476
159	0x3d3652c0	0.04451251
160	0x3dd29393	0.10282054
161	0xbc11bc42	-0.008894982
162	0xbe049b19	-0.1294979
163	0xba71e3b4	-0.0009227351
164	0x3d6cd610	0.057821333
165	0x3e2a295d	0.16617341
166	0x3d799b70	0.060939252
167	0xbd7bdef5	-0.061491925
168	0x3d85e1ad	0.06537185
169	0xbe309657	-0.1724485
170	0x3df26ab6	0.1183676
171	0xbc7234d0	-0.014783099
172	0x3d2263ac	0.039645836
173	0x3c2185f0	0.009858593
174	0xbd989fd7	-0.07452362
175	0xbd9ba75e	-0.07600282
176	0x3d2f0cd4	0.042736843
177	0xbd9545f9	-0.07288737
178	0x3d118d98	0.035535425
179	0x3d84ad14	0.064783245
180	0xbdbe3a16	-0.09288423
181	0x3c667350	0.014065579
182	0x3d6247b4	0.055244163
183	0x3dbe5d04	0.09295085
184	0xbd72094e	-0.059090905
185	0x3c5b3f30	0.013381764
186	0x3dda7db6	0.10668509
187	0xbdf1f771	-0.11814774
188	0x3d4b8d0c	0.04969506
189	0xbdae29c7	-0.08504062
190	0x3dd52e6d	0.10409246
191	0xbe382496	-0.17982706
192	0xbe2c0bf7	-0.16801439
193	0xbde069d8	-0.10957688
194	0xbdc940cb	-0.098268114
195	0x3e0369c5	0.12833317
196	0xbddf433d	-0.109014966
197	0xbcb69b8a	-0.022290964
198	0x3e26b348	0.16279328
199	0xbcdec276	-0.027192336
200	0xbcb3f1ba	-0.02196585
201	0x3d611fa6	0.054961823
202	0x3d12fcc4	0.035885587
203	0xbd8032bb	-0.06259676
204	0xbe1c80fd	-0.1528358
205	0x3d7d206c	0.061798498
206	0xbcca67d8	-0.02470772
207	0xbdaf58c9	-0.08561856
208	0x3b54a1fe	0.0032445188
209	0xbde4a481	-0.11164189
210	0x3e713ac8	0.2355758
211	0xbcd82fdc	-0.026390009
212	0x3d84e36d	0.064886905
213	0x3e3f4f9b	0.18682711
214	0xbe180289	-0.14844717
215	0x3d1187cc	0.035529897
216	0xbd88bae5	-0.06676272
217	0xbd2d222c	-0.042268917
218	0xbd0707c8	-0.032966405
219	0xbdfe5e1e	-0.12420295
220	0x3d61ff98	0.055175394
221	0xbd5566e0	-0.052100062
222	0xbd9a8f04	-0.07546809
223	0x3dc3b05c	0.09555122
224	0xbd1ce162	-0.03830088
225	0x3dd2b106	0.10287671
226	0x3e191c0e	0.14952108
227	0x3d0bb7e7	0.03411093
228	0x3e2665ba	0.16249743
229	0xbe1e8c71	-0.15483262
230	0xbdcc3c7c	-0.09972474
231	0x3e07a303	0.13245778
232	0x3d3b3730	0.045706928
233	0x3d47f784	0.048820034
234	0x3d9faeec	0.077970356
235	0x3e5046f5	0.20339568
236	0xbca989ff	-0.020695684
237	0x3e315a5f	0.1731963
238	0x3dc42441	0.095772274
239	0x3d837b4a	0.0642
240	0x3df047b6	0.11732428
241	0xbd79920e	-0.060930304
242	0xbb4a5100	-0.0030871034
243	0x3b824800	0.003975868
244	0x3db946b4	0.09046689
245	0x3d0e723c	0.03477691
246	0x3d817246	0.06320624
247	0x3dfcfdf2	0.12353124
248	0x3e070c89	0.13188376
249	0xbd3cccd4	-0.046093777
250	0x3e3e8d6a	0.18608633
251	0xbdf26970	-0.11836517
252	0x3df3445d	0.11878274
253	0x3d955ce1	0.07293106
254	0x3d774f2d	0.060378242
255	0x3e574237	0.21021353

bias f4 [5]
0	0x3e27157f	0.16316794
1	0x3dea60b2	0.114442244
2	0x3dfb5e15	0.12273804
3	0x3df1a408	0.117988646
4	0xbde3d0be	-0.11123799

weight f4 [300, 5]
0	0xbd607d87	-0.054807212
1	0xbe0cf987	-0.13767062
2	0xbc3d321f	-0.011547594
3	0xbd49bf5e	-0.049254768
4	0x3dbdb422	0.09262873
5	0x3da822de	0.082097754
6	0xbed659de	-0.41865438
7	0x3d7fecd4	0.062481716
8	0x3e2fae82	0.17156413
9	0x3ecbd3eb	0.39810118
10	0xbe01deea	-0.12682691
11	0xbcf74c9d	-0.0301879
12	0xbc011d1b	-0.007880474
13	0xbdbe5e50	-0.092953324
14	0xbd9be242	-0.07611515
15	0xbd924974	-0.07142916
16	0x3d688b98	0.056773752
17	0x3e155e66	0.14586791
18	0x3dd4c793	0.10389628
19	0xbe025174	-0.12726384
20	0x3e4caa58	0.19986856
21	0xbeab3091	-0.3343549
22	0x3e88ab8e	0.26693386
23	0x3e6673f2	0.22505167
24	0x3e1badda	0.15203038
25	0x3c5aa1a0	0.013344198
26	0xbc19a7d0	-0.0093783885
27	0xbde93664	-0.11387327
28	0x3d71d9c8	0.059045583
29	0xbd9659b1	-0.07341326
30	0x3e1d30d9	0.15350665
31	0xbeb8052a	-0.3594144
32	0x3dce13b8	0.10062355
33	0x3e253852	0.16134766
34	0x3eb73abf	0.35787007
35	0x3d9e8556	0.077402756
36	0xbed46d94	-0.4148985
37	0x3c554ea3	0.013019237
38	0x3e3b6248	0.1829921
39	0x3e99c05c	0.3002957
40	0x3ebe46ee	0.3716349
41	0xbf107532	-0.56428826
42	0xbe112159	-0.14172877
43	0x3e1acd8a	0.1511747
44	0x3f086c0d	0.5328987
45	0x3e0208a4	0.12698609
46	0x3d93f357	0.07224148
47	0x3e0a7fcd	0.13525315
48	0x3dd8c1b7	0.10583823
49	0xbe481bf6	-0.19541916
50	0x3d5ae77b	0.053443413
51	0xbdb6e282	-0.08929922
52	0xbd75000e	-0.059814505
53	0x3e0e141a	0.13874856
54	0x3dc4b97a	0.09605689
55	0xbd8fc866	-0.07020645
56	0xbd17b2db	-0.037035804
57	0xbd8e2567	-0.06940728
58	0xbe025afa	-0.12730017
59	0x3d801858	0.06254643
60	0x3e9a1745	0.30095878
61	0x3d4ef1f3	0.05052371
62	0x3e5652bb	0.20929997
63	0x3eae7276	0.34071702
64	0xbd1d35d4	-0.038381413
65	0x3df5ab30	0.11995542
66	0x3e7fff4e	0.24999735
67	0x3e553e95	0.20824654
68	0x3eba8052	0.36426026
69	0xbe91d6bd	-0.28484145
70	0x3cdbf402	0.02684975
71	0xbe71c06b	-0.23608558
72	0x3e2a891c	0.16653866
73	0x3dc3e50d	0.09565172
74	0x3ef21ec6	0.47289103
75	0x3db588ab	0.08863958
76	0xbe59302c	-0.21209782
77	0x3e13cfea	0.14434782
78	0x3d0b5637	0.034017768
79	0x3e331db6	0.17491803
80	0x3e8eda8b	0.2790111
81	0xbe509ef8	-0.20373142
82	0x3d7f8f7d	0.0623927
83	0x3e43c121	0.19116642
84	0x3da90ed5	0.08254782
85	0x3e7b8a50	0.24564481
86	0xbebf1758	-0.37322497
87	0x3dfa1ff0	0.12213123
88	0x3ebef762	0.37298113
89	0x3e84b64b	0.25920328
90	0x3cbb1027	0.02283485
91	0xbdc19181	-0.09451581
92	0x3e263db0	0.1623447
93	0x3dc12f18	0.094328105
94	0x3bf498a7	0.0074644866
95	0xbda77763	-0.08177068
96	0xbe1a9335	-0.15095218
97	0x3ddec4ef	0.10877406
98	0x3ddc2b85	0.10750488
99	0x3c86d0d5	0.016457
100	0x3e85a6c8	0.26103806
101	0xbeb53705	-0.3539354
102	0x3dff12c0	0.12454748
103	0x3d11620b	0.03549389
104	0x3e406011	0.18786646
105	0x3e51f1a8	0.20502341
106	0xbec46e25	-0.38365284
107	0x3e124165	0.14282759
108	0x3e112206	0.14173135
109	0x3ec034eb	0.37540373
110	0x3e58ba96	0.21164927
111	0xbe5b819a	-0.21436158
112	0x3d6b9187	0.057511833
113	0x3e6af055	0.22943242
114	0x3ead8ce9	0.33896568
115	0xbdce31a3	-0.10068061
116	0xbd911936	-0.07084887
117	0xbd119ad8	-0.03554806
118	0xbdc3ba8e	-0.09557067
119	0x3d0c4b4b	0.034251492
120	0x3df271e2	0.11838128
121	0x3df1b1c9	0.11801488
122	0x3e96c463	0.29446706
123	0x3e9f7894	0.3114668
124	0xbd2724b1	-0.040806476
125	0x3d42129c	0.04738103
126	0x3d0d847c	0.034550175
127	0x3d7072b8	0.058703154
128	0xbd291010	-0.041275084
129	0x3d921088	0.07132059
130	0x3e57bcf1	0.21068169
131	0xbea84959	-0.3286846
132	0x3e5cd62f	0.2156608
133	0x3e05f11b	0.13080256
134	0x3e5f80cd	0.21826477
135	0x3d2f850c	0.042851493
136	0xbd6ec9dc	-0.058297977
137	0x3d986e44	0.074429065
138	0xbd0b4748	-0.034003526
139	0x3e09886b	0.13430946
140	0x3e9da73d	0.30791655
141	0x3deb1b08	0.11479765
142	0x3e0cbb65	0.1374336
143	0x3e5770cd	0.21039124
144	0xbe2d673d	-0.16933914
145	0x3e14154b	0.14461248
146	0x3d981b02	0.07427026
147	0xbd3c0c23	-0.045910012
148	0x3d84fea0	0.06493878
149	0xbe04c108	-0.1296426
150	0x3da623a1	0.081122644
151	0xbebea291	-0.37233403
152	0xbcd4e292	-0.025986943
153	0x3e63ec70	0.22258162
154	0x3e1a84ce	0.15089723
155	0x3cf5ca50	0.030003697
156	0xbe0926a5	-0.13393648
157	0xbc887ed8	-0.016662046
158	0x3da5543c	0.08072707
159	0xbc0d28f0	-0.008615717
160	0xbdf68598	-0.120372
161	0x3d97e5f5	0.07416908
162	0xbdfb4ff6	-0.12271111
163	0xbe03e879	-0.1288165
164	0x3d3a2c58	0.045452446
165	0x3c89f562	0.01684064
166	0xbed95d27	-0.42453882
167	0x3d6d13e4	0.057880297
168	0x3c28ebab	0.010310094
169	0x3e8570e7	0.260627
170	0xbd108060	-0.035278678
171	0xbd6b64e1	-0.057469252
172	0xbcbf343c	-0.023340337
173	0xbd978430	-0.0739826
174	0x3d927d1c	0.07152769
175	0xbda236ae	-0.079205856
176	0xbd694b0f	-0.056956347
177	0x3ddefde6	0.10888271
178	0xbd52aada	-0.051432468
179	0xbd581dd9	-0.05276284
180	0x3dc99e44	0.0984464
181	0x392b5000	0.00016337633
182	0xbceaaae4	-0.02864594
183	0x3dbb09ca	0.091327265
184	0xbe054b6b	-0.13017051
185	0xbd589e1a	-0.052885152
186	0xbdd4d789	-0.103926726
187	0xbdfecd16	-0.12441461
188	0xbde85772	-0.11344804
189	0xbd35006c	-0.044189855
190	0x3ee79dea	0.45237666
191	0xbe4cc719	-0.19997825
192	0x3e9680b6	0.29395074
193	0x3ecf006d	0.40430012
194	0x3ea7af15	0.32750764
195	0xbd0cd0e3	-0.034378897
196	0xbe0f0a8c	-0.13968867
197	0xbc8297a4	-0.015941449
198	0xbd81e608	-0.06342703
199	0xbdc3dd80	-0.09563732
200	0x3e0b3268	0.13593447
201	0xbec8f041	-0.392458
202	0x3d4c6e5a	0.049909927
203	0x3e0567cc	0.13027877
204	0x3ec11d57	0.37717697
205	0xbc92a937	-0.017902954
206	0x3d5f16c6	0.054465078
207	0xbd46fbd7	-0.048580017
208	0xbdd14949	-0.10219056
209	0xbd0fffca	-0.03515605
210	0x3dfeb0b8	0.1243605
211	0xbe6940c4	-0.22778612
212	0x3d92a546	0.0716043
213	0x3d85a63d	0.06525848
214	0x3ead8bd4	0.33895743
215	0xbc3adcd0	-0.011405185
216	0xbe01928e	-0.12653562
217	0x3cc09f30	0.023513407
218	0xbdac5563	-0.08414724
219	0xbd4e75e4	-0.050405398
220	0x3dc40b48	0.09572464
221	0x3d92d712	0.07169928
222	0x3dc17c80	0.094475746
223	0x3c06ce90	0.008227959
224	0x3dd68820	0.104751825
225	0x3e64ff75	0.22363074
226	0xbeaa1027	-0.33215448
227	0x3d3cb5cb	0.04607181
228	0x3daffc13	0.08593001
229	0x3e718283	0.23584943
230	0xbce4bbb4	-0.027921535
231	0xbde7da75	-0.11320964
232	0x3c978060	0.018493831
233	0x3d916ec0	0.07101202
234	0x3d3504e8	0.044194132
235	0x3e4e261a	0.20131722
236	0xbe4fcc5a	-0.20292798
237	0x3e5de7bb	0.2167043
238	0x3e414a08	0.18875897
239	0x3eb10ec5	0.3458158
240	0xbd83219d	-0.064028956
241	0x3dc7be36	0.09753077
242	0x3e01a8fb	0.12662117
243	0xbdb89fa0	-0.09014821
244	0x3dc6056c	0.09669003
245	0xbe07cbf0	-0.1326139
246	0xbd1a3ba4	-0.037654534
247	0x3c8bf2a8	0.017083481
248	0x3dc5941e	0.09647392
249	0x3de21c3a	0.1104054
250	0x3dc61947	0.0967279
251	0xbeebeb5a	-0.46077996
252	0x3e2f20b6	0.17102322
253	0x3e0667c0	0.13125515
254	0x3e77c24f	0.24195217
255	0x3e760d71	0.24028565

bias f4 [5]
0	0xbe24ad58	-0.1608175
1	0xbdfecf5c	-0.124418944
2	0xbddeff2e	-0.108885154
3	0xbdebd80f	-0.11515819
4	0x3de6e0ec	0.11273369
