Models/GNNs/ModelsLowDiversityDatasets/Oryx2/model_RGCN_1000_samples_1000_epochs_32_batchsize.pth (torch, 59982 bytes, 14 tensors)

weight f4 [8, 300]
000000 ff 14 8f bd 80 a3 fd ba dd 6a be 3d 13 7e 1e 3e
       -0.069864266 -0.0019351095 0.09297726 0.15477781
000010 8d 1b 36 3e a6 35 0f bc 90 6b 28 bc 5e 2c c6 bd
       0.17783947 -0.008740818 -0.010279551 -0.09676431
000020 5f 1f bc bd 48 6c 57 bd 98 30 43 3e 12 5e 0c 3e
       -0.09185671 -0.0525935 0.19061506 0.1370776
000030 ea c8 33 3c 85 86 fb bd 50 7e b6 bc f6 cf 99 bd
       0.010973195 -0.12281517 -0.022277027 -0.075103685
000040 04 7b e0 bc f3 1d 8e 3d 34 da e9 3d e0 cb 8a bc
       -0.027402408 0.06939306 0.11418572 -0.016942918
000050 be c3 e1 3d e0 a3 ab 3d ed f8 47 3d 44 9d 14 3e
       0.11023663 0.08380866 0.04882138 0.14513117
000060 02 81 84 3d 8c 12 f7 bc b2 ab 58 bd c0 3f e7 3d
       0.06469919 -0.030160211 -0.052898116 0.11291456
000070 42 40 a4 3d 71 a2 a6 bb 76 3e 11 3e 14 df 93 bd
       0.08020069 -0.0050852825 0.14183983 -0.07220283
000080 bb 5a dc 3c 6c 90 5d 3d 69 99 90 3d 9b a2 07 bd
       0.026898732 0.05409281 0.07060511 -0.033114057
000090 c4 f6 f3 bd 22 32 e4 bd 73 a0 0a 3e 25 25 e8 bc
       -0.11912301 -0.111423746 0.13537769 -0.028338024
0000a0 16 6e 05 bd 97 c9 98 3d 18 1b 7d 3d 4b 5b 73 bc
       -0.03257569 0.07460325 0.061793417 -0.014853309
0000b0 74 67 23 3e b2 d7 d6 bd c3 dc 67 3e e4 b7 57 bc
       0.15957433 -0.10490359 0.22642808 -0.013166402
0000c0 09 3e 00 be c0 69 40 3d f4 cd 4c 3d c6 f1 0c 3e
       -0.12523665 0.04697585 0.0500011 0.13764104
0000d0 29 04 a4 3a 6e ab 0b 3e d1 f3 a8 3c 00 7b f0 bb
       0.0012513447 0.13639614 0.020624073 -0.0073388815
0000e0 9a 0c de bd 44 1e 2a bd ab 40 6f 3d 2d 42 88 bd
       -0.10842247 -0.04153277 0.05841128 -0.06653247
0000f0 d7 d1 0d 3e ac 60 fd 3d 56 9f 07 3e b3 c3 35 3d
       0.13849579 0.12371954 0.13244376 0.044376086
000100 b0 c0 0c 3c fb 4d da 3c e2 c6 18 3e 20 c7 13 3d
       0.008590862 0.026648512 0.14919618 0.036078572
000110 e8 62 95 3d ce 50 86 3c 80 8b f2 bc f3 c0 8a 3c
       0.072942555 0.016395953 -0.029607534 0.016937708
000120 40 79 c6 bc 25 65 00 3e 73 0b 11 3d 3f e6 31 bc
       -0.024227738 0.12538584 0.03541131 -0.010858118
000130 d4 7b af bd ef f5 cc bd 3d 84 89 3d dc cd 0b 3b
       -0.0856854 -0.100078456 0.067146756 0.0021332419
000140 65 46 b0 3d 4d 6a df 3d 3e 98 69 bd 02 60 95 bd
       0.08607177 0.10908947 -0.057029955 -0.07293703
000150 2d ec c8 3c 0e d0 dd 3e fe 9f 0e bd 78 79 06 bd
       0.02452668 0.43322796 -0.03482055 -0.032830685
000160 f4 01 b3 3d 86 76 a8 bc b0 0a 47 bd 8f 1d 8d bd
       0.08740607 -0.020564329 -0.048594177 -0.068904035
000170 ac b0 07 3e 30 d9 33 bc 86 aa 08 3e 6c 92 96 bd
       0.13250989 -0.0109770745 0.133463 -0.073521465
000180 af b3 85 bd 3c 84 9d bc 28 27 ea bd 4f f2 93 bd
       -0.065284126 -0.019228093 -0.1143325 -0.07223951
000190 5c 0a 6d 3e 7c d8 ac 3d 0a 88 e7 bd f0 c7 4b bc
       0.23148483 0.084397286 -0.11305244 -0.0124378055
0001a0 0d f1 c5 3d 9c 83 99 3e 91 4f 8b bd 20 7e 90 3b
       0.096651174 0.29983222 -0.068022855 0.0044095665
0001b0 e2 32 4b bd 06 dd 15 3e 72 7a 3a 3e 6a 83 ea bd
       -0.049609073 0.14635095 0.18210772 -0.114508465
0001c0 d5 6f 26 bd 86 bc 8e bc 2a a6 a7 bd bb d8 a7 3d
       -0.040633995 -0.01742388 -0.0818599 0.08195635
0001d0 1f 75 8f bd 13 fb 36 3d 34 67 f8 bd ca 6c f7 3c
       -0.07004761 0.044673037 -0.121290594 0.030203242
0001e0 28 54 b6 bc 47 6d 92 bd 36 52 ad 3c 7b 03 93 3d
       -0.022256926 -0.07149749 0.021157365 0.07178398
0001f0 b4 20 b7 bd 04 c8 bc 3d ec 8d b0 3d 62 57 0a 3d
       -0.089417845 0.092178375 0.086208194 0.03377474
000200 ba 74 62 be 7e ea a0 3d c8 fe a6 bc 80 6d b7 3a
       -0.2211484 0.07857226 -0.020385161 0.0013994426
000210 67 da 51 3d b8 20 d2 bd 1e a7 98 3d 12 85 b2 bc
       0.051233675 -0.10260147 0.0745375 -0.021791968
000220 f2 c3 5e 3b 58 ce 46 3d b8 14 07 3d 4e 84 be 3d
       0.0033991304 0.04853663 0.032978743 0.09302579
000230 4a 4f 1d bd 21 47 3f 3d 72 5b 1c bc ed 19 0b be
       -0.038405694 0.046698693 -0.009543287 -0.13584109
000240 b3 14 4b be 34 bb fa bd 2c de cb 3b 7c 99 99 3c
       -0.19832115 -0.122427374 0.0062215533 0.018749945
000250 7f 0d da 3d 54 1a 25 bd 61 b1 14 bd ac 96 b0 bd
       0.106471054 -0.04030831 -0.036301974 -0.086224884
000260 9e f2 6a 3d 7c 8f 91 3c a8 c7 83 bd d8 08 a7 bd
       0.057360284 0.017768614 -0.06434566 -0.08155984
000270 6f 2b 8a bd 06 e7 d3 bd b3 ad 52 3d 9a cb 32 3d
       -0.067465656 -0.103467986 0.051435184 0.0436512
000280 c8 e7 dd bd 23 25 43 3e df 99 7e 3d 19 c5 49 3d
       -0.108352244 0.19057135 0.06215846 0.049260233
000290 6d 60 ba bd b1 bc 87 bd e4 e3 ab bd 03 e0 57 bc
       -0.09100423 -0.06627787 -0.08393076 -0.013175967
0002a0 d5 ba ce bc 20 b4 8a bd 9f ad 27 3e 3e 46 13 3c
       -0.025235573 -0.06772637 0.16374825 0.008988915
0002b0 87 36 98 bc a8 d4 4b bb cf 72 a6 bf 84 e3 c7 bd
       -0.018580688 -0.0031102095 -1.3003787 -0.09760192
0002c0 74 4c 06 be 33 6b 83 3d fa 9e 60 bd 55 e4 d1 3d
       -0.13115102 0.06416931 -0.054839112 0.10248629
0002d0 b0 ca cc bc 12 f1 a6 bd 66 3b 83 3d 24 65 a2 bd
       -0.024998993 -0.08151449 0.06407814 -0.07929447
0002e0 18 7c 5d bc 64 fd cf bd 4c 9e 0e be 84 1a 28 bd
       -0.013518356 -0.10155752 -0.13927573 -0.041040912
0002f0 36 c4 05 be 9c 65 df bd 72 c4 cc bd ae 1d 4a 3c
       -0.1306313 -0.10908052 -0.099984065 0.012336178
000300 d8 74 75 bc 54 23 e7 bc 07 11 4c 3e 6f ad 05 3e
       -0.014981471 -0.028215088 0.1992837 0.13054441
000310 0b 6f 06 3e 21 e4 e2 bd b8 28 58 3b 4e 65 69 3c
       0.13128297 -0.110786684 0.0032983255 0.014245344
000320 83 8c 9c bd cb 3d e5 bd da 0d 2d bd 27 39 82 bd
       -0.07643988 -0.11193427 -0.042249538 -0.06358557
000330 c6 8c 1c 3d 85 fb 98 3c 81 6b c1 bd 7e b5 15 3e
       0.03822019 0.018674621 -0.09444333 0.14620015
000340 df 1b 0f 3e f1 3f f2 bd 88 ad 0e bd 4e 95 a4 bd
       0.13975476 -0.11828602 -0.03483346 -0.0803629
000350 ca 51 82 3d 4e 1e a4 3d a4 b4 3b 3c 09 dd 53 bb
       0.06363256 0.08013593 0.011456642 -0.0032327792
000360 dc e3 af 3d 18 c7 e5 3c b0 c7 b8 3d 29 92 72 3d
       0.085883826 0.028049037 0.09022462 0.05922142
000370 e9 4a 9c 3d 04 c0 12 bd fb cd d0 3c 08 27 62 3e
       0.076314755 -0.03582765 0.025488844 0.22085202
000380 6c 92 a4 bc 72 17 14 bc dc 54 78 bd 58 ce ad bd
       -0.02008935 -0.009038793 -0.060627803 -0.084866226
000390 12 ef c4 3c 75 ff 4c 3d 84 5c 22 3d 2c 12 2b bd
       0.024039779 0.05004831 0.03963901 -0.041765377
0003a0 da 93 2c 3e 31 d1 95 bc 22 84 c5 bd 9d 43 8c 3d
       0.16853276 -0.018288227 -0.09644343 0.06848834
0003b0 84 fd 4c bd d0 3f 0e bd ad 19 1e 3e 4c cc a1 3c
       -0.05004646 -0.034728825 0.15439482 0.019750737
0003c0 0b 74 a1 3d 40 d0 2a bd 9a ae 31 bd 80 39 5f 3b
       0.078834616 -0.04170251 -0.043379404 0.0034061372
0003d0 cb 39 9a bd 44 03 84 3b 81 62 f8 3c e9 5c ed bd
       -0.075305544 0.0040287096 0.030320408 -0.11589987
0003e0 68 43 a3 3e cc 10 8f 3d c0 6c 55 3b cf 43 bc bd
       0.31887364 0.069856256 0.003256604 -0.09192621
0003f0 2d 68 2a 3d 36 c9 d0 bd 8f ba 81 bd 48 94 c7 bd
       0.041603256 -0.10194628 -0.06334411 -0.09745079

bias f4 [300]
000000 00 00 00 00 00 00 00 00 63 1d 23 3e f6 21 11 3e
       0.0 0.0 0.15929179 0.14173111
000010 82 48 88 3e 64 15 7d bc 00 00 00 00 00 00 00 00
       0.2661782 -0.015446994 0.0 0.0
000020 df 39 44 bc a7 2e 2f 3e 11 bd a4 3e af 1f 2e 3e
       -0.011976688 0.1710764 0.32175496 0.17004274
000030 89 8d 49 3e 93 fe 1b 3e 00 00 00 00 03 0c 59 bc
       0.19682898 0.15233831 0.0 -0.013247493
000040 42 ab 0a bc 2b da 2a 3e c1 61 1d 3e 00 00 00 00
       -0.008463683 0.16684787 0.15369321 0.0
000050 52 9b 36 3e ce 9b 88 3e a6 0c 26 bd ad f9 47 3e
       0.17832687 0.2668137 -0.040539406 0.19528838
000060 61 a5 0f 3e 96 5d 09 bc d0 e8 3a 3e 29 03 4c 3e
       0.14027931 -0.008384129 0.18252873 0.1992308
000070 9c 1a 45 3e cf c4 f8 3d 60 75 4b 3e 02 32 4f 3e
       0.19248432 0.12146913 0.19868994 0.2023392
000080 1d a6 1f 3e 2d 86 0e 3e 51 e7 41 3e 04 2b 46 3e
       0.15590711 0.13918371 0.18935896 0.19352347
000090 00 00 00 00 00 00 00 00 14 38 45 3e 8c 4a 70 bc
       0.0 0.0 0.19259673 -0.014666211
0000a0 00 00 00 00 cc 71 1a 3e 09 5b 55 3e 86 78 35 bc
       0.0 0.15082473 0.20835508 -0.011076098
0000b0 82 32 02 3e 00 00 00 00 e9 1a 6c 3e 94 f6 2f 3e
       0.1271458 0.0 0.2305714 0.17183906
0000c0 13 bf 2e 3e 5e 1e 4d 3d 89 83 33 3e 7a 02 62 3e
       0.17065077 0.05007779 0.17530645 0.22071257
0000d0 6c 5c 2c 3e ef 5c 18 3e 94 d5 9e bc 00 c8 c4 bb
       0.16832131 0.14879201 -0.019388951 -0.006005287
0000e0 b7 db 55 3e 3d d2 10 3e 63 85 14 bd 00 00 00 00
       0.20884596 0.141427 -0.03626002 0.0
0000f0 15 51 54 3e 45 9c 09 3e aa f0 bd 3e bc f5 ef 3d
       0.20734055 0.13438518 0.37097675 0.11716792
000100 00 00 00 00 b6 58 66 3e f6 a6 1d 3e 7d 6a 02 3e
       0.0 0.22494778 0.15395722 0.12735935
000110 36 9a 27 3e fd e3 82 bc 6e 17 86 bc 7b 50 cf bc
       0.1636742 -0.015977854 -0.016368594 -0.02530693
000120 00 00 00 00 e7 30 44 3e 99 42 62 3e c8 18 1a 3e
       0.0 0.1915928 0.22095717 0.15048516
000130 c3 c7 c4 bb c8 6f 68 3e 87 83 18 3e 37 27 43 bc
       -0.0060052588 0.22698891 0.14893924 -0.011911205
000140 4b 15 4c 3e e4 86 09 3e 37 e5 70 bc 69 3f f8 3d
       0.19929998 0.13430363 -0.014703087 0.121214695
000150 c7 76 0e 3e e5 d0 1d 3f 00 00 00 00 00 00 00 00
       0.13912497 0.6164687 0.0 0.0
000160 fe 81 41 3e 33 29 5f bc 00 00 00 00 00 00 00 00
       0.18897244 -0.0136206625 0.0 0.0
000170 f7 2c 8a 3d 00 00 00 00 c7 e3 31 3e 00 00 00 00
       0.067468576 0.0 0.17372046 0.0
000180 11 68 55 3e 38 b4 3f 3e 00 00 00 00 00 00 00 00
       0.2084048 0.18721092 0.0 0.0
000190 12 90 be 3d 8b cd 27 3e 00 00 00 00 00 00 00 00
       0.09304823 0.16387002 0.0 0.0
0001a0 ce b4 3f 3e 12 45 b5 3e 00 00 00 00 00 00 00 00
       0.18721315 0.3540426 0.0 0.0
0001b0 9f 6b 13 3e 15 96 71 3e 12 d3 2e 3e 68 e9 3d 3e
       0.14396523 0.23592408 0.17072704 0.18546069
0001c0 c5 e5 23 3e 6a 6b 2a 3e 00 00 00 00 67 0f 20 3e
       0.16005619 0.16642538 0.0 0.15630876
0001d0 00 00 00 00 bf ee 1f 3e 31 c6 6a bc 0a 4a d2 bc
       0.0 0.15618418 -0.014329479 -0.02567007
0001e0 e5 38 09 bc 00 00 00 00 42 82 42 3e f1 4f f8 3d
       -0.008375381 0.0 0.18995002 0.121246226
0001f0 7b 9c 86 bc a6 8b 0f 3e 72 60 11 3e df 96 10 bd
       -0.016432038 0.14018115 0.14196947 -0.035300132
000200 63 57 1d 3e e7 bf 1d 3e 00 00 00 00 00 00 00 00
       0.15365367 0.15405236 0.0 0.0
000210 19 66 3b 3e cd 1c 2b 3e 90 44 3b 3e ae 6f 33 3e
       0.18300666 0.16710205 0.18287873 0.17523071
000220 02 c4 02 3e 8a d2 14 3e ae 58 36 3e 4a 72 1e 3e
       0.12770084 0.1453344 0.17807266 0.15473285
000230 c8 d9 19 3e 00 22 fe 3d f7 93 13 3e 08 1a 3e 3e
       0.15024483 0.12408829 0.14411913 0.18564618
000240 64 c8 41 3e 00 00 00 00 6b 8a 5c 3e f3 87 09 3e
       0.18924099 0.0 0.21537177 0.13430767
000250 b7 3a 3a 3e 00 00 00 00 16 c9 45 3e 00 00 00 00
       0.1818646 0.0 0.1931499 0.0
000260 df 98 27 3e d7 94 f6 3d f7 07 2d 3e 00 00 00 00
       0.1636691 0.12040108 0.1689757 0.0
000270 e9 50 02 3e 00 00 00 00 18 28 53 3e 1e 5d 3b 3e
       0.12726177 0.0 0.20620763 0.1829724
000280 00 00 00 00 2b e2 7b 3e 1a 23 36 bd 2e 58 1e bd
       0.0 0.24597995 -0.04446707 -0.038658313
000290 00 00 00 00 24 44 df bb 00 00 00 00 99 96 22 3e
       0.0 -0.006813543 0.0 0.15877761
0002a0 01 8b 5b bc 00 00 00 00 0c 91 65 3e e9 b0 a2 bc
       -0.01339984 0.0 0.22418612 -0.019859748
0002b0 48 d5 1c 3e b2 16 44 bc 57 9c c7 39 00 00 00 00
       0.15315735 -0.011968302 0.0003807272 0.0
0002c0 00 00 00 00 ad 50 1a 3e 3a d5 02 3e d6 b9 32 3e
       0.0 0.15069838 0.12776652 0.17453703
0002d0 00 00 00 00 00 00 00 00 62 25 8b 3e e4 76 43 3e
       0.0 0.0 0.27176958 0.19088322
0002e0 5a 06 31 3e 79 77 49 3e 00 00 00 00 00 00 00 00
       0.17287579 0.19674481 0.0 0.0
0002f0 00 00 00 00 00 00 00 00 00 00 00 00 21 0d 21 3e
       0.0 0.0 0.0 0.15727665
000300 bf 3c 29 bc 00 00 00 00 2f 8c ab 3e c1 b5 38 3e
       -0.010329424 0.0 0.3350539 0.18038084
000310 9d d3 1e 3e d0 e4 08 bc 73 30 28 3e 7a 94 47 3e
       0.15510412 -0.008355334 0.16424732 0.19490233
000320 00 00 00 00 00 00 00 00 00 00 00 00 9c 12 20 3e
       0.0 0.0 0.0 0.15632099
000330 4e ba 1a bd 83 f8 07 bd 00 00 00 00 fb 39 7e 3e
       -0.03777533 -0.033195984 0.0 0.24826805
000340 1a 3f 37 3e 00 00 00 00 00 00 00 00 5c c8 c4 bb
       0.17895165 0.0 0.0 -0.00600533
000350 a5 c4 0d 3e 1a c0 24 3e 1d b7 b8 bc 52 c0 76 3e
       0.13844545 0.16088906 -0.022548253 0.24096802
000360 2f a9 23 3e 7a 28 e1 bc 7f 32 77 3e 8d 03 7e 3e
       0.15982507 -0.027485121 0.24140356 0.24806042
000370 be 7f 15 3e f8 dd 35 3e 8e e1 a3 bc d7 64 f3 3e
       0.14599511 0.17760456 -0.020005014 0.47537872
000380 00 00 00 00 58 ee 03 3e 00 00 00 00 e2 e2 70 bc
       0.0 0.1288389 0.0 -0.014702531
000390 1f d0 84 bc 19 06 3c 3e 2f f5 32 3e 6a da 8a bc
       -0.016212521 0.18361701 0.17476343 -0.016949851
0003a0 57 5f 5e 3e d8 ca 30 bc 16 fd 43 bc 5f ab 62 3e
       0.21716057 -0.010790549 -0.011962196 0.22135685
0003b0 00 00 00 00 4c 44 83 bc 60 31 2c 3e e9 8d 31 3e
       0.0 -0.016023777 0.1681571 0.1733929
0003c0 88 07 6b 3e 00 00 00 00 00 00 00 00 00 00 00 00
       0.22952092 0.0 0.0 0.0
0003d0 36 88 5b bc a9 a7 a5 bc a6 54 24 3e 00 00 00 00
       -0.013399174 -0.020221548 0.16047916 0.0
0003e0 f3 fb 81 3e e2 a1 26 3e 00 00 00 00 00 00 00 00
       0.25387534 0.16272691 0.0 0.0
0003f0 ea 58 25 3e 07 13 44 bc 35 b6 c4 bb 00 00 00 00
       0.161472 -0.011967427 -0.006003166 0.0

weight f4 [8, 300]
000000 20 ab 0c 3c fa e8 ef bd 4a 90 b8 3d e8 21 ff bd
       0.008585721 -0.11714359 0.09011896 -0.12457639
000010 30 e2 a2 3c 97 da 9e bd bc d6 b8 bd 50 82 bf bc
       0.019883245 -0.077565365 -0.09025332 -0.023377568
000020 8a 06 eb 3d 51 b1 ab bd 0a 9b 76 bd bc 94 39 3d
       0.114758566 -0.0838343 -0.06020645 0.04530786
000030 94 91 4b bd c0 70 1a 3b a2 02 98 3d 80 fa e0 3b
       -0.04969938 0.002356574 0.07422377 0.0068657994
000040 40 c6 cc bd 00 af 01 bc e8 c5 59 3d 08 4c 95 bd
       -0.09998751 -0.007915258 0.053167254 -0.072898924
000050 18 d1 cf 3d 10 8e a9 bd 99 48 0c be a4 7e 29 3d
       0.10147303 -0.082790494 -0.13699569 0.04138054
000060 00 15 9d bb 6c 24 b3 3d c7 92 04 be e5 54 03 3e
       -0.004793763 0.08747181 -0.12946616 0.12825353
000070 53 22 0c 3e af c6 97 bd 3b fd fe bd b2 f8 9b bd
       0.13684969 -0.07410943 -0.12450644 -0.07615794
000080 3c fd da bd 2e ac 83 bd d0 88 9d bc 42 37 66 bd
       -0.10692832 -0.06429325 -0.019230276 -0.05620504
000090 e7 bd 98 bd e4 4e 90 3d 70 b7 a7 3d 2e 20 52 bd
       -0.07458096 0.07046297 0.08189285 -0.05130022
0000a0 ee 84 ca bd 7e 7d 67 bd 92 11 fe 3d 00 9b 30 bb
       -0.098886356 -0.056516163 0.12405695 -0.0026947856
0000b0 e3 bc 08 3e ea cb a1 3d 8a 67 f9 bd a3 19 06 3e
       0.13353305 0.07900222 -0.12177952 0.13095717
0000c0 e0 b4 c4 bb 08 9c ec bd 64 df 09 bd e9 94 e5 bd
       -0.0060030073 -0.11553198 -0.033660308 -0.11210043
0000d0 85 6d ed bd e8 55 25 3d 64 74 b0 3d 48 22 dc 3c
       -0.11593155 0.04036513 0.0861595 0.026871815
0000e0 e3 bf 0c be 0c ac 17 3d e2 43 dc bd 58 3a c1 3c
       -0.13745074 0.03702931 -0.10755135 0.02358739
0000f0 ff 04 0b 3e a8 dd 88 3c 16 28 39 bd 40 28 fc bb
       0.13576125 0.016707256 -0.045204245 -0.007695228
000100 02 61 06 be d9 b0 b0 bd 09 a6 0a 3e b4 e3 6f 3d
       -0.13122943 -0.08627481 0.135399 0.058566764
000110 ce d9 a1 3d 14 b1 3e bd f2 a1 ab 3d 49 11 85 bd
       0.07902871 -0.046555594 0.08380498 -0.064974375
000120 72 73 df bd 35 fc 04 3e be ac c3 3d 86 46 db 3d
       -0.10910691 0.12986834 0.09554432 0.10706811
000130 5c 1c b8 bd 18 30 7c bc 6f f0 f2 bd 8c be 85 3d
       -0.08989784 -0.015392326 -0.11862265 0.065304846
000140 be be fe 3d c2 21 ed 3d 90 c5 d8 3c fe 5c 98 3d
       0.12438725 0.115787044 0.026461393 0.07439612
000150 70 a0 af 3c 19 8e 03 be 80 91 d5 bb f4 21 78 3d
       0.021438807 -0.12847175 -0.006517589 0.060579255
000160 00 2f b7 bb 90 aa 6b 3d 86 d6 e8 3d 72 3b e2 bd
       -0.0055903196 0.057535708 0.11369042 -0.110464945
000170 0c 29 bf bd 02 1f be 3d 50 1b db 3c f3 ee f2 bd
       -0.09334001 0.09283258 0.026746422 -0.11861982
000180 b0 42 9a 3c 0b 24 09 3e 50 ed ce bd 98 3f f1 3c
       0.018830627 0.13392656 -0.101038575 0.02944927
000190 15 b6 c2 bd 60 3a 9d 3b ac 64 d6 bc 26 f8 8a 3d
       -0.09507386 0.0047982186 -0.026171051 0.06785612
0001a0 3c cb 75 bd 2f d2 07 3e 80 ce 4c 3d e6 10 bb bd
       -0.060008273 0.13263772 0.05000162 -0.091340825
0001b0 18 19 81 3c d1 fc b6 bd aa 09 a4 3d ea d4 34 bd
       0.015759036 -0.0893494 0.08009656 -0.044148363
0001c0 b8 82 ca 3c 16 bc 0a be 90 62 c6 3c c0 5e d4 bb
       0.024720535 -0.13548312 0.02421692 -0.0064810216
0001d0 9a 4c 04 be 81 da 0d 3e 4c e1 50 bd 40 b4 19 3c
       -0.12919846 0.13852884 -0.05099611 0.009381354
0001e0 28 5f ae bd e8 bb a0 bd 34 b6 fa bc 60 82 00 3c
       -0.08514243 -0.0784834 -0.03060446 0.007843584
0001f0 00 10 45 3a ba 7a f9 bd 88 b5 ba bd ed 14 02 3e
       0.0007517338 -0.12181611 -0.091166556 0.12703295
000200 66 d8 66 bd be 1b eb bd fc 9f 06 3d 00 be 74 3c
       -0.056358717 -0.11479901 0.032867417 0.014937878
000210 12 4a f9 3d c4 2f 87 bc 58 34 99 3c 00 9e 12 3c
       0.12172331 -0.016502269 0.018701717 0.008948803
000220 90 0f a7 bc 5e d2 b8 3d be 74 5e bd a0 cc 97 bb
       -0.020393163 0.09024499 -0.054310553 -0.0046325475
000230 00 e5 b5 3a 36 ed 89 3d 26 b7 cf 3d f6 82 9e 3d
       0.0013877451 0.067346975 0.10142355 0.077398226
000240 00 9a 9b ba b6 c4 8e 3d c6 39 76 bd 7a 94 8a bd
       -0.0011871457 0.069711134 -0.06011369 -0.06766601
000250 b8 ba 63 3d be ae 23 bd f6 2a a2 3d 28 c2 18 3d
       0.05559799 -0.03996157 0.079183504 0.037294537
000260 6c 5c 9e bd 64 f7 87 3d 9b e7 06 3e 42 79 8c 3d
       -0.07732472 0.06638983 0.13174288 0.068590656
000270 6a 15 63 bd ea 6c 03 be b8 54 a1 bd 68 23 3b 3d
       -0.055440344 -0.12834516 -0.07877487 0.045688063
000280 00 1c 95 bb 54 3b 69 3d 46 ef e2 3d 38 18 c1 3d
       -0.004550457 0.056941345 0.11080794 0.094284475
000290 4a 28 17 bd 40 f4 f5 bb 32 55 d7 3d 30 d6 fd 3c
       -0.036903657 -0.0075059235 0.105142966 0.030985922
0002a0 e8 2d d7 3d 48 ec 3e bd 14 f9 4d 3d 7d c1 cf bd
       0.10506803 -0.046612054 0.050286368 -0.10144327
0002b0 10 62 16 3d 2c 97 01 be 00 91 12 bb ae 5d e0 3d
       0.036714613 -0.12655324 -0.0022364259 0.10955368
0002c0 00 5e 77 3b 48 3a d3 3c 2d 9d fc bd f8 ed 6d bd
       0.0037745237 0.025784627 -0.123346664 -0.058088273
0002d0 a5 bf 0e 3e 68 f6 e2 3c a0 72 af 3d de 6f bf bd
       0.13940294 0.027705386 0.08566785 -0.09347509
0002e0 62 37 63 bd 40 1f c7 3c d9 62 aa bd 82 4e f4 3d
       -0.05547274 0.024306893 -0.08319635 0.11929037
0002f0 10 ba 0a bc d0 ed ae bc 54 b6 d0 bc bc b9 21 3d
       -0.008467212 -0.021353632 -0.025477566 0.03948377
000300 2c 6a 68 bd f4 4b af bc 20 5b 2d 3d 0c 45 dd bd
       -0.05674188 -0.021398522 0.04232323 -0.10804185
000310 b2 03 bd 3d 8a 42 1a bd 2e 16 82 bd 30 33 79 3d
       0.092292204 -0.037661113 -0.06351887 0.06083983
000320 39 c5 e9 bd 38 e1 a0 3d 16 82 a0 3d 48 fb a6 3d
       -0.1141457 0.07855457 0.07837312 0.08153397
000330 19 49 99 bd 95 02 96 bd 44 95 cf bc 20 60 5d 3c
       -0.074846454 -0.07324711 -0.02533973 0.0135116875
000340 81 b3 a3 bd 66 be 8e 3d 87 23 03 3e d1 c3 f7 bd
       -0.07993222 0.06969909 0.12806521 -0.12097896
000350 30 4e 1e bc 4a fb ec 3d 92 6e 29 bd a6 eb b5 3d
       -0.009662196 0.11571367 -0.041365214 0.08882837
000360 1e c9 f3 bd 18 e6 db 3d a7 93 05 3e c6 4e 3d bd
       -0.119035944 0.10737246 0.13044606 -0.046217702
000370 f6 41 ca 3d 7c 0c 0d be 38 5d a6 3d fc 0f 4a 3d
       0.09875862 -0.13774294 0.08123249 0.04933165
000380 c0 0c 63 3c b0 3a 3c bd 13 a1 0e be 08 ac e3 bc
       0.01385802 -0.045954406 -0.13928632 -0.027791992
000390 a0 7b 68 3c 5e 50 bf bd 7f 17 07 be 7f d7 95 bd
       0.014189631 -0.09341501 -0.13192557 -0.07316493
0003a0 42 05 8e bd 6f 6c 03 be 94 fe 5c bd 81 ee dc bd
       -0.069345966 -0.12834333 -0.053953722 -0.107876785
0003b0 03 e3 f8 bd 2c 96 61 3d 36 76 f1 3d cc 62 85 3d
       -0.12152674 0.055074856 0.11790125 0.06512985
0003c0 10 9c 5b bc 0e 97 59 bd dc 8a e7 bc f3 34 a8 bd
       -0.013403907 -0.053122573 -0.028264455 -0.08213224
0003d0 00 4e 54 3a d4 95 03 3d 72 37 fd 3d c2 a4 bb bd
       0.0008098781 0.03212531 0.12364091 -0.091622844
0003e0 90 4a 27 3c 00 fe 0c bb 76 e0 2e bd 62 98 f7 3d
       0.010210648 -0.00215137 -0.04269453 0.120896116
0003f0 3a b8 fc bd e4 e4 27 3d 19 d7 c9 bd 50 ed 74 3c
       -0.12339826 0.04098977 -0.0985548 0.014949158

bias f4 [300]
000000 00 00 00 00 00 00 00 00 00 00 00 00 00 00 00 00
       0.0 0.0 0.0 0.0
000010 00 00 00 00 00 00 00 00 00 00 00 00 00 00 00 00
       0.0 0.0 0.0 0.0
000020 00 00 00 00 00 00 00 00 00 00 00 00 00 00 00 00
       0.0 0.0 0.0 0.0
000030 00 00 00 00 00 00 00 00 00 00 00 00 00 00 00 00
       0.0 0.0 0.0 0.0
000040 00 00 00 00 00 00 00 00 00 00 00 00 00 00 00 00
       0.0 0.0 0.0 0.0
000050 00 00 00 00 00 00 00 00 00 00 00 00 00 00 00 00
       0.0 0.0 0.0 0.0
000060 00 00 00 00 00 00 00 00 00 00 00 00 00 00 00 00
       0.0 0.0 0.0 0.0
000070 00 00 00 00 00 00 00 00 00 00 00 00 00 00 00 00
       0.0 0.0 0.0 0.0
000080 00 00 00 00 00 00 00 00 00 00 00 00 00 00 00 00
       0.0 0.0 0.0 0.0
000090 00 00 00 00 00 00 00 00 00 00 00 00 00 00 00 00
       0.0 0.0 0.0 0.0
0000a0 00 00 00 00 00 00 00 00 00 00 00 00 00 00 00 00
       0.0 0.0 0.0 0.0
0000b0 00 00 00 00 00 00 00 00 00 00 00 00 00 00 00 00
       0.0 0.0 0.0 0.0
0000c0 00 00 00 00 00 00 00 00 00 00 00 00 00 00 00 00
       0.0 0.0 0.0 0.0
0000d0 00 00 00 00 00 00 00 00 00 00 00 00 00 00 00 00
       0.0 0.0 0.0 0.0
0000e0 00 00 00 00 00 00 00 00 00 00 00 00 00 00 00 00
       0.0 0.0 0.0 0.0
0000f0 00 00 00 00 00 00 00 00 00 00 00 00 00 00 00 00
       0.0 0.0 0.0 0.0
000100 00 00 00 00 00 00 00 00 00 00 00 00 00 00 00 00
       0.0 0.0 0.0 0.0
000110 00 00 00 00 00 00 00 00 00 00 00 00 00 00 00 00
       0.0 0.0 0.0 0.0
000120 00 00 00 00 00 00 00 00 00 00 00 00 00 00 00 00
       0.0 0.0 0.0 0.0
000130 00 00 00 00 00 00 00 00 00 00 00 00 00 00 00 00
       0.0 0.0 0.0 0.0
000140 00 00 00 00 00 00 00 00 00 00 00 00 00 00 00 00
       0.0 0.0 0.0 0.0
000150 00 00 00 00 00 00 00 00 00 00 00 00 00 00 00 00
       0.0 0.0 0.0 0.0
000160 00 00 00 00 00 00 00 00 00 00 00 00 00 00 00 00
       0.0 0.0 0.0 0.0
000170 00 00 00 00 00 00 00 00 00 00 00 00 00 00 00 00
       0.0 0.0 0.0 0.0
000180 00 00 00 00 00 00 00 00 00 00 00 00 00 00 00 00
       0.0 0.0 0.0 0.0
000190 00 00 00 00 00 00 00 00 00 00 00 00 00 00 00 00
       0.0 0.0 0.0 0.0
0001a0 00 00 00 00 00 00 00 00 00 00 00 00 00 00 00 00
       0.0 0.0 0.0 0.0
0001b0 00 00 00 00 00 00 00 00 00 00 00 00 00 00 00 00
       0.0 0.0 0.0 0.0
0001c0 00 00 00 00 00 00 00 00 00 00 00 00 00 00 00 00
       0.0 0.0 0.0 0.0
0001d0 00 00 00 00 00 00 00 00 00 00 00 00 00 00 00 00
       0.0 0.0 0.0 0.0
0001e0 00 00 00 00 00 00 00 00 00 00 00 00 00 00 00 00
       0.0 0.0 0.0 0.0
0001f0 00 00 00 00 00 00 00 00 00 00 00 00 00 00 00 00
       0.0 0.0 0.0 0.0
000200 00 00 00 00 00 00 00 00 00 00 00 00 00 00 00 00
       0.0 0.0 0.0 0.0
000210 00 00 00 00 00 00 00 00 00 00 00 00 00 00 00 00
       0.0 0.0 0.0 0.0
000220 00 00 00 00 00 00 00 00 00 00 00 00 00 00 00 00
       0.0 0.0 0.0 0.0
000230 00 00 00 00 00 00 00 00 00 00 00 00 00 00 00 00
       0.0 0.0 0.0 0.0
000240 00 00 00 00 00 00 00 00 00 00 00 00 00 00 00 00
       0.0 0.0 0.0 0.0
000250 00 00 00 00 00 00 00 00 00 00 00 00 00 00 00 00
       0.0 0.0 0.0 0.0
000260 00 00 00 00 00 00 00 00 00 00 00 00 00 00 00 00
       0.0 0.0 0.0 0.0
000270 00 00 00 00 00 00 00 00 00 00 00 00 00 00 00 00
       0.0 0.0 0.0 0.0
000280 00 00 00 00 00 00 00 00 00 00 00 00 00 00 00 00
       0.0 0.0 0.0 0.0
000290 00 00 00 00 00 00 00 00 00 00 00 00 00 00 00 00
       0.0 0.0 0.0 0.0
0002a0 00 00 00 00 00 00 00 00 00 00 00 00 00 00 00 00
       0.0 0.0 0.0 0.0
0002b0 00 00 00 00 00 00 00 00 00 00 00 00 00 00 00 00
       0.0 0.0 0.0 0.0
0002c0 00 00 00 00 00 00 00 00 00 00 00 00 00 00 00 00
       0.0 0.0 0.0 0.0
0002d0 00 00 00 00 00 00 00 00 00 00 00 00 00 00 00 00
       0.0 0.0 0.0 0.0
0002e0 00 00 00 00 00 00 00 00 00 00 00 00 00 00 00 00
       0.0 0.0 0.0 0.0
0002f0 00 00 00 00 00 00 00 00 00 00 00 00 00 00 00 00
       0.0 0.0 0.0 0.0
000300 00 00 00 00 00 00 00 00 00 00 00 00 00 00 00 00
       0.0 0.0 0.0 0.0
000310 00 00 00 00 00 00 00 00 00 00 00 00 00 00 00 00
       0.0 0.0 0.0 0.0
000320 00 00 00 00 00 00 00 00 00 00 00 00 00 00 00 00
       0.0 0.0 0.0 0.0
000330 00 00 00 00 00 00 00 00 00 00 00 00 00 00 00 00
       0.0 0.0 0.0 0.0
000340 00 00 00 00 00 00 00 00 00 00 00 00 00 00 00 00
       0.0 0.0 0.0 0.0
000350 00 00 00 00 00 00 00 00 00 00 00 00 00 00 00 00
       0.0 0.0 0.0 0.0
000360 00 00 00 00 00 00 00 00 00 00 00 00 00 00 00 00
       0.0 0.0 0.0 0.0
000370 00 00 00 00 00 00 00 00 00 00 00 00 00 00 00 00
       0.0 0.0 0.0 0.0
000380 00 00 00 00 00 00 00 00 00 00 00 00 00 00 00 00
       0.0 0.0 0.0 0.0
000390 00 00 00 00 00 00 00 00 00 00 00 00 00 00 00 00
       0.0 0.0 0.0 0.0
0003a0 00 00 00 00 00 00 00 00 00 00 00 00 00 00 00 00
       0.0 0.0 0.0 0.0
0003b0 00 00 00 00 00 00 00 00 00 00 00 00 00 00 00 00
       0.0 0.0 0.0 0.0
0003c0 00 00 00 00 00 00 00 00 00 00 00 00 00 00 00 00
       0.0 0.0 0.0 0.0
0003d0 00 00 00 00 00 00 00 00 00 00 00 00 00 00 00 00
       0.0 0.0 0.0 0.0
0003e0 00 00 00 00 00 00 00 00 00 00 00 00 00 00 00 00
       0.0 0.0 0.0 0.0
0003f0 00 00 00 00 00 00 00 00 00 00 00 00 00 00 00 00
       0.0 0.0 0.0 0.0

weight f4 [8, 300]
000000 20 a2 e2 3b 1a 86 db 3d d6 3e bf 3d 98 fb 42 3d
       0.0069162995 0.10718937 0.09338157 0.04760322
000010 51 7e fe bd f0 fe a4 3c 8a 54 06 be c6 06 b4 bd
       -0.12426437 0.020141095 -0.13118187 -0.087903544
000020 ae 85 dd bd e8 ba d7 3d 5f a6 08 3e a0 54 10 bd
       -0.10816513 0.105336964 0.13344716 -0.035236955
000030 89 c5 00 be 20 4d 89 bd 4a 93 fb bd 80 64 4b bd
       -0.12575354 -0.067041636 -0.122839525 -0.04965639
000040 7e a4 8f 3d 08 c1 8e bc ba a4 f3 3d 6a 71 63 bd
       0.07013796 -0.017426029 0.118966535 -0.055528082
000050 ee e0 d9 bd 3c a6 4e bd 9e aa fc 3d e0 ad 62 3d
       -0.10638605 -0.050451502 0.1233723 0.0553416
000060 f7 5e c0 bd f8 b3 ab 3c 36 ee ea 3d d0 6f 81 3c
       -0.09393113 0.02095984 0.114712164 0.015800387
000070 1b 06 09 be bc 7a 4b 3d 76 03 95 bd 34 7a 16 3d
       -0.13381235 0.049677595 -0.07276051 0.036737636
000080 00 ef 2d bc ec ff ac 3d 62 00 e7 3d 96 ea bd bd
       -0.010616064 0.08447251 0.1127937 -0.09273259
000090 bc 6a 95 3d 1c 2f e0 3d 1c c8 cc bd 40 b6 15 3c
       0.072957486 0.109464854 -0.09999105 0.00913769
0000a0 9c 5e 3f bd a8 5d 8d bc c0 5d c7 bd 6a 87 a3 bd
       -0.046721086 -0.017256573 -0.09734678 -0.079848126
0000b0 ab 4a de bd 4e 17 d0 bd 70 8e bc 3c e8 1a d5 3c
       -0.108540855 -0.10160695 0.023017138 0.026013806
0000c0 d8 27 be 3d b0 b8 90 bc c0 3e e1 3b 5a 40 fb 3d
       0.09284943 -0.01766619 0.0068739355 0.122681335
0000d0 c5 34 0c 3e 64 77 28 3d f4 21 8b 3d be 10 cd bd
       0.13692005 0.041129485 0.067935854 -0.10012959
0000e0 b2 e0 eb bd 10 d2 9e 3c 50 0e 35 3d 32 56 0a be
       -0.115174666 0.019387275 0.044203103 -0.13509443
0000f0 e0 d2 cf bd 30 79 c7 3d 0d 6f 0e 3e c8 4c e1 3d
       -0.10147643 0.097399116 0.1390955 0.11000973
000100 70 14 93 bc 5c f1 3d bd d0 9e a0 3d f4 00 26 3d
       -0.017954081 -0.046372756 0.07842791 0.040528253
000110 00 67 4c bd 16 66 c5 bd c6 c3 e8 3d 0b d0 eb bd
       -0.049902916 -0.09638612 0.11365466 -0.115142904
000120 00 af 2e 3d 70 35 5a 3d 36 0b 79 bd 88 f3 0b be
       0.04264736 0.05327362 -0.060801707 -0.13667119
000130 6e 5e f9 bd 69 48 0c be 85 a7 0d be 90 a6 5e bc
       -0.12176214 -0.13699497 -0.13833435 -0.013589516
000140 89 1b 09 be 36 97 4e bd aa 6d b1 3d 0e ac 95 3d
       -0.1338941 -0.050437175 0.08663495 0.073082075
000150 a3 c5 0e 3e 32 ac 65 bd 52 d5 49 bd 68 cb 94 3c
       0.1394258 -0.05607242 -0.049275704 0.018163398
000160 3c 22 55 3d c0 80 47 3b e1 d7 c0 bd 35 ab 04 3e
       0.0520346 0.0030441731 -0.09416176 0.12955935
000170 3c f1 9b 3d fe ea 40 bd 98 54 65 3d 30 b0 05 3d
       0.07614371 -0.047099106 0.055988878 0.03263873
000180 a0 61 9c 3b a4 0d 87 bc ce f0 e3 bd 3a 7b e1 3d
       0.00477238 -0.016485997 -0.11129914 0.11009832
000190 16 1a ca bd a2 35 06 be 20 34 32 bc ea dd 0a be
       -0.09868257 -0.13106397 -0.010876685 -0.13561216
0001a0 40 22 4d 3d 60 3d 3d 3c 4c 49 83 bc 90 a7 5c 3d
       0.05008149 0.0115502775 -0.016026162 0.053870738
0001b0 90 5c a5 bd 28 f9 ee bd 68 8e 0b be 88 c9 95 bd
       -0.080742955 -0.116686165 -0.13628542 -0.0731383
0001c0 d9 42 8b bd 84 a8 51 bd fe 23 67 bd 68 71 30 bd
       -0.067998596 -0.0511861 -0.05643081 -0.043076903
0001d0 7a dd bc 3d c7 9d a4 bd d7 c5 0e be 28 08 a9 3d
       0.09221931 -0.08037906 -0.13942657 0.08253509
0001e0 a0 47 5e 3c fa d0 03 be a8 d5 10 3d 68 75 1c bd
       0.013566881 -0.12872687 0.03536001 -0.038197905
0001f0 cb b7 8f bd d2 59 77 bd 48 a6 aa 3c b0 5f 8b bc
       -0.070174776 -0.060388394 0.020831242 -0.0170134
000200 3e ba 25 bd 58 49 07 be 28 d9 54 3d 96 bf 9f bd
       -0.040460818 -0.13211572 0.05196491 -0.07800214
000210 60 0e d2 3b a0 3c 38 3d d8 3c f7 bc 7c 74 ae bd
       0.006410405 0.04497969 -0.03018038 -0.085183114
000220 4c 84 f2 bd e0 25 4c 3c 9a 72 18 bd 80 dc aa bd
       -0.1184164 0.012460202 -0.037218668 -0.08342838
000230 99 f7 06 3e c6 f5 fe bd 70 52 7f 3c 90 c1 a4 bc
       0.13180389 -0.12449221 0.0155836195 -0.020111829
000240 50 48 cd 3d 20 59 94 bb a8 28 29 3d 1f b8 03 3e
       0.10023558 -0.004527226 0.04129854 0.12863205
000250 09 03 0e 3e 34 bf 2d 3d 54 88 b4 bd 04 59 c0 bd
       0.13868345 0.042418674 -0.08815065 -0.093919784
000260 00 aa 5c bb 58 99 ea 3c 82 8c ea 3d f0 9e ba bd
       -0.0033670664 0.028637573 0.11452581 -0.09112346
000270 80 2a d4 3b 6c ab 01 3d 46 b6 e6 3d 04 c0 b9 bc
       0.006474793 0.03165762 0.11265235 -0.022674568
000280 a3 e3 06 be 11 6b 8e bd 48 35 04 3d 47 9b e1 bd
       -0.13172774 -0.06954015 0.032277375 -0.11015945
000290 e0 e5 c9 bc 28 da 7a bd 1c c6 c2 bc dc 06 4b 3d
       -0.024645746 -0.061243206 -0.023776107 0.04956709
0002a0 62 00 ac 3d 37 86 99 bd 6f 21 d3 bd da 93 ac bd
       0.083985105 -0.074963026 -0.10309111 -0.08426638
0002b0 90 11 cf 3c 81 88 97 bd 12 81 d7 3d 12 9b e6 3d
       0.02527693 -0.07399083 0.10522665 0.11260046
0002c0 58 28 da 3d 80 95 a5 bd 59 c7 e4 bd 30 ec 50 3d
       0.10652226 -0.080851555 -0.11170835 0.051006496
0002d0 0c 50 bf bd c0 e5 55 bb f6 a0 38 bd c3 8f 8c bd
       -0.093414396 -0.0032638162 -0.04507538 -0.06863358
0002e0 51 6a f0 bd 92 34 81 bd 68 92 65 bd b4 a2 3c bd
       -0.11739028 -0.06308855 -0.056047827 -0.046053603
0002f0 c2 7d ee 3d b9 b2 02 be 70 df e3 bd 17 67 0c be
       0.1164508 -0.1276349 -0.11126602 -0.137112
000300 2e a0 72 bd 43 dd b9 bd ba 63 82 3d 7d 41 05 3e
       -0.05923479 -0.090754054 0.063666776 0.13013263
000310 48 e4 bf bd be 27 dc bd 0c c7 a0 3d 13 d7 00 be
       -0.09369713 -0.10749768 0.07850465 -0.12582044
000320 48 d9 8e bc a0 0b 4d bd c6 a7 a0 bd 40 4f ba bc
       -0.017437592 -0.050059915 -0.078445 -0.022742867
000330 36 0d cd 3d c0 7e 54 bd af a3 0a 3e 5a e2 b7 3d
       0.100122854 -0.05187869 0.13539003 0.0897872
000340 06 78 da 3d 64 7d 67 bd 2c 4f c6 bd 97 d0 0c 3e
       0.10667424 -0.056516066 -0.096830696 0.13751446
000350 70 da 70 3d d0 49 70 bd 9b 2f 07 3e f0 cd 31 3d
       0.05880207 -0.058664143 0.13201754 0.043409288
000360 8c d4 bd 3d a4 32 75 3d df fd 0d 3e 38 51 e1 bc
       0.09269056 0.059862748 0.13866375 -0.027504548
000370 2c 90 e0 3d 09 aa 08 3e fe f1 b9 3d b4 1f 89 bd
       0.109649986 0.13346113 0.090793595 -0.066955
000380 09 37 ac bd 15 41 ab bd 80 6b f6 ba ba 36 eb 3d
       -0.084089346 -0.08362023 -0.0018800348 0.11485048
000390 50 01 95 3d 32 8d 06 be 51 16 05 3e 90 a7 56 3c
       0.07275641 -0.13139799 0.12996794 0.013101473
0003a0 cf 1b 05 be d1 f6 e7 bd e6 56 9a 3d 49 96 03 3e
       -0.1299889 -0.11326373 0.07536106 0.12850298
0003b0 20 28 cd 3c a4 eb 4d bd 7e 07 a7 bd 34 e4 f5 bc
       0.025043547 -0.050273553 -0.08155726 -0.030016042
0003c0 f0 0f 52 3c 66 61 ef bd c6 65 32 bd 27 12 09 be
       0.012821183 -0.11688499 -0.04355409 -0.13385831
0003d0 10 53 4d 3c c8 0d f9 bd a2 a0 97 3d 8e 60 fa 3d
       0.012532011 -0.12160832 0.07403685 0.122254476
0003e0 d8 08 67 bd 9b 97 e4 bd 39 19 0d 3e 15 32 9b bd
       -0.05640492 -0.11161729 0.13779153 -0.07577912
0003f0 d9 a5 8c bd 30 9d 21 bc 5a bb f9 3d 31 a3 0b 3e
       -0.068675704 -0.009864137 0.121939376 0.13636471

bias f4 [300]
000000 00 00 00 00 00 00 00 00 00 00 00 00 00 00 00 00
       0.0 0.0 0.0 0.0
000010 00 00 00 00 00 00 00 00 00 00 00 00 00 00 00 00
       0.0 0.0 0.0 0.0
000020 00 00 00 00 00 00 00 00 00 00 00 00 00 00 00 00
       0.0 0.0 0.0 0.0
000030 00 00 00 00 00 00 00 00 00 00 00 00 00 00 00 00
       0.0 0.0 0.0 0.0
000040 00 00 00 00 00 00 00 00 00 00 00 00 00 00 00 00
       0.0 0.0 0.0 0.0
000050 00 00 00 00 00 00 00 00 00 00 00 00 00 00 00 00
       0.0 0.0 0.0 0.0
000060 00 00 00 00 00 00 00 00 00 00 00 00 00 00 00 00
       0.0 0.0 0.0 0.0
000070 00 00 00 00 00 00 00 00 00 00 00 00 00 00 00 00
       0.0 0.0 0.0 0.0
000080 00 00 00 00 00 00 00 00 00 00 00 00 00 00 00 00
       0.0 0.0 0.0 0.0
000090 00 00 00 00 00 00 00 00 00 00 00 00 00 00 00 00
       0.0 0.0 0.0 0.0
0000a0 00 00 00 00 00 00 00 00 00 00 00 00 00 00 00 00
       0.0 0.0 0.0 0.0
0000b0 00 00 00 00 00 00 00 00 00 00 00 00 00 00 00 00
       0.0 0.0 0.0 0.0
0000c0 00 00 00 00 00 00 00 00 00 00 00 00 00 00 00 00
       0.0 0.0 0.0 0.0
0000d0 00 00 00 00 00 00 00 00 00 00 00 00 00 00 00 00
       0.0 0.0 0.0 0.0
0000e0 00 00 00 00 00 00 00 00 00 00 00 00 00 00 00 00
       0.0 0.0 0.0 0.0
0000f0 00 00 00 00 00 00 00 00 00 00 00 00 00 00 00 00
       0.0 0.0 0.0 0.0
000100 00 00 00 00 00 00 00 00 00 00 00 00 00 00 00 00
       0.0 0.0 0.0 0.0
000110 00 00 00 00 00 00 00 00 00 00 00 00 00 00 00 00
       0.0 0.0 0.0 0.0
000120 00 00 00 00 00 00 00 00 00 00 00 00 00 00 00 00
       0.0 0.0 0.0 0.0
000130 00 00 00 00 00 00 00 00 00 00 00 00 00 00 00 00
       0.0 0.0 0.0 0.0
000140 00 00 00 00 00 00 00 00 00 00 00 00 00 00 00 00
       0.0 0.0 0.0 0.0
000150 00 00 00 00 00 00 00 00 00 00 00 00 00 00 00 00
       0.0 0.0 0.0 0.0
000160 00 00 00 00 00 00 00 00 00 00 00 00 00 00 00 00
       0.0 0.0 0.0 0.0
000170 00 00 00 00 00 00 00 00 00 00 00 00 00 00 00 00
       0.0 0.0 0.0 0.0
000180 00 00 00 00 00 00 00 00 00 00 00 00 00 00 00 00
       0.0 0.0 0.0 0.0
000190 00 00 00 00 00 00 00 00 00 00 00 00 00 00 00 00
       0.0 0.0 0.0 0.0
0001a0 00 00 00 00 00 00 00 00 00 00 00 00 00 00 00 00
       0.0 0.0 0.0 0.0
0001b0 00 00 00 00 00 00 00 00 00 00 00 00 00 00 00 00
       0.0 0.0 0.0 0.0
0001c0 00 00 00 00 00 00 00 00 00 00 00 00 00 00 00 00
       0.0 0.0 0.0 0.0
0001d0 00 00 00 00 00 00 00 00 00 00 00 00 00 00 00 00
       0.0 0.0 0.0 0.0
0001e0 00 00 00 00 00 00 00 00 00 00 00 00 00 00 00 00
       0.0 0.0 0.0 0.0
0001f0 00 00 00 00 00 00 00 00 00 00 00 00 00 00 00 00
       0.0 0.0 0.0 0.0
000200 00 00 00 00 00 00 00 00 00 00 00 00 00 00 00 00
       0.0 0.0 0.0 0.0
000210 00 00 00 00 00 00 00 00 00 00 00 00 00 00 00 00
       0.0 0.0 0.0 0.0
000220 00 00 00 00 00 00 00 00 00 00 00 00 00 00 00 00
       0.0 0.0 0.0 0.0
000230 00 00 00 00 00 00 00 00 00 00 00 00 00 00 00 00
       0.0 0.0 0.0 0.0
000240 00 00 00 00 00 00 00 00 00 00 00 00 00 00 00 00
       0.0 0.0 0.0 0.0
000250 00 00 00 00 00 00 00 00 00 00 00 00 00 00 00 00
       0.0 0.0 0.0 0.0
000260 00 00 00 00 00 00 00 00 00 00 00 00 00 00 00 00
       0.0 0.0 0.0 0.0
000270 00 00 00 00 00 00 00 00 00 00 00 00 00 00 00 00
       0.0 0.0 0.0 0.0
000280 00 00 00 00 00 00 00 00 00 00 00 00 00 00 00 00
       0.0 0.0 0.0 0.0
000290 00 00 00 00 00 00 00 00 00 00 00 00 00 00 00 00
       0.0 0.0 0.0 0.0
0002a0 00 00 00 00 00 00 00 00 00 00 00 00 00 00 00 00
       0.0 0.0 0.0 0.0
0002b0 00 00 00 00 00 00 00 00 00 00 00 00 00 00 00 00
       0.0 0.0 0.0 0.0
0002c0 00 00 00 00 00 00 00 00 00 00 00 00 00 00 00 00
       0.0 0.0 0.0 0.0
0002d0 00 00 00 00 00 00 00 00 00 00 00 00 00 00 00 00
       0.0 0.0 0.0 0.0
0002e0 00 00 00 00 00 00 00 00 00 00 00 00 00 00 00 00
       0.0 0.0 0.0 0.0
0002f0 00 00 00 00 00 00 00 00 00 00 00 00 00 00 00 00
       0.0 0.0 0.0 0.0
000300 00 00 00 00 00 00 00 00 00 00 00 00 00 00 00 00
       0.0 0.0 0.0 0.0
000310 00 00 00 00 00 00 00 00 00 00 00 00 00 00 00 00
       0.0 0.0 0.0 0.0
000320 00 00 00 00 00 00 00 00 00 00 00 00 00 00 00 00
       0.0 0.0 0.0 0.0
000330 00 00 00 00 00 00 00 00 00 00 00 00 00 00 00 00
       0.0 0.0 0.0 0.0
000340 00 00 00 00 00 00 00 00 00 00 00 00 00 00 00 00
       0.0 0.0 0.0 0.0
000350 00 00 00 00 00 00 00 00 00 00 00 00 00 00 00 00
       0.0 0.0 0.0 0.0
000360 00 00 00 00 00 00 00 00 00 00 00 00 00 00 00 00
       0.0 0.0 0.0 0.0
000370 00 00 00 00 00 00 00 00 00 00 00 00 00 00 00 00
       0.0 0.0 0.0 0.0
000380 00 00 00 00 00 00 00 00 00 00 00 00 00 00 00 00
       0.0 0.0 0.0 0.0
000390 00 00 00 00 00 00 00 00 00 00 00 00 00 00 00 00
       0.0 0.0 0.0 0.0
0003a0 00 00 00 00 00 00 00 00 00 00 00 00 00 00 00 00
       0.0 0.0 0.0 0.0
0003b0 00 00 00 00 00 00 00 00 00 00 00 00 00 00 00 00
       0.0 0.0 0.0 0.0
0003c0 00 00 00 00 00 00 00 00 00 00 00 00 00 00 00 00
       0.0 0.0 0.0 0.0
0003d0 00 00 00 00 00 00 00 00 00 00 00 00 00 00 00 00
       0.0 0.0 0.0 0.0
0003e0 00 00 00 00 00 00 00 00 00 00 00 00 00 00 00 00
       0.0 0.0 0.0 0.0
0003f0 00 00 00 00 00 00 00 00 00 00 00 00 00 00 00 00
       0.0 0.0 0.0 0.0

weight f4 [300, 5]
000000 7a f6 ad bd 5a e9 de 3d c8 e8 2b 3d 7c fa bf bd
       -0.08494277 0.10884352 0.041970044 -0.09373948
000010 39 b1 0c be 6e c9 b6 bd a6 f6 e0 bd 70 7b da 3c
       -0.1373948 -0.089251384 -0.109845445 0.026670188
000020 b8 4c cc 3c 31 f7 06 be 9f 03 67 3d b2 48 51 be
       0.024938926 -0.13180234 0.056399938 -0.20437887
000030 f3 2d 97 3b 32 7c 5d 3a 29 30 74 3c c2 e1 5e bd
       0.004613632 0.00084489875 0.01490406 -0.05441452
000040 9d 51 08 be dd 3b 90 bd 64 13 3a be fd 09 bc 3d
       -0.13312383 -0.07042668 -0.1817146 0.091815926
000050 ae c7 16 3e e8 f6 e8 bb 66 1e fd bd 8e 97 aa 3d
       0.1472461 -0.0071095116 -0.12359314 0.08329688
000060 7b 6f 7c bc 78 6d 67 3d 08 16 f7 3d f3 24 ca 3b
       -0.015407438 0.056500882 0.12064749 0.0061689555
000070 45 b9 88 bc e7 cb 0f be 32 7c c4 3d 20 6a 0d 3c
       -0.016689906 -0.14042626 0.09594001 0.008631259
000080 d4 65 06 be 00 20 4a 39 a0 e6 69 bc 82 0d ff bd
       -0.13124782 0.00019276142 -0.014276177 -0.12453748
000090 0c a9 08 be 90 5c 4f 3c 67 2e e1 bd e9 48 f7 bd
       -0.13345736 0.012656346 -0.10995179 -0.120744534
0000a0 c0 14 7a bb a8 28 e1 bc f8 33 05 bd d0 92 20 3c
       -0.003815934 -0.027485207 -0.032520264 0.009800628
0000b0 00 1d cd 3b 9a 18 83 bc ea 6b 1d be fd f9 a6 3d
       0.0062595606 -0.016002942 -0.15373197 0.0815315
0000c0 7c ff 82 be 4d 66 a6 3c a9 6b 90 bc 9f 07 ba 3d
       -0.25585544 0.020312453 -0.017629461 0.09083485
0000d0 f7 39 f6 bd 25 ea 4f 3e 2b 40 a0 3e da cc ea 3d
       -0.12022775 0.20304163 0.31298956 0.114648536
0000e0 7f 10 0d bd e0 50 d6 3c 0a 96 0a be 6a e9 ef 3a
       -0.03443956 0.026161611 -0.13533798 0.0018303816
0000f0 56 36 2e 3e 5b b3 4e 3d 72 a6 dc bd c8 ff 7c 3d
       0.17012915 0.050464015 -0.107739344 0.06176737
000100 c7 ef ea ba c8 78 63 3e 44 24 83 be e7 71 17 3e
       -0.0017924242 0.22214043 -0.25613606 0.14789544
000110 86 a3 78 be 79 38 38 be a5 57 08 3e 10 52 34 3d
       -0.24281129 -0.17990293 0.13314684 0.044023573
000120 e0 a0 76 bd 3c 82 57 bd aa ae c1 bd e4 8c a6 3d
       -0.060212016 -0.052614436 -0.09457143 0.081323415
000130 44 48 d1 3d 78 64 d1 bd 89 2b 03 be 51 98 04 be
       0.10218862 -0.10224241 -0.12809576 -0.12948729
000140 50 11 64 3c 80 b4 1e bc b2 87 e5 3d e0 92 38 3d
       0.013920143 -0.009686589 0.112075225 0.045061946
000150 02 da df bd 27 7f a7 3c 65 e3 80 bd 38 c3 0c 3e
       -0.109302536 0.020446373 -0.06293372 0.13746345
000160 72 7f ab bd 09 ed a7 bd ae 35 55 3e 09 7d f1 bd
       -0.08373918 -0.08199508 0.20821258 -0.11791427
000170 d2 c3 ef bc 38 58 ee bd bf 7f 08 be ca 74 87 3d
       -0.02926818 -0.1163792 -0.13329981 0.066140726
000180 5a 64 c6 3d c0 22 8b 3c fc c4 5e 3d 10 ae 7c 3c
       0.09687109 0.016984344 0.054387078 0.015422359
000190 6e 86 ef 3d 31 f6 d6 bc 4e 53 15 bd ca f2 68 be
       0.11695562 -0.02624044 -0.0364564 -0.22748867
0001a0 9f c9 2c bd 99 43 14 3e 0c 1f 9b bc 42 ec 9c bd
       -0.04218447 0.14478911 -0.018935703 -0.0766225
0001b0 a8 1b 32 3e 19 2b b8 3d 46 00 bb 3d d3 11 ac 3d
       0.17393363 0.08992595 0.091309115 0.08401837
0001c0 18 36 d5 bd 30 1a ba 3d 9d e5 9a bd c0 a1 39 bd
       -0.10410708 0.09087026 -0.075633265 -0.045320272
0001d0 89 7a a4 bd d3 d8 2c be dd 56 16 bd cf a6 0e bd
       -0.08031184 -0.16879587 -0.036703933 -0.03482705
0001e0 ee d3 25 3e 8d 3b 36 be a6 41 c8 3d d4 fd 93 bd
       0.16194126 -0.17796154 0.097781464 -0.07226148
0001f0 d2 2f c5 3c 18 20 d9 3c 36 5c 33 bd b8 50 b5 3c
       0.024070654 0.026504561 -0.04378911 0.022133216
000200 1c e5 92 bc 4c a0 ae 3d 33 57 34 3e 8d bd a2 bd
       -0.017931513 0.08526668 0.17611389 -0.0794631
000210 64 58 78 3e 2f 87 c7 bd 6a 9d 58 be 31 dc 21 3d
       0.24252468 -0.09742581 -0.21153799 0.03951663
000220 98 43 3a be 4d e7 b2 3c 01 2a 21 bd 0b f1 b0 bd
       -0.18189847 0.021838808 -0.0393467 -0.08639725
000230 02 7b 42 bd 15 08 bd bd a3 c2 80 3d 81 df 5d bd
       -0.04748059 -0.09230057 0.06287124 -0.054168228
000240 a8 0b 11 be 8f e6 d2 3d f3 83 f7 bd 79 04 ae 3d
       -0.14164603 0.10297882 -0.12085714 0.08496947
000250 a2 a1 f5 bd 95 e6 0a be 42 af 3e bd da 88 53 be
       -0.1199372 -0.13564523 -0.046553858 -0.20657673
000260 68 23 2e bd e5 57 b9 bc c7 62 ce bd 23 ce 11 3d
       -0.042514235 -0.02262492 -0.10077434 0.035596978
000270 46 d7 d4 3c 9b 8e 62 3e 4b 19 d2 bd c1 0e d4 bd
       0.025981557 0.22124712 -0.102587305 -0.103543766
000280 95 d9 b9 3d 0b c0 1d be 93 29 70 3e 76 2f 30 be
       0.090747036 -0.1540529 0.2345336 -0.17205605
000290 52 bd 44 bd 93 79 08 3e f6 96 05 be 23 d7 c9 3d
       -0.048032112 0.13327627 -0.13045868 0.09855487
0002a0 77 e7 d9 bd e1 16 d9 bd 8d b1 08 3e f4 92 a1 bc
       -0.106398515 -0.10600067 0.1334898 -0.019723393
0002b0 38 92 cc bc 6a 97 20 be 17 51 72 bd 61 f1 fb 3d
       -0.024972066 -0.1568276 -0.059159365 0.12301899
0002c0 78 6a e0 bd 3e 16 f6 3d 0c f0 ea 3c ca 14 8a 3d
       -0.10957807 0.12015961 0.028678916 0.067422464
0002d0 a0 70 b9 3c 6e 49 5a bd 30 f4 68 bc 20 5e 85 3c
       0.022636712 -0.053292684 -0.014218375 0.016280234
0002e0 22 04 2f bd 98 ea fa 3c 50 d2 17 3d ce f2 a6 bd
       -0.04272855 0.030629441 0.037065804 -0.0815178
0002f0 64 e6 f0 bc cc 9a 4c 3d bd f1 a3 3c 1d 36 9e bd
       -0.029406734 0.049952313 0.02001273 -0.07725165
000300 f8 e6 40 3c 0a 35 93 bd f8 61 40 3e 09 16 06 3e
       0.011773817 -0.07187851 0.18787372 0.13094343
000310 18 81 7f bc 40 0b 89 3b 45 50 08 be 09 0c 88 bd
       -0.015594743 0.0041822493 -0.1331187 -0.066429205
000320 18 ab b5 bc cd 9d e8 bd 96 e8 0d bd 44 2c ca 3d
       -0.02217631 -0.11358223 -0.03464564 0.09871724
000330 70 a7 92 3d 95 b9 8f bd 2e cc 3e be 83 5e 17 3e
       0.071608424 -0.07017819 -0.18632576 0.14782147
000340 b5 64 45 be b4 48 eb bd 63 08 22 bd d9 04 2c b9
       -0.19276698 -0.114884764 -0.03955878 -0.00016405004
000350 41 56 8f bb 34 97 5d be 41 ec 69 bd 2a d1 58 bd
       -0.004374296 -0.2163971 -0.057110075 -0.05293385
000360 3b 32 8a 3d a7 8f fd bc 4c 96 72 3d ce fe cf 3d
       0.06747862 -0.030952288 0.059225366 0.10156022
000370 9c 06 1a 3c 8e b6 40 be 88 1d 4c 3e 4f f4 36 be
       0.00940099 -0.18819639 0.1993314 -0.17866634
000380 94 f4 09 be fa 63 fb 3d 3d f0 ec bd ae 37 54 bd
       -0.13472205 0.122749284 -0.11569259 -0.051810913
000390 8b fb e4 bd 40 42 ed 3c 18 56 cf bd 43 95 82 3d
       -0.111807905 0.028962255 -0.10123843 0.06376126
0003a0 ac f0 81 be 14 62 11 bd e6 91 11 3e 8c 8d a6 3d
       -0.2537893 -0.035493925 0.14215812 0.08132467
0003b0 a0 9a 6c b9 e8 32 3d 3e ad f4 29 be ab 07 b8 bd
       -0.00022564316 0.1847645 -0.16597243 -0.089858375
0003c0 be 87 f6 3d f2 5b 7d be f9 7e 7a 3e 1e a2 29 be
       0.120376095 -0.24742106 0.24462499 -0.16565749
0003d0 04 fa 57 be ba 5e d2 bd 8c 66 03 3d 2b 5a 1b be
       -0.21091467 -0.10271974 0.03208022 -0.15171115
0003e0 9d a5 ce 3d 55 e9 88 3e 48 9e 42 3e 2a af b2 3b
       0.10090182 0.26740518 0.19005692 0.00545301
0003f0 4a 27 35 3e cc dd ca b9 c3 6d 27 bd 46 52 27 bd
       0.17690769 -0.00038693694 -0.04087616 -0.040849946

bias f4 [5]
000000 55 d7 3c 3e 62 5d 2b be 30 80 f1 3d f4 ed f3 bd
       0.18441518 -0.16734841 0.11792028 -0.1191062
000010 08 8e 44 be
       -0.19194806
