Models/GNNs/Models_20_7_Datasets-improved-Gini/Models_20_7_SecureWebContainer-improved-Gini/model_RGCN_1000_samples_1000_epochs_512_batchsize.pth (torch, 60000 bytes, 14 tensors)

weight f4 [8, 300]
0	0xbe187fbd	-0.14892478
1	0xbcca4f30	-0.024695963
2	0x3de87b4a	0.113516405
3	0x3e869532	0.26285702
4	0x3d11dd7b	0.03561161
5	0x3d13e6d8	0.03610882
6	0x3c892477	0.01674102
7	0x3bff0660	0.0077827424
8	0x3eace316	0.33767003
9	0xbded583c	-0.11589095
10	0x3b96fb6a	0.0046076076
11	0x3d33a687	0.043859985
12	0xbc89ae44	-0.01680673
13	0x3db2f713	0.08738532
14	0x3da0b4ad	0.07846961
15	0x3b469249	0.0030299595
16	0xbdabcb4e	-0.08388387
17	0xbc8839b8	-0.016629085
18	0xbcefef8a	-0.029289026
19	0xbdc33b79	-0.09532828
20	0xbdae2495	-0.08503071
21	0x3e167e8f	0.14696716
22	0x3be3db2f	0.006953619
23	0xbcee6fbd	-0.029106015
24	0x3d28f890	0.041252673
25	0xbc023ac0	-0.007948577
26	0xbc1f62d0	-0.009728149
27	0x3ddb12ce	0.10696946
28	0x3decd203	0.11563494
29	0x3d895d1f	0.067072146
30	0x3e1408b4	0.14456445
31	0x3b6fe3c3	0.0036604262
32	0x3c73f64b	0.014890264
33	0xbcc91ae8	-0.024548963
34	0xbf550d46	-0.8322338
35	0x3e8a02e3	0.26955327
36	0x3c20ab20	0.009806424
37	0x3ded15b0	0.11576402
38	0xbd0b64f0	-0.03403181
39	0x3d802e0b	0.06258782
40	0xbdcbdec0	-0.099545956
41	0xbe8147ec	-0.25250185
42	0xbdc928b6	-0.09822218
43	0x3d7c291d	0.061562646
44	0xbe1e5408	-0.15461743
45	0x3d3f118b	0.04664759
46	0x3de101d4	0.10986677
47	0x3e51e3a6	0.20496997
48	0xbf9ecf28	-1.2406969
49	0x3dd136a1	0.10215498
50	0xbcf6f93e	-0.030148145
51	0xbe4c26d3	-0.19936685
52	0x3d99db56	0.07512538
53	0x3d4370f0	0.047715127
54	0x3d4bd021	0.049759034
55	0xbdebec92	-0.115197316
56	0x3e429529	0.19002213
57	0x3cbd0360	0.023072898
58	0x3d6bac45	0.057537336
59	0x3d811e1e	0.063045725
60	0x3ea0ed65	0.31431118
61	0x3e595fe6	0.21227989
62	0xbd4085d2	-0.04700262
63	0xbd5e3bf8	-0.05425641
64	0x3dccb0e0	0.09994674
65	0x3d078067	0.03308144
66	0xbdfd2e81	-0.123623855
67	0x3f0ec353	0.5576679
68	0xbda6f1c2	-0.081515804
69	0xbe05631d	-0.1302609
70	0x3ec5e8e3	0.3865424
71	0xbd428366	-0.047488593
72	0xbe6bfd8a	-0.23045936
73	0x3e1dd154	0.15411884
74	0x3e958a6d	0.29207173
75	0x3be38e3a	0.006944445
76	0xbc1fef02	-0.009761574
77	0x3dc292da	0.09500666
78	0x3b0713c4	0.0020611146
79	0x3e2b72cc	0.1674301
80	0x3ed81758	0.4220531
81	0x3cce9b30	0.025220484
82	0xbe001c18	-0.12510717
83	0xbdf4b1fa	-0.11948009
84	0xbda4123d	-0.08011291
85	0x3ed65ead	0.41869107
86	0xbe0d487e	-0.13797185
87	0x3d4e2d8e	0.050336413
88	0x3e8fdcb3	0.28098068
89	0x3c1ad550	0.009450272
90	0x3e5ad08a	0.21368614
91	0x3dd79084	0.10525611
92	0x3e9340c3	0.28760347
93	0x3e6211eb	0.22077148
94	0xbe99a62f	-0.300096
95	0xbda4390f	-0.080186956
96	0x3d3b3d49	0.045712743
97	0x3df5fcfa	0.12011142
98	0x3e0fe3f7	0.14051805
99	0x3cb4ecf0	0.022085637
100	0x3e3bcd45	0.18340023
101	0x3d26f463	0.04076041
102	0x3dc5ab22	0.096517816
103	0x3dea405e	0.11438058
104	0x3f2701b0	0.6523695
105	0x3e2d58b9	0.16928376
106	0xbdea91e3	-0.11453607
107	0x3dabff8b	0.0839835
108	0xbda4b4aa	-0.080422714
109	0xbd51c5d4	-0.051214054
110	0xbc1b44fa	-0.0094768945
111	0xbde5fffb	-0.11230465
112	0x3e1e3134	0.15448457
113	0xbcf54a30	-0.029942602
114	0x3ce02b82	0.027364496
115	0x3e0ce859	0.13760509
116	0x3ce90f17	0.028449578
117	0xbe0c61d5	-0.13709195
118	0xbdb57e65	-0.088619985
119	0x3e1b22cf	0.15149997
120	0x3dfd48e6	0.1236742
121	0x3e75470d	0.23952885
122	0x3ea8cd92	0.32969338
123	0x3dc96968	0.09834558
124	0x3dc09124	0.094026834
125	0xbf6ea66e	-0.932227
126	0xbe1bc6de	-0.1521258
127	0x3c8496c5	0.016185174
128	0x3d90f34a	0.07077654
129	0x3d45e4cb	0.048313897
130	0xbd39cc71	-0.045360986
131	0xbd68fac6	-0.05687978
132	0xbb86d960	-0.0041152686
133	0x3dd0f8fc	0.1020374
134	0x3e3b6b67	0.1830269
135	0x3e065a28	0.1312033
136	0x3c913060	0.017723262
137	0x3d8f110b	0.069856726
138	0xbcd90926	-0.02649362
139	0xbd3066be	-0.043066733
140	0x3e016893	0.12637548
141	0x3dbcf924	0.09227207
142	0xbde16ec1	-0.11007453
143	0x3e93c981	0.28864673
144	0x3e32a6f2	0.17446497
145	0x3d01306c	0.03154032
146	0x3d2ca4ca	0.042149343
147	0xbd547a1e	-0.051874273
148	0xbdb70524	-0.08936527
149	0x3e383d17	0.17992054
150	0x3e04664e	0.12929651
151	0xbe0e45a8	-0.13893759
152	0xbdd152b4	-0.102208525
153	0x3df472c9	0.11935956
154	0xbc9331c0	-0.017968059
155	0x3c842319	0.016130017
156	0xbddefcc3	-0.10888054
157	0x3cb3c500	0.021944523
158	0xbd654664	-0.055975333
159	0x3bba0ae0	0.005677566
160	0xbe01b5e3	-0.1266704
161	0x3c4b8e87	0.012424118
162	0x3c708c12	0.014681833
163	0xbdb5ea49	-0.08882577
164	0x3e527e2c	0.20555943
165	0x3d34216c	0.043977186
166	0xbd83addd	-0.06429646
167	0x3e168f7f	0.14703177
168	0xba623400	-0.00086289644
169	0xbc4d1742	-0.012517752
170	0x3d966151	0.073427804
171	0x3e2ab627	0.16671048
172	0xbe3b7461	-0.18306114
173	0xbd3ec852	-0.04657776
174	0x3de39915	0.111131825
175	0x3dec1a26	0.11528425
176	0x3f4e3fe6	0.8056625
177	0xbd63e94e	-0.05564242
178	0x3e3d048e	0.18458769
179	0xbd09410c	-0.0335093
180	0x3cb0def4	0.021590687
181	0xbd2bc5c2	-0.041936643
182	0xbd2029ed	-0.039102484
183	0x3d239926	0.039940976
184	0x3ebf1e64	0.37327874
185	0x3e61c890	0.22049165
186	0x3e4c01c6	0.19922552
187	0x3e256da4	0.16155106
188	0xbdf0054a	-0.11719759
189	0xbda16235	-0.0788006
190	0x3dd4c714	0.10389534
191	0x3e09d154	0.13458759
192	0x3eb7974b	0.35857615
193	0xbc978d2b	-0.018499931
194	0x3d139112	0.03602702
195	0x3cab7e43	0.02093423
196	0xbc182445	-0.009285991
197	0x3e068095	0.13134988
198	0x3e03c2bb	0.12867253
199	0xbdacefa8	-0.08444148
200	0xbdddc04a	-0.10827692
201	0x3e404999	0.18778075
202	0x3e84b930	0.25922537
203	0xbd8e1ccb	-0.069390856
204	0x3df0de9b	0.117612086
205	0xbdb69db5	-0.08916799
206	0xbde17997	-0.110095195
207	0x3e2ef2d6	0.17084822
208	0x3cbbb6b2	0.022914264
209	0x3e841467	0.25796816
210	0x3d472934	0.04862328
211	0xbd9b1e51	-0.07574142
212	0x3cc60600	0.024172783
213	0xbe01f5f1	-0.12691475
214	0x3db34842	0.087540165
215	0xbdaef932	-0.08543624
216	0x3e0bdf57	0.13659416
217	0xbccac99b	-0.024754336
218	0x3ebed626	0.37272757
219	0xbd7c4585	-0.061589736
220	0x3e09aa1f	0.13443802
221	0x3e5eb458	0.21748483
222	0x3e9d82a2	0.30763727
223	0x3e6617b0	0.22469974
224	0x3eab0fea	0.3341058
225	0xbdc17aba	-0.09447236
226	0x3ce3de7d	0.027816052
227	0xbea4b21a	-0.3216713
228	0xbf7f05bc	-0.99618125
229	0xbca615dd	-0.020274097
230	0x3bc4a94e	0.006001628
231	0x3dfe3fd2	0.124145165
232	0xbc34477d	-0.011003372
233	0xbdf33a29	-0.118763275
234	0x3d8ca75f	0.06867861
235	0x3df12739	0.11775059
236	0xbe105aad	-0.1409709
237	0x3df98d76	0.12185185
238	0x3d391e58	0.045194954
239	0x3e64a4d5	0.22328503
240	0xbd423ffb	-0.047424298
241	0x3e03b841	0.12863256
242	0x3dc7f4cc	0.09763488
243	0xbdf7724a	-0.12082346
244	0xbf02e6f4	-0.51133657
245	0x3dafdff7	0.0858764
246	0x3ede559b	0.43424687
247	0xbdd64784	-0.10462859
248	0xbda9acd2	-0.08284916
249	0x3f1125e7	0.5669846
250	0x3e43c42a	0.191178
251	0xbdd3e230	-0.10345876
252	0x3cb41c58	0.021986172
253	0x3d7a4833	0.06110401
254	0x3e0d8519	0.13820304
255	0x3e188746	0.14895353

bias f4 [300]
0	0xbc9ef40e	-0.019403484
1	0xbcbe5de0	-0.023238122
2	0x00000000	0.0
3	0x3e2b801d	0.1674809
4	0x3dd2cee0	0.102933645
5	0x3df84fd8	0.12124604
6	0x3e0badfc	0.13640589
7	0xbc158584	-0.009126071
8	0x3dc69b94	0.09697643
9	0x00000000	0.0
10	0xbd4708f9	-0.04859254
11	0x3e3da705	0.18520744
12	0x3e0ffe12	0.14061764
13	0x3e10fcc4	0.14158922
14	0x3e51c093	0.20483617
15	0x3e27d0e1	0.16388275
16	0x00000000	0.0
17	0x00000000	0.0
18	0x3e459a52	0.1929715
19	0x3e701e83	0.2344914
20	0x00000000	0.0
21	0x3e06c0b7	0.13159452
22	0xbca5dcbe	-0.02024686
23	0x3e43305a	0.19061413
24	0x3e3a0c99	0.18168868
25	0x00000000	0.0
26	0x00000000	0.0
27	0x3ded7119	0.11593837
28	0x3e2d18c6	0.16903982
29	0x3e13ff92	0.14452961
30	0x3de759f4	0.11296454
31	0xbc90f637	-0.01769553
32	0x3e24c7e1	0.16091873
33	0x00000000	0.0
34	0x3eab445c	0.33450592
35	0x3dc50541	0.09620143
36	0x00000000	0.0
37	0x3ddfd482	0.109292045
38	0x00000000	0.0
39	0xbcf343bf	-0.02969539
40	0xbbc4c4e5	-0.006004917
41	0x3ceee8ad	0.029163683
42	0x00000000	0.0
43	0x3e1738b6	0.14767727
44	0x3e37fb6e	0.17967007
45	0x3dfabf0e	0.12243472
46	0x3e1a207f	0.15051459
47	0x3dfc81ab	0.1232942
48	0x3ef77da6	0.4833805
49	0x3e2e94de	0.17048976
50	0x3e14510f	0.14484046
51	0x3c32e151	0.010917977
52	0xbd00f398	-0.03148231
53	0x00000000	0.0
54	0x3dc083fc	0.09400174
55	0xbcad560b	-0.021159193
56	0x3e2c667d	0.16835971
57	0x00000000	0.0
58	0xbcaa9cfe	-0.020826813
59	0x00000000	0.0
60	0x3e124e0a	0.14287582
61	0x3e167b98	0.14695585
62	0x00000000	0.0
63	0x00000000	0.0
64	0x3e83f8c6	0.25775737
65	0xbd211cf4	-0.039334252
66	0xbc4c6144	-0.012474362
67	0x3ed01488	0.40640664
68	0x00000000	0.0
69	0xbcf7f8d6	-0.030270021
70	0x3dae33d0	0.08505976
71	0xbcdae99a	-0.026722718
72	0x3e6d6154	0.23181659
73	0x3dcbf7a0	0.0995934
74	0x3e310dee	0.1729047
75	0x3e41f30d	0.18940373
76	0x3d1feac2	0.039042242
77	0xbcb06216	-0.021531146
78	0x3e489d0b	0.19591157
79	0x3e03e80f	0.12881492
80	0x3e1b70c1	0.15179731
81	0xbc016a84	-0.00789893
82	0xbc72c23d	-0.014816818
83	0x00000000	0.0
84	0xbc2672ce	-0.0101592075
85	0x3def280f	0.116775624
86	0x00000000	0.0
87	0x3e3bdbde	0.18345591
88	0x3df9f00e	0.1220399
89	0xbd193f5e	-0.037413947
90	0x3ea84d25	0.32871357
91	0x3e5c9c9b	0.21544115
92	0x3e32fa35	0.17478259
93	0x3db7f0f9	0.08981509
94	0x3e5478dd	0.2074923
95	0xbc40d3e5	-0.01176927
96	0xbd16ab57	-0.036784496
97	0x3e107b3f	0.14109515
98	0x3e01e884	0.12686354
99	0x00000000	0.0
100	0x3df47c32	0.11937751
101	0x3e170641	0.1474848
102	0x3e027197	0.12738644
103	0x00000000	0.0
104	0x3d8d8496	0.069100544
105	0x3e0af021	0.13568164
106	0x00000000	0.0
107	0x3e571acf	0.2100632
108	0x00000000	0.0
109	0x3e1d60fc	0.15369028
110	0xbc2da733	-0.010598945
111	0xbcadf8e4	-0.021236844
112	0x3e1be1b6	0.1522282
113	0x00000000	0.0
114	0x3e29637c	0.16541857
115	0x3e3410e4	0.17584568
116	0x3e1a143d	0.15046783
117	0x00000000	0.0
118	0x3e16b3ad	0.14716978
119	0x3e20fdba	0.15721789
120	0x00000000	0.0
121	0x3d6a8f90	0.057265818
122	0x3dbede9d	0.09319804
123	0x3e291bc8	0.16514504
124	0x3df3c41e	0.11902641
125	0x3f02d400	0.51104736
126	0x3e51ddcb	0.20494764
127	0xbc9f1474	-0.019418932
128	0x00000000	0.0
129	0xbc817348	-0.01580204
130	0x3e3294fa	0.17439643
131	0x00000000	0.0
132	0x00000000	0.0
133	0x00000000	0.0
134	0x3e3ef065	0.1864639
135	0x3dfb64d9	0.122750945
136	0x00000000	0.0
137	0x3e34ded8	0.17663133
138	0xbca9db3f	-0.020734427
139	0x3e2644cd	0.16237183
140	0x3e056bd7	0.13029419
141	0x00000000	0.0
142	0x00000000	0.0
143	0x3e30388d	0.17209072
144	0x3e132773	0.14370517
145	0x00000000	0.0
146	0x3e0e4949	0.13895144
147	0xbcf29286	-0.029610883
148	0x00000000	0.0
149	0x3e3aa19f	0.18225716
150	0x3dfc55d4	0.12321058
151	0x00000000	0.0
152	0x3e1ff241	0.15619756
153	0x3dfa1f9c	0.1221306
154	0x00000000	0.0
155	0x3e282c4f	0.16423152
156	0x00000000	0.0
157	0x00000000	0.0
158	0x00000000	0.0
159	0x00000000	0.0
160	0xbcabeb09	-0.020986097
161	0xbc91eda3	-0.01781351
162	0x3def95f7	0.116985254
163	0x00000000	0.0
164	0x3e3adcb8	0.1824826
165	0x00000000	0.0
166	0x00000000	0.0
167	0x3e036962	0.12833169
168	0x00000000	0.0
169	0xbccc8aa6	-0.024968456
170	0x3e158e58	0.14605081
171	0x3ddbfe34	0.10741845
172	0x3eea4daf	0.45762393
173	0x3e0ef97f	0.13962363
174	0x3e21029e	0.15723655
175	0x3e100654	0.14064914
176	0x3dac106d	0.084015705
177	0x3e36749b	0.17817919
178	0x3e31c8ea	0.17361799
179	0x00000000	0.0
180	0xbc9aeb73	-0.018911099
181	0x00000000	0.0
182	0x3dfe4fb8	0.12417549
183	0xbc948db8	-0.018133983
184	0x3e6e43f8	0.23268116
185	0x3e2c5b07	0.16831599
186	0x3e365502	0.17805865
187	0x3e1d05f4	0.15334302
188	0x00000000	0.0
189	0x00000000	0.0
190	0x3e02396a	0.12717214
191	0x3e4c35ce	0.199424
192	0x3deebb5d	0.116568305
193	0xbcae011d	-0.021240765
194	0xbd462361	-0.048373584
195	0xbc5c549e	-0.013447909
196	0x3e4d6a97	0.20060192
197	0x3e12101a	0.14263955
198	0x3e328db7	0.17436872
199	0x00000000	0.0
200	0x00000000	0.0
201	0x3e239f3e	0.15978715
202	0x3dfeed83	0.124476455
203	0x00000000	0.0
204	0x3dee609b	0.1163952
205	0x3e40537c	0.18781847
206	0xbca2d8c2	-0.019878749
207	0x3dd41a19	0.1035654
208	0xbd40bcc6	-0.04705503
209	0x3df19e87	0.11797815
210	0x00000000	0.0
211	0x00000000	0.0
212	0x00000000	0.0
213	0x00000000	0.0
214	0x3e711f9a	0.23547211
215	0xbc288fb4	-0.010288168
216	0x3e30d0f3	0.17267208
217	0x3e132d92	0.14372852
218	0x3da3d324	0.07999256
219	0xbc4d76f2	-0.012540566
220	0x00000000	0.0
221	0x3dd0d71b	0.10197278
222	0x3dbd8d0a	0.09255417
223	0x3e07977d	0.13241382
224	0x3e37ba74	0.1794222
225	0x00000000	0.0
226	0xbd4b11c4	-0.04957749
227	0x3e54ec31	0.20793225
228	0x3e4d098a	0.2002317
229	0xbc09abbf	-0.008402764
230	0xbd1c9a3d	-0.03823303
231	0x00000000	0.0
232	0x3e0806a4	0.13283783
233	0x00000000	0.0
234	0x3e044607	0.12917338
235	0x3df14a53	0.11781754
236	0x3e5044c0	0.20338726
237	0x3daa4b71	0.083151706
238	0x3e517022	0.20452932
239	0x3e0cf19d	0.13764043
240	0xbc9a1628	-0.018809393
241	0xbcdfea1c	-0.027333312
242	0xbc728a3e	-0.014803467
243	0x00000000	0.0
244	0x3ed39c05	0.4132997
245	0x3e155c04	0.14585882
246	0x3e079758	0.13241327
247	0x00000000	0.0
248	0xbc61c3ab	-0.013779561
249	0x3e7504b3	0.23927574
250	0x3e200ddf	0.15630291
251	0xbcc50141	-0.02404845
252	0x00000000	0.0
253	0x3df12125	0.117739
254	0x00000000	0.0
255	0x3e18bf9a	0.1491684

weight f4 [8, 300]
0	0x3dcd51f2	0.100253955
1	0x3bebf0a0	0.0072003156
2	0xbd1ffd62	-0.039060004
3	0xbd96dc36	-0.07366221
4	0x3d95f2b2	0.07321681
5	0xbd030c52	-0.03199417
6	0xbcd7aa94	-0.026326455
7	0xbd44536c	-0.04793112
8	0xbd4c0ae6	-0.04981508
9	0xbd4d868e	-0.05017715
10	0xbd559ce4	-0.052151576
11	0xbcbe4524	-0.023226328
12	0x3d52960c	0.051412627
13	0x3de2170a	0.110395506
14	0x3d1c3ee8	0.03814593
15	0xbd865a94	-0.06560245
16	0xbd9e32ca	-0.07724531
17	0x3d6939e8	0.05693999
18	0xbc4ea830	-0.012613341
19	0xbd9f9c19	-0.07793445
20	0xbe02f41a	-0.1278843
21	0xbd8ae12a	-0.06781228
22	0xbd17ed16	-0.037091337
23	0xbd40ca90	-0.04706818
24	0xbc9914b8	-0.018686637
25	0xbd41232c	-0.047152683
26	0x3dc004a8	0.09375888
27	0x3e016937	0.12637793
28	0xbd0e9b0e	-0.03481584
29	0x3c8bfc88	0.01708819
30	0xbd9fc954	-0.07802072
31	0x3d657f38	0.05602953
32	0x3daab7f4	0.083358675
33	0x3dfabb26	0.12242727
34	0x3db68ac6	0.08913188
35	0xbc96f12c	-0.018425547
36	0xbe04c02c	-0.12963933
37	0xbddbb27a	-0.10727401
38	0xbda42923	-0.08015659
39	0x3e005967	0.12534104
40	0x3d9ae3fa	0.07563014
41	0x3d66a60c	0.0563107
42	0x3d8d711c	0.069063395
43	0xbb6e9a40	-0.0036407858
44	0x3bed7c80	0.0072475076
45	0x3db5075c	0.08839294
46	0x3c7b3580	0.01533258
47	0x3db58fa6	0.088652894
48	0xbd26da2a	-0.0407354
49	0xbd8112ee	-0.06302439
50	0xbd02f314	-0.0319701
51	0xbc375c90	-0.011191502
52	0xbdbff36f	-0.09372603
53	0xbd86164b	-0.06547221
54	0x3df46f1e	0.119352564
55	0x3d2b68d0	0.041848004
56	0xbdf8aec2	-0.121427074
57	0xbdcba754	-0.09944025
58	0x3dba2256	0.0908858
59	0xbd28809e	-0.041138284
60	0x3ddac722	0.10682513
61	0xbc736d18	-0.014857553
62	0x3b6b9540	0.0035947114
63	0x3e0ac1b1	0.1355045
64	0x3e0e9605	0.13924415
65	0xbddd703c	-0.10812423
66	0x3da13dc8	0.07873112
67	0xbd153824	-0.036430493
68	0x39286400	0.00016058981
69	0xbe013c71	-0.12620713
70	0xbcc54c54	-0.024084248
71	0x3dab5a8a	0.08366878
72	0xbd85bdc0	-0.065303326
73	0xbd2b4a52	-0.041818924
74	0x3dcbf0ac	0.09958014
75	0x3da5a6e6	0.08088474
76	0xbda64b04	-0.08119777
77	0x3dc94c6e	0.09829031
78	0xbc608450	-0.013703421
79	0xbd83a386	-0.06427674
80	0xbdad01d4	-0.08447614
81	0x3e00e357	0.12586723
82	0xbdb531ac	-0.08847365
83	0x3dcb74f0	0.099344134
84	0xbd8f9089	-0.0700999
85	0xbd7bffbe	-0.06152319
86	0x3cac3820	0.021022856
87	0x3de53652	0.111920014
88	0xbd5ee458	-0.054416984
89	0xbd5942fa	-0.05304239
90	0x39e86800	0.00044327974
91	0xbc91a764	-0.017780013
92	0x3cfad998	0.030621335
93	0x3dd6c1e8	0.104862034
94	0xbdc2cd58	-0.095118225
95	0x3d9a2e72	0.0752839
96	0xbe0d4752	-0.13796738
97	0x3df47d72	0.11937989
98	0xbdf4f252	-0.119602814
99	0x3dd4ea94	0.10396305
100	0xbcc2553c	-0.023722284
101	0x3dfbd0fa	0.122957185
102	0x3ce12628	0.027484015
103	0xbdb01052	-0.08596863
104	0x3d56fe08	0.052488357
105	0x3de2d132	0.11075057
106	0x3dd2618c	0.10272512
107	0xbe092b38	-0.13395393
108	0x3df47272	0.11935891
109	0xbd91facf	-0.07127916
110	0x3d8ff19c	0.07028505
111	0x3741c000	1.15484e-05
112	0x3ce615a8	0.028086498
113	0xbd123200	-0.035692215
114	0xbd8510ce	-0.06497346
115	0xbb724640	-0.0036968142
116	0xbdb6f0c7	-0.089326434
117	0xbcfe7730	-0.031062692
118	0xbe096036	-0.13415608
119	0x3cd79380	0.02631545
120	0x3d4757b8	0.04866764
121	0xbd68320c	-0.056688353
122	0x3e0da707	0.13833247
123	0xbd51cb52	-0.051219292
124	0xbd116312	-0.03549487
125	0xbdd30784	-0.10304168
126	0xbdd5381c	-0.10411093
127	0x3d80488e	0.06263839
128	0x3de2f672	0.11082162
129	0x3d5b6184	0.053559795
130	0xbde23322	-0.11044909
131	0xbd1ca942	-0.038247354
132	0xbdea2fae	-0.114348754
133	0xbd258bfa	-0.040416695
134	0x3cb6fa48	0.02233614
135	0x3d125fac	0.03573577
136	0x3c698860	0.014253706
137	0xbcfb1ea0	-0.030654252
138	0x3de6096e	0.11232267
139	0x3dcee76c	0.10102734
140	0xbc8bff80	-0.017089605
141	0x3d609da8	0.054837853
142	0x3d90a850	0.07063353
143	0xbddc28e1	-0.107499845
144	0xbd627f34	-0.05529709
145	0xbcb19bac	-0.021680675
146	0xbe09f103	-0.13470845
147	0x3ceb6ad0	0.028737456
148	0xbc023f00	-0.007949591
149	0xbd1b25c0	-0.037877798
150	0xbd348012	-0.04406745
151	0xbda58d99	-0.08083648
152	0x3c3a9cd0	0.011389926
153	0xbdf4020a	-0.119144514
154	0x3d04d350	0.032428086
155	0xbddc56ec	-0.107587665
156	0xbcb459b0	-0.022015423
157	0xbc5fc160	-0.013656944
158	0x3d79e638	0.06101057
159	0xbc07b2e0	-0.008282393
160	0x3c18d490	0.009328023
161	0x3e0a8143	0.13525872
162	0xbd04ecd6	-0.032452427
163	0x3c097db0	0.008391783
164	0xbda8bf13	-0.082395695
165	0x3d988c76	0.07448666
166	0x3d160d20	0.03663361
167	0x3d8aa3b6	0.06769507
168	0xbdb05be6	-0.08611278
169	0xbe0e974f	-0.13924907
170	0xbd0fd248	-0.03511265
171	0x3dd8082e	0.10548435
172	0x3d9d13b2	0.07669772
173	0xbdb51a31	-0.08842886
174	0xbd879df4	-0.06621924
175	0x3d05f098	0.03270015
176	0xbdc4f0d4	-0.09616247
177	0xbdbe81ae	-0.09302078
178	0x3d2724bc	0.040806517
179	0x3e01ccbb	0.12675755
180	0x3d8ecafe	0.069723114
181	0x3ae70580	0.001762554
182	0x3d1854e8	0.037190348
183	0xbc2f61e0	-0.010704488
184	0x3dafc222	0.0858195
185	0xbbe21ee0	-0.0069006532
186	0x3df532ee	0.11972605
187	0x3d9777d8	0.07395905
188	0x3dac41f0	0.08411014
189	0x3c8c3cf0	0.017118901
190	0xbc9dd384	-0.019265898
191	0x3cb0c980	0.021580458
192	0xbdb23173	-0.08700838
193	0xbc054030	-0.008132979
194	0x3e0e8685	0.13918503
195	0xbe098588	-0.13429844
196	0x3c3b6bf0	0.0114393085
197	0xbd6481dc	-0.055787906
198	0xbe0c58a7	-0.13705693
199	0xbe02a424	-0.12757927
200	0x3d755c80	0.059902668
201	0xbc467470	-0.012112722
202	0x3e0060ff	0.12537001
203	0x3c73c600	0.01487875
204	0xbe099307	-0.13434993
205	0xbdff7c38	-0.12474865
206	0xbcde4678	-0.027133211
207	0x3b49e3c0	0.0030805916
208	0x3bffd260	0.007807061
209	0x3c555970	0.013021812
210	0x3dc8e0a4	0.09808472
211	0xbc9c9114	-0.019112147
212	0x3ddf89ea	0.10914977
213	0xbdf3e129	-0.1190818
214	0x3dd36e16	0.103237316
215	0x3cbdde10	0.023177177
216	0x3cf89b40	0.030347466
217	0xbc956088	-0.018234506
218	0x3d6bbd40	0.05755353
219	0xbe096e75	-0.13421042
220	0x3de414d2	0.11136784
221	0x3c03b710	0.008039251
222	0x3d399c04	0.045314804
223	0xbd079618	-0.033102125
224	0x3dca51a4	0.09878853
225	0xbc13e060	-0.009025663
226	0x3d097664	0.03356017
227	0xbd2c8386	-0.042117618
228	0x3d7a9080	0.061172962
229	0x3e081d6d	0.13292475
230	0xbe0c1ca6	-0.13682804
231	0xbd8ef5f4	-0.069805056
232	0xbe053900	-0.13010025
233	0xbd1f4518	-0.038884252
234	0xbce5c250	-0.028046757
235	0xbda7da00	-0.08195877
236	0xbd6b35f4	-0.0574245
237	0xbdb84c76	-0.08998959
238	0x3de5ea1a	0.11226292
239	0x3b602280	0.003420025
240	0x3db53516	0.08848016
241	0xbcb5c95c	-0.022190742
242	0x3b5c6000	0.0033626556
243	0x3ce88080	0.028381586
244	0xbdf03caf	-0.117303245
245	0x3d8904e4	0.06690386
246	0xbd4bd712	-0.049765654
247	0x3cb36178	0.021897063
248	0xbcef0c48	-0.02918066
249	0xbd91e23e	-0.071232304
250	0x3c72d4d0	0.014821246
251	0xbdb3c2b4	-0.08777371
252	0x3dae5e70	0.08514106
253	0x3d0b55a0	0.034017205
254	0xbcca896c	-0.024723731
255	0x3c80a6c8	0.015704527

bias f4 [300]
0	0x00000000	0.0
1	0x00000000	0.0
2	0x00000000	0.0
3	0x00000000	0.0
4	0x00000000	0.0
5	0x00000000	0.0
6	0x00000000	0.0
7	0x00000000	0.0
8	0x00000000	0.0
9	0x00000000	0.0
10	0x00000000	0.0
11	0x00000000	0.0
12	0x00000000	0.0
13	0x00000000	0.0
14	0x00000000	0.0
15	0x00000000	0.0
16	0x00000000	0.0
17	0x00000000	0.0
18	0x00000000	0.0
19	0x00000000	0.0
20	0x00000000	0.0
21	0x00000000	0.0
22	0x00000000	0.0
23	0x00000000	0.0
24	0x00000000	0.0
25	0x00000000	0.0
26	0x00000000	0.0
27	0x00000000	0.0
28	0x00000000	0.0
29	0x00000000	0.0
30	0x00000000	0.0
31	0x00000000	0.0
32	0x00000000	0.0
33	0x00000000	0.0
34	0x00000000	0.0
35	0x00000000	0.0
36	0x00000000	0.0
37	0x00000000	0.0
38	0x00000000	0.0
39	0x00000000	0.0
40	0x00000000	0.0
41	0x00000000	0.0
42	0x00000000	0.0
43	0x00000000	0.0
44	0x00000000	0.0
45	0x00000000	0.0
46	0x00000000	0.0
47	0x00000000	0.0
48	0x00000000	0.0
49	0x00000000	0.0
50	0x00000000	0.0
51	0x00000000	0.0
52	0x00000000	0.0
53	0x00000000	0.0
54	0x00000000	0.0
55	0x00000000	0.0
56	0x00000000	0.0
57	0x00000000	0.0
58	0x00000000	0.0
59	0x00000000	0.0
60	0x00000000	0.0
61	0x00000000	0.0
62	0x00000000	0.0
63	0x00000000	0.0
64	0x00000000	0.0
65	0x00000000	0.0
66	0x00000000	0.0
67	0x00000000	0.0
68	0x00000000	0.0
69	0x00000000	0.0
70	0x00000000	0.0
71	0x00000000	0.0
72	0x00000000	0.0
73	0x00000000	0.0
74	0x00000000	0.0
75	0x00000000	0.0
76	0x00000000	0.0
77	0x00000000	0.0
78	0x00000000	0.0
79	0x00000000	0.0
80	0x00000000	0.0
81	0x00000000	0.0
82	0x00000000	0.0
83	0x00000000	0.0
84	0x00000000	0.0
85	0x00000000	0.0
86	0x00000000	0.0
87	0x00000000	0.0
88	0x00000000	0.0
89	0x00000000	0.0
90	0x00000000	0.0
91	0x00000000	0.0
92	0x00000000	0.0
93	0x00000000	0.0
94	0x00000000	0.0
95	0x00000000	0.0
96	0x00000000	0.0
97	0x00000000	0.0
98	0x00000000	0.0
99	0x00000000	0.0
100	0x00000000	0.0
101	0x00000000	0.0
102	0x00000000	0.0
103	0x00000000	0.0
104	0x00000000	0.0
105	0x00000000	0.0
106	0x00000000	0.0
107	0x00000000	0.0
108	0x00000000	0.0
109	0x00000000	0.0
110	0x00000000	0.0
111	0x00000000	0.0
112	0x00000000	0.0
113	0x00000000	0.0
114	0x00000000	0.0
115	0x00000000	0.0
116	0x00000000	0.0
117	0x00000000	0.0
118	0x00000000	0.0
119	0x00000000	0.0
120	0x00000000	0.0
121	0x00000000	0.0
122	0x00000000	0.0
123	0x00000000	0.0
124	0x00000000	0.0
125	0x00000000	0.0
126	0x00000000	0.0
127	0x00000000	0.0
128	0x00000000	0.0
129	0x00000000	0.0
130	0x00000000	0.0
131	0x00000000	0.0
132	0x00000000	0.0
133	0x00000000	0.0
134	0x00000000	0.0
135	0x00000000	0.0
136	0x00000000	0.0
137	0x00000000	0.0
138	0x00000000	0.0
139	0x00000000	0.0
140	0x00000000	0.0
141	0x00000000	0.0
142	0x00000000	0.0
143	0x00000000	0.0
144	0x00000000	0.0
145	0x00000000	0.0
146	0x00000000	0.0
147	0x00000000	0.0
148	0x00000000	0.0
149	0x00000000	0.0
150	0x00000000	0.0
151	0x00000000	0.0
152	0x00000000	0.0
153	0x00000000	0.0
154	0x00000000	0.0
155	0x00000000	0.0
156	0x00000000	0.0
157	0x00000000	0.0
158	0x00000000	0.0
159	0x00000000	0.0
160	0x00000000	0.0
161	0x00000000	0.0
162	0x00000000	0.0
163	0x00000000	0.0
164	0x00000000	0.0
165	0x00000000	0.0
166	0x00000000	0.0
167	0x00000000	0.0
168	0x00000000	0.0
169	0x00000000	0.0
170	0x00000000	0.0
171	0x00000000	0.0
172	0x00000000	0.0
173	0x00000000	0.0
174	0x00000000	0.0
175	0x00000000	0.0
176	0x00000000	0.0
177	0x00000000	0.0
178	0x00000000	0.0
179	0x00000000	0.0
180	0x00000000	0.0
181	0x00000000	0.0
182	0x00000000	0.0
183	0x00000000	0.0
184	0x00000000	0.0
185	0x00000000	0.0
186	0x00000000	0.0
187	0x00000000	0.0
188	0x00000000	0.0
189	0x00000000	0.0
190	0x00000000	0.0
191	0x00000000	0.0
192	0x00000000	0.0
193	0x00000000	0.0
194	0x00000000	0.0
195	0x00000000	0.0
196	0x00000000	0.0
197	0x00000000	0.0
198	0x00000000	0.0
199	0x00000000	0.0
200	0x00000000	0.0
201	0x00000000	0.0
202	0x00000000	0.0
203	0x00000000	0.0
204	0x00000000	0.0
205	0x00000000	0.0
206	0x00000000	0.0
207	0x00000000	0.0
208	0x00000000	0.0
209	0x00000000	0.0
210	0x00000000	0.0
211	0x00000000	0.0
212	0x00000000	0.0
213	0x00000000	0.0
214	0x00000000	0.0
215	0x00000000	0.0
216	0x00000000	0.0
217	0x00000000	0.0
218	0x00000000	0.0
219	0x00000000	0.0
220	0x00000000	0.0
221	0x00000000	0.0
222	0x00000000	0.0
223	0x00000000	0.0
224	0x00000000	0.0
225	0x00000000	0.0
226	0x00000000	0.0
227	0x00000000	0.0
228	0x00000000	0.0
229	0x00000000	0.0
230	0x00000000	0.0
231	0x00000000	0.0
232	0x00000000	0.0
233	0x00000000	0.0
234	0x00000000	0.0
235	0x00000000	0.0
236	0x00000000	0.0
237	0x00000000	0.0
238	0x00000000	0.0
239	0x00000000	0.0
240	0x00000000	0.0
241	0x00000000	0.0
242	0x00000000	0.0
243	0x00000000	0.0
244	0x00000000	0.0
245	0x00000000	0.0
246	0x00000000	0.0
247	0x00000000	0.0
248	0x00000000	0.0
249	0x00000000	0.0
250	0x00000000	0.0
251	0x00000000	0.0
252	0x00000000	0.0
253	0x00000000	0.0
254	0x00000000	0.0
255	0x00000000	0.0

weight f4 [8, 300]
0	0x3d2e2d94	0.042523935
1	0x3c064b40	0.008196652
2	0xbdf3d76d	-0.119063236
3	0xbc986cd0	-0.018606573
4	0x3dd55c4c	0.10417995
5	0xbce49c58	-0.027906582
6	0x3d2181b0	0.03943032
7	0x3deb1856	0.11479251
8	0xbc37e190	-0.011223212
9	0x3cbfd8f0	0.023418874
10	0xbcb849d0	-0.022496134
11	0xbda16718	-0.07880992
12	0x3c0e3580	0.008679748
13	0xbd768b52	-0.06019146
14	0xbd8acd80	-0.06777477
15	0x3e06bfd7	0.13159119
16	0x3d0476f4	0.032340005
17	0x3df8769a	0.121319965
18	0xbd91583c	-0.070969075
19	0xbd0eac62	-0.034832366
20	0x3dc43506	0.09580426
21	0xbde7fa9d	-0.113270976
22	0xbd3a00b8	-0.04541084
23	0x3deafada	0.114736274
24	0xbdb993a8	-0.09061366
25	0xbd81aaaa	-0.0633138
26	0x3d130948	0.035897523
27	0x3ddd53d8	0.108070076
28	0x3d328cc0	0.04359126
29	0xbcff7c20	-0.031187117
30	0x3cc27218	0.023736045
31	0x3dbb8328	0.091558754
32	0x3b9be600	0.0047576427
33	0x3e045c51	0.12925841
34	0xbd65ea96	-0.05613192
35	0x3d26815c	0.04065071
36	0xbd0f6e7e	-0.035017483
37	0xbe0178bf	-0.12643717
38	0xbdc778e8	-0.09739858
39	0xbdafe66f	-0.085888736
40	0xbba006a0	-0.0048836023
41	0x3db8ff32	0.0903305
42	0x3d82c542	0.0638528
43	0x3d4b5764	0.04964389
44	0xbd01d624	-0.03169836
45	0xbd696c86	-0.05698826
46	0x3da4ec86	0.08052926
47	0xbda7eec1	-0.081998356
48	0xbdd81256	-0.10550372
49	0xbd04a902	-0.03238774
50	0x3d9c26f0	0.07624614
51	0xbd6f4ffe	-0.058425896
52	0x3df4daea	0.11955817
53	0xbd8f1d76	-0.06988041
54	0x3d2ca614	0.042150572
55	0x3dedd406	0.11612706
56	0xbd3dd1f0	-0.04634279
57	0xbd98ebaf	-0.07466828
58	0xbddace56	-0.10683887
59	0xbd99a7b9	-0.07502694
60	0x3da2a796	0.07942121
61	0x3dc9166c	0.0981873
62	0x3df2218e	0.11822806
63	0x3de1e98e	0.11030875
64	0x3dffb2fa	0.12485309
65	0xbd95fa3c	-0.07323119
66	0xbcd5711c	-0.026054911
67	0x3d940ca2	0.07228972
68	0xbd779b0e	-0.060450606
69	0x3b2d7bc0	0.0026471466
70	0x3ac80480	0.001526013
71	0xbdcb28a3	-0.0991986
72	0xbe0a4473	-0.13502674
73	0x3dab3878	0.0836038
74	0xbd642af4	-0.055705026
75	0xbdfb0dd9	-0.122585006
76	0xbccef0a4	-0.02526123
77	0xbd93a808	-0.07209784
78	0xbe0d8d64	-0.13823467
79	0x3d015670	0.031576574
80	0x3d4bc51c	0.049748525
81	0xbd44a9b8	-0.04801342
82	0x3d706874	0.058693364
83	0x3b0a1ec0	0.0021075457
84	0x3d8470b2	0.064668074
85	0xbde1f244	-0.110325366
86	0xbde2dba4	-0.110770494
87	0x3d8f5224	0.06998089
88	0xbd961614	-0.0732843
89	0x3dc09e68	0.094052136
90	0x3da7a8d6	0.081865
91	0x3dcb82e8	0.09937078
92	0x3b559000	0.0032587051
93	0xbc0d4f90	-0.008624926
94	0xbc64eee0	-0.013972968
95	0x3df5090a	0.11964615
96	0xbd97b9e1	-0.074085005
97	0x3de52366	0.11188392
98	0x3bf61dc0	0.0075108707
99	0x3ddbc082	0.10730077
100	0x3de32022	0.11090113
101	0x3dec4816	0.11537187
102	0x3d8bc9a0	0.06825566
103	0x3db0eeec	0.08639321
104	0x3ddc2982	0.107501045
105	0x3ad9b680	0.0016610175
106	0x3d6d149c	0.057880983
107	0xbdcceea4	-0.100064546
108	0x3ddb9ec4	0.107236415
109	0x3b54ea40	0.0032488257
110	0xbdfe6e92	-0.12423433
111	0xbdad8e2c	-0.08474383
112	0x3d05753c	0.032582507
113	0x3d984af2	0.0743617
114	0xbb688340	-0.0035478622
115	0x3cba5390	0.022744924
116	0xbd587cd6	-0.052853428
117	0xbdf6e275	-0.12054912
118	0x3db48406	0.08814244
119	0x3d55de00	0.05221367
120	0x3d1348fc	0.035958275
121	0xbcd9092c	-0.026493631
122	0xbd13771a	-0.036002256
123	0xbcd6578c	-0.026164792
124	0xbe0728e4	-0.13199192
125	0xbe090c0f	-0.13383506
126	0x3d4f1444	0.050556436
127	0xbd0a74d2	-0.033802815
128	0xbde544b4	-0.11194745
129	0x3dbf7084	0.093476325
130	0xbd82d7b5	-0.06388799
131	0x3cf9ad30	0.03047809
132	0xbd19b3ba	-0.037524916
133	0x3dae84a8	0.08521396
134	0xbde47ca6	-0.11156587
135	0x3df5c58a	0.12000568
136	0x3d733554	0.05937703
137	0x3dc6c7ae	0.09706055
138	0xbdb844db	-0.08997508
139	0xbca2dd1c	-0.019880824
140	0x3d9e9e8a	0.07745083
141	0xbe0cd01b	-0.13751261
142	0x3d661020	0.05616772
143	0x3d8d3d68	0.06896478
144	0xbdf55c15	-0.11980454
145	0xbd3d8856	-0.0462726
146	0xbc2df9a0	-0.010618597
147	0xbda39a7e	-0.079884514
148	0x3d69d830	0.057090938
149	0x3b24cf80	0.0025148094
150	0xbdf1ded4	-0.11810079
151	0xbdd62bc2	-0.10457565
152	0x3c2f4900	0.010698557
153	0x3dddd476	0.10831539
154	0x3dba0e3c	0.09084746
155	0xbde3c2a7	-0.11121111
156	0xbcfe404c	-0.031036519
157	0x3dd5c04e	0.1043707
158	0xbe0798b2	-0.13241842
159	0xbd590c14	-0.052990034
160	0x3ce8deb0	0.028426498
161	0xbe094315	-0.13404496
162	0x3c34b400	0.0110292435
163	0xbdb14de2	-0.08657433
164	0x3c6652e0	0.014057845
165	0xbcf5afcc	-0.029991053
166	0xbdbd036d	-0.09229169
167	0x3df0ca8a	0.11757381
168	0x3cac8d70	0.021063536
169	0x3d67e39c	0.05661355
170	0xbd26179e	-0.040549867
171	0xbd4a739c	-0.04942666
172	0x3c5ac170	0.013351783
173	0xbdfff504	-0.12497905
174	0x3d945b5a	0.072439864
175	0x3de80df2	0.11330785
176	0x3e008a7b	0.12552826
177	0x3dcce9ac	0.10005507
178	0xbdcc5e5e	-0.099789366
179	0x3e08655d	0.13319917
180	0xbdb39c23	-0.08770015
181	0x3de90072	0.11377038
182	0x3dad4884	0.08461097
183	0xbd949b2f	-0.072561614
184	0xbd2f4f1c	-0.042800054
185	0xbe09961d	-0.1343617
186	0x3e0e77eb	0.13912933
187	0x3d275b34	0.040858462
188	0x3d2eb734	0.042655185
189	0xbd6b3816	-0.057426535
190	0xbc4cb700	-0.0124948025
191	0xbd30c8e6	-0.04316034
192	0x3c6ee5b0	0.014581129
193	0x3d802d7c	0.062586755
194	0xbdd9a566	-0.106272504
195	0x3e04a60b	0.12953965
196	0x3dc7f056	0.09762637
197	0x3dce51e6	0.10074215
198	0x3dce1a66	0.10063629
199	0x3ca75a00	0.020428658
200	0x3cc6deb0	0.024276108
201	0x3d80c33c	0.06287238
202	0xbe037de2	-0.12840989
203	0xbdc2a354	-0.095038086
204	0xbd9b6c93	-0.07589068
205	0x3d2d28d8	0.04227528
206	0xbdd8c8a0	-0.10585141
207	0x3dcdc75c	0.100477904
208	0x3aa75780	0.0012767166
209	0x3d07e36c	0.03317587
210	0x3d75c5fc	0.060003266
211	0xbdc5cb1a	-0.09657879
212	0xbd99d21b	-0.075107776
213	0x3d457a28	0.0482122
214	0x3c4ddc40	0.012564719
215	0xbdb96988	-0.090533316
216	0x3d43f410	0.047840178
217	0x3dc1402a	0.094360664
218	0x3e07f003	0.13275151
219	0xbcbeb020	-0.023277342
220	0x3b671c80	0.003526479
221	0x3dfce1b6	0.123477384
222	0xbd0c033a	-0.034182765
223	0x3da29358	0.0793826
224	0x3d028908	0.031868964
225	0xbc212700	-0.0098359585
226	0xbd2b7148	-0.04185608
227	0xbd8a5e76	-0.06756298
228	0x3da8189a	0.082078174
229	0x3d160d74	0.036633924
230	0x3d7aaea4	0.061201707
231	0xbc2d1780	-0.010564685
232	0xbd30a142	-0.043122537
233	0x3b261b00	0.0025345683
234	0xbdfc2ff8	-0.12313837
235	0x3d433ffc	0.047668442
236	0xbd8a2ce8	-0.067468464
237	0x3abaf900	0.0014264882
238	0xbd8fcf4d	-0.07021961
239	0xbcf421e0	-0.02980131
240	0xbdb858fd	-0.09001348
241	0xbe083f8d	-0.13305493
242	0x3d7e5878	0.06209609
243	0xbdce9266	-0.10086517
244	0xbd6a11d8	-0.057145923
245	0xbd9db37d	-0.0770025
246	0xbe007381	-0.12544061
247	0xbdc20c80	-0.094750404
248	0xbdab52b0	-0.08365381
249	0xbe08ef5b	-0.13372557
250	0x3decfe22	0.115719095
251	0x3cd7f470	0.026361674
252	0x3dde9354	0.10867944
253	0x3d9e51b4	0.077304274
254	0xbd156e54	-0.03648217
255	0x3e016abb	0.1263837

bias f4 [300]
0	0x00000000	0.0
1	0x00000000	0.0
2	0x00000000	0.0
3	0x00000000	0.0
4	0x00000000	0.0
5	0x00000000	0.0
6	0x00000000	0.0
7	0x00000000	0.0
8	0x00000000	0.0
9	0x00000000	0.0
10	0x00000000	0.0
11	0x00000000	0.0
12	0x00000000	0.0
13	0x00000000	0.0
14	0x00000000	0.0
15	0x00000000	0.0
16	0x00000000	0.0
17	0x00000000	0.0
18	0x00000000	0.0
19	0x00000000	0.0
20	0x00000000	0.0
21	0x00000000	0.0
22	0x00000000	0.0
23	0x00000000	0.0
24	0x00000000	0.0
25	0x00000000	0.0
26	0x00000000	0.0
27	0x00000000	0.0
28	0x00000000	0.0
29	0x00000000	0.0
30	0x00000000	0.0
31	0x00000000	0.0
32	0x00000000	0.0
33	0x00000000	0.0
34	0x00000000	0.0
35	0x00000000	0.0
36	0x00000000	0.0
37	0x00000000	0.0
38	0x00000000	0.0
39	0x00000000	0.0
40	0x00000000	0.0
41	0x00000000	0.0
42	0x00000000	0.0
43	0x00000000	0.0
44	0x00000000	0.0
45	0x00000000	0.0
46	0x00000000	0.0
47	0x00000000	0.0
48	0x00000000	0.0
49	0x00000000	0.0
50	0x00000000	0.0
51	0x00000000	0.0
52	0x00000000	0.0
53	0x00000000	0.0
54	0x00000000	0.0
55	0x00000000	0.0
56	0x00000000	0.0
57	0x00000000	0.0
58	0x00000000	0.0
59	0x00000000	0.0
60	0x00000000	0.0
61	0x00000000	0.0
62	0x00000000	0.0
63	0x00000000	0.0
64	0x00000000	0.0
65	0x00000000	0.0
66	0x00000000	0.0
67	0x00000000	0.0
68	0x00000000	0.0
69	0x00000000	0.0
70	0x00000000	0.0
71	0x00000000	0.0
72	0x00000000	0.0
73	0x00000000	0.0
74	0x00000000	0.0
75	0x00000000	0.0
76	0x00000000	0.0
77	0x00000000	0.0
78	0x00000000	0.0
79	0x00000000	0.0
80	0x00000000	0.0
81	0x00000000	0.0
82	0x00000000	0.0
83	0x00000000	0.0
84	0x00000000	0.0
85	0x00000000	0.0
86	0x00000000	0.0
87	0x00000000	0.0
88	0x00000000	0.0
89	0x00000000	0.0
90	0x00000000	0.0
91	0x00000000	0.0
92	0x00000000	0.0
93	0x00000000	0.0
94	0x00000000	0.0
95	0x00000000	0.0
96	0x00000000	0.0
97	0x00000000	0.0
98	0x00000000	0.0
99	0x00000000	0.0
100	0x00000000	0.0
101	0x00000000	0.0
102	0x00000000	0.0
103	0x00000000	0.0
104	0x00000000	0.0
105	0x00000000	0.0
106	0x00000000	0.0
107	0x00000000	0.0
108	0x00000000	0.0
109	0x00000000	0.0
110	0x00000000	0.0
111	0x00000000	0.0
112	0x00000000	0.0
113	0x00000000	0.0
114	0x00000000	0.0
115	0x00000000	0.0
116	0x00000000	0.0
117	0x00000000	0.0
118	0x00000000	0.0
119	0x00000000	0.0
120	0x00000000	0.0
121	0x00000000	0.0
122	0x00000000	0.0
123	0x00000000	0.0
124	0x00000000	0.0
125	0x00000000	0.0
126	0x00000000	0.0
127	0x00000000	0.0
128	0x00000000	0.0
129	0x00000000	0.0
130	0x00000000	0.0
131	0x00000000	0.0
132	0x00000000	0.0
133	0x00000000	0.0
134	0x00000000	0.0
135	0x00000000	0.0
136	0x00000000	0.0
137	0x00000000	0.0
138	0x00000000	0.0
139	0x00000000	0.0
140	0x00000000	0.0
141	0x00000000	0.0
142	0x00000000	0.0
143	0x00000000	0.0
144	0x00000000	0.0
145	0x00000000	0.0
146	0x00000000	0.0
147	0x00000000	0.0
148	0x00000000	0.0
149	0x00000000	0.0
150	0x00000000	0.0
151	0x00000000	0.0
152	0x00000000	0.0
153	0x00000000	0.0
154	0x00000000	0.0
155	0x00000000	0.0
156	0x00000000	0.0
157	0x00000000	0.0
158	0x00000000	0.0
159	0x00000000	0.0
160	0x00000000	0.0
161	0x00000000	0.0
162	0x00000000	0.0
163	0x00000000	0.0
164	0x00000000	0.0
165	0x00000000	0.0
166	0x00000000	0.0
167	0x00000000	0.0
168	0x00000000	0.0
169	0x00000000	0.0
170	0x00000000	0.0
171	0x00000000	0.0
172	0x00000000	0.0
173	0x00000000	0.0
174	0x00000000	0.0
175	0x00000000	0.0
176	0x00000000	0.0
177	0x00000000	0.0
178	0x00000000	0.0
179	0x00000000	0.0
180	0x00000000	0.0
181	0x00000000	0.0
182	0x00000000	0.0
183	0x00000000	0.0
184	0x00000000	0.0
185	0x00000000	0.0
186	0x00000000	0.0
187	0x00000000	0.0
188	0x00000000	0.0
189	0x00000000	0.0
190	0x00000000	0.0
191	0x00000000	0.0
192	0x00000000	0.0
193	0x00000000	0.0
194	0x00000000	0.0
195	0x00000000	0.0
196	0x00000000	0.0
197	0x00000000	0.0
198	0x00000000	0.0
199	0x00000000	0.0
200	0x00000000	0.0
201	0x00000000	0.0
202	0x00000000	0.0
203	0x00000000	0.0
204	0x00000000	0.0
205	0x00000000	0.0
206	0x00000000	0.0
207	0x00000000	0.0
208	0x00000000	0.0
209	0x00000000	0.0
210	0x00000000	0.0
211	0x00000000	0.0
212	0x00000000	0.0
213	0x00000000	0.0
214	0x00000000	0.0
215	0x00000000	0.0
216	0x00000000	0.0
217	0x00000000	0.0
218	0x00000000	0.0
219	0x00000000	0.0
220	0x00000000	0.0
221	0x00000000	0.0
222	0x00000000	0.0
223	0x00000000	0.0
224	0x00000000	0.0
225	0x00000000	0.0
226	0x00000000	0.0
227	0x00000000	0.0
228	0x00000000	0.0
229	0x00000000	0.0
230	0x00000000	0.0
231	0x00000000	0.0
232	0x00000000	0.0
233	0x00000000	0.0
234	0x00000000	0.0
235	0x00000000	0.0
236	0x00000000	0.0
237	0x00000000	0.0
238	0x00000000	0.0
239	0x00000000	0.0
240	0x00000000	0.0
241	0x00000000	0.0
242	0x00000000	0.0
243	0x00000000	0.0
244	0x00000000	0.0
245	0x00000000	0.0
246	0x00000000	0.0
247	0x00000000	0.0
248	0x00000000	0.0
249	0x00000000	0.0
250	0x00000000	0.0
251	0x00000000	0.0
252	0x00000000	0.0
253	0x00000000	0.0
254	0x00000000	0.0
255	0x00000000	0.0

weight f4 [300, 5]
0	0xbe0b5a4a	-0.13608661
1	0xbcde9426	-0.027170252
2	0x3de4da36	0.11174433
3	0x3dcf8cdf	0.10134291
4	0x3e10c2d3	0.1413682
5	0x3c209b66	0.009802675
6	0xbdefdf03	-0.11712458
7	0xbdf686a1	-0.12037397
8	0xbdd79de9	-0.10528166
9	0xbc424494	-0.011857171
10	0x3da5d3f8	0.080970705
11	0xbd89517c	-0.06704995
12	0x3e02d3a7	0.12776051
13	0xbd9a38c2	-0.07530357
14	0xbdd7a4ed	-0.10529504
15	0xbe109dbc	-0.14122671
16	0xbdc73cc2	-0.097283855
17	0x3cdd81fd	0.027039522
18	0x3e09badf	0.13450192
19	0x3d86b949	0.06578309
20	0x3da2c025	0.07946805
21	0x3e03db81	0.12876703
22	0xbc46dd99	-0.012137794
23	0xbd21a644	-0.039465204
24	0x3df38137	0.1188988
25	0x3ddb9b7a	0.10723014
26	0x3e15cbb9	0.14628495
27	0xbe30dfac	-0.17272824
28	0x3d4bb18d	0.049729872
29	0x3c93f646	0.018061768
30	0xbc9d8de9	-0.019232707
31	0xbcdeeb33	-0.027211761
32	0x3d0a5a70	0.033777654
33	0x3d8d4398	0.06897658
34	0x3e112c71	0.1417711
35	0x3d663296	0.056200586
36	0xbbebec2f	-0.007199786
37	0xbdee65fc	-0.11640546
38	0xbe0c5baa	-0.13706842
39	0xbd572f44	-0.05253531
40	0xbd28a5ab	-0.04117362
41	0x3dce56dd	0.100751616
42	0x3d23b1f0	0.039964616
43	0xbe07f658	-0.13277566
44	0x3e252efb	0.16131203
45	0x3dddd50a	0.108316496
46	0xbd260cfe	-0.040539734
47	0xbdb7fcbe	-0.089837536
48	0xbe018532	-0.12648466
49	0x3d2c39c0	0.042047262
50	0x3d41f219	0.047350023
51	0x3e0e4b25	0.13895853
52	0x3d489162	0.048966773
53	0x3dce1627	0.10062819
54	0x3e1751fb	0.14777367
55	0xbe108eb4	-0.14116937
56	0xbd28313b	-0.041062575
57	0xbd971e22	-0.07378794
58	0x3c94c0a2	0.01815826
59	0x3db51a0e	0.0884286
60	0xbde45ab6	-0.11150114
61	0xbcfd2bae	-0.030904617
62	0xbe456740	-0.19277668
63	0x3e27484b	0.16336171
64	0x3d4012e1	0.046893004
65	0x3da0b4fb	0.07847019
66	0x3daa5481	0.08316899
67	0xbe0995ac	-0.13436002
68	0x3e22d058	0.1589979
69	0x3db19f66	0.08672981
70	0xbe08a3af	-0.1334369
71	0x3dededb4	0.11617604
72	0xbe1d8209	-0.15381636
73	0xbd6aeffd	-0.057357777
74	0x3e0e8f3d	0.13921829
75	0x3dab3ed4	0.08361593
76	0xbd866cdf	-0.06563734
77	0xbe3609f5	-0.17777236
78	0xba39dce8	-0.00070901075
79	0x3d8ade8d	0.067807294
80	0x3d98dd28	0.07464057
81	0xbd7dbca0	-0.061947465
82	0xbd62a5c6	-0.055333875
83	0x3de2e966	0.110796735
84	0x3dc3b20a	0.09555443
85	0xbd1ceeec	-0.03831379
86	0x3d9d6d5e	0.07686876
87	0xbd88de7c	-0.066830605
88	0xbdf31bdc	-0.11870548
89	0x3abced00	0.0014413893
90	0x3dfef51a	0.12449093
91	0x3cb3e149	0.02195801
92	0xbdc04801	-0.09388734
93	0x3e4ce0e0	0.20007658
94	0x3bd99ba0	0.0066408664
95	0xbe33f008	-0.17572033
96	0xbd095932	-0.03353233
97	0xbe1dd5be	-0.15413567
98	0xbc03458b	-0.008012186
99	0x3e302479	0.17201413
100	0xbd9028ae	-0.07039009
101	0xbb140740	-0.002258733
102	0x3dd7bc16	0.105339214
103	0xbda9d7f0	-0.0829314
104	0x3d744e14	0.059644774
105	0xbe71335d	-0.2355475
106	0x3e8c32c1	0.27382472
107	0xbdaa8949	-0.08326966
108	0xbd392d79	-0.04520938
109	0x3d479f97	0.04873618
110	0x3c2b4b55	0.010454972
111	0xbddba02d	-0.107239105
112	0xbe1cca16	-0.15311465
113	0x3d0d8111	0.034546915
114	0x3e110a37	0.14164053
115	0xbe4255e1	-0.18978073
116	0x3e5c0ff4	0.2149046
117	0xbdc7fc3c	-0.09764907
118	0xbd325e2b	-0.043546837
119	0x3c07a78b	0.008279691
120	0xbd937f47	-0.072020106
121	0x3bfaf885	0.0076590204
122	0xbe01c193	-0.12671499
123	0x3d3dc38c	0.046329066
124	0x3dbd8a54	0.092548996
125	0xbe0f73c0	-0.14008999
126	0xbe060718	-0.13088644
127	0xbd471972	-0.04860825
128	0xbdfdfe2e	-0.124019966
129	0x3ce00a80	0.027348757
130	0x3df85842	0.12126209
131	0x3d318848	0.04334286
132	0xbe0d37c7	-0.13790809
133	0x3c0ab460	0.008465856
134	0xbd1e1700	-0.038596153
135	0xbc0b79ff	-0.008512973
136	0x3d87b76d	0.066267826
137	0xbd18fd6c	-0.037351057
138	0x3d9f872f	0.07789456
139	0x3e467c9b	0.1938347
140	0x3d60d94f	0.05489474
141	0x3cd7e1d2	0.026352797
142	0xbe5e1600	-0.2168808
143	0x3e415e5e	0.18883654
144	0xbd86be41	-0.06579257
145	0xbd58b2f2	-0.05290503
146	0x3e2b97ea	0.1675717
147	0x3cab9a99	0.020947741
148	0x3db275b4	0.08713856
149	0xbd4e1635	-0.050314147
150	0xbe35d3c8	-0.1775657
151	0x3e142b37	0.1446961
152	0xbdd62970	-0.10457122
153	0x3dc0e8d4	0.094194084
154	0xbbd4a858	-0.0064897947
155	0x3c6222a6	0.013802206
156	0xbda3f2af	-0.080052726
157	0xbc0912d0	-0.008366302
158	0xbd20d82b	-0.039268654
159	0xbde4c35b	-0.111700736
160	0xbddfe885	-0.109330215
161	0xbe1c415e	-0.1525931
162	0xbd9b4a50	-0.07582533
163	0x3e5b9bb6	0.21446118
164	0xbda00d46	-0.07815032
165	0x3de5f8ee	0.1122912
166	0x3decd536	0.11564104
167	0xbd3576fe	-0.044302933
168	0xbd287b56	-0.041133247
169	0xbdb5c34e	-0.08875142
170	0x3e561c95	0.2090934
171	0xbe286fa6	-0.1644884
172	0xbe2a8ad6	-0.16654524
173	0x3f0a3540	0.53987503
174	0x3d335606	0.04378321
175	0xbcb2c4ef	-0.02182242
176	0x3e44137e	0.1914806
177	0xbde0c5f6	-0.10975258
178	0xbbd89ecc	-0.006610727
179	0x3e43a1fd	0.19104762
180	0xbdd152ef	-0.102208965
181	0xbd476ac6	-0.04868581
182	0xbd38963c	-0.04506515
183	0x3dd63834	0.10459939
184	0x3dab2336	0.08356325
185	0x3da82b5e	0.08211397
186	0x3e0868dd	0.13321252
187	0xbe17c8c7	-0.14822684
188	0x3d9ffed0	0.078122735
189	0x3e4ae54d	0.19814034
190	0xbdd9c088	-0.106324255
191	0x3dffc886	0.12489419
192	0x3dc7c094	0.09753528
193	0x3db14a60	0.08656764
194	0xbd5c83ce	-0.053836636
195	0xbdd73e80	-0.10509968
196	0xbcf22aff	-0.029561518
197	0x3d3f75a3	0.046743046
198	0x3dae1eac	0.08501944
199	0xbd9d08bb	-0.07667681
200	0x3dcb7614	0.09934631
201	0xbd7f7b98	-0.062373728
202	0xbd451c6a	-0.0481228
203	0x3df3888a	0.11891277
204	0xbd8ebd6c	-0.06969723
205	0x3d0afb7e	0.033931248
206	0xbe425062	-0.18975976
207	0xbe5009e7	-0.20316277
208	0x3f05077f	0.51964563
209	0x3c2994cc	0.010350417
210	0xbd3493b6	-0.04408618
211	0x3de00586	0.109385535
212	0x3d655a10	0.055994093
213	0x3c3a6fb0	0.011379167
214	0xbe0a3844	-0.13498026
215	0xbdd9f872	-0.1064309
216	0x3c853292	0.016259465
217	0xbd017ea8	-0.03161493
218	0xbd170a89	-0.03687528
219	0x3debf74f	0.1152178
220	0xbd64cbc4	-0.05585839
221	0x3e09c2d4	0.13453227
222	0xbe562a37	-0.20914541
223	0xbcdc37e3	-0.026882118
224	0x3d2b8c24	0.041881695
225	0xbe0d9a9f	-0.13828515
226	0x3cda2ca4	0.026632614
227	0xbd9e9264	-0.077427655
228	0x3e2b0668	0.16701663
229	0x3e095aa6	0.13413486
230	0x3da55a08	0.08073813
231	0xbdc7614f	-0.09735357
232	0xbe3c4525	-0.18385752
233	0x3d4545f2	0.04816241
234	0x3e39615c	0.18103546
235	0x3d9aaf37	0.07552951
236	0x3e3164c3	0.17323594
237	0xbdde4b6d	-0.1085423
238	0xbda174f5	-0.07883636
239	0x3e121161	0.14264442
240	0x3ed90e99	0.4239395
241	0xbf095d34	-0.5365784
242	0xbe888cd8	-0.26669955
243	0x3f62aa23	0.8854086
244	0xbe7180a2	-0.23584226
245	0x3d8deae7	0.0692957
246	0x3d155f9a	0.036468126
247	0xbde5f048	-0.11227471
248	0xbdb8f77c	-0.09031579
249	0x3ccd928c	0.025094293
250	0xbd8fedd9	-0.07027788
251	0xbb03a3b6	-0.0020086593
252	0xbdd9e115	-0.10638634
253	0x3dff3f65	0.124632634
254	0x3e09f427	0.13472043
255	0xbce28efd	-0.027656073

bias f4 [5]
0	0xbda220cd	-0.079164125
1	0x3d9aad2e	0.07552563
2	0xbdb6c6f4	-0.08924666
3	0xbdaf6eec	-0.085660785
4	0x3d9a0ec7	0.0752235

weight f4 [300, 5]
0	0x3cfc6815	0.030811349
1	0x3d8a0a40	0.06740236
2	0xbd7d49b3	-0.061837863
3	0xbdc70f79	-0.09719748
4	0x3deb359c	0.114848346
5	0xbdcfd95a	-0.101488784
6	0xbc247bec	-0.010039311
7	0xbd992590	-0.074778676
8	0xbc1b81a9	-0.009491363
9	0xbe160bda	-0.14652959
10	0xbd79ad72	-0.060956426
11	0x3d1f6564	0.038915053
12	0xbd6b2938	-0.057412356
13	0xbdb446a3	-0.088025354
14	0x3e0ae1db	0.1356272
15	0x3e07e2f7	0.13270174
16	0xbdb10242	-0.08643009
17	0xbd06d5cb	-0.032918733
18	0x3cc10b28	0.02356489
19	0xbe3ad5aa	-0.18245569
20	0xbcd99358	-0.026559517
21	0xbd57515b	-0.05256782
22	0x3e551efd	0.20812602
23	0x3d04d9e5	0.032434363
24	0xbd87eb4d	-0.06636677
25	0x3d7bbca9	0.061459217
26	0xbcfd88bc	-0.03094899
27	0x3d91088e	0.0708171
28	0x3e068ff9	0.13140859
29	0xbe4f06f3	-0.20217495
30	0x3e202f60	0.15643072
31	0x3b8da0a9	0.0043221307
32	0x3e1c7085	0.15277298
33	0x3c3b3ea3	0.011428508
34	0xbe465728	-0.19369185
35	0x3d54d524	0.05196108
36	0xbde1d0c2	-0.110261455
37	0x3e09a473	0.13441639
38	0x3da3d7ec	0.08000168
39	0x3dd175d2	0.102275506
40	0x3d20c87c	0.039253697
41	0x3cf75661	0.030192556
42	0xbd221e8e	-0.03957992
43	0x3b26e190	0.0025464036
44	0xbd2bf6bf	-0.041983362
45	0xbc97e534	-0.01854191
46	0xbdf59950	-0.11992133
47	0x3e08e029	0.1336676
48	0x3e0936cb	0.13399808
49	0xbcdfde48	-0.027327672
50	0xbdbe81ae	-0.09302078
51	0xbb762488	-0.0037558395
52	0x3d8997d0	0.06718409
53	0xbd925b96	-0.07146375
54	0x3c5a9821	0.013341934
55	0x3d158b04	0.03650953
56	0x3e52647d	0.20546146
57	0x3e83cf7a	0.2574423
58	0x3e371119	0.17877616
59	0xbe612ac3	-0.21988969
60	0x3e1d4243	0.15357308
61	0x3d8b3bd2	0.06798519
62	0x3e3a4524	0.18190438
63	0x3e87288f	0.2639813
64	0xbda302d1	-0.079595216
65	0x3d7cdc0d	0.061733294
66	0x3e19c8e5	0.15018041
67	0x3daa7e9a	0.083249286
68	0x3e7a3726	0.244351
69	0xbe6c6f28	-0.23089278
70	0xbe020216	-0.12696108
71	0x3d8d5fdd	0.0690305
72	0x3e22cf03	0.15899281
73	0x3e3f5eeb	0.18688552
74	0xbe97cdaa	-0.29649097
75	0x3e0c47ac	0.13699216
76	0x3d223eda	0.03961072
77	0x3e1a36a2	0.15059903
78	0x3bdb3a2b	0.006690284
79	0xbe632044	-0.22180277
80	0x3d3c8d6c	0.046033308
81	0xbda4dbc9	-0.08049733
82	0xbd4aa780	-0.049476147
83	0x3daac2ec	0.0833796
84	0xbd831b3b	-0.06401678
85	0xbd7272de	-0.059191577
86	0xbde9a1b9	-0.11407799
87	0x3dc72ea8	0.09725696
88	0xbce14aa4	-0.027501412
89	0x3d8af186	0.06784348
90	0x3dc75a1c	0.09733984
91	0x3e219ff6	0.15783677
92	0x3e70676e	0.23476955
93	0x3e418439	0.18898095
94	0xbe5b1aad	-0.21396895
95	0xbe8495f3	-0.25895652
96	0x3eaefb0e	0.34175915
97	0x3e44c539	0.1921586
98	0x3d8f718a	0.07004078
99	0xbeb99dd0	-0.36253214
100	0xbdba5dc2	-0.09099914
101	0x3c189600	0.009313107
102	0xbdaa544a	-0.08316858
103	0xbdfbf926	-0.12303381
104	0x3d0ffa10	0.035150588
105	0x3e250188	0.16113865
106	0x3e223a4d	0.15842552
107	0x3e628807	0.22122203
108	0x3e53abe6	0.20671043
109	0xbe60aa7d	-0.21940036
110	0x3c1816e7	0.009282804
111	0x3d805227	0.06265669
112	0xbce96fbf	-0.028495668
113	0x3df2b75a	0.11851378
114	0xbe1937e1	-0.14962722
115	0xbeaa27b5	-0.3323342
116	0x3e64434b	0.22291295
117	0x3e93d76f	0.288753
118	0x3e4baeb7	0.19890867
119	0xbe7b5fd4	-0.24548274
120	0xbd8bf16d	-0.06833158
121	0x3dd7ec80	0.10543156
122	0x3e4307d8	0.19045961
123	0x3e831d3c	0.25608242
124	0xbe91bffc	-0.28466785
125	0xbd77ebfc	-0.060527787
126	0x3daa7120	0.08322358
127	0xbd9f5d9e	-0.07781528
128	0x3d1e36e0	0.03862655
129	0xbd64f2a6	-0.05589547
130	0xbdb9236e	-0.09039961
131	0x3ded08be	0.11573933
132	0xbda456b5	-0.080243506
133	0x3d78b814	0.060722426
134	0x3d084684	0.033270374
135	0x3d23c5b6	0.039983474
136	0xbd514c19	-0.051097963
137	0x3df3a2c9	0.11896283
138	0x3e37887e	0.17923161
139	0xbe10ba21	-0.14133503
140	0x3e4587cf	0.19290088
141	0x3e139655	0.14412816
142	0x3e65be58	0.22435892
143	0x3e31d79e	0.17367408
144	0xbde496bf	-0.11161565
145	0x3dd8d45c	0.10587379
146	0x3e3946e9	0.18093456
147	0x3e2adf27	0.16686688
148	0x3e430903	0.19046406
149	0xbe31e512	-0.1737254
150	0x3d95156d	0.07279477
151	0x3da76e47	0.081753306
152	0x3d71acd5	0.059002716
153	0x3e4286cf	0.18996738
154	0xbd8edab3	-0.06975307
155	0x3c8f12df	0.017465053
156	0xbd1097ec	-0.035301134
157	0x3d8edad7	0.06975334
158	0xbcf4c500	-0.029879093
159	0x3d81652f	0.06318127
160	0xbd734762	-0.059394248
161	0xbcf5e25e	-0.030015167
162	0x3e529ab1	0.20566823
163	0x3e6eb141	0.23309804
164	0xbe8870d9	-0.26648596
165	0xbc950a14	-0.018193282
166	0xbdfe4806	-0.12416081
167	0x3cf8df80	0.03038001
168	0xbe0c23bd	-0.13685508
169	0xbd715240	-0.05891633
170	0xbf039461	-0.51398283
171	0x3ee969f7	0.45588657
172	0x3ece5b38	0.4030397
173	0x3e94b381	0.290432
174	0xbeb40d63	-0.35166463
175	0x3e737e8b	0.23778741
176	0xbdbadaae	-0.09123741
177	0x3b000a4a	0.0019537383
178	0x3d9abf25	0.07555989
179	0xbe5103f0	-0.20411658
180	0xbc9257b0	-0.017864078
181	0x3dbc3480	0.09189701
182	0xbe0c0579	-0.13673963
183	0x3df28e16	0.11843507
184	0x3d4ec824	0.050483838
185	0x3cae1360	0.021249473
186	0xbd353d1e	-0.04424774
187	0x3e230791	0.15920855
188	0x3e50a801	0.20376588
189	0xbd89f8da	-0.06736918
190	0xbdebcf00	-0.115140915
191	0x3d378954	0.0448087
192	0xbd7fdfa2	-0.062469132
193	0x3e05f3b3	0.13081245
194	0x3cc480b0	0.023987144
195	0xbd51c2f4	-0.051211312
196	0x3db139e1	0.08653618
197	0xbd0cd346	-0.034381174
198	0x3db9eced	0.09078393
199	0xbceb9837	-0.028759105
200	0x3d541bdc	0.05178438
201	0x3c9a62f8	0.01884602
202	0xbd40c7ed	-0.047065664
203	0xbddb329c	-0.10703012
204	0xbd4b28c0	-0.04959941
205	0x3eba182e	0.36346573
206	0xbf201b7e	-0.6254195
207	0xbee673b5	-0.45010152
208	0xbd253b12	-0.040339537
209	0x3dddcb7f	0.108298294
210	0xbc452ff0	-0.012035355
211	0xbdd2748e	-0.10276137
212	0x3d210c10	0.039318144
213	0xbda0bc16	-0.078483745
214	0xbe0d2c94	-0.13786536
215	0xbd908871	-0.07057274
216	0x3e1083a8	0.14112723
217	0x3e229e28	0.15880644
218	0x3e360651	0.17775847
219	0xbe504f76	-0.20342812
220	0xbeb95d93	-0.36204204
221	0x3f000c93	0.50019187
222	0x3e6932df	0.22773312
223	0x3e4201de	0.18946025
224	0xbe60fca0	-0.21971369
225	0x3e450b42	0.19242576
226	0x3db60a9f	0.088887446
227	0x3dfdb44c	0.123879045
228	0x3e8fa333	0.280542
229	0xbe82f706	-0.2557909
230	0x3e1ed851	0.15512206
231	0xbd1434b0	-0.03618306
232	0x3d470cdb	0.048596244
233	0x3e70d66b	0.23519294
234	0xbe356e5a	-0.17717877
235	0xbbdfe8f4	-0.00683319
236	0x3e0db9cf	0.13840412
237	0xbc611ea3	-0.0137402145
238	0x3d6977fd	0.056999195
239	0xbdd108dc	-0.10206768
240	0xbf3ee638	-0.74570036
241	0x3f313c19	0.69232327
242	0x3f1c571a	0.61070406
243	0x3f1ac34f	0.6045427
244	0xbf62f09b	-0.88648385
245	0x3e1394d9	0.1441225
246	0xbd058dab	-0.03260581
247	0x3e6057c7	0.21908484
248	0x3e74525c	0.23859543
249	0xbe0f9079	-0.14019956
250	0xbcbd46c8	-0.02310504
251	0x3de35ec8	0.111020625
252	0x3e58d691	0.211756
253	0xba9b4e35	-0.0011848869
254	0xbe67c2d5	-0.22632916
255	0x3dab3611	0.08359922

bias f4 [5]
0	0x3d9aa0bf	0.07550191
1	0xbdaa33fb	-0.08310696
2	0xbdf8459a	-0.121226504
3	0x3d92fd16	0.071771786
4	0xbd823cb9	-0.06359238
