Models/GNNs/Models_20_7_Datasets-improved-Gini/Models_20_7_SecureWebContainer-improved-Gini/model_RGCN_10582_samples_100_epochs_128_batchsize.pth (torch, 60000 bytes, 14 tensors)

weight f4 [8, 300]
0	0x3f158411	0.5840464
1	0x3de2bd5d	0.110712744
2	0xbdfb4167	-0.12268334
3	0x3db31c91	0.08745683
4	0x3cec71e0	0.028862894
5	0xbde7077e	-0.11280726
6	0x3e1ff6ba	0.15621462
7	0x3ee7feed	0.4531168
8	0x3dd137c4	0.102157146
9	0xbd7e65c1	-0.06210876
10	0x3f0263e0	0.5093365
11	0x3e42e459	0.1903242
12	0x3e065cbf	0.13121317
13	0xbde2c4f6	-0.110727236
14	0x3ea39ff5	0.31957975
15	0x3f3c8f8f	0.73656553
16	0x3d57086c	0.052498266
17	0x3eed8d65	0.46396938
18	0x3deafa67	0.11473542
19	0x3ea27f97	0.31737968
20	0x3edffcab	0.43747458
21	0xbe048954	-0.12943012
22	0x3e88cfb9	0.2672098
23	0x3de905e6	0.11378078
24	0x3ca9d2ee	0.020730462
25	0x3e924c01	0.2857361
26	0x3f247027	0.6423363
27	0x3e577b57	0.21043144
28	0x3eb3e419	0.35134962
29	0xbdfbfa62	-0.12303616
30	0x3cf1d35a	0.029519726
31	0x3f1245e8	0.5713792
32	0x3e5a1565	0.21297224
33	0x3f029229	0.5100427
34	0x3eafd825	0.34344593
35	0xbdb2c89b	-0.08729669
36	0xbdd12719	-0.102125354
37	0x3db4b2c4	0.08823159
38	0x3eee66a9	0.46562698
39	0x3db8596e	0.09001432
40	0xbd72adb8	-0.059247702
41	0x3eabe40e	0.3357243
42	0xbb993e5a	-0.0046766223
43	0xbd7e43f2	-0.062076516
44	0xbe0d4be1	-0.13798477
45	0xb9f2d73f	-0.00046318208
46	0x3f878949	1.0588771
47	0xbcaf5955	-0.021404902
48	0xbd6f3600	-0.058401108
49	0x3e1ac55e	0.15114352
50	0x3efc54a6	0.49283332
51	0xbdd519ca	-0.104053095
52	0x3edd9452	0.43277222
53	0x3ea73780	0.3265953
54	0xbe06b5ac	-0.1315524
55	0x3cfa973c	0.030589692
56	0xbd29dd14	-0.041470602
57	0xbc380590	-0.011231795
58	0x3cc98b46	0.024602544
59	0x3f0ed1f2	0.557891
60	0x3d97ba88	0.07408625
61	0x3ef19069	0.4718049
62	0xbe06a57a	-0.13149062
63	0xbbd981c0	-0.006637782
64	0x3d9e8cd8	0.077417076
65	0x3f2b254d	0.6685379
66	0x3db4cb2d	0.08827815
67	0x395b88b1	0.00020936389
68	0xbecd1831	-0.4005752
69	0x3f2187b0	0.6309767
70	0xbd13c55a	-0.03607688
71	0x3f11453e	0.5674628
72	0xbdd8f37c	-0.10593316
73	0xbdc9a8fa	-0.09846683
74	0x3f28b891	0.65906626
75	0x3d142341	0.036166433
76	0xbde45e7e	-0.111508355
77	0xbe00dcc7	-0.1258422
78	0x3db2082e	0.086929664
79	0xbea5d4fc	-0.32389057
80	0xbc850b14	-0.016240634
81	0xbca672b0	-0.02031836
82	0x3e859766	0.2609207
83	0x3dcd3abf	0.100209706
84	0xbdc911a8	-0.09817821
85	0x3cfc33b8	0.03078638
86	0xbddf3d9a	-0.109004214
87	0xbc756760	-0.01497826
88	0x3e50f140	0.2040453
89	0xbdf1b6c7	-0.1180244
90	0x3cf8b6c4	0.030360587
91	0x3e61945d	0.22029252
92	0x3d665848	0.056236535
93	0xbda55aa5	-0.0807393
94	0xbdf288e3	-0.11842515
95	0xbdd24231	-0.10266531
96	0x3f0e1609	0.5550237
97	0x3e95c721	0.29253486
98	0x3ef8b137	0.48572704
99	0x3e3f09c3	0.18656068
100	0x3ed63bcb	0.41842493
101	0xbdde5208	-0.1085549
102	0x3ee95af2	0.45577198
103	0xbdd8f9d4	-0.10594526
104	0x3f618518	0.8809371
105	0x3de57752	0.11204399
106	0x3f081d12	0.5316936
107	0x3c88797e	0.016659494
108	0x3cf3adc4	0.029745944
109	0x3d9a96a3	0.07548263
110	0xbe0a95df	-0.13533734
111	0x3d6dba54	0.058039024
112	0x3e8f0460	0.27933025
113	0xbdaf5550	-0.08561194
114	0x3ed9cafe	0.42537683
115	0xbce24108	-0.0276189
116	0x3f0bc678	0.54599714
117	0x3df4708e	0.119355306
118	0x3e2fa24f	0.1715176
119	0xbe83eee9	-0.2576821
120	0x3d2b6044	0.041839853
121	0xbd05ab7e	-0.03263425
122	0xbe8f456f	-0.2798266
123	0x3e2ed1f2	0.17072275
124	0x3ca7a1c0	0.02046287
125	0x3f4f80c1	0.8105584
126	0x3e082eef	0.13299154
127	0x3d906b8e	0.070517644
128	0xbdf18fa8	-0.117949784
129	0x3d8e2f30	0.06942594
130	0x3efe0f7f	0.49621198
131	0x3e064d27	0.13115369
132	0x3eaafcf3	0.3339611
133	0xbd839404	-0.06424716
134	0xbdf9867f	-0.12183856
135	0x3d666f94	0.056258753
136	0x3e739b63	0.23789744
137	0x3ef2c4ed	0.47415867
138	0x3d5b12a6	0.05348458
139	0x3f0957c2	0.5364953
140	0x3d58dc5c	0.052944526
141	0xbda8e380	-0.08246517
142	0xbceb0363	-0.028688138
143	0x3d8e4a87	0.06947809
144	0x3f01fb24	0.50773835
145	0x3e225f20	0.158566
146	0x3da50d7a	0.08059211
147	0x3ea4fd09	0.322243
148	0xbdc22065	-0.09478835
149	0x3f0547ad	0.52062494
150	0xbe0fb946	-0.1403552
151	0xbdeec26d	-0.116581775
152	0x3e801ac1	0.25020412
153	0x3d76feca	0.06030158
154	0x3e927bcc	0.28610075
155	0x3d710e10	0.0588513
156	0xbda55ad3	-0.08073964
157	0x3d852fc6	0.06503253
158	0x3f02e8e4	0.5113661
159	0xbcd11db8	-0.025526866
160	0x3f3d7cb4	0.74018407
161	0x3de864ad	0.113473274
162	0xbecbcd70	-0.39805174
163	0x3e1e8900	0.15481949
164	0x3d76d275	0.0602593
165	0x3e0736ef	0.13204549
166	0xbe008094	-0.12549049
167	0x3f406468	0.7515321
168	0x3de5d07e	0.11221407
169	0x3f2eb53a	0.6824528
170	0x3ec02fa2	0.3753634
171	0xbdf53944	-0.11973813
172	0x3ead6a3f	0.33870122
173	0xbda5be7c	-0.08092973
174	0x3e69746a	0.22798315
175	0x3e16ca3c	0.14725584
176	0x3f181ab5	0.5941575
177	0xbd037000	-0.032089233
178	0xbe2facc6	-0.17155752
179	0x3e806c24	0.25082505
180	0xbb8e49a0	-0.004342273
181	0xbf3e4e72	-0.7433845
182	0x3e930fbc	0.28722942
183	0xbd360bd4	-0.044444874
184	0xbf2a2fd1	-0.6647921
185	0x3d426aa6	0.04746499
186	0x3f2b98e8	0.6703019
187	0xbda55a7d	-0.080739
188	0x3eed826c	0.46388566
189	0xbdaf1c1b	-0.085502826
190	0xbf7a35dc	-0.9773843
191	0x3f6bb2f4	0.92069936
192	0x3ef7c8ae	0.48395294
193	0x3e278f37	0.16363226
194	0xbc53c351	-0.012924985
195	0x3e6d4fcf	0.23174976
196	0x3d891431	0.06693304
197	0xbd4b8408	-0.04968646
198	0x3d21e146	0.039521478
199	0x3c60c6bc	0.013719257
200	0x3e41b45a	0.18916455
201	0x3daa0bd3	0.083030365
202	0x3f1152ca	0.5676695
203	0xbdd90b85	-0.105979
204	0x3e971c12	0.29513603
205	0xbd038b79	-0.032115433
206	0x3d9652d4	0.07340017
207	0x3cc7839d	0.02435475
208	0x3f1300dc	0.57423186
209	0x3e02032d	0.12696524
210	0x3f06213a	0.5239445
211	0xbde01622	-0.109417215
212	0xbe06070e	-0.13088629
213	0xbdcdd703	-0.10050776
214	0xbf156721	-0.5836049
215	0xbe0175af	-0.12642549
216	0x3e2ff05f	0.17181538
217	0x3ccf9718	0.025340602
218	0xbe581f81	-0.21105768
219	0xbddc2256	-0.107487366
220	0xbda8d647	-0.08243995
221	0x3e968430	0.29397726
222	0xbd85e032	-0.065369025
223	0x3e69dfc6	0.22839269
224	0x3eb5c9c2	0.35505491
225	0xbd837a2d	-0.064197876
226	0x3e84f2a7	0.2596638
227	0xbd88389e	-0.06651424
228	0x3da99658	0.08280629
229	0xbc8e6e68	-0.01738663
230	0x3e8d1c30	0.27560568
231	0x3e02eb97	0.12785183
232	0xbdaa988c	-0.08329877
233	0x3d497a44	0.049188867
234	0x3d74c5a3	0.059758794
235	0x3eba5549	0.36393192
236	0x3d6061cf	0.054780778
237	0x3ef48812	0.47760063
238	0xbdab4b59	-0.08363981
239	0x3e9ee195	0.3103148
240	0x3f1dd0d9	0.616468
241	0x3f0445ec	0.5166919
242	0x3ef92f72	0.4866901
243	0x3f21cc8a	0.63202727
244	0x3ea764dc	0.32694137
245	0xbd807277	-0.062718324
246	0xbcbe3ae6	-0.023221444
247	0x3e93f05e	0.28894323
248	0x3ea9bab2	0.3315025
249	0x3e7bf16a	0.24603811
250	0x3eeb39b6	0.45942467
251	0x3f038295	0.5137113
252	0x3dc13d3c	0.09435508
253	0xbd99e96d	-0.075152256
254	0xbdcc1bc2	-0.09966232
255	0x3f0a3868	0.5399232

bias f4 [300]
0	0x3dfdc05b	0.123902045
1	0xbcb08a85	-0.021550426
2	0x00000000	0.0
3	0xbc8f6f0c	-0.017509006
4	0x00000000	0.0
5	0x00000000	0.0
6	0x3e11cc87	0.14238177
7	0x3dcb358c	0.09922323
8	0x00000000	0.0
9	0xbc802add	-0.015645439
10	0x3e33e07e	0.17566106
11	0x3dcb500b	0.09927376
12	0x00000000	0.0
13	0x00000000	0.0
14	0x3dbd47a1	0.09242178
15	0x3d9d9199	0.07693786
16	0x00000000	0.0
17	0x3dd06284	0.1017504
18	0x3e22e04f	0.1590588
19	0x3df38ba5	0.118918695
20	0x3dc155ce	0.09440194
21	0x3df03544	0.117289096
22	0x3db528f3	0.08845701
23	0x00000000	0.0
24	0xbc67413f	-0.014114677
25	0x3dd2a608	0.10285574
26	0x3e1e1ebd	0.15441413
27	0x3d9ec02b	0.07751497
28	0x3deb41e8	0.1148718
29	0x00000000	0.0
30	0xbcc0a40b	-0.023515722
31	0x3e009090	0.12555146
32	0x3e17d909	0.14828886
33	0x3e5999c0	0.21250057
34	0x3de5d1d5	0.11221663
35	0x3df56cf9	0.119836755
36	0xbca76d88	-0.02043797
37	0xbc3e268c	-0.01160587
38	0x3df91b3d	0.121633984
39	0x00000000	0.0
40	0x00000000	0.0
41	0x3e07b56e	0.13252804
42	0xbd4d8ce0	-0.050183177
43	0x00000000	0.0
44	0x00000000	0.0
45	0xbc40c3a7	-0.011765397
46	0x3e163013	0.14666776
47	0xbc036ddd	-0.008021799
48	0x00000000	0.0
49	0x3ddcb80e	0.10777293
50	0x3dfbce0b	0.12295159
51	0x3e59138a	0.2119886
52	0x3e2b09e1	0.16702987
53	0x3da71e52	0.0816008
54	0xbc116197	-0.008873365
55	0xbc9fa0bd	-0.019485826
56	0xbc9765c9	-0.018481152
57	0x00000000	0.0
58	0x3de725c5	0.11286501
59	0x3e0c862d	0.13723059
60	0xbd317ab2	-0.043329902
61	0x3c84508b	0.016151687
62	0x00000000	0.0
63	0x00000000	0.0
64	0x3df48fb0	0.11941469
65	0x3df37359	0.11887235
66	0x3e32d3e4	0.17463642
67	0xbce51002	-0.027961735
68	0x3e63bd18	0.22240102
69	0x3dfb573e	0.122724995
70	0x00000000	0.0
71	0x3da62350	0.08112204
72	0x00000000	0.0
73	0x3dd7183a	0.10502668
74	0x3b7626aa	0.0037559667
75	0x3ddee6f2	0.10883893
76	0xbc9571b3	-0.018242693
77	0x00000000	0.0
78	0x3de817a6	0.113326356
79	0x3e5d00f6	0.21582398
80	0x00000000	0.0
81	0x00000000	0.0
82	0x3dde698a	0.10859974
83	0x3e06f938	0.13181007
84	0xbc66e375	-0.014092316
85	0x00000000	0.0
86	0x00000000	0.0
87	0xbc7fae9c	-0.015605595
88	0x3e0bfef4	0.13671476
89	0x00000000	0.0
90	0xbcc84f16	-0.024451774
91	0x3dbf4b3c	0.09340522
92	0xbc897882	-0.016781095
93	0x00000000	0.0
94	0x00000000	0.0
95	0x3e116860	0.14199972
96	0x3dd074f2	0.101785555
97	0x3df99807	0.121872
98	0x3dc770cf	0.097383134
99	0x3e169347	0.1470462
100	0x3dba869b	0.09107705
101	0xbcf7c239	-0.03024398
102	0x3dc3243e	0.09528397
103	0x00000000	0.0
104	0x3dca6c9e	0.09883998
105	0x3e096446	0.13417158
106	0x3da92f8c	0.08261022
107	0xbcc15ee3	-0.023604816
108	0x3e33c713	0.1755641
109	0x3db3496f	0.08754241
110	0x00000000	0.0
111	0x00000000	0.0
112	0x3e033d63	0.12816386
113	0xbc683188	-0.014171965
114	0x3e0d055d	0.13771577
115	0x00000000	0.0
116	0x3e628cd4	0.22124034
117	0x3dc9d8cd	0.098558046
118	0x3dd57478	0.10422605
119	0x3deb7bb6	0.11498205
120	0x3e064cde	0.1311526
121	0xbca0ed2b	-0.01964434
122	0x3e85d7c7	0.26141188
123	0x3e295b8c	0.16538829
124	0x00000000	0.0
125	0xb98ad95e	-0.00026483362
126	0x3dcdd56a	0.10050471
127	0x00000000	0.0
128	0xbd05502c	-0.03254716
129	0x3dcd42e2	0.100225225
130	0x3e5afa05	0.21384437
131	0x3de344b4	0.110970885
132	0x3dfef7dd	0.1244962
133	0x00000000	0.0
134	0xbc9ae710	-0.018909007
135	0x00000000	0.0
136	0x3da4ece9	0.080529995
137	0x3e0ee612	0.13954952
138	0x3e5855a4	0.2112642
139	0x3d3a6d18	0.045514196
140	0x3e20feba	0.1572217
141	0x3dee76aa	0.11643727
142	0x3ddcbe24	0.10778454
143	0xbc9f47f9	-0.019443499
144	0x3d680d3e	0.056653254
145	0x3dd470e7	0.10373097
146	0x00000000	0.0
147	0x3de29923	0.11064365
148	0xbcac1fc5	-0.021011243
149	0x3dbb7f7f	0.09155177
150	0xbc8eec82	-0.01744676
151	0x00000000	0.0
152	0x3dba59d6	0.09099166
153	0x3dece3ff	0.11566924
154	0x3dbecbf8	0.09316248
155	0x3de9112c	0.113802284
156	0xbcd074f6	-0.025446396
157	0x3debea77	0.1151933
158	0x3db3aa0d	0.08772669
159	0x00000000	0.0
160	0x3dc6b934	0.097032934
161	0x3e0a4d51	0.13506056
162	0x3e60963c	0.2193231
163	0x3dd2ab45	0.10286573
164	0xbcb074e2	-0.021540109
165	0x3e18d910	0.14926553
166	0xbcf37d74	-0.029722907
167	0x3e214033	0.15747146
168	0x3e0d4e42	0.13799384
169	0x3e08c12c	0.13354939
170	0x3dec3402	0.11533357
171	0x00000000	0.0
172	0x3df04da9	0.117335625
173	0x00000000	0.0
174	0x3e1274b5	0.14302333
175	0x3dc2677c	0.09492394
176	0x3dc010dc	0.09378216
177	0x00000000	0.0
178	0x3e526b94	0.2054885
179	0x3dceca10	0.10097134
180	0x00000000	0.0
181	0x3ebca72a	0.36846286
182	0x3e74f6ab	0.23922221
183	0x00000000	0.0
184	0x3e9f67d2	0.31133896
185	0x3e96501c	0.29357994
186	0x3dc2dca3	0.09514739
187	0xbcd9afe0	-0.026573122
188	0x3e064e9d	0.13115926
189	0x3dfedeb5	0.12444822
190	0x3ea7b610	0.3275609
191	0x3e079a5a	0.13242474
192	0x3dc7ae34	0.097500235
193	0x3df3330f	0.11874973
194	0xbc093e46	-0.008376664
195	0x3df2acb0	0.11849344
196	0x3dea4cc4	0.11440423
197	0x3dd8c6a2	0.10584761
198	0xbbf2de97	-0.0074117887
199	0xbc94b0f5	-0.018150786
200	0x3e124866	0.1428543
201	0xbcf8347c	-0.030298464
202	0x3df56274	0.11981669
203	0x3e0ee149	0.13953127
204	0x3df2f1ea	0.11862548
205	0x3e1be98d	0.15225811
206	0xbc6d73cd	-0.014492941
207	0xbcf65ea6	-0.030074429
208	0x3e061338	0.13093269
209	0x3df2e094	0.11859241
210	0x3e2c25da	0.16811314
211	0xbd0ce839	-0.034401152
212	0x00000000	0.0
213	0xbc3111bb	-0.01080745
214	0x3ec76454	0.38943732
215	0xbd1fabac	-0.03898208
216	0xba2dfc68	-0.0006637038
217	0x00000000	0.0
218	0x3da634ed	0.081155635
219	0x00000000	0.0
220	0x00000000	0.0
221	0x3deea202	0.11651994
222	0x3ef80404	0.48440564
223	0x3defc828	0.11708099
224	0x3e4e7d5d	0.2016501
225	0xbd029536	-0.03188058
226	0x3e28af1d	0.1647305
227	0x00000000	0.0
228	0x00000000	0.0
229	0x00000000	0.0
230	0x3dcdbd31	0.10045851
231	0x00000000	0.0
232	0x00000000	0.0
233	0x00000000	0.0
234	0x3df610a3	0.12014892
235	0x3ddd000b	0.10791024
236	0x3dd912ab	0.10599264
237	0x3dc58b05	0.096456565
238	0xbcaa2c06	-0.020772945
239	0x3dcf2af4	0.101156145
240	0x3d97f9cf	0.07420694
241	0x3e5f473e	0.2180452
242	0x3df457da	0.11930819
243	0x3dea0e18	0.114284694
244	0x3dd31060	0.10305858
245	0x00000000	0.0
246	0xbcc812a4	-0.024422951
247	0xba6de9e2	-0.0009075684
248	0x3e2959a6	0.16538104
249	0x3dc7f8e8	0.09764272
250	0x3e040c7c	0.12895387
251	0x3d974680	0.07386494
252	0x3dd52111	0.104066975
253	0x00000000	0.0
254	0x00000000	0.0
255	0x3dd6d5f8	0.1049003

weight f4 [8, 300]
0	0xbd155182	-0.036454685
1	0x3dcbd1ea	0.09952147
2	0xbca28bbc	-0.019842021
3	0x3dd024f8	0.10163301
4	0xbd5f8ef0	-0.054579675
5	0x3da87df6	0.0822715
6	0xbce92ee8	-0.02846475
7	0xbb4d4140	-0.003131941
8	0xbd541192	-0.05177457
9	0xbd19643c	-0.037449107
10	0xbdcd0afe	-0.10011862
11	0xbc223fb0	-0.00990288
12	0xbd66a254	-0.056307152
13	0x3d10f37c	0.035388455
14	0x3d1d1a54	0.038355187
15	0x3c8a1a60	0.01685828
16	0x3df25a7a	0.11833663
17	0xbd9607a2	-0.073256746
18	0x3d7d7a38	0.061884135
19	0x3c5a7f30	0.013335988
20	0x3dc6d1be	0.09707974
21	0x3e081a63	0.13291316
22	0xbd35ad56	-0.04435476
23	0x3dda6f92	0.106658116
24	0x3cc15cb0	0.023603767
25	0xbdacd2c4	-0.08438638
26	0xbd15278c	-0.036414668
27	0xbd72a78e	-0.059241824
28	0xbd607300	-0.054797173
29	0xbd7e8ab6	-0.062144004
30	0xbdee38f9	-0.116319604
31	0xbd16eb7c	-0.03684567
32	0xbc777c68	-0.015105344
33	0xbdebfa1e	-0.115223154
34	0x37580000	1.2874603e-05
35	0x3dbfa390	0.09357369
36	0xbdfac512	-0.122446194
37	0xbe09e956	-0.13467917
38	0xbde9c868	-0.114151776
39	0xbd7f4ede	-0.062331073
40	0xbc90d8a4	-0.017681427
41	0xbdb1a9be	-0.08674954
42	0xbc752518	-0.014962457
43	0x3dc4fb5a	0.09618254
44	0xbd0d7a42	-0.034540422
45	0x3e0ba891	0.13638522
46	0xbd94e9dc	-0.07271168
47	0x3d8819fc	0.06645581
48	0x3dc7ef52	0.097624436
49	0xbe0946b5	-0.13405879
50	0x3d9e852e	0.07740246
51	0xbd93e532	-0.0722145
52	0x3a0dfc00	0.0005416274
53	0xbdc1e4f0	-0.094674945
54	0x3d162aa4	0.03666176
55	0xbd3bafee	-0.045822076
56	0x3dc40cce	0.09572755
57	0xbd8e0db2	-0.06936206
58	0x3d8254ae	0.063638076
59	0x3d7c5200	0.06160164
60	0xbc078dc0	-0.008273542
61	0x3df3adb2	0.11898364
62	0x3c2fb640	0.010724604
63	0xbd9fd766	-0.07804756
64	0xbdb1630a	-0.08661468
65	0x3df5f48a	0.12009533
66	0x3d019454	0.031635597
67	0xbdaa9ce6	-0.08330707
68	0xbd607c98	-0.05480632
69	0x3dfde936	0.12397997
70	0xbb7fe800	-0.0039048195
71	0x3bc05060	0.0058689564
72	0x3d4bcecc	0.049757764
73	0x3dee966a	0.11649783
74	0xbdc0984e	-0.0940405
75	0xbdd702ab	-0.10498556
76	0xbcc91dbc	-0.024550311
77	0x3ded399e	0.11583255
78	0x3da17a8c	0.07884702
79	0x3db9eb46	0.09078078
80	0x3dbf9f2c	0.093565315
81	0x3d8be4e8	0.0683077
82	0x3d05e238	0.032686442
83	0x3dd5a866	0.1043251
84	0x3d232dcc	0.039838597
85	0x3cde5fd0	0.027145296
86	0x3d066968	0.032815367
87	0xbe0927c9	-0.13394083
88	0xbdfbf82f	-0.12303197
89	0xbd9eb8ac	-0.07750067
90	0xbad8a480	-0.0016528517
91	0x3dfe838a	0.12427433
92	0xbbde31e0	-0.006780848
93	0xbdd0cc8b	-0.101952635
94	0xbe07296c	-0.13199395
95	0xbdd9bca7	-0.10631686
96	0x3d7a6930	0.06113547
97	0xbe092382	-0.13392451
98	0x3d2cae98	0.042158693
99	0xbc0676b0	-0.008207008
100	0xbd24be28	-0.04022041
101	0xbe0caf11	-0.13738658
102	0x3d9ae75e	0.07563661
103	0xbde45ac0	-0.11150122
104	0xbe0058e7	-0.12533914
105	0x3d273ef8	0.040831536
106	0xbd52fba0	-0.0515095
107	0x3d0d6fc8	0.03453043
108	0xbd4ca086	-0.049957775
109	0x3b9ec6a0	0.0048454553
110	0xbde6c0bb	-0.11267229
111	0xbe09c7ad	-0.13455077
112	0xbe0e3788	-0.13888371
113	0xbde44883	-0.11146643
114	0xbc8afff0	-0.016967744
115	0x3e01e17d	0.12683673
116	0x3dcda656	0.10041492
117	0xbcc9d578	-0.024637923
118	0x3dc31ed4	0.095273644
119	0x3dcf6152	0.10125984
120	0xbd99cd7e	-0.07509898
121	0x3d165e84	0.03671123
122	0x39c4cc00	0.00037536025
123	0x3d48ba00	0.04900551
124	0x3db28ce8	0.08718282
125	0xbda0631a	-0.07831402
126	0x3d4295a0	0.047505975
127	0x3da50b5a	0.08058806
128	0xbe04ff74	-0.12988073
129	0xbc619b40	-0.013769925
130	0x3ded8676	0.11597912
131	0x3d90a622	0.07062937
132	0x3dfa46f2	0.12220563
133	0xbe0467f2	-0.12930277
134	0xbdd7336e	-0.10507856
135	0x3c385dd0	0.011252835
136	0x3d7aa898	0.06119594
137	0x3e0bbf2b	0.13647144
138	0xbd833428	-0.064064324
139	0xbdf69e00	-0.12041855
140	0x3da17e86	0.078854606
141	0x3dd87e48	0.10570961
142	0x3cf6e620	0.030139029
143	0x3dc23ffc	0.0948486
144	0xbd64dade	-0.05587279
145	0xbddff976	-0.10936253
146	0x3d9b8604	0.07593921
147	0xbd24f0aa	-0.040268578
148	0xbe0934d9	-0.13399066
149	0x3cb72e48	0.022360936
150	0x3d825ce2	0.06365372
151	0x3d0a4e6c	0.033766195
152	0x3d269c94	0.04067667
153	0xbd81f1e4	-0.06344965
154	0x3dc97ebe	0.09838627
155	0x3d1876bc	0.03722261
156	0x3d6f45e8	0.058416277
157	0x3d9d58d4	0.07682958
158	0x3ddc3338	0.10751957
159	0xbd656c88	-0.056011707
160	0x3e0a89eb	0.13529174
161	0x3dc439f0	0.09581363
162	0xbdb00e02	-0.08596422
163	0xbe022da6	-0.12712726
164	0xbca2dbb4	-0.019880153
165	0x3c040e80	0.008060098
166	0x3e0c7b5b	0.13718931
167	0xbd102c72	-0.035198636
168	0xbcd6b1b8	-0.02620779
169	0xbe04a453	-0.1295331
170	0x3dcb4ed4	0.09927145
171	0x3d15f5f0	0.036611497
172	0xbdef29c0	-0.11677885
173	0xbbc54800	-0.006020546
174	0x3d2628d8	0.040566295
175	0x3c3bcd50	0.0114625245
176	0xbdb76690	-0.08955109
177	0x3c8a9418	0.01691632
178	0x3d05def8	0.032683343
179	0x3dbf4bb2	0.093406096
180	0x3ce7b158	0.028282806
181	0xbdb1ef90	-0.08688271
182	0xbde65588	-0.112467825
183	0xbdb496d0	-0.08817828
184	0x3da2c740	0.0794816
185	0x3e000c79	0.12504758
186	0xbdb9a04a	-0.09063776
187	0x3dd0aef2	0.10189618
188	0x3dca1aec	0.09868416
189	0xbdf21722	-0.118208185
190	0xbde35afc	-0.11101338
191	0x3d8793b0	0.06619966
192	0xbdbe1f80	-0.09283352
193	0x3ca63e88	0.02029349
194	0x3d91d3cc	0.07120475
195	0x3c957a80	0.01824689
196	0xbe03923d	-0.12848754
197	0xbe03006d	-0.12793131
198	0x3d72a90c	0.059243247
199	0x3d2c09f4	0.04200168
200	0xbddafd74	-0.106928736
201	0x3db5ad18	0.08870906
202	0x3de11908	0.109911025
203	0xbdd2517f	-0.102694504
204	0x3da64ce6	0.08120136
205	0x3bdb7e80	0.0066984296
206	0x3d7a4270	0.061098516
207	0x3d951208	0.0727883
208	0x3e0a0a0d	0.13480397
209	0x3c9d7c20	0.019224226
210	0xbd1277aa	-0.03575865
211	0xbd21efac	-0.03953521
212	0x3d41f3d0	0.04735166
213	0x3e001927	0.12509595
214	0xbcf19c08	-0.029493347
215	0xbe08e2c4	-0.13367754
216	0xbde96d29	-0.11397774
217	0xbdf0f353	-0.117651604
218	0x3dbb0b10	0.091329694
219	0xbdcb9a4d	-0.0994154
220	0xbccfa980	-0.025349379
221	0xbd0e2626	-0.03470435
222	0x3b18c600	0.0023311377
223	0xbcee9634	-0.029124357
224	0xbd93d0a3	-0.07217529
225	0xbdfd1701	-0.12357903
226	0xbe07807a	-0.13232604
227	0x3d9d94e8	0.07694417
228	0x3cf27cc0	0.029600501
229	0xbd7be626	-0.061498784
230	0x3d5b4eb4	0.053541854
231	0x3e0b194d	0.1358387
232	0xbe0147fe	-0.12625119
233	0x3d8bf7e8	0.06834394
234	0xbca21dd0	-0.019789606
235	0xbd1dfe40	-0.03857255
236	0x3df0650a	0.11738022
237	0xbd4eaef0	-0.050459802
238	0xbdfbf4dc	-0.123025626
239	0xbc0fd510	-0.008778825
240	0xbde09f34	-0.109678656
241	0x3d410738	0.047126025
242	0x3dabdb0c	0.08391389
243	0xbdf808f0	-0.1211108
244	0xbd08e70a	-0.03342346
245	0xbd45adf4	-0.048261598
246	0x3d806ab8	0.06270355
247	0x3dcb65f8	0.09931558
248	0x3bc214a0	0.005922869
249	0xbd3fc828	-0.046821743
250	0xbb199500	-0.0023434758
251	0x3cef2788	0.029193655
252	0xbdf09c56	-0.11748569
253	0x3de1fb4a	0.11034258
254	0xbd6e75e0	-0.058217883
255	0x3d77c3dc	0.06048952

bias f4 [300]
0	0x00000000	0.0
1	0x00000000	0.0
2	0x00000000	0.0
3	0x00000000	0.0
4	0x00000000	0.0
5	0x00000000	0.0
6	0x00000000	0.0
7	0x00000000	0.0
8	0x00000000	0.0
9	0x00000000	0.0
10	0x00000000	0.0
11	0x00000000	0.0
12	0x00000000	0.0
13	0x00000000	0.0
14	0x00000000	0.0
15	0x00000000	0.0
16	0x00000000	0.0
17	0x00000000	0.0
18	0x00000000	0.0
19	0x00000000	0.0
20	0x00000000	0.0
21	0x00000000	0.0
22	0x00000000	0.0
23	0x00000000	0.0
24	0x00000000	0.0
25	0x00000000	0.0
26	0x00000000	0.0
27	0x00000000	0.0
28	0x00000000	0.0
29	0x00000000	0.0
30	0x00000000	0.0
31	0x00000000	0.0
32	0x00000000	0.0
33	0x00000000	0.0
34	0x00000000	0.0
35	0x00000000	0.0
36	0x00000000	0.0
37	0x00000000	0.0
38	0x00000000	0.0
39	0x00000000	0.0
40	0x00000000	0.0
41	0x00000000	0.0
42	0x00000000	0.0
43	0x00000000	0.0
44	0x00000000	0.0
45	0x00000000	0.0
46	0x00000000	0.0
47	0x00000000	0.0
48	0x00000000	0.0
49	0x00000000	0.0
50	0x00000000	0.0
51	0x00000000	0.0
52	0x00000000	0.0
53	0x00000000	0.0
54	0x00000000	0.0
55	0x00000000	0.0
56	0x00000000	0.0
57	0x00000000	0.0
58	0x00000000	0.0
59	0x00000000	0.0
60	0x00000000	0.0
61	0x00000000	0.0
62	0x00000000	0.0
63	0x00000000	0.0
64	0x00000000	0.0
65	0x00000000	0.0
66	0x00000000	0.0
67	0x00000000	0.0
68	0x00000000	0.0
69	0x00000000	0.0
70	0x00000000	0.0
71	0x00000000	0.0
72	0x00000000	0.0
73	0x00000000	0.0
74	0x00000000	0.0
75	0x00000000	0.0
76	0x00000000	0.0
77	0x00000000	0.0
78	0x00000000	0.0
79	0x00000000	0.0
80	0x00000000	0.0
81	0x00000000	0.0
82	0x00000000	0.0
83	0x00000000	0.0
84	0x00000000	0.0
85	0x00000000	0.0
86	0x00000000	0.0
87	0x00000000	0.0
88	0x00000000	0.0
89	0x00000000	0.0
90	0x00000000	0.0
91	0x00000000	0.0
92	0x00000000	0.0
93	0x00000000	0.0
94	0x00000000	0.0
95	0x00000000	0.0
96	0x00000000	0.0
97	0x00000000	0.0
98	0x00000000	0.0
99	0x00000000	0.0
100	0x00000000	0.0
101	0x00000000	0.0
102	0x00000000	0.0
103	0x00000000	0.0
104	0x00000000	0.0
105	0x00000000	0.0
106	0x00000000	0.0
107	0x00000000	0.0
108	0x00000000	0.0
109	0x00000000	0.0
110	0x00000000	0.0
111	0x00000000	0.0
112	0x00000000	0.0
113	0x00000000	0.0
114	0x00000000	0.0
115	0x00000000	0.0
116	0x00000000	0.0
117	0x00000000	0.0
118	0x00000000	0.0
119	0x00000000	0.0
120	0x00000000	0.0
121	0x00000000	0.0
122	0x00000000	0.0
123	0x00000000	0.0
124	0x00000000	0.0
125	0x00000000	0.0
126	0x00000000	0.0
127	0x00000000	0.0
128	0x00000000	0.0
129	0x00000000	0.0
130	0x00000000	0.0
131	0x00000000	0.0
132	0x00000000	0.0
133	0x00000000	0.0
134	0x00000000	0.0
135	0x00000000	0.0
136	0x00000000	0.0
137	0x00000000	0.0
138	0x00000000	0.0
139	0x00000000	0.0
140	0x00000000	0.0
141	0x00000000	0.0
142	0x00000000	0.0
143	0x00000000	0.0
144	0x00000000	0.0
145	0x00000000	0.0
146	0x00000000	0.0
147	0x00000000	0.0
148	0x00000000	0.0
149	0x00000000	0.0
150	0x00000000	0.0
151	0x00000000	0.0
152	0x00000000	0.0
153	0x00000000	0.0
154	0x00000000	0.0
155	0x00000000	0.0
156	0x00000000	0.0
157	0x00000000	0.0
158	0x00000000	0.0
159	0x00000000	0.0
160	0x00000000	0.0
161	0x00000000	0.0
162	0x00000000	0.0
163	0x00000000	0.0
164	0x00000000	0.0
165	0x00000000	0.0
166	0x00000000	0.0
167	0x00000000	0.0
168	0x00000000	0.0
169	0x00000000	0.0
170	0x00000000	0.0
171	0x00000000	0.0
172	0x00000000	0.0
173	0x00000000	0.0
174	0x00000000	0.0
175	0x00000000	0.0
176	0x00000000	0.0
177	0x00000000	0.0
178	0x00000000	0.0
179	0x00000000	0.0
180	0x00000000	0.0
181	0x00000000	0.0
182	0x00000000	0.0
183	0x00000000	0.0
184	0x00000000	0.0
185	0x00000000	0.0
186	0x00000000	0.0
187	0x00000000	0.0
188	0x00000000	0.0
189	0x00000000	0.0
190	0x00000000	0.0
191	0x00000000	0.0
192	0x00000000	0.0
193	0x00000000	0.0
194	0x00000000	0.0
195	0x00000000	0.0
196	0x00000000	0.0
197	0x00000000	0.0
198	0x00000000	0.0
199	0x00000000	0.0
200	0x00000000	0.0
201	0x00000000	0.0
202	0x00000000	0.0
203	0x00000000	0.0
204	0x00000000	0.0
205	0x00000000	0.0
206	0x00000000	0.0
207	0x00000000	0.0
208	0x00000000	0.0
209	0x00000000	0.0
210	0x00000000	0.0
211	0x00000000	0.0
212	0x00000000	0.0
213	0x00000000	0.0
214	0x00000000	0.0
215	0x00000000	0.0
216	0x00000000	0.0
217	0x00000000	0.0
218	0x00000000	0.0
219	0x00000000	0.0
220	0x00000000	0.0
221	0x00000000	0.0
222	0x00000000	0.0
223	0x00000000	0.0
224	0x00000000	0.0
225	0x00000000	0.0
226	0x00000000	0.0
227	0x00000000	0.0
228	0x00000000	0.0
229	0x00000000	0.0
230	0x00000000	0.0
231	0x00000000	0.0
232	0x00000000	0.0
233	0x00000000	0.0
234	0x00000000	0.0
235	0x00000000	0.0
236	0x00000000	0.0
237	0x00000000	0.0
238	0x00000000	0.0
239	0x00000000	0.0
240	0x00000000	0.0
241	0x00000000	0.0
242	0x00000000	0.0
243	0x00000000	0.0
244	0x00000000	0.0
245	0x00000000	0.0
246	0x00000000	0.0
247	0x00000000	0.0
248	0x00000000	0.0
249	0x00000000	0.0
250	0x00000000	0.0
251	0x00000000	0.0
252	0x00000000	0.0
253	0x00000000	0.0
254	0x00000000	0.0
255	0x00000000	0.0

weight f4 [8, 300]
0	0xbdadd22a	-0.08487351
1	0xbd94c776	-0.07264607
2	0xbc61b430	-0.01377587
3	0xbd576090	-0.052582324
4	0x3d3173d4	0.043323353
5	0x3de2db42	0.11076976
6	0xbcd11a80	-0.025525331
7	0x3d48a298	0.048983186
8	0x3dfbf03e	0.12301682
9	0xbc687c00	-0.01418972
10	0x3d0a97b4	0.03383608
11	0xbe094239	-0.13404168
12	0x3ca94a60	0.020665348
13	0x3d17a580	0.037023067
14	0xbbb1ade0	-0.005422339
15	0x3db39034	0.08767739
16	0x3d1ceb50	0.03831035
17	0xbded4177	-0.11584752
18	0xbd65a2dc	-0.056063518
19	0x3d950166	0.07275657
20	0x3d16bbd4	0.03680022
21	0x3de0c3bc	0.10974833
22	0x3bc995e0	0.0061518997
23	0x3d98dc46	0.07463889
24	0xbd004602	-0.031316765
25	0xbd5d5088	-0.05403188
26	0xbc1bdf30	-0.009513661
27	0x3d91f0ac	0.07125983
28	0xbd8eb5c8	-0.06968266
29	0xbda65253	-0.08121171
30	0x3d4b9d84	0.049710765
31	0xbdc7705c	-0.09738228
32	0x3d5b0024	0.05346693
33	0xbd21ee80	-0.039534092
34	0xbdce7834	-0.10081521
35	0x3dd262a6	0.10272722
36	0x3deb355a	0.114847854
37	0xbcd9a1c4	-0.026566394
38	0x3b234ac0	0.002491638
39	0xbe0ab2d4	-0.1354478
40	0xbd3e30ac	-0.046433136
41	0x3af8ef00	0.0018992126
42	0x3dd94182	0.10608198
43	0x3c237f70	0.009979114
44	0x3d544eec	0.05183308
45	0xbc94381c	-0.018093161
46	0x3d2f9530	0.042866886
47	0x3d598938	0.053109378
48	0x3de9d0ea	0.114168
49	0x3d90524c	0.07046947
50	0x3d14fef4	0.036375955
51	0xbd83ab05	-0.06429104
52	0x3dcbd3b6	0.0995249
53	0xbdb8d2f3	-0.0902461
54	0x3e0a7203	0.13520055
55	0xbd8d8a6d	-0.06911168
56	0xbd2ac8d0	-0.041695416
57	0x3dacc2c4	0.08435586
58	0xbdabc1ed	-0.08386598
59	0xbd6ed752	-0.058310814
60	0xbdc66a1a	-0.09688206
61	0xbd6226de	-0.055212848
62	0x3de829a2	0.11336066
63	0xbe0be0a7	-0.13659917
64	0xbd2f8d0c	-0.042859122
65	0xbc475c80	-0.01216805
66	0xbe0141fa	-0.12622824
67	0xbd8e8b0a	-0.06960113
68	0x3d865cac	0.065606445
69	0x3dc2f81c	0.09519979
70	0x3d918d46	0.07107024
71	0x3c1e31f0	0.009655461
72	0x3ba09360	0.004900381
73	0xbd52bf6c	-0.051452085
74	0xbe0e1f18	-0.13879049
75	0x3d763348	0.0601075
76	0x3e0660ff	0.13122939
77	0x3d9336ee	0.071882114
78	0x3d95b816	0.07310502
79	0x3ce337e0	0.027736604
80	0xbbb0dfe0	-0.0053977817
81	0x3c2b3aa0	0.010450989
82	0x3e0dfc61	0.13865806
83	0x3c1fe160	0.009758323
84	0xbda61b90	-0.08110726
85	0x3d8ec666	0.06971435
86	0xbd0ed878	-0.03487441
87	0x3d735358	0.059405655
88	0xbcb08108	-0.021545902
89	0xbe0acf09	-0.1355554
90	0x3d4b60c4	0.04965283
91	0xbc796f60	-0.015224308
92	0xbba7f400	-0.0051255226
93	0x3d98a670	0.074536204
94	0xbd4cbdc0	-0.049985647
95	0x3bba6820	0.005688682
96	0x3ddc7ce2	0.10766007
97	0x3c33d5f0	0.0109763
98	0x3ced01a8	0.028931454
99	0x3d89406c	0.067017406
100	0x3d20fadc	0.03930174
101	0x3d95b8fa	0.07310672
102	0xbdb31ed0	-0.087461114
103	0x3d9bbece	0.076047525
104	0x3cd43048	0.025901929
105	0x3cc0c958	0.023533508
106	0xbddd878c	-0.10816869
107	0x3bf175a0	0.0073687583
108	0xbda18f8a	-0.07888706
109	0x3e0816b1	0.13289906
110	0xbd7bf1aa	-0.061509766
111	0xbd5a2444	-0.05325724
112	0xbda9d9aa	-0.08293469
113	0xbd80a05c	-0.06280586
114	0x3dd4179c	0.10356066
115	0xbc83f7a8	-0.016109303
116	0xbcfd5a1c	-0.030926757
117	0xbc4708b0	-0.012148067
118	0xbde1e3ed	-0.110298015
119	0x3dea2dbe	0.11434506
120	0xbdd58c2b	-0.104271255
121	0xbc4e8820	-0.012605697
122	0x3dd108b4	0.10206738
123	0x3de47c3e	0.1115651
124	0xbd9c790a	-0.07640274
125	0x3d9c4202	0.076297775
126	0xbd31a354	-0.043368652
127	0x3e01e69b	0.12685625
128	0xbdb9ca53	-0.090717934
129	0xbda788c2	-0.08180381
130	0x3d95d76a	0.073164776
131	0xbdf708f2	-0.12062253
132	0x3d141bf4	0.03615947
133	0x3df093ae	0.11746918
134	0xbde44ec8	-0.11147839
135	0xbcefee38	-0.029288396
136	0xbdfc7d58	-0.12328595
137	0x3c1986c0	0.009370506
138	0xbbe35c80	-0.006938517
139	0x3de46592	0.111521855
140	0x3db56c54	0.088585526
141	0x3db6a59c	0.08918306
142	0x3d4efd0c	0.050534293
143	0xbe08b9b2	-0.13352087
144	0x3dd49920	0.10380769
145	0x3db60fc4	0.08889726
146	0x3d90d1b8	0.07071251
147	0xbd7c8102	-0.06164647
148	0xbdfabf9e	-0.12243579
149	0xbe0b5778	-0.13607585
150	0xbe02acc9	-0.12761225
151	0xbcf8b510	-0.030359775
152	0x3e0eda7d	0.13950534
153	0x3d5484e4	0.051884547
154	0xbd6b11d8	-0.057390064
155	0xbd700eb4	-0.058607772
156	0xbd847271	-0.064671405
157	0xbd69f9a6	-0.05712285
158	0x3d9f2572	0.07770814
159	0xbd89571d	-0.06706069
160	0xbe0555f4	-0.1302107
161	0xbcb8cb8c	-0.022557996
162	0xbcd05954	-0.02543322
163	0x3d91cc28	0.07119018
164	0xbdba9538	-0.091104925
165	0xbca41920	-0.020031512
166	0xbd85c9f7	-0.06532662
167	0x3de502e2	0.111821905
168	0x3c9c4dd8	0.019080088
169	0x3d52f44c	0.05150251
170	0x3d9158e0	0.0709703
171	0xbcc4b4a8	-0.024011925
172	0x3e07b8f3	0.13254146
173	0xbcd47bd0	-0.025937945
174	0xbcb39c30	-0.021925062
175	0x3dea574a	0.1144243
176	0x3d96290e	0.07332049
177	0x3cdd1678	0.026988253
178	0xbdcfa0a5	-0.101380624
179	0x3de1bfd2	0.11022915
180	0xbd72c98c	-0.05927424
181	0xbde93df8	-0.11388773
182	0xbdb4a788	-0.088210166
183	0xbcfc51dc	-0.030800752
184	0xbd0a667e	-0.03378915
185	0x3d23ded4	0.040007427
186	0x3bff2960	0.0077869147
187	0x3d0064f0	0.03134626
188	0x3de7bf56	0.11315791
189	0xbdee5264	-0.116368085
190	0x3bad9ea0	0.0052984506
191	0x3e023527	0.12715589
192	0x3cae8000	0.02130127
193	0x3e0a46d5	0.13503583
194	0x3d0f098c	0.034921214
195	0x3d69df68	0.057097822
196	0xbc856948	-0.016285554
197	0x3be93d20	0.0071178824
198	0x3e0dbba1	0.13841106
199	0xbd05caa8	-0.03266397
200	0xbda2f3e6	-0.07956676
201	0xbd930572	-0.07178773
202	0x3d5cd7bc	0.053916678
203	0x3e0bf46d	0.1366746
204	0x3df37c32	0.11888923
205	0x3d91a102	0.07110788
206	0x3de06642	0.10957004
207	0xbdd7f3ee	-0.10544573
208	0xbccb6c9c	-0.024832062
209	0xbbe7fbe0	-0.0070795864
210	0x3d458ed0	0.0482319
211	0xbc0787f0	-0.008272156
212	0x3d834d26	0.06411199
213	0xbde4939a	-0.11160965
214	0x3dac2ea2	0.08407332
215	0xbdb30f5c	-0.08743164
216	0x3dbfc088	0.09362894
217	0x3d6fd658	0.058554024
218	0x3d318c24	0.04334654
219	0xbc94232c	-0.018083178
220	0xbd253200	-0.040330887
221	0xbc862830	-0.016376585
222	0x3d7d7610	0.06188017
223	0xbd59f7a8	-0.0532147
224	0xbda3a856	-0.07991092
225	0xbcac9a64	-0.021069713
226	0xbded3a86	-0.11583428
227	0x3dc20e02	0.09475328
228	0x3d81e014	0.06341568
229	0xbde0bb65	-0.10973243
230	0x3d58aa44	0.052896753
231	0xbcdccaa8	-0.026952103
232	0x3db0d45c	0.08634254
233	0xbd87d517	-0.066324405
234	0xbb611840	-0.003434673
235	0x3d448720	0.047980428
236	0x3d331a74	0.0437264
237	0xbd9ac10e	-0.075563535
238	0xbdee2c6e	-0.11629568
239	0xbdc334ba	-0.09531541
240	0x3c399660	0.011327356
241	0x3d1ce09c	0.03830014
242	0x3de72b5e	0.112875685
243	0xbd369810	-0.04457861
244	0xbd71b2ba	-0.059008338
245	0xbdd0e4da	-0.101999
246	0x3d299fa8	0.041412026
247	0xbda189ac	-0.07887587
248	0x3db88a52	0.090107575
249	0x3d725cec	0.05917065
250	0xbdc116a2	-0.09428145
251	0x3d1f2324	0.038851872
252	0xbdf8b333	-0.121435545
253	0xbdbb7a87	-0.091542296
254	0xbd205d5a	-0.039151527
255	0x3cd09c58	0.025465176

bias f4 [300]
0	0x00000000	0.0
1	0x00000000	0.0
2	0x00000000	0.0
3	0x00000000	0.0
4	0x00000000	0.0
5	0x00000000	0.0
6	0x00000000	0.0
7	0x00000000	0.0
8	0x00000000	0.0
9	0x00000000	0.0
10	0x00000000	0.0
11	0x00000000	0.0
12	0x00000000	0.0
13	0x00000000	0.0
14	0x00000000	0.0
15	0x00000000	0.0
16	0x00000000	0.0
17	0x00000000	0.0
18	0x00000000	0.0
19	0x00000000	0.0
20	0x00000000	0.0
21	0x00000000	0.0
22	0x00000000	0.0
23	0x00000000	0.0
24	0x00000000	0.0
25	0x00000000	0.0
26	0x00000000	0.0
27	0x00000000	0.0
28	0x00000000	0.0
29	0x00000000	0.0
30	0x00000000	0.0
31	0x00000000	0.0
32	0x00000000	0.0
33	0x00000000	0.0
34	0x00000000	0.0
35	0x00000000	0.0
36	0x00000000	0.0
37	0x00000000	0.0
38	0x00000000	0.0
39	0x00000000	0.0
40	0x00000000	0.0
41	0x00000000	0.0
42	0x00000000	0.0
43	0x00000000	0.0
44	0x00000000	0.0
45	0x00000000	0.0
46	0x00000000	0.0
47	0x00000000	0.0
48	0x00000000	0.0
49	0x00000000	0.0
50	0x00000000	0.0
51	0x00000000	0.0
52	0x00000000	0.0
53	0x00000000	0.0
54	0x00000000	0.0
55	0x00000000	0.0
56	0x00000000	0.0
57	0x00000000	0.0
58	0x00000000	0.0
59	0x00000000	0.0
60	0x00000000	0.0
61	0x00000000	0.0
62	0x00000000	0.0
63	0x00000000	0.0
64	0x00000000	0.0
65	0x00000000	0.0
66	0x00000000	0.0
67	0x00000000	0.0
68	0x00000000	0.0
69	0x00000000	0.0
70	0x00000000	0.0
71	0x00000000	0.0
72	0x00000000	0.0
73	0x00000000	0.0
74	0x00000000	0.0
75	0x00000000	0.0
76	0x00000000	0.0
77	0x00000000	0.0
78	0x00000000	0.0
79	0x00000000	0.0
80	0x00000000	0.0
81	0x00000000	0.0
82	0x00000000	0.0
83	0x00000000	0.0
84	0x00000000	0.0
85	0x00000000	0.0
86	0x00000000	0.0
87	0x00000000	0.0
88	0x00000000	0.0
89	0x00000000	0.0
90	0x00000000	0.0
91	0x00000000	0.0
92	0x00000000	0.0
93	0x00000000	0.0
94	0x00000000	0.0
95	0x00000000	0.0
96	0x00000000	0.0
97	0x00000000	0.0
98	0x00000000	0.0
99	0x00000000	0.0
100	0x00000000	0.0
101	0x00000000	0.0
102	0x00000000	0.0
103	0x00000000	0.0
104	0x00000000	0.0
105	0x00000000	0.0
106	0x00000000	0.0
107	0x00000000	0.0
108	0x00000000	0.0
109	0x00000000	0.0
110	0x00000000	0.0
111	0x00000000	0.0
112	0x00000000	0.0
113	0x00000000	0.0
114	0x00000000	0.0
115	0x00000000	0.0
116	0x00000000	0.0
117	0x00000000	0.0
118	0x00000000	0.0
119	0x00000000	0.0
120	0x00000000	0.0
121	0x00000000	0.0
122	0x00000000	0.0
123	0x00000000	0.0
124	0x00000000	0.0
125	0x00000000	0.0
126	0x00000000	0.0
127	0x00000000	0.0
128	0x00000000	0.0
129	0x00000000	0.0
130	0x00000000	0.0
131	0x00000000	0.0
132	0x00000000	0.0
133	0x00000000	0.0
134	0x00000000	0.0
135	0x00000000	0.0
136	0x00000000	0.0
137	0x00000000	0.0
138	0x00000000	0.0
139	0x00000000	0.0
140	0x00000000	0.0
141	0x00000000	0.0
142	0x00000000	0.0
143	0x00000000	0.0
144	0x00000000	0.0
145	0x00000000	0.0
146	0x00000000	0.0
147	0x00000000	0.0
148	0x00000000	0.0
149	0x00000000	0.0
150	0x00000000	0.0
151	0x00000000	0.0
152	0x00000000	0.0
153	0x00000000	0.0
154	0x00000000	0.0
155	0x00000000	0.0
156	0x00000000	0.0
157	0x00000000	0.0
158	0x00000000	0.0
159	0x00000000	0.0
160	0x00000000	0.0
161	0x00000000	0.0
162	0x00000000	0.0
163	0x00000000	0.0
164	0x00000000	0.0
165	0x00000000	0.0
166	0x00000000	0.0
167	0x00000000	0.0
168	0x00000000	0.0
169	0x00000000	0.0
170	0x00000000	0.0
171	0x00000000	0.0
172	0x00000000	0.0
173	0x00000000	0.0
174	0x00000000	0.0
175	0x00000000	0.0
176	0x00000000	0.0
177	0x00000000	0.0
178	0x00000000	0.0
179	0x00000000	0.0
180	0x00000000	0.0
181	0x00000000	0.0
182	0x00000000	0.0
183	0x00000000	0.0
184	0x00000000	0.0
185	0x00000000	0.0
186	0x00000000	0.0
187	0x00000000	0.0
188	0x00000000	0.0
189	0x00000000	0.0
190	0x00000000	0.0
191	0x00000000	0.0
192	0x00000000	0.0
193	0x00000000	0.0
194	0x00000000	0.0
195	0x00000000	0.0
196	0x00000000	0.0
197	0x00000000	0.0
198	0x00000000	0.0
199	0x00000000	0.0
200	0x00000000	0.0
201	0x00000000	0.0
202	0x00000000	0.0
203	0x00000000	0.0
204	0x00000000	0.0
205	0x00000000	0.0
206	0x00000000	0.0
207	0x00000000	0.0
208	0x00000000	0.0
209	0x00000000	0.0
210	0x00000000	0.0
211	0x00000000	0.0
212	0x00000000	0.0
213	0x00000000	0.0
214	0x00000000	0.0
215	0x00000000	0.0
216	0x00000000	0.0
217	0x00000000	0.0
218	0x00000000	0.0
219	0x00000000	0.0
220	0x00000000	0.0
221	0x00000000	0.0
222	0x00000000	0.0
223	0x00000000	0.0
224	0x00000000	0.0
225	0x00000000	0.0
226	0x00000000	0.0
227	0x00000000	0.0
228	0x00000000	0.0
229	0x00000000	0.0
230	0x00000000	0.0
231	0x00000000	0.0
232	0x00000000	0.0
233	0x00000000	0.0
234	0x00000000	0.0
235	0x00000000	0.0
236	0x00000000	0.0
237	0x00000000	0.0
238	0x00000000	0.0
239	0x00000000	0.0
240	0x00000000	0.0
241	0x00000000	0.0
242	0x00000000	0.0
243	0x00000000	0.0
244	0x00000000	0.0
245	0x00000000	0.0
246	0x00000000	0.0
247	0x00000000	0.0
248	0x00000000	0.0
249	0x00000000	0.0
250	0x00000000	0.0
251	0x00000000	0.0
252	0x00000000	0.0
253	0x00000000	0.0
254	0x00000000	0.0
255	0x00000000	0.0

weight f4 [300, 5]
0	0x3db6b38e	0.08920966
1	0x3d95ae39	0.07308621
2	0x3e277045	0.16351421
3	0x3e1fe946	0.1561633
4	0xbc707397	-0.014675996
5	0xbdaa1356	-0.08304469
6	0x3de0f201	0.109836586
7	0xbc82a20d	-0.015946412
8	0x3d447793	0.047965597
9	0x3db6be55	0.08923022
10	0x3d693de0	0.056943774
11	0xbb2114c0	-0.0024579018
12	0xbe0e3302	-0.13886645
13	0x3df3ba2e	0.11900745
14	0xbd5caba4	-0.053874627
15	0xbdb2775b	-0.087141715
16	0x3e04a090	0.12951875
17	0x3df9dffc	0.12200925
18	0xbdbab210	-0.09115994
19	0x3b96b786	0.0045995144
20	0xbda1a93c	-0.07893607
21	0xbdd83294	-0.10556522
22	0xbd0c0064	-0.03418006
23	0x3e06fa21	0.13181354
24	0x3d805284	0.062657386
25	0x3d5652d8	0.0523251
26	0xbd455b52	-0.048182793
27	0x3a693000	0.0008895397
28	0x3df3b6a2	0.11900069
29	0x3dc7f1c8	0.09762913
30	0x3e0912e4	0.13386112
31	0x3e163684	0.14669234
32	0x3dde1b1f	0.10845017
33	0xbb36c09e	-0.0027885805
34	0xbd5c1b90	-0.053737223
35	0x3d9cfe28	0.07665664
36	0x3e49530c	0.19660586
37	0xbc259afa	-0.01010775
38	0x3d479f7a	0.048736073
39	0x3db38d1f	0.08767151
40	0xbbec8800	-0.007218361
41	0x3e02d1f3	0.12775402
42	0xbd63d3da	-0.05562196
43	0xbdfb9d64	-0.12285879
44	0xbd585066	-0.05281105
45	0xbddcb09c	-0.10775873
46	0xbcd100bc	-0.025513045
47	0x3de2ae5b	0.11068412
48	0xbc6509ee	-0.013979418
49	0x3d446dd8	0.047956318
50	0xbdcea59d	-0.10090182
51	0x3e88425f	0.26613137
52	0xbee66319	-0.4499748
53	0x3ea64889	0.32477215
54	0xbebe99fe	-0.37226862
55	0x3e13bfca	0.1442863
56	0x3c63c357	0.013901553
57	0x3db6fb4f	0.08934652
58	0x3d9a3a5a	0.07530661
59	0x3db94475	0.0904626
60	0xbdc782f8	-0.09741777
61	0x3de23f9e	0.1104729
62	0x3e0c5b6b	0.13706748
63	0xbca35d50	-0.019941956
64	0x3c5b42f0	0.013382658
65	0x3d903d50	0.070429444
66	0xbdaf8d4b	-0.08571871
67	0xbdbde33e	-0.09271859
68	0x3d15c5d8	0.03656563
69	0xbe062042	-0.13098243
70	0x3e385cff	0.18004225
71	0x3e0017d6	0.12509093
72	0x3d3016b6	0.04299041
73	0x3d1b11ae	0.037858658
74	0x3e43d28a	0.19123283
75	0x3e2f6272	0.17127398
76	0x3e264aea	0.16239515
77	0xbdfd5921	-0.123705156
78	0x3e330fe1	0.17486526
79	0xbd897f4d	-0.06713734
80	0xbda3939a	-0.07987137
81	0x3d4c2c7c	0.04984711
82	0x3d8eafd2	0.06967129
83	0x3e00ab97	0.12565456
84	0x3c9a5ee0	0.018844068
85	0x3d334a57	0.043772068
86	0x3e1fb830	0.15597606
87	0x3cee3aa7	0.029080702
88	0x3e3cb276	0.18427452
89	0xbcf48dab	-0.029852709
90	0xbd403335	-0.046923835
91	0x3d28e92c	0.041237995
92	0x3d8986c0	0.06715155
93	0x3da26d38	0.07930988
94	0xbe0e6371	-0.13905121
95	0xbcc8c36b	-0.024507245
96	0x3e27387a	0.16330138
97	0xbdaaf186	-0.08346848
98	0x3cc8b6db	0.024501255
99	0xbcf163c3	-0.029466515
100	0x3e24e486	0.161028
101	0x3e2ebe86	0.17064866
102	0x3cd434b0	0.02590403
103	0x3dd942d6	0.10608451
104	0x3d8c5fed	0.06854234
105	0x3e0de0e7	0.13855325
106	0x3e627e24	0.22118431
107	0xbeb31418	-0.34976268
108	0x3de4abea	0.111656025
109	0x3d424a0c	0.047433898
110	0x3e004e34	0.12529832
111	0x3dd10ed0	0.102079034
112	0xbe0abee0	-0.13549376
113	0x3e5a7390	0.21333146
114	0xbb596d8f	-0.0033176874
115	0x3ce0d4a8	0.027445152
116	0xbdba253e	-0.09089135
117	0x3dea570e	0.114423856
118	0xbd3c743a	-0.04600928
119	0xbb8d81e0	-0.004318461
120	0x3c90dde6	0.017683934
121	0xbcd1aeeb	-0.025596103
122	0xbd680764	-0.056647673
123	0xbcce16b9	-0.02515732
124	0xbd85f1e3	-0.06540277
125	0x3da19cb0	0.07891214
126	0x3e15d6af	0.14632677
127	0xbd72a3fc	-0.05923842
128	0x3e2652c8	0.16242516
129	0x3dd4789f	0.10374569
130	0x3dc4af9b	0.096038066
131	0x3e30c750	0.17263532
132	0x3f046c78	0.5172801
133	0xba10ceb7	-0.0005523967
134	0x3eae3ba4	0.34029877
135	0x3e181f14	0.14855605
136	0x3e6015a9	0.21883263
137	0xbe29e4c6	-0.16591176
138	0x3e343aa7	0.17600499
139	0xbe09cd79	-0.13457288
140	0xbce530a6	-0.027977299
141	0x3e46417b	0.19360916
142	0x3dc036e7	0.09385472
143	0x3d99b625	0.075054444
144	0x3cd816e5	0.026378104
145	0xbdd9dad6	-0.10637443
146	0x3dd2b65a	0.10288687
147	0xbd174bea	-0.03693763
148	0xbcba82bc	-0.022767417
149	0xbccc36dc	-0.024928503
150	0x3cf06dba	0.029349197
151	0x3ce1da8f	0.027570037
152	0x3d99d4d6	0.07511298
153	0xbd492cbc	-0.049114928
154	0xbd5df95f	-0.054192897
155	0x3dc8532c	0.09781489
156	0x3e019d37	0.12657629
157	0x3e895314	0.26821196
158	0x3dd3ae00	0.10335922
159	0x3d9a023f	0.0751996
160	0x3da77339	0.08176274
161	0x3e09bad6	0.13450179
162	0x3e3e8cf5	0.18608458
163	0x3e057c52	0.13035706
164	0x3e12c7a7	0.14333974
165	0x3e764182	0.24048427
166	0xbd64960d	-0.055807162
167	0x3f2d4012	0.6767589
168	0x3e3694de	0.17830226
169	0x3edae9dc	0.42756546
170	0x3e51dc2e	0.20494148
171	0x3d8bc7aa	0.06825192
172	0x3da7b2b2	0.0818838
173	0x3e537c39	0.20652856
174	0x3dd00234	0.1015667
175	0x3e02adf8	0.12761676
176	0x3e3036bc	0.1720838
177	0xbd233b64	-0.03985156
178	0x3dddcf32	0.10830535
179	0x3e00485a	0.125276
180	0xbbabea66	-0.0052464483
181	0xbd6715a1	-0.05641711
182	0x3df6fdec	0.120601505
183	0xbd3529be	-0.04422926
184	0xbd74e652	-0.059789963
185	0x3d1016f9	0.03517816
186	0xbd821722	-0.063520685
187	0xbdd1b653	-0.10239854
188	0x3dfa395d	0.122179724
189	0x3e043e9d	0.1291451
190	0x3dac9c82	0.08428289
191	0x3df21999	0.118212886
192	0xbe8fd232	-0.28090054
193	0x3cb971c0	0.022637248
194	0xbe524ef1	-0.20537926
195	0xbdba2571	-0.09089173
196	0x3d9d2a6a	0.076741055
197	0xbd24ed54	-0.040265396
198	0x3c9cdd60	0.019148529
199	0xbdf573dd	-0.1198499
200	0x3d8c7410	0.06858075
201	0xbbf0c200	-0.0073473454
202	0xbc9d3614	-0.019190826
203	0x3d1b1d4c	0.037869737
204	0x3d221634	0.039571956
205	0x3e478309	0.1948358
206	0x3d172fed	0.03691094
207	0x3dd4134a	0.103552416
208	0x3da88eec	0.08230385
209	0x3e462aa3	0.19352202
210	0xbdcad1d8	-0.09903306
211	0xbcb000ea	-0.02148481
212	0x3d15aa72	0.036539502
213	0xbd8d7d93	-0.06908717
214	0x3dac65b8	0.08417839
215	0xbdde2c42	-0.10848285
216	0xbd35fa62	-0.044428237
217	0x3c1fcc60	0.009753317
218	0x3d0b03f0	0.033939302
219	0x3d856dcc	0.06515083
220	0x3d8832c4	0.06650308
221	0x3c859160	0.016304672
222	0x3e05390f	0.13010047
223	0x3ca3f1a0	0.020012677
224	0x3e056aad	0.13028975
225	0x3e076e43	0.13225655
226	0x3d55239c	0.052035913
227	0xbdf4ccb6	-0.11953108
228	0xbd042538	-0.032262057
229	0x3d1c9938	0.03823206
230	0x3d7e658c	0.06210856
231	0xbde122ec	-0.10992989
232	0x3ea74b81	0.32674792
233	0x3d4a96b2	0.04946012
234	0x3e396687	0.18105517
235	0xbcb7a7b4	-0.022418834
236	0x3d3dfac0	0.046381712
237	0xbdda1dd8	-0.106502235
238	0xbde45472	-0.11148919
239	0x3d3c0320	0.045901418
240	0x3d136af8	0.035990685
241	0x3e0a8ce7	0.13530312
242	0x3d5bb788	0.053641826
243	0xbd0a0796	-0.03369864
244	0x3dd28cae	0.10280739
245	0x3e0e8020	0.13916063
246	0x3e673d90	0.22582078
247	0xbe9c5c2e	-0.30539078
248	0xbd364b00	-0.04450512
249	0x3c05ecf2	0.008174168
250	0x3e1b568d	0.15169735
251	0x3e425473	0.18977527
252	0xbc9dd3a8	-0.019265965
253	0x3cf487c1	0.029849889
254	0x3c7a0d58	0.01526197
255	0x3e6fbc9d	0.23411794

bias f4 [5]
0	0x3caa1d1e	0.020765837
1	0x3e15f823	0.14645438
2	0xbeb30b40	-0.3496952
3	0x3db55d67	0.08855706
4	0xbdac0aba	-0.084004834

weight f4 [300, 5]
0	0x3d180ad1	0.03711969
1	0x3d8ce8d7	0.06880348
2	0x3e1b6189	0.15173925
3	0xbea92f60	-0.33043957
4	0xbe36ca59	-0.17850627
5	0xbd86981c	-0.06571981
6	0xbd7a45da	-0.061101772
7	0x3da85cab	0.082208
8	0xbdaf1d20	-0.08550477
9	0xbc3fe485	-0.011712198
10	0xbe006acb	-0.12540738
11	0xbd987dc8	-0.07445866
12	0xbd7a8ea0	-0.061171174
13	0x3dd282ae	0.102788314
14	0xbd97296a	-0.07380946
15	0x3d91a194	0.07110897
16	0xbd2f1ff0	-0.042755067
17	0xbbed6d28	-0.0072456785
18	0x3c1a7dc0	0.009429395
19	0x3c963e94	0.018340386
20	0x3ca3c748	0.019992486
21	0x3d9e3e22	0.07726695
22	0x3cab3678	0.020899996
23	0x3e044125	0.12915476
24	0x3d2abfb8	0.041686743
25	0xbca43b70	-0.020047873
26	0x3db92816	0.09040849
27	0x3df5e892	0.1200725
28	0xbd997838	-0.07493633
29	0xbdd6429e	-0.10461925
30	0x3e63c14c	0.22241706
31	0xbe365f33	-0.17809753
32	0x3e151dda	0.14562169
33	0xbcad0c58	-0.02112405
34	0xbdd7483a	-0.10511823
35	0xbdab30f9	-0.0835895
36	0xbdf54d65	-0.119776525
37	0x3c9e06ce	0.019290354
38	0xbeb0f4db	-0.3456181
39	0xbe01f207	-0.12689982
40	0x3dfd7ace	0.12376939
41	0xbe0c7701	-0.13717271
42	0xbd23f698	-0.040030092
43	0xbe0837ec	-0.13302583
44	0x3de82fe6	0.11337261
45	0x3d43d22e	0.047807865
46	0xbd1e6d74	-0.0386786
47	0xbdd3edbd	-0.10348079
48	0xbd1260ae	-0.035736732
49	0xbdfc433e	-0.12317513
50	0x3e23d6b1	0.15999867
51	0xbd9dd696	-0.07706945
52	0x3f037bc5	0.5136073
53	0xbecf3e1f	-0.40477082
54	0xbcc38dc7	-0.023871316
55	0x3dbc9fec	0.0921019
56	0xbd901fa0	-0.07037282
57	0x3e198537	0.14992224
58	0xbe7d88ca	-0.24759212
59	0xbe096826	-0.13418636
60	0x3d6d8bac	0.05799453
61	0xbd2cc4a4	-0.04217972
62	0xbe068685	-0.13137253
63	0x3e0e7cd3	0.13914804
64	0xbd9eac94	-0.077477604
65	0x3de44a52	0.11146988
66	0x3d4fb4ac	0.05070941
67	0xbddf0373	-0.1088933
68	0x3d253f08	0.040343314
69	0xbdc3d8c5	-0.0956283
70	0x3d71eee7	0.059065726
71	0xbdecdacd	-0.115651704
72	0x3df487a2	0.119399324
73	0xbe896f7c	-0.26842868
74	0xbceda9cb	-0.029011628
75	0x3b8c1eaf	0.0042761187
76	0x3c5ee1a5	0.013603603
77	0x3e210c6a	0.15727392
78	0xbe1ca443	-0.15297036
79	0xbdb70f28	-0.08938438
80	0xbdc813b4	-0.09769383
81	0xbccda850	-0.025104672
82	0x3e0bb5c9	0.13643564
83	0xbc83ad1c	-0.016073756
84	0xbd041a50	-0.032251656
85	0x3c9b6516	0.0189691
86	0x3db59cbe	0.08867787
87	0x3e06cb01	0.13163377
88	0xbe840543	-0.25785264
89	0xbd8344cc	-0.06409606
90	0x3e435a98	0.19077528
91	0xbe6c5dfb	-0.23082726
92	0x3e54730f	0.20747016
93	0xbe55a494	-0.20863563
94	0xbce9bc2d	-0.028532112
95	0x3d539f21	0.05166543
96	0xbe03a905	-0.12857445
97	0x3e95d950	0.2926736
98	0xbeb352e2	-0.35024172
99	0xbdafe2a8	-0.08588153
100	0x3d246d11	0.040143076
101	0x3c791ffc	0.01520538
102	0x3ea88b98	0.32919002
103	0xbe9fde1e	-0.3122415
104	0xbe513093	-0.20428686
105	0x3ea1ad38	0.31577468
106	0xbe957561	-0.29191115
107	0x3e0777ae	0.13229248
108	0xbbba65a1	-0.0056883846
109	0xbe8a0526	-0.26957053
110	0x3d6e9a0c	0.05825238
111	0xbd4180f5	-0.047242124
112	0x3e7c5b7c	0.24644274
113	0xbe2b11c3	-0.16705994
114	0xbd922940	-0.07136774
115	0x3e038ccf	0.12846683
116	0xbd89db14	-0.06731239
117	0x3d841bee	0.0645064
118	0xbc48d120	-0.012256891
119	0x3dbe2778	0.09284872
120	0xbd887b33	-0.066641234
121	0xbdf1edfc	-0.1181297
122	0xbdd1a5bf	-0.10236692
123	0xbc166248	-0.0091787055
124	0x3dd254e9	0.102701016
125	0xbb410ff8	-0.002945898
126	0xbe2d3553	-0.16914873
127	0x3e50dfab	0.20397823
128	0xbe2a8ad8	-0.16654527
129	0xbd1a37cb	-0.037650865
130	0xbd9ff7fd	-0.07810972
131	0xbe140058	-0.14453256
132	0x3e8cc6e6	0.27495497
133	0xbebde446	-0.3708822
134	0x3c8b0a53	0.016972696
135	0xbd08b3e2	-0.033374675
136	0xbdb21259	-0.08694906
137	0x3d36e613	0.04465301
138	0xbe3ce38f	-0.18446182
139	0xbcaed53a	-0.021341909
140	0xbd1e1e5e	-0.03860318
141	0xbdc786af	-0.09742486
142	0x3e6f6096	0.23376688
143	0xbeab36dd	-0.33440295
144	0xbe1845ec	-0.14870423
145	0x3df7d172	0.121004954
146	0xbcbb31f4	-0.022850968
147	0xbd35c374	-0.04437585
148	0x3e08bf4d	0.13354225
149	0xbd6469f2	-0.0557651
150	0xbc4d6fec	-0.012538891
151	0x3de9da20	0.11418557
152	0x3dc71d48	0.09722382
153	0xbd9fba5f	-0.07799219
154	0x3de80232	0.11328544
155	0x3da67d90	0.08129418
156	0xbdec050e	-0.115244016
157	0x3e696636	0.22792897
158	0xbe56f897	-0.20993267
159	0x3d805499	0.06266136
160	0x3e35da7e	0.1775913
161	0xbd4242b1	-0.047426883
162	0x3e9bd667	0.30437014
163	0xbdc99200	-0.098423004
164	0xbe20deb7	-0.15709959
165	0xbcd24b33	-0.025670623
166	0xbe577b7c	-0.210432
167	0x3e81425f	0.2524595
168	0xbdb6e856	-0.08931033
169	0xbe18e957	-0.14932762
170	0x3e1470cf	0.14496158
171	0xbe23763f	-0.15963076
172	0x3dbd6075	0.09246913
173	0xbe4dbb2f	-0.20090936
174	0xbd9c9a1f	-0.07646584
175	0x3e8b2fda	0.27184945
176	0xbe8ed367	-0.27895662
177	0x3e693f5a	0.22778073
178	0xbe71c1a6	-0.23609027
179	0xbe555697	-0.20833813
180	0xbd92de4f	-0.07171308
181	0xbb9524ec	-0.0045515206
182	0x3c139d34	0.009009648
183	0xbd6959bb	-0.05697034
184	0x3c665b8e	0.014059914
185	0x3d7f58b7	0.062340464
186	0x3db7ccea	0.08974631
187	0x3d858b0e	0.06520663
188	0x3d9a459b	0.075328074
189	0x3dfe926d	0.12430272
190	0x3d8c92d9	0.068639465
191	0xbc9e90dc	-0.019356184
192	0x3eaaad39	0.33335283
193	0xbe952e3f	-0.29136845
194	0xbdcb9e8f	-0.09942352
195	0x3dd23676	0.10264294
196	0x3d1ec7c8	0.038764745
197	0x3d0612d8	0.032732815
198	0x3d7eb8e0	0.06218803
199	0x3de07a48	0.10960823
200	0xbd8340b9	-0.06408829
201	0xba235b00	-0.00062315166
202	0xbd60c3da	-0.05487428
203	0x3d9b3690	0.07578766
204	0x3dad6d96	0.084681675
205	0x3e6f3a51	0.2336209
206	0xbe71579d	-0.23568578
207	0x3e8f9671	0.28044465
208	0xbea9567d	-0.33073798
209	0xbdbb0131	-0.091310866
210	0x3d1c3ca3	0.038143765
211	0xbd608977	-0.054818597
212	0x3cc1cee6	0.023658227
213	0x3d349655	0.04408868
214	0xbd2e6cd5	-0.04258426
215	0x3d150494	0.03638132
216	0xbc8c754c	-0.017145775
217	0x3de6136e	0.11234175
218	0xbd7a36bc	-0.061087355
219	0x3cb60b10	0.022222072
220	0x3db6b278	0.08920759
221	0xbd622fbc	-0.055221304
222	0x3c5226f0	0.012826666
223	0x3ca8e510	0.020617038
224	0xbd2336c6	-0.039847158
225	0xbd3dcc09	-0.04633716
226	0xbddecf4c	-0.108793825
227	0xbdcbd41b	-0.09952565
228	0xbd9daf3c	-0.07699439
229	0x3b9c95bf	0.0047785933
230	0xbe0b4366	-0.13599929
231	0x3e7dd5c7	0.24788581
232	0x3efbf321	0.4920893
233	0xbf23667d	-0.6382826
234	0x3e9ab6a2	0.30217463
235	0x3d5f488a	0.054512538
236	0x3d90ff4a	0.070799425
237	0xbd05a346	-0.032626413
238	0x3d4d734b	0.05015878
239	0x3d09cd20	0.033642888
240	0x3cf1c5c8	0.029513255
241	0x3e02ea4f	0.12784694
242	0xbe09f9b8	-0.13474166
243	0xbd9261a6	-0.07147531
244	0x3ded6332	0.11591186
245	0x3e003f60	0.12524176
246	0xbd9374f0	-0.072000384
247	0x3e9dc3bd	0.308134
248	0xbea6f4dd	-0.3260869
249	0xbe5d43ba	-0.21607867
250	0x3d687cde	0.056759708
251	0xbdb73a5f	-0.0894668
252	0x3ea8fcee	0.3300547
253	0xbe79edd0	-0.24407125
254	0xbd390b2b	-0.045176666
255	0x3e186870	0.1488359

bias f4 [5]
0	0x3e47a232	0.19495466
1	0xbdc05787	-0.093916945
2	0x3d7804b4	0.06055136
3	0xbc0f937a	-0.0087631885
4	0xbdb888a7	-0.09010439
