Models/GNNs/Models_40_36_Datasets/SecureWebContainer/2-hidden-layers/FocalLoss-aggreg-sum/model_RGCN_91390_samples_100_epochs_256_batchsize.pth (torch, 15306 bytes, 20 tensors)

weight f4 [8, 10]
0	0xbe666f4f	-0.22503398
1	0xbeb6147e	-0.3556251
2	0x3e670cf2	0.22563532
3	0x3faaf8bc	1.3357158
4	0x3e8a4ebf	0.27013204
5	0x3eb39955	0.3507792
6	0xbf272b5c	-0.65300536
7	0xbef78681	-0.48344806
8	0xbe9f41d4	-0.3110491
9	0xbef4eb1c	-0.47835624
10	0x3dc832b0	0.09775293
11	0xbefe53a5	-0.4967319
12	0x3bbec273	0.00582152
13	0x3ebdddf3	0.37083396
14	0x3f2b15c5	0.6683009
15	0xbf0ec0c8	-0.5576291
16	0x3e9ceee1	0.30651
17	0x3ee35165	0.44398037
18	0xbd8b82e6	-0.06812076
19	0xbe856fcd	-0.2606186
20	0xbe56c572	-0.20973757
21	0xbe5a7bc8	-0.21336281
22	0xbf31fa82	-0.6952287
23	0x3f2ec429	0.68268067
24	0x3e39468d	0.18093319
25	0xbe1d6841	-0.15371801
26	0x3f076689	0.5289083
27	0xbf026873	-0.50940627
28	0x3e27b99b	0.16379397
29	0x3f0aaac7	0.54166836
30	0x3ec22e38	0.37925887
31	0xbedba3f8	-0.42898536
32	0x3e1b9336	0.15192875
33	0x3d8bbb69	0.06822855
34	0x3e17ebe0	0.14836073
35	0xbea1b261	-0.31581405
36	0x3dc70112	0.09717001
37	0x3db837fe	0.08995055
38	0x3ecf1caf	0.4045157
39	0xbda38bd9	-0.07985658
40	0xbd9b5b98	-0.075858295
41	0x3defeb28	0.11714774
42	0xbe8da043	-0.27661332
43	0xbf0fd4e0	-0.56184196
44	0xbed51cea	-0.41623622
45	0x3ef574a4	0.47940552
46	0x3eb83438	0.3597734
47	0x3e74ddc8	0.23912728
48	0x3e4979b8	0.19675338
49	0xbeddcb57	-0.43319198
50	0xbf069c3f	-0.5258216
51	0x3f0cff76	0.550773
52	0xbeb488ca	-0.35260612
53	0xbd378d70	-0.04481262
54	0x3eaeafda	0.3411854
55	0xbe0e88dc	-0.13919395
56	0x3e4438a4	0.19162232
57	0x3ef6829c	0.48146522
58	0x3ef971dc	0.4871968
59	0x3eaad1f4	0.33363307
60	0x3e0f9e54	0.14025241
61	0xbd60b1c0	-0.054857016
62	0xbe19dfa6	-0.15026721
63	0xbf025256	-0.50906885
64	0x3e6e3b18	0.2326473
65	0x3e27a8c8	0.16372979
66	0xbeafe45c	-0.34353912
67	0xbe2f6a44	-0.17130381
68	0xbe78cf8e	-0.24297926
69	0x3de7cca0	0.11318326
70	0xbee4204d	-0.44555894
71	0x3e28cd24	0.16484505
72	0xbf416b9b	-0.7555482
73	0x3fa8ea83	1.3196567
74	0xbe249add	-0.160747
75	0x3e806e46	0.25084132
76	0x3fbd6fc9	1.4799739
77	0xbe424224	-0.18970543
78	0xbe73ba62	-0.23801568
79	0x3f629e92	0.8852321

bias f4 [10]
0	0xbcde546d	-0.027139867
1	0x00000000	0.0
2	0x3f27d46f	0.6555852
3	0x3f41c52a	0.75691473
4	0x3e8a8207	0.27052328
5	0x3eecf79c	0.4628266
6	0x3df23e7c	0.11828324
7	0xbd1d1703	-0.038352024
8	0xbd424278	-0.04742667
9	0x3ead0367	0.33791658

weight f4 [8, 10]
0	0xbf0f2b74	-0.5592568
1	0xbe736310	-0.23768258
2	0xbeadafda	-0.33923227
3	0xbeb21242	-0.34779555
4	0xbd85b5f0	-0.065288424
5	0xbee54eb1	-0.447866
6	0xbdb22064	-0.08697584
7	0xbed54324	-0.41652787
8	0xbefdba02	-0.49555975
9	0x3e82aa36	0.25520486
10	0xbe82d664	-0.25554192
11	0x3dde1270	0.108433604
12	0x3e30ac4c	0.17253226
13	0xbed11ff5	-0.40844694
14	0x3e837b16	0.25679845
15	0x3ea25816	0.3170783
16	0x3e2642cc	0.16236418
17	0xbe448dc0	-0.19194698
18	0xbf001a8d	-0.50040513
19	0x3e351054	0.1768201
20	0xbeb39870	-0.35077238
21	0x3e716c2c	0.2357642
22	0x3cab96e0	0.020945966
23	0xbe4c4892	-0.19949558
24	0xbdfcbde8	-0.12340909
25	0x3efa1c08	0.4884951
26	0xbd5d5290	-0.054033816
27	0xbe97806c	-0.29590166
28	0xbdf58d9c	-0.119899005
29	0x3e2b06ac	0.16701764
30	0x3db8bb60	0.09020114
31	0xbf0cb233	-0.5495941
32	0xbe8c34a1	-0.27383903
33	0x3eeaa304	0.45827496
34	0xbef2dfa2	-0.47436243
35	0xbe4964c8	-0.19667351
36	0xbeaedb7b	-0.34151825
37	0x3c84e8e0	0.016224325
38	0x3ee7b954	0.45258582
39	0xbbaaa600	-0.005207777
40	0xbe8fd429	-0.28091553
41	0x3f09d6a4	0.5384314
42	0x3e429ebc	0.19005865
43	0x3ed12b64	0.40853417
44	0x3eaf78e6	0.34271926
45	0x3e7b4878	0.24539363
46	0xbf04639d	-0.517145
47	0x3e5c55f4	0.21517164
48	0xbd34f670	-0.044180334
49	0x3f0a2464	0.5396178
50	0x3d73bac0	0.05950427
51	0xbe9c08e8	-0.30475545
52	0x3ef07fe8	0.46972585
53	0x3f02afb4	0.5104935
54	0xbe0f46ca	-0.13991848
55	0x3ee51280	0.44740677
56	0xbdda4a20	-0.106586695
57	0xbe83f532	-0.25773007
58	0xbeefa4d5	-0.46805444
59	0xbecb8bed	-0.39755192
60	0x3ea886a4	0.32915223
61	0xbcf2b5c0	-0.02962768
62	0x3da3adb0	0.07992113
63	0x3ee7e788	0.45293832
64	0xbef56df4	-0.4793545
65	0x3eb10be4	0.34579384
66	0xbdba6330	-0.0910095
67	0xbf0bc15c	-0.5459192
68	0x3e4a683c	0.19766325
69	0xbf108072	-0.5644599
70	0xbe0b4fa6	-0.13604602
71	0x3f0bbdaa	0.5458628
72	0xbe3a9ec8	-0.18224633
73	0xbe96934e	-0.2940926
74	0x3efc56a8	0.49284863
75	0x3e9faa4e	0.3118462
76	0x3eb52b28	0.35384488
77	0x3f061b5a	0.52385485
78	0xbedc0345	-0.42971244
79	0xbd58f710	-0.052969992

bias f4 [10]
0	0x00000000	0.0
1	0x00000000	0.0
2	0x00000000	0.0
3	0x00000000	0.0
4	0x00000000	0.0
5	0x00000000	0.0
6	0x00000000	0.0
7	0x00000000	0.0
8	0x00000000	0.0
9	0x00000000	0.0

weight f4 [8, 10]
0	0x3ed255ac	0.41080987
1	0xbf0db5c8	-0.553555
2	0xbe6b6a54	-0.2298978
3	0xbdaafb04	-0.08348659
4	0xbd154130	-0.03643912
5	0xbf10be2f	-0.565402
6	0x3efbb708	0.4916308
7	0xbeba2d72	-0.36362797
8	0x3e4790d8	0.19488847
9	0x3f12bc5e	0.57318676
10	0xbf0f3846	-0.5594524
11	0x3d40c9c0	0.047067404
12	0xbf11c969	-0.5694795
13	0x3f043faa	0.51659644
14	0xbeb408b3	-0.35162887
15	0x3e8e0932	0.2774139
16	0x3f02c07e	0.5107497
17	0x3efed9bc	0.49775493
18	0xbdae8f74	-0.08523455
19	0xbed1d134	-0.40979922
20	0xbea27c3d	-0.3173541
21	0x3f09d3d2	0.5383884
22	0xbe559c2e	-0.20860359
23	0x3e1599a8	0.14609396
24	0x3eb36032	0.3503433
25	0x3dad04a0	0.08448148
26	0x3db1d340	0.08682871
27	0x3deb36c0	0.11485052
28	0xbf0815d2	-0.53158295
29	0xbef0521a	-0.4693764
30	0x3ddb7c98	0.10717124
31	0xbe8648f3	-0.2622753
32	0xbdcd3444	-0.100197345
33	0x3ec810f8	0.39075446
34	0xbeaf23b0	-0.34206915
35	0x3eeaf018	0.45886302
36	0x3dbe2d10	0.09285939
37	0xbe915bc0	-0.28390312
38	0x3f0d2db8	0.55147886
39	0xbec1fee2	-0.37889773
40	0xbeaaf1e0	-0.3338766
41	0x3f13bc48	0.5770917
42	0xbd073b10	-0.03301531
43	0x3ef8d650	0.48601007
44	0xbd142d70	-0.036176145
45	0x3e777b6c	0.24168175
46	0x3d82a860	0.06379771
47	0xbdf3f468	-0.11911851
48	0x3f086c66	0.532904
49	0xbda04150	-0.07824957
50	0x3ec0eaec	0.3767923
51	0xbee7c93a	-0.4527071
52	0xbf1279c0	-0.57217026
53	0xbe9ff3b6	-0.31240624
54	0xbe1c0b1a	-0.1523861
55	0xbf038a9f	-0.51383394
56	0xbeba0486	-0.36331576
57	0x3ebb1b06	0.36544055
58	0x3ee599fc	0.44844043
59	0xbe98a841	-0.29815868
60	0xbee10670	-0.43950224
61	0xbefce45a	-0.49392968
62	0xbe2c8452	-0.16847351
63	0x3f118e1e	0.5685748
64	0x3eb2b18a	0.34901077
65	0xbebfceb1	-0.3746238
66	0x3a244c00	0.00062674284
67	0x3e9f5c4a	0.31125098
68	0x3dfcca78	0.12343305
69	0x3cfb0680	0.030642748
70	0xbe88c287	-0.26710913
71	0xbf0e902d	-0.55688745
72	0x3d6b5f90	0.057464182
73	0x3eb70060	0.35742474
74	0x3e9499a2	0.29023463
75	0xbeaba476	-0.3352391
76	0xbeb7f2b5	-0.35927358
77	0x3eb7518c	0.35804403
78	0xbe6fcbb8	-0.23417556
79	0xbef62dd0	-0.48081827

bias f4 [10]
0	0x00000000	0.0
1	0x00000000	0.0
2	0x00000000	0.0
3	0x00000000	0.0
4	0x00000000	0.0
5	0x00000000	0.0
6	0x00000000	0.0
7	0x00000000	0.0
8	0x00000000	0.0
9	0x00000000	0.0

weight f4 [10, 7]
0	0x3ebdaada	0.37044412
1	0xbe7b3723	-0.24532752
2	0x3e88938a	0.26675063
3	0xbd522d1d	-0.051312555
4	0xbd874554	-0.0660502
5	0xbe8a6477	-0.27029774
6	0x3ee19248	0.44056916
7	0xbdb4d598	-0.08829802
8	0xbe852d4e	-0.26011127
9	0xbed9b18e	-0.42518276
10	0xbc86f3c0	-0.016473651
11	0xbebb910f	-0.36634108
12	0xbe6741b4	-0.22583658
13	0x3dad4f28	0.084623635
14	0xbf1f9f52	-0.6235248
15	0x3f71383d	0.9422644
16	0x3f9478b0	1.1599331
17	0x3a02e4e6	0.0004993215
18	0xbfa65219	-1.2993804
19	0x3ec74df7	0.3892667
20	0xbf1a06f9	-0.6016689
21	0xc00ea49d	-2.2287972
22	0xbf327cd4	-0.6972172
23	0xbe513c73	-0.20433216
24	0xbd830f98	-0.06399459
25	0xbfd806ef	-1.6877116
26	0xbf19e6b2	-0.6011764
27	0xbf3e1b20	-0.7426014
28	0xbed432d5	-0.41445032
29	0x3edec047	0.4350607
30	0x3ee362d9	0.44411352
31	0x3eaae5bd	0.333784
32	0xbda15a51	-0.078785546
33	0xbefacc9e	-0.48984236
34	0xbf17a6d4	-0.59238935
35	0xbf84cbdf	-1.0374717
36	0x3f5d2044	0.8637736
37	0x3ec78f43	0.38976488
38	0x3efabbbd	0.48971358
39	0xbf729ad9	-0.9476753
40	0xbeb004e9	-0.34378746
41	0x3d636a54	0.055521324
42	0xbff54473	-1.9161514
43	0xbdaf447b	-0.085579835
44	0xbeabaa9c	-0.33528602
45	0x3d5bd442	0.05366922
46	0x3f517134	0.8181336
47	0xbf03a90b	-0.51429814
48	0xbf7328d1	-0.94984156
49	0xbf04a3af	-0.5181226
50	0xbd52cb55	-0.051463444
51	0x3eaeb8da	0.34125406
52	0xbeb754c8	-0.3580687
53	0x3bc1a023	0.0059089824
54	0x3ec6929a	0.38783723
55	0xbd12ad6e	-0.035809927
56	0x3ee46dde	0.44615072
57	0xbe3a86ff	-0.1821556
58	0xbf0e5f3a	-0.55614054
59	0xbd2070f5	-0.039170224
60	0xbedd77da	-0.43255502
61	0xbedd01e3	-0.43165502
62	0x3e0f4efc	0.13994974
63	0xbf4a8b59	-0.7911888
64	0xbe51ead5	-0.20499738
65	0x3eace4c3	0.3376828
66	0x3ed085ad	0.40726987
67	0xbe329d10	-0.17442727
68	0xbf0a5604	-0.540375
69	0xbf54a2dd	-0.8306101

bias f4 [7]
0	0xbee1d64d	-0.4410881
1	0x3f0a536a	0.5403353
2	0x3f2e0837	0.67981285
3	0x3ea85f13	0.32885036
4	0x3e9bcdd9	0.30430487
5	0xbf02ba3f	-0.5106544
6	0xbeaa80b9	-0.33301333

weight f4 [10, 7]
0	0xbedd7831	-0.4325576
1	0xbf025d10	-0.5092325
2	0x3ecb9600	0.39762878
3	0xbe882620	-0.26591587
4	0xbe441298	-0.19147718
5	0xbee0a3c8	-0.43874955
6	0x3e5ffbd8	0.21873415
7	0x3f152b50	0.58269215
8	0xbd797ac0	-0.06090808
9	0x3e523898	0.20529401
10	0xbf15cfda	-0.5852028
11	0x3f0030e8	0.50074625
12	0xbe88c1ab	-0.26710257
13	0x3e9ddf4e	0.3083443
14	0xbe8a966c	-0.27067888
15	0x3f0b4902	0.54408276
16	0xbf0dedb7	-0.5544085
17	0x3e2ab42c	0.16670293
18	0x3c26f480	0.010190129
19	0x3e0fe85c	0.14053482
20	0xbeff3bdb	-0.49850354
21	0xbe001fde	-0.12512156
22	0xbdffa404	-0.124824554
23	0xbebb4e3e	-0.36583132
24	0xbd96ccd0	-0.07363284
25	0x3e7807a0	0.24221659
26	0xbc3674c0	-0.011136234
27	0xbe03de48	-0.12877762
28	0xbd66ec30	-0.05637759
29	0x3ee2cc70	0.44296598
30	0xbd38e9b0	-0.045144737
31	0x3e6a40fc	0.22876352
32	0x3ef39408	0.47573876
33	0x3ef21ccc	0.47287595
34	0x3e936e80	0.28795242
35	0x3ef2bcd8	0.474097
36	0xbe42d782	-0.19027522
37	0xbee73b8c	-0.45162618
38	0xbcdfb6a0	-0.027308762
39	0x3dfa2c50	0.12215483
40	0xbe15d1f2	-0.14630869
41	0x3f042d9c	0.51632094
42	0x3e12395c	0.14279693
43	0x3e285ab8	0.16440856
44	0xbe01aa62	-0.12662652
45	0x3f134668	0.57529306
46	0x3e552298	0.20813978
47	0x3e4ec2fc	0.20191568
48	0x3e93ad46	0.28843135
49	0x3e564a90	0.20926881
50	0xbd10a110	-0.03530985
51	0x386c4000	5.632639e-05
52	0x3e81a58a	0.2532161
53	0x3efb4e94	0.49083388
54	0x3ef6b6a8	0.4818623
55	0xbe1e8266	-0.1547943
56	0x3e499a18	0.19687688
57	0xbeea21d8	-0.45728946
58	0x3f035d74	0.51314473
59	0xbe7bb1ce	-0.24579546
60	0xbf02e189	-0.5112539
61	0x3d193de0	0.037412524
62	0xbf129800	-0.57263184
63	0xbe177f74	-0.14794713
64	0xbeaca5b3	-0.33720168
65	0x3efc3594	0.49259627
66	0xbe90c591	-0.2827573
67	0xbd9b1220	-0.075718164
68	0xbdcb0b68	-0.09914285
69	0xbebc4d94	-0.36777937

bias f4 [7]
0	0x00000000	0.0
1	0x00000000	0.0
2	0x00000000	0.0
3	0x00000000	0.0
4	0x00000000	0.0
5	0x00000000	0.0
6	0x00000000	0.0

weight f4 [10, 7]
0	0x3ef9c058	0.4877956
1	0xbe4e7428	-0.20161498
2	0x3e8660d2	0.26245743
3	0xbe848662	-0.25883776
4	0xbe9ef037	-0.31042644
5	0x3eabf122	0.33582407
6	0xbeb330c8	-0.34998155
7	0xbe8e1386	-0.2774927
8	0xbc2a60c0	-0.010399044
9	0xbea07b78	-0.313442
10	0x3f036922	0.51332295
11	0x3efcb878	0.49359488
12	0x3dbdac48	0.09261376
13	0xbeda3917	-0.4262168
14	0x3ec5c8c2	0.3862973
15	0x3e494a50	0.19657254
16	0xbf0241ad	-0.50881463
17	0xbebb87fb	-0.36627182
18	0xbedc6efc	-0.43053424
19	0x3e59e458	0.21278512
20	0x3eb4a2d4	0.35280478
21	0x3e8482f8	0.2588117
22	0x3e217e8c	0.1577093
23	0xbee95cb8	-0.4557855
24	0xbeb7041e	-0.3574533
25	0x3f051d4a	0.51997817
26	0x3f053216	0.5202955
27	0x3cf285e0	0.029604852
28	0x3dcf0240	0.10107851
29	0xbeff9838	-0.4992082
30	0xbeeb5a54	-0.45967352
31	0x3e1b1c5c	0.15147537
32	0x3d5f9cd0	0.054592907
33	0x3f12ce32	0.5734588
34	0x3e2826a4	0.1642099
35	0x3efa5178	0.4889028
36	0xbe89e53c	-0.26932704
37	0x3ee58a98	0.448323
38	0x3e22c354	0.15894824
39	0xbf0a9026	-0.54126203
40	0x3d4211f0	0.047380388
41	0x3ebbe350	0.36696863
42	0xbe7cd1b8	-0.24689376
43	0x3ea17212	0.3153234
44	0x3e520ab0	0.2051189
45	0xbe8d55e5	-0.27604595
46	0xbd8591a0	-0.065219164
47	0x3e78ecdc	0.24309105
48	0x3ec602b2	0.3867393
49	0xbe6024f8	-0.21889102
50	0xbe2f0b02	-0.17094043
51	0xbeee56cc	-0.46550596
52	0xbc0df940	-0.008665383
53	0x3e849fee	0.25903267
54	0xbefcea76	-0.4939763
55	0x3e11ce54	0.14238864
56	0x3e148790	0.14504838
57	0x3f0e752c	0.5564754
58	0x3e843ec4	0.25829136
59	0x3eb47c44	0.35251057
60	0x3eaa0b22	0.3321162
61	0x3da2ac80	0.07943058
62	0xbf0ee75b	-0.5582177
63	0xbe5bf6d0	-0.2148087
64	0x3ecc3a98	0.39888453
65	0xbd80dc40	-0.06292009
66	0xbe2d8c3a	-0.16948023
67	0xbebee322	-0.37282664
68	0xbc6ebf40	-0.014571965
69	0xbe7a9906	-0.24472436

bias f4 [7]
0	0x00000000	0.0
1	0x00000000	0.0
2	0x00000000	0.0
3	0x00000000	0.0
4	0x00000000	0.0
5	0x00000000	0.0
6	0x00000000	0.0

weight f4 [7, 5]
0	0xbe5ff870	-0.21872115
1	0xba902189	-0.0010996322
2	0xbe3b4330	-0.18287349
3	0x3f3d410d	0.73927385
4	0x3f3bfa31	0.73428637
5	0xbf8c7dc8	-1.0975885
6	0xbf01e970	-0.5074682
7	0x3efad443	0.48990068
8	0x3f2cd24a	0.67508376
9	0xbedf6099	-0.43628386
10	0xbfadf704	-1.3591008
11	0xbe2466f0	-0.16054893
12	0xbf375fa5	-0.71630317
13	0x3f0e4bad	0.5558422
14	0x3eebe286	0.4607126
15	0x3e81e1e8	0.25367665
16	0x3e085270	0.13312697
17	0x3f2ed9c6	0.68301046
18	0xbf16183a	-0.58630717
19	0x3de2f16c	0.11081204
20	0x3f9e8fe8	1.2387667
21	0xbef3a6ee	-0.47588295
22	0x3ee66d3a	0.45005208
23	0xbf3dffeb	-0.74218625
24	0xbedf90fa	-0.43665296
25	0xbed0a9d8	-0.4075458
26	0x3e91ba42	0.28462416
27	0xbe238a3a	-0.15970698
28	0x3e29a614	0.1656726
29	0x3f75e106	0.96046484
30	0x3c6d0267	0.014465905
31	0x3f684c1a	0.9074112
32	0xbf37ca2e	-0.71792877
33	0x3e801d17	0.25022194
34	0x3ee5c84c	0.44879377

bias f4 [5]
0	0x3eb102cb	0.34572443
1	0xbe8464e4	-0.25858223
2	0x3e6743b4	0.2258442
3	0xbe64ad97	-0.22331844
4	0xbeab4a46	-0.33455104

weight f4 [7, 5]
0	0xbe96bd86	-0.2944147
1	0x3c0ede12	0.008719938
2	0xbe5f93e4	-0.2183376
3	0x3e8e616c	0.27808702
4	0x3faed6a4	1.3659253
5	0xbf905677	-1.1276387
6	0x3f93e3d4	1.1553903
7	0x3ec0b13a	0.37635213
8	0xbee79fc6	-0.45239085
9	0xbead0669	-0.33793953
10	0xbf204e68	-0.6261964
11	0x3f9fee1d	1.2494541
12	0x3ee38de0	0.4444418
13	0xbf6b2d18	-0.9186568
14	0xbfa9cb52	-1.3265173
15	0xbf06b88f	-0.52625364
16	0x3fa6c3d0	1.3028507
17	0xbdece6ff	-0.115674965
18	0xbe11fae5	-0.14255865
19	0xbfbd5224	-1.4790692
20	0xbf04a2e1	-0.51811033
21	0x3f8f046c	1.1173224
22	0xbfce777d	-1.6130215
23	0xbf829319	-1.0201141
24	0xbf90d4b9	-1.1314918
25	0x3f8c322c	1.0952811
26	0xbdd93cd5	-0.10607306
27	0x3f106c66	0.564154
28	0x3f72f4b2	0.94904625
29	0x3f7bf70b	0.9842383
30	0x3f565142	0.8371774
31	0x3db8f7e3	0.09031656
32	0xbf165752	-0.5872699
33	0x3f6d09f0	0.9259329
34	0x3f84deb3	1.0380462

bias f4 [5]
0	0x3e76a12e	0.24084923
1	0xbe61d9f0	-0.22055793
2	0x3e9b8a2e	0.3037886
3	0x3e60769a	0.21920243
4	0xbe893227	-0.26796076

weight f4 [7, 5]
0	0xbf37d014	-0.7180188
1	0x3e93ae21	0.28843787
2	0xbeb40d11	-0.3516622
3	0xbfa53394	-1.2906365
4	0x3fdd3f21	1.728489
5	0x3f8ff03c	1.1245189
6	0xbfa70aa0	-1.3050117
7	0x3cce42f1	0.025178405
8	0x3f90325a	1.1265366
9	0xbf80907f	-1.0044097
10	0x3f20a09f	0.6274509
11	0xbf4ffa4d	-0.81241304
12	0x3f374032	0.7158233
13	0x3fce048f	1.6095141
14	0xbf92986e	-1.1452768
15	0x3d88e698	0.06684607
16	0xbf66a8a1	-0.9010106
17	0x3f80e4a4	1.0069776
18	0x3f190b6b	0.5978305
19	0xbf0bfa29	-0.5467859
20	0x3d945dbc	0.07244441
21	0x3ef88546	0.4853918
22	0xbf2d0dad	-0.6759899
23	0xbeacf381	-0.3377953
24	0x3f4cf9f7	0.80068916
25	0xbf8771f6	-1.0581653
26	0x3f646a01	0.8922425
27	0xbf760b00	-0.96110535
28	0xbef0a16a	-0.4699815
29	0x3f6fb8c5	0.9364131
30	0xbefe5e46	-0.496813
31	0x3f0ef163	0.55837077
32	0xbf7023b9	-0.9380451
33	0xbf36f048	-0.7146039
34	0x3dc41a32	0.09575309

bias f4 [5]
0	0x3e76a12e	0.24084923
1	0xbe61d9f0	-0.22055793
2	0x3e9b8a2e	0.3037886
3	0x3e60769a	0.21920243
4	0xbe893227	-0.26796076

weight f4 [3, 10]
0	0xbe7b9d66	-0.24571761
1	0x3ecead88	0.4036677
2	0xbf28a8ed	-0.6588276
3	0x3f26ded3	0.6518375
4	0x3f0780a1	0.5293065
5	0xbe1b8bda	-0.15190068
6	0x3dde143e	0.10843705
7	0xbf69495d	-0.9112757
8	0xbf261bdb	-0.64886254
9	0x3fc58328	1.5430651
10	0xbf519847	-0.8187298
11	0xbe640500	-0.22267532
12	0xbe86fa7e	-0.26362985
13	0x3f05cbae	0.52263916
14	0x3d12b0a4	0.03581299
15	0xbf15693b	-0.58363694
16	0x3f6cd0ce	0.9250611
17	0xbea7255d	-0.32645693
18	0xbf1808d0	-0.59388447
19	0xbf0e3561	-0.555502
20	0x3eebd473	0.46060523
21	0xbee641c0	-0.44972038
22	0x3e649b6c	0.22324914
23	0xbf0ddb17	-0.5541243
24	0xbe8f257c	-0.27958286
25	0x3f1fe66d	0.62460977
26	0xbf2b5d67	-0.66939396
27	0x3ec08536	0.37601632
28	0x3f29fc98	0.6640105
29	0xbee7b453	-0.45254764

bias f4 [3]
0	0x3d7325a6	0.059362076
1	0x3d52d76f	0.051474985
2	0x3e61815e	0.22022006
