Models/GNNs/ModelsLowDiversityDatasets/SecureWebContainer/1hiddenlayer/FocalLossAggregSum/model_RGCN_1000_samples_100_epochs_128_batchsize.pth (torch, 11150 bytes, 14 tensors)

weight f4 [8, 10]
00000000: 9ae7 443f be81 0abf 1cd6 d2be f514 353f
00000010: e2fe 66be 3a25 56be 81ba 12bf 9df5 83be
00000020: 404a 483d e62e 62be 3e80 3a3f 307d f23e
00000030: 7025 ca3e df62 0d3e 129f 12be 9081 af3d
00000040: 9a54 15be f61c 19be e4ee c03e 03c5 1d3f
00000050: 84cf 023e 845b 5f3e 750d a3be f756 263f
00000060: 5824 b23d fc88 353e a21f cd3e f60d 8abe
00000070: 122a 9cbe d9bf 2b3f ce72 9bbc 300b c1be
00000080: 2643 30be 418e 003e 5282 7fbe 281f dfbe
00000090: b0d1 1e3e 35af f43e 288e a7be 6b3d 8c3e
000000a0: 26bd 2bbe 12cc f3be 8059 0a3f dc83 ca3e
000000b0: 0c84 f33e b422 96be 34d6 303e b41f 133e
000000c0: 1081 d6be 3444 05be d006 06bf 70a0 753d
000000d0: 5019 723d 200a da3c 3ccb 913e e83e 73be
000000e0: a09b 31bd 73a0 81be 2c99 f03e 50a5 02bf
000000f0: 4518 11bf da21 bbbe 1a3f 09be d087 5fbd
00000100: 18e0 0c3e 8054 963b 20dc c9be 9c99 133e
00000110: 7eed cdbe ac1b 8f3e 7e12 7e3e 2a82 21be
00000120: 7cac 2fbe f11e 393f 2aaa 56be e896 dabe
00000130: c6fe efbe 6c96 79be 2ca7 0abf 5a49 193f
0.76915896 -0.5410422 -0.41178977 0.707351 -0.22558168 -0.20912638 -0.5731583 -0.25773326
0.048898935 -0.22088203 0.7285193 0.47361135 0.39481688 0.13807248 -0.14318493 0.08569634
-0.14583054 -0.14952454 0.3768226 0.6162874 0.12774473 0.21812254 -0.31846204 0.6497645
0.08698338 0.17728037 0.40063196 -0.26963776 -0.30500847 0.6708961 -0.018975642 -0.37703848
-0.17213115 0.12554266 -0.24952057 -0.43578458 0.15509677 0.47789922 -0.32725644 0.27390608
-0.16771373 -0.4761663 0.54042816 0.39553726 0.4756168 -0.2932335 0.17269212 0.14367563
-0.41895342 -0.13014299 -0.52354145 0.05996746 0.05910617 0.026616156 0.28475368 -0.23754466
-0.043361306 -0.25317726 0.4699186 -0.51033497 -0.5667766 -0.36549264 -0.13402978 -0.05457288
0.1375736 0.00458771 -0.39425755 0.14414066 -0.40220255 0.279508 0.24811742 -0.1577231
-0.17155641 0.7231284 -0.2096335 -0.42693257 -0.46874064 -0.24373788 -0.54161334 0.5987755

bias f4 [10]
00000000: 258c 993e b107 2cbd 0000 0000 d2d0 9e3e
00000010: 0000 0000 0000 0000 0000 0000 6658 8fbd
00000020: 0000 0000 2b62 a53e
0.29989734 -0.041999523 0.0 0.31018692 0.0 0.0 0.0 -0.069992825
0.0 0.3230146

weight f4 [8, 10]
00000000: 3c10 d3be 78a6 58be 500f 8d3e 18bd 82be
00000010: 6a2b edbe dcc6 ecbe 8452 25be 0022 97bb
00000020: 6c1d 9cbe 4e64 023f d262 0e3f 92dd 9ebe
00000030: a8d3 fe3e d013 6b3e 0868 78be 9a71 8abe
00000040: e603 a5be 121b cbbe 40d8 033d 5ac3 6bbe
00000050: 6c85 783e 56d1 0ebf e084 483d d861 a3bd
00000060: c53a eebe f0fd de3e b0d7 123d 14ab fe3e
00000070: 60c9 10bd 9602 87be c055 e53e 8825 07bf
00000080: 2aa4 dfbe 2698 02bf 5dbe 13bf 50ac f1be
00000090: b2c2 0d3f e69a 6ebe 8c74 bfbe 00e9 0dbf
000000a0: 693c c4be fcdd 103e 80fe 8dbc b8fe 6d3e
000000b0: 46ad b7be a4d4 c43e 2736 efbe cc48 013e
000000c0: 765e c8be 9063 f33d acb2 f13e 8845 29be
000000d0: c7ba 03bf 00fe 00be 2cdf c03e 1635 c4be
000000e0: 3079 dabd eb3c fabe 7c4b 13be 2086 1bbd
000000f0: 40b7 c0be 70f3 f23e 702d 393e 7230 cd3e
00000100: 2da7 f7be 30a3 6e3e ac4f ebbe 332f 99be
00000110: 711a 96be 1445 e23e b848 cebe 444e 1f3e
00000120: 74cf b73e 82d8 c9be 72fc 09bf 0a12 0c3f
00000130: aef7 8e3e 28fb b3bd e64e a33e 5a84 79be
-0.41223323 -0.21157253 0.27550745 -0.25534892 -0.46322185 -0.46245468 -0.16144758 -0.0046122074
-0.30491197 0.509343 0.5561954 -0.3102842 0.49770856 0.22956777 -0.24258435 -0.27039796
-0.32229537 -0.3966909 0.032188654 -0.2302374 0.24269646 -0.5578817 0.048954844 -0.079776466
-0.46529213 0.43553114 0.035850227 0.49739897 -0.035348296 -0.2636916 0.44791985 -0.52791643
-0.43679935 -0.5101341 -0.57712346 -0.47201777 0.55375206 -0.23301277 -0.37393606 -0.55433655
-0.3832734 0.1414718 -0.01733327 0.23241699 -0.35874385 0.38443482 -0.46721002 0.12625426
-0.39134568 0.118842244 0.47206628 -0.1653043 -0.51456875 -0.12596893 0.37670267 -0.3832175
-0.10667646 -0.48874602 -0.14384264 -0.03796971 -0.3763981 0.47451353 0.1808374 0.40076023
-0.48369732 0.23304439 -0.45959222 -0.29918823 -0.29317048 0.44193327 -0.40289855 0.155572
0.35900462 -0.39422995 -0.53900826 0.54715025 0.2792334 -0.08788139 0.31896132 -0.24366894

bias f4 [10]
00000000: 0000 0000 0000 0000 0000 0000 0000 0000
00000010: 0000 0000 0000 0000 0000 0000 0000 0000
00000020: 0000 0000 0000 0000
0.0 0.0 0.0 0.0 0.0 0.0 0.0 0.0
0.0 0.0

weight f4 [8, 10]
00000000: aead 823e e6ac 4fbe 5e0d 2ebe 0e48 12bf
00000010: 880a fcbd 1aa0 853e f6cf b0be a448 be3e
00000020: 1eaa bd3e 907e 583e f011 8c3e b097 abbd
00000030: 8043 e33c 4479 00be 50e2 3ebe 3532 8fbe
00000040: 9254 3fbe 6e43 3cbe 8856 f4be 180c d03e
00000050: c45d f73e 4026 fb3e a43d 6ebe e308 bebe
00000060: 2cef 6d3e b4be ef3e d0f5 fd3d e237 af3e
00000070: 206f 91bd e06f fdbd 0020 12ba c03a 763d
00000080: be1f b7be 901b 633d 8090 e0bb 7099 c63e
00000090: 94bd 6dbe 80a1 babc a041 083d 1b56 bdbe
000000a0: 94ab 5a3e 86cd 3abe 0031 333e 41a7 e8be
000000b0: 0026 55bd 60b7 2c3d bcc8 78be 4ae4 7abe
000000c0: 7cfc ec3e 2c71 01bf 0077 333e 0836 7abe
000000d0: 20bf 263d a879 f1bd a0af ca3c f5bc f0be
000000e0: 0600 9f3e ac80 133f 54e7 29be 4006 193e
000000f0: e41b 06bf 96af c73e 1e23 a3be c099 853e
00000100: 34af 41be 00ed 6b3d 4eec 1cbe 834e 8dbe
00000110: c40d 7ebe 38a1 fd3e ccd0 fbbd 50a0 ba3d
00000120: 9c11 e4be e0b5 7ebd 0cbb fa3e 6a21 7ebe
00000130: ec1e 2a3e 328a 09bf f55d 8ebe 3b13 10bf
0.25523132 -0.202808 -0.16997287 -0.57141197 -0.12306696 0.2609871 -0.34533662 0.37164795
0.37043852 0.2114203 0.27357435 -0.083785415 0.027742147 -0.12546259 -0.18641019 -0.27967992
-0.18684605 -0.18385097 -0.47722268 0.40634227 0.48313725 0.4905262 -0.23265702 -0.37116155
0.23235768 0.46825182 0.12400401 0.34222323 -0.071012735 -0.12374854 -0.00055742264 0.060114622
-0.35766405 0.055446208 -0.0068531632 0.3878894 -0.2321685 -0.022782087 0.03326571 -0.36979756
0.21354514 -0.18242463 0.17499161 -0.45440105 -0.052038193 0.042167068 -0.24295324 -0.24501148
0.4628638 -0.5056331 0.17525864 -0.24434674 0.040709615 -0.11790782 0.024741948 -0.47019163
0.31054705 0.5761821 -0.16592151 0.1494379 -0.5238631 0.3900115 -0.3186273 0.26093864
-0.18914491 0.057599068 -0.15324518 -0.27598962 -0.24809939 0.49537063 -0.12295684 0.091126084
-0.44544685 -0.06218517 0.4897083 -0.24817434 0.16613358 -0.53726494 -0.2780606 -0.56279343

bias f4 [10]
00000000: 0000 0000 0000 0000 0000 0000 0000 0000
00000010: 0000 0000 0000 0000 0000 0000 0000 0000
00000020: 0000 0000 0000 0000
0.0 0.0 0.0 0.0 0.0 0.0 0.0 0.0
0.0 0.0

weight f4 [10, 5]
00000000: f224 e3be 5122 fa3d b4f1 473f 8706 403f
00000010: 21be 963e 5436 bbbc f574 0dbf 1510 223d
00000020: 8340 9fbe 7e2a bfbe 938d 103f 184c c8be
00000030: 08f5 c8bd b14b 033f d2d5 ef3e 5879 963e
00000040: 89cd 5cbe 5785 893d 0b38 55bd 2807 7d3e
00000050: a2a8 5cbe 40ce cf3d 1fff 1b3f b69c a43e
00000060: 5429 783e bc59 933e e08a 09bf f998 1e3f
00000070: e8c3 99bd 36dd bf3e faf1 3bbe e054 71bd
00000080: 623e 09bf 4566 8fbe 41c0 1d3f 8bec d7bd
00000090: e49e e6bd 752d 68bc 8c07 d03e d4a5 d4be
000000a0: 923e 7abe 0426 e9be ceb8 b23e 9899 8d3d
000000b0: c423 073e 2134 fbbe de3b f13e 3dd2 993e
000000c0: 61ae f23e 3165 a03e
-0.44364125 0.122135766 0.78103185 0.7500996 0.29441932 -0.022853054 -0.5525659 0.03956612
-0.31103906 -0.37337106 0.56466025 -0.39120555 -0.09812361 0.5128737 0.4684282 0.29389453
-0.2156278 0.06714886 -0.0520554 0.24709761 -0.21548703 0.10146761 0.6093616 0.3215081
0.24234515 0.287794 -0.5372753 0.6195217 -0.07508069 0.37473458 -0.18354025 -0.058918834
-0.53610814 -0.28007713 0.6162148 -0.10543164 -0.11260775 -0.014170994 0.40630758 -0.41532767
-0.24437931 -0.45536816 0.3490662 0.06914061 0.13197237 -0.4906321 0.47115988 0.30043212
0.47398666 0.31327203

bias f4 [5]
00000000: 8ba2 48be ab38 18bc c6df 893e 26df 733e
00000010: 1541 5f3e
-0.19593255 -0.009290854 0.26928538 0.23815593 0.2180217

weight f4 [10, 5]
00000000: e351 fe3e c7c9 d1be e499 fd3e faff 49bf
00000010: 364b ee3d 10fa 89be 2711 2a3e 8fb3 ecbe
00000020: f87e 033d 96a9 da3e c051 debd e25f fb3e
00000030: c043 0cbc 1651 d13e 1333 b5be 2ba8 813f
00000040: ea59 3dbf 5731 8c3f 6584 c5be 861b 1c3e
00000050: aafa 953e 0d37 183f 340b 21be 8cb4 06bf
00000060: 323e 05bf 0066 183b 2449 6dbe fe66 c8be
00000070: ab5e 093f 8192 00bf 3608 8abe 6da6 1f3f
00000080: 906b bcbd 36e8 8b3e 140b 1cbf d76e e6be
00000090: 8acf d53e 0c2a 89bd 2fbd 843e efeb 193f
000000a0: c9fb 133f 52d5 58be 2875 963e 5a6b 0cbe
000000b0: 74c7 49be 00aa 0b3f 4895 49bd 5b3c 503f
000000c0: d58a 053e 69f7 19bf
0.4967185 -0.40974256 0.49531472 -0.78906214 0.11635439 -0.26948595 0.16608106 -0.46230742
0.03210351 0.4270751 -0.10855436 0.4909659 -0.008561075 0.40882176 -0.3539053 1.0129446
-0.7396532 1.0952557 -0.38577572 0.15244874 0.29292804 0.59459 -0.1572693 -0.5261924
-0.5204803 0.0023254156 -0.23172432 -0.39141077 0.53660077 -0.5022355 -0.2695939 0.6236332
-0.092002034 0.273256 -0.60954404 -0.4500644 0.41759902 -0.06697473 0.25925586 0.6012563
0.5780607 -0.21175125 0.29386258 -0.13712826 -0.19704992 0.54556274 -0.04921463 0.81342095
0.13041241 -0.6014314

bias f4 [5]
00000000: 3f6d 5abe 2356 6f3e acba 923e 665a 673e
00000010: d67b 493e
-0.21330737 0.23372702 0.28658044 0.22593078 0.19676146

weight f4 [10, 5]
00000000: a674 4fbf d056 a0bd 374c c8bc 4cb8 553f
00000010: 9263 543f caee 41bd c87c 0f3f f6a0 183f
00000020: db1c e1be 9183 af3d 1c40 21bf a298 c63e
00000030: ee2c 05bf 7ab7 6fbe 0016 90bb 277a 1abf
00000040: e389 6f3f 1d5f babc 7f8e 42be c29f f63e
00000050: ff57 09bf f869 253e e5ce edbe 6093 d83d
00000060: a2bf 07bf 06a7 b73e b3ad 033f 0f1f 173f
00000070: 1ba1 0a3f 107f 983e 487f df3d 1095 dc3d
00000080: 14ce cfbe 9033 3e3d 3864 8c3d 3bcf 723e
00000090: 0e43 a7be ba4c 06bf ab88 ab3e 6a4b 22be
000000a0: cd59 99be efd5 1c3f 20ff ab3c e8e2 64be
000000b0: 9b7a 213f 3e46 64be ee02 ba3e c885 babd
000000c0: 4091 243f cd89 673f
-0.81037366 -0.07829058 -0.024450405 0.8348434 0.8296443 -0.047346868 0.56049776 0.59620607
-0.43967327 0.08570016 -0.6298845 0.38788325 -0.5202168 -0.23409835 -0.004397154 -0.6034264
0.93569773 -0.022750432 -0.1899967 0.4816876 -0.53649896 0.16153705 -0.4644691 0.105749846
-0.53026783 0.35869616 0.5143692 0.59031767 0.5415208 0.2978444 0.10912949 0.10770619
-0.40586913 0.046435893 0.06855053 0.23711865 -0.32668346 -0.52460825 0.33502707 -0.1584908
-0.29951325 0.61263937 0.020995677 -0.22352183 0.63077706 -0.2229242 0.3633036 -0.09107548
0.64284134 0.9044464

bias f4 [5]
00000000: 3f6d 5abe 2356 6f3e acba 923e 665a 673e
00000010: d67b 493e
-0.21330737 0.23372702 0.28658044 0.22593078 0.19676146

weight f4 [3, 10]
00000000: 8be0 983e d1e6 e73d 6d24 81be b048 12bf
00000010: e80c 8cbe 9b84 df3e a725 cbbe 6576 24bf
00000020: f900 abbe 9598 06bf 8bf6 d13e df82 cdbe
00000030: c7b3 6fbd 2ad7 8a3d 5256 7fbe c591 ea3e
00000040: 3ee0 f0be 8a21 063f 445c 9fbe 70f4 04bc
00000050: 2dbf d7be aa28 813d 0105 c33e f41e 913e
00000060: ffc2 da3e 446a cfbe 4adb ce3e 28f2 fabb
00000070: cd1d dd3e 2de8 093f
0.29858813 0.113233216 -0.25223103 -0.5714216 -0.27353597 0.43655857 -0.39677164 -0.64243156
-0.3339918 -0.5257657 0.4100841 -0.4013891 -0.05852106 0.067793205 -0.24935272 0.45814338
-0.47046083 0.52394927 -0.3112508 -0.008114919 -0.42138043 0.06306584 0.38089755 0.28343928
0.42726895 -0.40510762 0.4040168 -0.007658262 0.431868 0.538699

bias f4 [3]
00000000: 256d 05bd aa8c 79be 8d1b ca3e
-0.03257479 -0.24370065 0.39474145
