Models/GNNs/ModelsLowDiversityDatasets/SecureWebContainer/1hiddenlayer/FocalLossAggregSum/model_RGCN_1000_samples_20_epochs_512_batchsize.pth (torch, 11132 bytes, 14 tensors)

weight f4 [8, 10]
000000 c0 56 a3 3d b0 d4 06 bf 10 c0 46 be 7e 75 95 be
       0.079755306 -0.52668285 -0.19409204 -0.29191202
000010 18 53 84 3d b4 67 b5 3e 72 5a 05 3f 1f d5 e7 3e
       0.064611614 0.35430682 0.52091134 0.45279786
000020 d7 bc 5a 3d 98 da 9e 3d 88 69 24 3e 53 2e 2c 3e
       0.053402748 0.07756537 0.16055882 0.16814546
000030 05 11 30 be 2d 4c aa be c4 72 fa be b4 92 06 3e
       -0.17193992 -0.33261243 -0.48915684 0.131419
000040 38 36 39 3c c9 74 10 3f 0b f3 c5 be 0c 9c 11 bf
       0.011304431 0.564282 -0.3866199 -0.56878734
000050 dc a1 cd be 03 a1 09 3f 5e 80 d2 3e 3b 9c f7 3e
       -0.4016255 0.5376131 0.4111356 0.48361382
000060 4c 44 5b 3e a0 1b d5 3e 85 27 4d be ac b4 91 be
       0.21412772 0.4162264 -0.20034607 -0.28458154
000070 44 ef 7e be 70 9a ad be 0f be 03 bf 5b ae 07 be
       -0.2489596 -0.3390689 -0.5146188 -0.13250105
000080 b6 e7 05 3e 45 64 b1 3e b4 27 70 be 35 1a 62 3e
       0.13076672 0.34646812 -0.23452646 0.2208031
000090 93 fc ff bd de fd 44 be 60 8c b7 be ac d3 84 3e
       -0.124993466 -0.19237468 -0.35849285 0.25942743
0000a0 20 ce 5c bd 30 15 7c bd fc a8 0e bf b0 9e 52 bd
       -0.053907514 -0.061543643 -0.557266 -0.051420867
0000b0 51 3f f9 be 80 d3 a0 bd 7a 6b a7 3e 76 52 a4 be
       -0.4868112 -0.078528404 0.32699186 -0.32094163
0000c0 4c 7f 39 3e 00 71 f6 bb 90 7c dd bd 18 aa f8 3d
       0.18114966 -0.007520795 -0.10814774 0.12141818
0000d0 40 78 23 3c 2c 82 04 3f 20 87 dc bc 58 5c 01 be
       0.0099774 0.51761127 -0.026919901 -0.12632883
0000e0 6c 41 7d 3e b2 56 0b 3f 00 7d 00 3e d2 09 02 3f
       0.24731988 0.5442916 0.12547684 0.50796235
0000f0 a4 3c c9 bd d3 ac d5 be 3b 3c 0d bf d4 53 9e 3e
       -0.098260194 -0.41733417 -0.5517003 0.3092333
000100 20 b3 f7 3c 68 15 52 be 80 2f e7 bc 9c 86 f9 be
       0.03023678 -0.20515978 -0.028220892 -0.4873551
000110 f4 0d 36 3e 1a fa 9d 3e a4 73 59 be 06 f2 2a 3e
       0.1777876 0.30854875 -0.2123552 0.16693887
000120 4c bb a8 3d f0 81 c2 3e 60 8c f7 3d b3 87 0d bf
       0.08238849 0.3798976 0.12087321 -0.55285186
000130 ae e4 68 be 82 cb 02 3d bb 1b 12 3f 9b a4 ed be
       -0.22743484 0.03193236 0.57073563 -0.46414647

bias f4 [10]
000000 00 00 00 00 0f 1b 37 3d 91 a8 34 3d d1 56 05 bd
       0.0 0.04470354 0.04410607 -0.032553498
000010 00 00 00 00 ce 5e 08 bd e8 7b 23 3d c9 a5 36 3d
       0.0 -0.033293538 0.039913088 0.0445917
000020 d2 88 0b 3d 00 00 00 00
       0.03406603 0.0

weight f4 [8, 10]
000000 58 6f f6 3e 00 b3 97 bd 0c 63 46 be 5e f6 04 3f
       0.48131824 -0.074071884 -0.19373721 0.51938426
000010 c0 9b cb 3d 80 a9 7d 3e e0 07 d8 3e 1e ae 9a be
       0.09941816 0.2477169 0.42193508 -0.30210966
000020 e4 e2 e1 3e b4 c1 8a 3e 16 2b 32 be d8 c1 bb 3e
       0.44118416 0.2710091 -0.17399248 0.3667133
000030 72 4b b2 3e f0 29 d1 be d8 bc d4 bd df 1a a3 be
       0.34823185 -0.40852308 -0.103875816 -0.3185644
000040 76 1d b2 be 88 64 b3 3e f9 28 e1 be d8 a6 92 3e
       -0.34788102 0.35037637 -0.43976572 0.28642917
000050 66 84 33 be 68 63 2b 3e 81 41 12 bf b0 c5 48 be
       -0.17530975 0.16737139 -0.571312 -0.19606662
000060 50 2f 4e be 1c 05 cd bd 9c 1f 78 3e 86 75 a2 be
       -0.20135236 -0.1001074 0.24230808 -0.31730288
000070 fe 25 b0 3e 94 4c e8 3e fc 6d 05 bf a8 81 da be
       0.34403986 0.45370924 -0.5212095 -0.42677045
000080 8b 4d 13 bf 60 fb b2 3c ef 49 c7 be 20 8f cc 3d
       -0.57540196 0.02184838 -0.38923594 0.099882364
000090 1a b9 a9 3e 5d e8 a0 be 30 3a cc 3e e6 54 d1 3e
       0.33149034 -0.3142728 0.39888144 0.40885085
0000a0 e4 f6 a8 be cc 5d 75 3e d3 22 80 be 32 69 a7 be
       -0.33000863 0.23961562 -0.2502657 -0.32697445
0000b0 d4 f0 6f 3e 38 52 fd be 6e 66 67 be 30 25 05 be
       0.23431712 -0.4947679 -0.22597668 -0.13002467
0000c0 b8 3e 85 bd ec 8c 3b 3e 3e 37 aa 3e 48 ba c1 3d
       -0.06506103 0.18315476 0.3324527 0.094593585
0000d0 84 8a c2 bd 10 b0 07 3d d8 ca f9 3e a8 a3 f1 3e
       -0.09499076 0.03312689 0.4878757 0.47195172
0000e0 10 12 04 3e 78 e9 8e be 70 90 3f 3d b0 e9 ee be
       0.12897515 -0.27912498 0.046768606 -0.46662664
0000f0 7e 8e 77 be 42 0e 0e 3f 72 33 96 be 40 ae 7b bd
       -0.2417545 0.55490506 -0.29336125 -0.061445475
000100 70 2a d6 3e 30 d8 4e be 90 72 9d 3d 3e 56 04 be
       0.41829252 -0.20199656 0.07687867 -0.12923524
000110 bc a8 06 3e de 02 05 bf 84 9f 03 3f d8 f9 b5 3d
       0.13150305 -0.519575 0.51415277 0.088855445
000120 89 4b 8d be 8e 29 c4 be e0 c0 de be 9a 84 cb be
       -0.2759669 -0.38312954 -0.43506527 -0.39749604
000130 88 37 df 3e 70 49 be 3e d0 f4 bc 3e ec 38 ce 3e
       0.43597054 0.37165403 0.36905527 0.40277803

bias f4 [10]
000000 00 00 00 00 00 00 00 00 00 00 00 00 00 00 00 00
       0.0 0.0 0.0 0.0
000010 00 00 00 00 00 00 00 00 00 00 00 00 00 00 00 00
       0.0 0.0 0.0 0.0
000020 00 00 00 00 00 00 00 00
       0.0 0.0

weight f4 [8, 10]
000000 13 d3 e3 be 42 63 ac be b0 47 ea bd 7c 69 04 3e
       -0.44496974 -0.33669478 -0.114394546 0.12930864
000010 24 1f 0b bf 1c b9 0d 3f b0 c6 c6 3e 40 1a 51 3c
       -0.5434439 0.5536058 0.38823462 0.012762606
000020 54 59 a5 3e e2 7b 82 3e ce 27 64 be 98 36 88 3d
       0.32294714 0.2548514 -0.2228081 0.06651038
000030 10 71 de 3e c6 61 08 bf 47 03 03 bf fe e2 dc be
       0.43445635 -0.5327419 -0.51176876 -0.4314193
000040 70 2c 66 bd 40 1d 25 3d e5 e8 ec be cc 7d bb be
       -0.056194723 0.040311098 -0.46271434 -0.36619413
000050 26 fc 02 3f 82 f8 06 3f d4 5f dd 3e 40 61 17 3d
       0.51166 0.5272294 0.43237174 0.03695798
000060 70 a0 86 3e 72 1d a0 3e 58 77 aa be f2 de 0f bf
       0.2629428 0.31272465 -0.33294177 -0.5619956
000070 a0 92 7f 3d 81 1f 00 bf 08 a1 98 bd 0a e9 b7 3e
       0.062395692 -0.5004807 -0.07452589 0.35919982
000080 a6 ac a7 3e c0 ab 6f bd a0 fb ef 3d c0 05 c7 3c
       0.32748908 -0.058513403 0.117179155 0.024294734
000090 e0 c1 91 bc fe d7 f1 be ac db c7 be c4 74 5b 3e
       -0.017792642 -0.472351 -0.39034784 0.21431261
0000a0 bc d4 c7 3e 2c 12 a7 be 56 25 22 be fe e5 57 be
       0.3902949 -0.32631052 -0.15834555 -0.21083829
0000b0 c8 68 f5 3e 4e f0 a6 3e 39 eb 0a bf 10 7d 7e bd
       0.47931504 0.32605213 -0.5426517 -0.062130988
0000c0 88 51 c8 3e f8 7f d3 3e b1 33 be be 54 56 02 3f
       0.39124703 0.4130857 -0.37148812 0.50912976
0000d0 f2 f9 99 3e 1e 86 e3 be 42 94 d5 be 7e bb ad 3e
       0.30073506 -0.4443826 -0.41714674 0.33932108
0000e0 20 ca b5 bc 9c af 3d 3e 80 bc 08 bc 44 36 aa 3e
       -0.022191107 0.18524021 -0.008345723 0.33244526
0000f0 f4 e6 22 3e 1c 5c 13 3f 32 66 05 be 57 33 04 bf
       0.15908414 0.5756242 -0.13027266 -0.5164084
000100 bc d1 3e be 18 5e 49 3e f5 f7 d0 be b0 cf 9f 3e
       -0.18634695 0.196648 -0.40814176 0.3121314
000110 7c 5d 68 3e 54 0c 0a 3f cc aa 0a be 00 53 80 bd
       0.22691911 0.5392506 -0.13541716 -0.06265831
000120 b0 8e 3c bd cc 76 65 3e a0 4b 17 3d ba 25 16 be
       -0.046034515 0.22408599 0.036937356 -0.14662829
000130 5e 7d 01 3f f6 82 74 be 44 91 d8 be 40 48 1b 3d
       0.5058192 -0.23878083 -0.4229833 0.0379107

bias f4 [10]
000000 00 00 00 00 00 00 00 00 00 00 00 00 00 00 00 00
       0.0 0.0 0.0 0.0
000010 00 00 00 00 00 00 00 00 00 00 00 00 00 00 00 00
       0.0 0.0 0.0 0.0
000020 00 00 00 00 00 00 00 00
       0.0 0.0

weight f4 [10, 5]
000000 c0 73 17 3d c0 d7 db bc d9 ed ca be ca 79 bc 3e
       0.036975622 -0.026836276 -0.39634588 0.36811668
000010 c0 a7 e1 3d 01 a8 f9 be 18 8d 14 3f 5f e1 8e bd
       0.11018324 -0.4876099 0.5802779 -0.0697658
000020 74 ca 1e 3f 64 5f ad be fb 4e f2 3e 19 a3 e9 be
       0.6202767 -0.3386184 0.47325882 -0.45632246
000030 15 16 e5 bd 51 d1 77 be 62 61 8e 3e 42 7c 6d be
       -0.111858524 -0.24200942 0.27808672 -0.23191932
000040 14 48 25 be c2 90 04 bf 5f 99 08 bf 60 9a 33 be
       -0.16140777 -0.5178338 -0.53359026 -0.17539358
000050 08 2c c3 bd 58 a1 96 3e ce 65 f7 3e c8 0a 7a 3e
       -0.09529883 0.2941997 0.48319858 0.24418175
000060 3d e3 12 3f db 64 3e 3e f4 32 a4 be bd 27 fd 3e
       0.5737799 0.18593161 -0.32070124 0.4944438
000070 d2 03 a9 be 20 3b f5 be e0 aa 11 3f 3d b1 3a 3e
       -0.33010727 -0.4789667 0.5690136 0.18231674
000080 56 62 99 3d d1 ae 88 be 7e 79 3d 3e 53 6f 22 3f
       0.07489459 -0.26695874 0.18503377 0.6345112
000090 c3 ae 32 3e 4b 42 df be f7 06 fb be c5 6d 69 be
       0.17449479 -0.43605265 -0.4902875 -0.2279578
0000a0 82 68 a7 3d ad fa f6 3d 5f b2 58 be 74 ad 4f bd
       0.0817423 0.12059531 -0.21161793 -0.050702527
0000b0 14 de 3e bc 96 0c 88 be f5 0f f6 be f0 b0 73 3d
       -0.011649627 -0.26572102 -0.4805905 0.059494913
0000c0 0c c4 d2 be 50 f7 31 be
       -0.41165197 -0.17379498

bias f4 [5]
000000 47 6c 27 3d a5 b6 29 3d 71 ac 2f bd 18 84 10 3d
       0.040874746 0.04143395 -0.042889062 0.035282224
000010 dd 20 13 3d
       0.035920013

weight f4 [10, 5]
000000 dd 1e 0d 3f c4 ec 64 3e 88 19 5a be a8 25 98 bd
       0.5512522 0.22355944 -0.21298802 -0.07429057
000010 90 06 d0 be 1d ac 97 3e 02 76 b9 be 68 c4 09 3f
       -0.40630007 0.296235 -0.36222845 0.5381532
000020 a3 77 0b 3f c3 22 f7 be 17 29 bb 3d 26 a0 b5 be
       0.54479426 -0.4826871 0.09138697 -0.35473746
000030 dc 65 0c bf de b9 ae bd 7b 9a 2e 3e 4c b2 b2 be
       -0.54842925 -0.08531545 0.17051117 -0.34901655
000040 4d d5 ed 3d c4 d8 8a be 9b 35 9f be 1a 0c 68 3e
       0.116129495 -0.27118504 -0.31095585 0.22660866
000050 52 24 96 3e 83 cb 0c 3f 51 ab e3 be b2 a1 88 3e
       0.29324585 0.54998034 -0.44466642 0.26685864
000060 ec 10 90 3e ff b3 94 be 5f 22 8d bd d0 64 16 be
       0.2813791 -0.29043576 -0.068913214 -0.14686894
000070 c4 0b a0 bd 77 d5 ba 3e e5 72 e9 3d 86 32 0b 3f
       -0.07814744 0.36490986 0.113988675 0.5437397
000080 16 1f 52 3e 8e 4f ec be e6 85 bb 3d aa 15 2c bf
       0.20519671 -0.46154445 0.091563985 -0.67220557
000090 25 42 24 3e e8 47 1b bf bd 24 f7 be d5 3b 39 3e
       0.16040857 -0.60656595 -0.48270217 0.1808923
0000a0 61 c3 ea be 06 c6 01 bf 17 a7 b2 be f2 05 54 3e
       -0.45852187 -0.50692785 -0.34893104 0.20705393
0000b0 cb 81 ac 3e b8 a6 e4 bd e8 1f 75 3e 4e f8 f0 3e
       0.33692774 -0.111646116 0.23937953 0.4706444
0000c0 02 3b c8 3e 70 0f 85 bd
       0.3910752 -0.06497085

bias f4 [5]
000000 c9 b0 35 3d 20 2b 22 bd 5d f7 2d bd 88 78 23 3d
       0.04435805 -0.03959191 -0.042472232 0.03990987
000010 1d bb 25 bd
       -0.04046165

weight f4 [10, 5]
000000 d2 7e f9 3e 7e 28 83 be e7 15 02 3f 5c 5d 9b 3e
       0.4872957 -0.2561683 0.5081467 0.30344665
000010 25 65 9e be 55 e2 4b 3e b1 e9 9d bd 33 0f cb be
       -0.30936542 0.19910558 -0.07710589 -0.39660034
000020 20 08 a6 bd 87 27 2b be 4b af 12 3f 45 f9 25 bf
       -0.081070185 -0.16714297 0.57298726 -0.6483348
000030 ed f0 19 bf 48 64 82 3e 1e 62 dc be 3b f9 cd bd
       -0.6013325 0.25467134 -0.43043607 -0.100573026
000040 88 f3 05 be de ef 0d 3f 94 dd 6b be 43 69 11 3f
       -0.13081181 0.55444133 -0.23033744 0.5680124
000050 1d f1 c9 be a4 66 07 bf 9c e5 f9 be f4 af 29 be
       -0.39441767 -0.5289099 -0.4880799 -0.16571027
000060 98 82 eb be ec 1a 0b be 8b 95 93 bd a0 7c 1b bf
       -0.45998073 -0.13584489 -0.072062574 -0.6073704
000070 40 7e e4 bc 40 02 7d be 54 13 9f be 82 c9 ce be
       -0.027892232 -0.2470789 -0.31069434 -0.40388113
000080 49 47 d1 3e 69 87 cb be 38 95 7f be 5d a1 9b 3e
       0.408747 -0.39751747 -0.24959266 0.30396548
000090 ec 84 fc 3e 0a 97 da 3d 3f 56 c8 be 60 ab 1c bf
       0.4932016 0.1067334 -0.391283 -0.61199
0000a0 4a a1 f6 3e 70 e9 49 3e 38 b0 d5 3e 61 51 88 3e
       0.4816993 0.19717956 0.41736007 0.26624587
0000b0 7f 21 89 3e c0 ea 55 bc 0a db d7 3e 10 11 be bd
       0.26783368 -0.013056457 0.421593 -0.09280598
0000c0 3e 8a 9e 3e 00 24 bb bd
       0.30964845 -0.09137726

bias f4 [5]
000000 c9 b0 35 3d 20 2b 22 bd 5d f7 2d bd 88 78 23 3d
       0.04435805 -0.03959191 -0.042472232 0.03990987
000010 1d bb 25 bd
       -0.04046165

weight f4 [3, 10]
000000 2a 63 9e be b5 0f b7 be 06 af 40 3c 23 6d bf bd
       -0.3093503 -0.3575417 0.011760479 -0.09346988
000010 cb 84 86 3e f8 03 49 be 72 60 42 3e c1 a9 a7 3e
       0.26273188 -0.1963042 0.18982103 0.327467
000020 91 c3 a4 3d c8 94 a1 3e 07 d4 75 3e 97 d3 f1 3d
       0.08045114 0.31558824 0.24006663 0.11807936
000030 91 f1 ae 3e 4d 3d 8b 3e 0c 77 42 3e d7 ab 56 be
       0.34168676 0.27195206 0.18990725 -0.20963989
000040 ca d9 c1 3d ba 73 0f 3d 47 6c 2e 3e eb 18 0b 3d
       0.09465368 0.035022475 0.17033492 0.03395931
000050 7c c7 42 3e 83 ce 64 3d a8 a4 08 bc 42 ff e8 3d
       0.1902141 0.055861007 -0.008340038 0.113768116
000060 f1 de 8f 3e ed 47 b9 bd 22 7b ff bd e7 ca cf 3d
       0.28099778 -0.09046922 -0.124746576 0.101461224
000070 00 8a a5 3e 37 95 4c be
       0.32331848 -0.19978796

bias f4 [3]
000000 e5 00 62 3e 3f a1 f9 3d 84 b6 8b 3e
       0.22070654 0.121889584 0.27287686
