Models/GNNs/Models_20_7_Datasets-improved-Gini/Models_20_7_SecureBillingEmail-improved-Gini/model_RGCN_1000_samples_100_epochs_128_batchsize.pth (torch, 59982 bytes, 14 tensors)

weight f4 [8, 300]
-0.13176998 0.029065665 -0.04671394 0.1138553 0.13002087 0.015185507 0.15840735 -0.021054883
0.045901656 0.12864567 -0.027319662 0.001969637 0.13565682 -0.0365954 -0.047844455 -0.115266845
0.19153337 -0.06904545 0.0311701 -0.07632619 0.054222792 -0.11338903 0.004095122 -0.08069752
0.010191943 0.06679985 -0.009036964 0.07724281 0.15835345 0.123556025 0.13751385 -0.07603212
0.022785975 -0.03726218 0.07995969 0.028186467 0.21645561 -0.017386695 -0.10568072 0.14852759
-0.059887163 0.029072449 0.061789673 0.06438449 -0.096868165 0.050399616 0.050476477 -0.0018338165
-0.07112468 0.083723426 0.037791274 0.16271304 -0.12495816 0.05927345 0.065920494 0.09223027
-0.112770125 -0.074620575 0.06580331 0.07689162 0.07674939 -0.020203704 -0.09989588 -0.02914107
0.114867024 -0.103233874 0.13257949 0.15665355 0.09219499 0.08451778 0.18612236 0.25920188
-0.04286195 0.026347442 0.082982525 -0.027948074 -0.12629959 0.010089366 0.0053165294 0.052326668
0.18364684 0.05328156 0.058797352 -0.079426885 0.02443898 0.18881936 -0.06651475 -0.038327314
-0.043514088 0.10173767 -0.13731444 0.19610506 0.07158367 -0.084935844 -0.027458945 0.08077164
0.0999922 0.018474655 0.0528249 -0.098070905 0.058733687 0.13781475 -0.088532634 0.06299413
0.08991282 -0.28098926 -0.12523389 -0.0306882 -0.0042378157 -0.11291383 0.18573971 -0.07434634
0.09186563 -0.046324745 0.057803288 0.0316319 0.08412667 0.15403941 -0.031556714 -0.10443373
-0.12235085 0.18196587 -0.03580962 0.019100666 -0.0038984527 -0.09739095 -0.07270695 -0.054003246
-0.06882354 -0.0146515705 0.022446275 0.04096914 0.09928626 -0.06796232 0.007213836 0.14827842
0.14866267 0.20137487 0.063949406 -0.0075186635 0.060406994 0.114556864 0.20400763 0.1837974
-0.10685113 -0.009189822 -0.031230887 -0.102441326 -0.07331474 -0.02852431 -0.10649948 0.0534228
-0.11417033 0.13826959 -0.076559424 -0.098059125 0.023414955 0.059859186 -0.12270371 -0.02069106
-0.036562543 -0.076822065 0.055754777 0.10091585 -0.02187413 -0.098179094 -0.06782456 -0.09601412
-0.107584015 -0.002546324 0.096855424 -0.010341511 -0.08284335 -0.097172484 0.06385337 0.009499416
0.05898139 0.21910469 0.1294201 0.12938501 0.09801039 -0.023484616 -0.26716587 0.040924236
-0.11700287 -0.15075165 -0.1137241 0.12513803 0.03528443 -0.0001731813 0.028695032 -0.104274966
-0.10396143 -0.08373329 0.18862277 -0.2709943 -0.06341507 -0.06723315 -0.019086903 0.24576846
-0.10471864 -0.05380002 -0.025749952 -0.08843918 -0.10652527 0.0071140826 0.04319243 -0.034780715
0.082176 -0.047454763 0.0030310918 -0.12639147 -0.044353507 -0.0017683506 -0.04636091 -0.0950015
0.087087125 0.055656087 0.10172741 -0.14842032 0.19009198 0.22819914 0.11628799 0.075281896
-0.17421201 0.05455558 -0.026884481 0.10549588 0.094411984 0.14393245 0.0714883 0.05858993
0.084867425 0.1791345 -0.11273733 -0.013084468 0.114081666 -0.22103487 0.119568184 -0.07510247
-0.02553617 -0.13062203 0.13045418 -0.04877554 0.026150137 -0.0978566 0.080229655 -0.24240844
0.13673502 0.031835735 -0.11364637 0.02353099 0.053179327 -0.089567624 -0.10415968 0.05612806
00000000: b6ee 06be 1e1b ee3c 1e57 3fbd f82c e93d
00000010: 3124 053e a2cc 783c 8935 223e 4a7b acbc
00000020: 6003 3c3d b1bb 033e 7ccd dfbc 0615 013b
00000030: 9fe9 0a3e 0fe5 15bd 8cf8 43bd 0611 ecbd
00000040: 5321 443e b367 8dbd 7058 ff3c e850 9cbd
00000050: b818 5e3d 8238 e8bd 6030 863b be44 a5bd
00000060: 1bfc 263c 5cce 883d c60f 14bc 7a31 9e3d
00000070: 6827 223e f10a fd3d 6ed0 0c3e bab6 9bbd
00000080: a7a9 ba3c 3aa0 18bd e8c1 a33d 4ee7 e63c
00000090: 8aa6 5d3e 8b6e 8ebc 226f d8bd 9e17 183e
000000a0: 3e4c 75bd 5829 ee3c 2b17 7d3d 04dc 833d
000000b0: d162 c6bd d46f 4e3d 6cc0 4e3d ac5c f0ba
000000c0: d1a9 91bd 3077 ab3d 06cb 1a3d 3f9e 263e
000000d0: 10ea ffbd b8c8 723d 5301 873d 39e3 bc3d
000000e0: 06f4 e6bd acd2 98bd e3c3 863d 5b79 9d3d
000000f0: c92e 9d3d 3d82 a5bc 3696 ccbd 41b9 eebc
00000100: 673f eb3d 486c d3bd ebc2 073e ca69 203e
00000110: bad0 bc3d a817 ad3d dc96 3e3e 1cb6 843e
00000120: 0390 2fbd 97d6 d73c bef2 a93d 5cf3 e4bc
00000130: ae54 01be de4d 253c 4836 ae3b 7d54 563d
00000140: eb0d 3c3e c43d 5a3d 7ed5 703d 90aa a2bd
00000150: 4134 c83c dd59 413e e338 88bd 1afd 1cbd
00000160: d43b 32bd d75b d03d 289c 0cbe c4cf 483e
00000170: 769a 923d d8f2 adbd 95f1 e0bc 9a6b a53d
00000180: b6c8 cc3d 2958 973c ec5e 583d 66d9 c8bd
00000190: bc92 703d 4f1f 0d3e 9950 b5bd 1103 813d
000001a0: 3624 b83d d3dd 8fbe 503d 00be d265 fbbc
000001b0: 60dd 8abb 5e3f e7bd 8d32 3e3e e542 98bd
000001c0: 0c24 bc3d 04bf 3dbd 24c3 6c3d 7490 013d
000001d0: 9b4a ac3d 82bc 1d3e 9d41 01bd 5ae1 d5bd
000001e0: 1593 fabd 4355 3a3e 1cad 12bd 0079 9c3c
000001f0: 2f7d 7fbb e874 c7bd 62e7 94bd 8232 5dbd
00000200: 5bf3 8cbd 240d 70bc 40e1 b73c 42cf 273d
00000210: 9856 cb3d d42f 8bbd 0b62 ec3b 4cd6 173e
00000220: 073b 183e 3735 4e3e e8f7 823d 1f5f f6bb
00000230: 536d 773d ca9c ea3d 60e7 503e 6335 3c3e
00000240: c4d4 dabd e890 16bc ebd7 ffbc c2cc d1bd
00000250: 0a26 96bd d0ab e9bc 661c dabd ded1 5a3d
00000260: 22d2 e9bd 8b96 0d3e 30cb 9cbd 39d3 c8bd
00000270: b8d0 bf3c e82e 753d 154c fbbd 4c80 a9bc
00000280: 9bc2 15bd e354 9dbd 1f5f 643d f8ac ce3d
00000290: 6031 b3bc 1f12 c9bd 9ae7 8abd 0da3 c4bd
000002a0: 0255 dcbd 3ae0 26bb 235c c63d 716f 29bc
000002b0: c6a9 a9bd 5e02 c7bd 8ec5 823d 70a3 1b3c
000002c0: 7896 713d fb5c 603e b486 043e 817d 043e
000002d0: acb9 c83d cf62 c0bc f7c9 88be 2ca0 273d
000002e0: 339f efbd a45e 1abe 2ee8 e8bd 2f24 003e
000002f0: 6886 103d 0098 35b9 d811 eb3c 1d8e d5bd
00000300: bbe9 d4bd 5c7c abbd 5426 413e c4bf 8abe
00000310: c3df 81bd 89b1 89bd 235c 9cbc baaa 7b3e
00000320: ba76 d6bd 695d 5cbd 90f1 d2bc 9a1f b5bd
00000330: ec29 dabd 401d e93b 8cea 303d 3976 0ebd
00000340: e44b a83d ed5f 42bd 48a5 463b c46c 01be
00000350: 06ac 35bd 00c8 e7ba f0e4 3dbd 2590 c2bd
00000360: bc5a b23d a3f7 633d 7656 d03d 7ffb 17be
00000370: 79a7 423e 09ad 693e 6628 ee3d 652d 9a3d
00000380: a264 32be ac75 5f3d d83c dcbc 390e d83d
00000390: 125b c13d 0763 133e 7568 923d fffb 6f3d
000003a0: f9ce ad3d 096f 373e d4e2 e6bd 3d60 56bc
000003b0: a6a3 e93d f756 62be 2ae0 f43d 53cf 99bd
000003c0: 3b31 d1bc c8c1 05be c895 053e dcc8 47bd
000003d0: d038 d63c 0b69 c8bd 724f a43d eb39 78be
000003e0: 4404 0c3e 3066 023d 6ebf e8bd 10c4 c03c
000003f0: 91d2 593d 3b6f b7bd ac51 d5bd 89e6 653d

bias f4 [300]
-0.023259206 0.10237796 0.0 0.17477883 0.11741564 0.16524555 0.16638966 0.12403252
0.0 0.0 -0.006002549 0.13845642 0.13911358 0.13013038 0.0 0.0
0.10134551 -0.014789277 0.0 -0.016689327 -0.027390365 0.17677134 0.0 -0.032953165
0.10981151 0.10484342 0.10402694 0.0 0.21848924 0.10635079 0.0020599302 0.093489505
0.15734532 0.0 0.0 0.094387695 0.10162987 0.124544054 -0.008276072 0.09773168
0.0 0.0 -0.010231521 -0.021935217 0.11409064 -0.018905437 0.10352404 -0.034203656
0.12722977 0.12397377 -0.026564695 0.0010329154 0.0 -0.021692833 -0.028476993 0.081163906
0.0 0.0 0.120840535 0.13493344 0.12815012 0.15903765 -0.010320035 0.13471676
-0.013251148 0.16876642 0.0 0.10078408 0.11040318 0.0 0.15938376 0.110826604
0.10649727 0.089492045 0.079549365 -0.0073600947 0.0 0.1950749 0.08999328 0.15944235
0.12813523 0.35161 -0.028958863 0.0 0.004072466 0.14133292 0.16054621 0.0
0.0 0.12368632 0.0 0.14963073 0.0999022 0.0 0.15770684 0.0
0.0 0.124847 0.1683092 0.0 0.176714 0.0 0.0 0.049456086
0.0 0.16005167 0.0 0.16196187 0.0 -0.0065915827 0.13512501 0.0
-0.031012509 0.09970545 0.20801516 0.0 -0.01735965 0.18408409 0.12404514 0.13584675
0.15697514 0.2938543 0.16035119 0.0 0.13162203 0.0 0.1595371 0.15369587
0.19936754 0.14557771 0.0 0.20136909 -0.027522234 0.11112241 -0.015193851 0.12471552
0.13316917 0.13216133 0.14559999 -0.025694853 0.1313235 0.0 0.11474086 0.14077935
0.0 0.119794294 -0.013167879 0.18330832 0.16410646 -0.007638638 0.0 0.10684389
-0.010334542 0.0 0.0 -0.031571995 0.0 -0.026754573 0.0 0.0
0.15444455 0.0 0.10594649 0.00242543 -0.009818346 0.11527133 0.09944208 0.0
0.0 -0.026721757 -0.022334637 0.09656676 0.0 0.0 -0.03163556 0.0
0.0 0.10681594 0.14364961 -0.0060043116 0.0 0.16748148 0.20714249 0.0
0.27396804 -0.058329105 -0.03601394 0.052918233 0.0 0.0 0.12329662 -0.020817684
0.0 -0.0060023367 0.10944555 0.20649378 0.0 0.14291345 -0.019100195 0.07961738
0.0 -0.014802457 0.0 0.0 0.0 0.0 -0.014204947 -0.028440394
0.0 0.09870049 0.122999236 0.1240023 0.0 0.0 -0.010533828 0.0
0.0 0.13342655 0.0 0.18726322 0.14365816 0.0031092418 0.0 -0.023786515
-0.041645616 0.0 -0.014154267 0.15921755 0.17769878 0.119009316 0.13073538 0.094252795
0.11915916 0.12368497 0.0 0.08425854 0.10118734 0.25691766 0.18150112 0.0
0.1580369 0.0 0.1128285 0.0 0.0 0.14384598 -0.024757285 0.13638106
0.10144802 0.0 0.13463444 0.0 0.11193274 0.0 0.0 0.12698756
00000000: 178a bebc 89ab d13d 0000 0000 39f9 323e
00000010: 9c77 f03d 2136 293e 0d62 2a3e c304 fe3d
00000020: 0000 0000 0000 0000 08b1 c4bb 85c7 0d3e
00000030: ca73 0e3e e640 053e 0000 0000 0000 0000
00000040: 3c8e cf3d b94e 72bc 0000 0000 0eb8 88bc
00000050: c261 e0bc 8c03 353e 0000 0000 e6f9 06bd
00000060: dbe4 e03d 26b8 d63d 140c d53d 0000 0000
00000070: a5bb 5f3e 71ce d93d e5ff 063b 6d77 bf3d
00000080: 221f 213e 0000 0000 0000 0000 564e c13d
00000090: 5223 d03d f410 ff3d 5d98 07bc 8c27 c83d
000000a0: 0000 0000 0000 0000 1ca2 27bc 7cb1 b3bc
000000b0: 5aa8 e93d 93df 9abc 6904 d43d 2219 0cbd
000000c0: 8548 023e f6e5 fd3d 349e d9bc e462 873a
000000d0: 0000 0000 2bb5 b1bc 9548 e9bc 4339 a63d
000000e0: 0000 0000 0000 0000 3e7b f73d fe2b 0a3e
000000f0: c939 033e c4da 223e 5d15 29bc 31f3 093e
00000100: 581b 59bc 1bd1 2c3e 0000 0000 e267 ce3d
00000110: 101b e23d 0000 0000 7f35 233e 0ff9 e23d
00000120: 3e1b da3d 9b47 b73d c7ea a23d f32c f1bb
00000130: 0000 0000 b7c1 473e 664e b83d db44 233e
00000140: e235 033e 3a06 b43e 233b edbc 0000 0000
00000150: 5272 853b 94b9 103e 3a66 243e 0000 0000
00000160: 0000 0000 414f fd3d 0000 0000 cc38 193e
00000170: 8699 cc3d 0000 0000 e77d 213e 0000 0000
00000180: 0000 0000 c9af ff3d 3f59 2c3e 0000 0000
00000190: 84f4 343e 0000 0000 0000 0000 7792 4a3d
000001a0: 0000 0000 96e4 233e 0000 0000 55d9 253e
000001b0: 0000 0000 34fe d7bb 365e 0a3e 0000 0000
000001c0: f20d febc 5f32 cc3d ed01 553e 0000 0000
000001d0: d335 8ebc 8a80 3c3e 610b fe3d 691b 0b3e
000001e0: 17be 203e 1274 963e 1a33 243e 0000 0000
000001f0: edc7 063e 0000 0000 b25d 233e 7362 1d3e
00000200: 0127 4c3e 5312 153e 0000 0000 b333 4e3e
00000210: 4f76 e1bc 2594 e33d a1ef 78bc da6a ff3d
00000220: 805d 083e 4d55 073e 2a18 153e 037e d2bc
00000230: ab79 063e 0000 0000 42fd ea3d 7628 103e
00000240: 0000 0000 b656 f53d 16be 57bc 2db5 3b3e
00000250: 860b 283e 8a4d fabb 0000 0000 f8d0 da3d
00000260: 3652 29bc 0000 0000 0000 0000 a351 01bd
00000270: 0000 0000 682c dbbc 0000 0000 0000 0000
00000280: b626 1e3e 0000 0000 79fa d83d f7f3 1e3b
00000290: 21dd 20bc 6013 ec3d 4aa8 cb3d 0000 0000
000002a0: 0000 0000 96e7 dabc 21f7 b6bc cbc4 c53d
000002b0: 0000 0000 0000 0000 4a94 01bd 0000 0000
000002c0: 0000 0000 51c2 da3d e218 133e d1bf c4bb
000002d0: 0000 0000 4480 2b3e 291d 543e 0000 0000
000002e0: 8a45 8c3e 80ea 6ebd 5a83 13bd cac0 583d
000002f0: 0000 0000 0000 0000 f082 fc3d d989 aabc
00000300: 0000 0000 40af c4bb fd24 e03d 1b73 533e
00000310: 0000 0000 e757 123e 0378 9cbc 700e a33d
00000320: 0000 0000 0186 72bc 0000 0000 0000 0000
00000330: 0000 0000 0000 0000 debb 68bc d4fb e8bc
00000340: 0000 0000 7c23 ca3d 06e7 fb3d ebf4 fd3d
00000350: 0000 0000 0000 0000 1496 2cbc 0000 0000
00000360: 0000 0000 f8a0 083e 0000 0000 eec1 3f3e
00000370: 201b 133e 6cc4 4b3b 0000 0000 f0db c2bc
00000380: 9894 2abd 0000 0000 4ce7 67bc ed09 233e
00000390: abf6 353e 28bb f33d 7fdf 053e 9c07 c13d
000003a0: b809 f43d 8c4e fd3d 0000 0000 be8f ac3d
000003b0: 4f3b cf3d b68a 833e 6edb 393e 0000 0000
000003c0: 6dd4 213e 0000 0000 a112 e73d 0000 0000
000003d0: 0000 0000 5c4c 133e cacf cabc 7aa7 0b3e
000003e0: fbc3 cf3d 0000 0000 9cdd 093e 0000 0000
000003f0: fe3c e53d 0000 0000 0000 0000 0709 023e

weight f4 [8, 300]
0.06702824 0.0038962811 0.066974476 -0.07863602 -0.1314962 -0.08539093 -0.021061413 0.03694132
0.13924645 0.13748918 0.09770499 0.13718648 0.0068781674 -0.041455872 -0.04321091 0.033191517
-0.09218166 -0.07967451 -0.039911933 0.13606234 0.10373932 0.12274481 -0.014928862 -0.08555432
-0.0020428747 -0.1002422 -0.046472453 0.020554528 0.110069305 -0.09214139 0.11702977 -0.05281017
0.087632105 -0.11473485 -0.06626146 0.123979166 0.018865854 0.09410034 0.085087165 0.06401585
-0.014940277 -0.0058497787 0.037378907 0.077309534 -0.015759304 0.07259819 0.039196596 -0.009548768
-0.0518936 0.085284665 0.11768724 -0.06942708 -0.030042663 0.02647978 0.014761865 0.079806164
-0.11055777 0.12781014 0.06660786 -0.12636724 -0.06478017 -0.034095563 -0.081181556 -0.0904237
-0.043777607 0.060090452 0.07569009 0.090420276 -0.13441303 0.07407348 0.050913498 0.014313221
-0.102925524 -0.11275708 0.06750871 -0.066503555 -0.11263902 0.100213885 -0.13034643 0.09749223
0.10717273 0.06601058 0.03443797 -0.07410678 -0.07983737 -0.09234974 -0.025613852 0.016982019
0.031772867 -0.033054486 -0.11785825 0.08482914 -0.022865742 0.11786099 0.031130522 -0.015558742
0.09622897 -0.032927737 -0.022701137 0.023027912 -0.007977709 0.005618304 -1.3142824e-05 -0.05848626
0.07108438 -0.08235047 -0.028897375 0.13552804 0.10408352 0.032304004 -0.042525455 0.059581712
0.09350145 -0.07741688 0.021457538 -0.05725687 -0.106315315 0.050022975 0.072656274 0.09287886
-0.13562152 -0.05784139 -0.008228898 0.13912041 -0.1177834 -0.09426956 0.011859715 0.12601335
0.06674527 -0.07714118 0.12039502 0.0016643405 0.031754732 0.07836215 -0.05899734 0.0958813
0.11081256 -0.021872118 -0.026461177 -0.08813699 -0.12320424 0.11958547 0.1099911 -0.06321433
0.07247189 -0.0534193 -0.07410748 0.09921782 -0.07250106 -0.1261709 0.06016846 -0.11533974
-0.10395201 -0.08850157 0.0886669 -0.05379145 -0.03077881 -0.07436955 -0.045160852 -0.13147509
-0.11799438 -0.10773819 0.1306883 0.067477986 0.06186764 0.06403464 -0.08903079 -0.01840914
0.038351774 0.09624316 0.106708124 0.081156686 0.013885379 0.06059456 0.053324774 -0.109171666
0.06620294 -0.09570606 -0.13107531 0.1336733 -0.06371135 0.06838536 0.01883027 0.13938011
-0.08511746 0.02910252 0.04120572 -0.0842714 0.110802725 0.038577884 0.1369452 -0.13274913
0.0069719106 0.0735929 0.1064322 0.05500473 -0.023765326 -0.08843033 0.11526595 -0.059527077
-0.045533255 0.13520555 -0.065329865 -0.118191235 0.03772953 0.035325974 0.11971606 -0.10131006
0.08993529 0.1362312 -0.02904784 -0.1166552 -0.08765064 0.0053257346 -0.13079973 0.10948031
0.101260215 0.09168325 0.10703063 0.08796768 -0.038769864 -0.118605144 0.0051619112 0.11720942
-0.0819333 0.121517345 0.13516285 0.0028383434 0.09406558 -0.09857625 0.008177221 -0.09056762
-0.10316026 -0.117082454 0.008805692 0.07656433 0.097611725 0.055502996 0.0906446 -0.0724603
-0.07780677 -0.03664919 0.13896756 -0.07667323 -0.09412283 0.13126425 -0.053833045 -0.13895667
0.058750197 -0.08448168 -0.0574764 -0.0028881729 -0.12705414 -0.021518484 -0.025606677 -0.10434804
00000000: 1a46 893d c058 7f3b ea29 893d ec0b a1bd
00000010: f1a6 06be 71e1 aebd fc88 acbc c84f 173d
00000020: 9f96 0e3e f7c9 0c3e 8e19 c83d 9d7a 0c3e
00000030: 4062 e13b a2cd 29bd ecfd 30bd d4f3 073d
00000040: bdc9 bcbd 642c a3bd b27a 23bd ed53 0b3e
00000050: 4875 d43d a261 fb3d 3098 74bc 1a37 afbd
00000060: c0e1 05bb c84b cdbd e659 3ebd f861 a83c
00000070: 046c e13d a0b4 bcbd 4ead ef3d 7a4f 58bd
00000080: 7678 b33d 1bfa eabd 17b4 87bd cae8 fd3d
00000090: 908c 9a3c aeb7 c03d 2e42 ae3d be1a 833d
000000a0: 10c8 74bc 80af bfbb a01a 193d 7654 9e3d
000000b0: a819 81bc 5cae 943d 9c8c 203d 7072 1cbc
000000c0: 628e 54bd baa9 ae3d 0206 f13d c92f 8ebd
000000d0: 081c f6bc 20ec d83c c0db 713c 6a71 a33d
000000e0: 1d6c e2bd a9e0 023e b469 883d 6a66 01be
000000f0: 77ab 84bd caa7 0bbd 8442 a6bd 1030 b9bd
00000100: 2650 33bd 6821 763d 6803 9b3d 442e b93d
00000110: 92a3 09be d6b3 973d ac8a 503d 0082 6a3c
00000120: 9eca d2bd 2fed e6bd 0242 8a3d 0433 88bd
00000130: 49af e6bd f03c cd3d 8979 05be 02aa c73d
00000140: 607d db3d 8e30 873d d40e 0d3d 4cc5 97bd
00000150: c681 a3bd dc21 bdbd 24d4 d1bc e01d 8b3c
00000160: 4424 023d 2464 07bd ab5f f1bd e6ba ad3d
00000170: f050 bbbc 1a61 f13d 7005 ff3c 18ea 7ebc
00000180: b213 c53d 3cdf 06bd bcf7 b9bc 08a5 bc3c
00000190: f0b4 02bc c019 b83b 0080 5cb7 4a8f 6fbd
000001a0: b094 913d 5da7 a8bd 30ba ecbc ddc7 0a3e
000001b0: be29 d53d 3451 043d 2c2f 2ebd f40b 743d
000001c0: b07d bf3d be8c 9ebd b8c7 af3c 2e86 6abd
000001d0: d8bb d9bd e4e4 4c3d d0cc 943d 4637 be3d
000001e0: 5ee0 0abe 18eb 6cbd 80d2 06bc 9575 0e3e
000001f0: 6c38 f1bd 6610 c1bd 404f 423c a509 013e
00000200: beb1 883d 32fc 9dbd aa91 f63d 0026 da3a
00000210: 4011 023d 567c a03d 32a7 71bd 6a5d c43d
00000220: b2f1 e23d 282d b3bc 1cc5 d8bc 2b81 b4bd
00000230: 8152 fcbd 3ae9 f43d 0443 e13d 8476 81bd
00000240: 246c 943d 32ce 5abd aac5 97bd b632 cb3d
00000250: 707b 94bd f232 01be 3473 763d 3e37 ecbd
00000260: cbe4 d4bd 5040 b5bd fe96 b53d 6c54 5cbd
00000270: d823 fcbc 104f 98bd 96fa 38bd 68a1 06be
00000280: 0aa7 f1bd d7a5 dcbd 27d3 053e e631 8a3d
00000290: ec68 7d3d 9824 833d c655 b6bd c4ce 96bc
000002a0: c016 1d3d 221b c53d ca89 da3d 7a35 a63d
000002b0: 807f 633c 0032 783d 146b 5a3d 6595 dfbd
000002c0: 6895 873d 8a01 c4bd 9b38 06be a7e1 083e
000002d0: 197b 82bd a00d 8c3d f041 9a3c a9b9 0e3e
000002e0: 1052 aebd 6868 ee3c 54c7 283d 7c96 acbd
000002f0: 8aec e23d d803 1e3d 5d3b 0c3e 63ef 07be
00000300: a074 e43b e0b7 963d 20f9 d93d a44c 613d
00000310: 80af c2bc f61a b5bd 8e10 ec3d aad2 73bd
00000320: 1481 3abd 5373 0a3e aacb 85bd 3f0e f2bd
00000330: 488a 1a3d f8b1 103d b22d f53d a67b cfbd
00000340: fe2f b83d 3180 0b3e bcf5 edbc ece8 eebd
00000350: 2e82 b3bd 8083 ae3b 5df0 05be 3637 e03d
00000360: 8461 cf3d 6ec4 bb3d e032 db3d 6628 b43d
00000370: 26cd 1ebd 41e7 f2bd 4025 a93b 7e0b f03d
00000380: a5cc a7bd 16de f83d 2168 0a3e 8003 3a3b
00000390: 74a5 c03d 58e2 c9bd c0f9 053c 847b b9bd
000003a0: b045 d3bd edc8 efbd c045 103c c2cd 9c3d
000003b0: a8e8 c73d 1c57 633d e0a3 b93d 1166 94bd
000003c0: 2859 9fbd 761d 16bd 834d 0e3e db06 9dbd
000003d0: 78c3 c0bd 236a 063e 0a80 5cbd a84a 0ebe
000003e0: 0ca4 703d bb04 adbd 606c 6bbd 8047 3dbb
000003f0: 7b1a 02be 8847 b0bc 18c5 d1bc 6db4 d5bd

bias f4 [300]
0.0 0.0 0.0 0.0 0.0 0.0 0.0 0.0
0.0 0.0 0.0 0.0 0.0 0.0 0.0 0.0
0.0 0.0 0.0 0.0 0.0 0.0 0.0 0.0
0.0 0.0 0.0 0.0 0.0 0.0 0.0 0.0
0.0 0.0 0.0 0.0 0.0 0.0 0.0 0.0
0.0 0.0 0.0 0.0 0.0 0.0 0.0 0.0
0.0 0.0 0.0 0.0 0.0 0.0 0.0 0.0
0.0 0.0 0.0 0.0 0.0 0.0 0.0 0.0
0.0 0.0 0.0 0.0 0.0 0.0 0.0 0.0
0.0 0.0 0.0 0.0 0.0 0.0 0.0 0.0
0.0 0.0 0.0 0.0 0.0 0.0 0.0 0.0
0.0 0.0 0.0 0.0 0.0 0.0 0.0 0.0
0.0 0.0 0.0 0.0 0.0 0.0 0.0 0.0
0.0 0.0 0.0 0.0 0.0 0.0 0.0 0.0
0.0 0.0 0.0 0.0 0.0 0.0 0.0 0.0
0.0 0.0 0.0 0.0 0.0 0.0 0.0 0.0
0.0 0.0 0.0 0.0 0.0 0.0 0.0 0.0
0.0 0.0 0.0 0.0 0.0 0.0 0.0 0.0
0.0 0.0 0.0 0.0 0.0 0.0 0.0 0.0
0.0 0.0 0.0 0.0 0.0 0.0 0.0 0.0
0.0 0.0 0.0 0.0 0.0 0.0 0.0 0.0
0.0 0.0 0.0 0.0 0.0 0.0 0.0 0.0
0.0 0.0 0.0 0.0 0.0 0.0 0.0 0.0
0.0 0.0 0.0 0.0 0.0 0.0 0.0 0.0
0.0 0.0 0.0 0.0 0.0 0.0 0.0 0.0
0.0 0.0 0.0 0.0 0.0 0.0 0.0 0.0
0.0 0.0 0.0 0.0 0.0 0.0 0.0 0.0
0.0 0.0 0.0 0.0 0.0 0.0 0.0 0.0
0.0 0.0 0.0 0.0 0.0 0.0 0.0 0.0
0.0 0.0 0.0 0.0 0.0 0.0 0.0 0.0
0.0 0.0 0.0 0.0 0.0 0.0 0.0 0.0
0.0 0.0 0.0 0.0 0.0 0.0 0.0 0.0
00000000: 0000 0000 0000 0000 0000 0000 0000 0000
00000010: 0000 0000 0000 0000 0000 0000 0000 0000
00000020: 0000 0000 0000 0000 0000 0000 0000 0000
00000030: 0000 0000 0000 0000 0000 0000 0000 0000
00000040: 0000 0000 0000 0000 0000 0000 0000 0000
00000050: 0000 0000 0000 0000 0000 0000 0000 0000
00000060: 0000 0000 0000 0000 0000 0000 0000 0000
00000070: 0000 0000 0000 0000 0000 0000 0000 0000
00000080: 0000 0000 0000 0000 0000 0000 0000 0000
00000090: 0000 0000 0000 0000 0000 0000 0000 0000
000000a0: 0000 0000 0000 0000 0000 0000 0000 0000
000000b0: 0000 0000 0000 0000 0000 0000 0000 0000
000000c0: 0000 0000 0000 0000 0000 0000 0000 0000
000000d0: 0000 0000 0000 0000 0000 0000 0000 0000
000000e0: 0000 0000 0000 0000 0000 0000 0000 0000
000000f0: 0000 0000 0000 0000 0000 0000 0000 0000
00000100: 0000 0000 0000 0000 0000 0000 0000 0000
00000110: 0000 0000 0000 0000 0000 0000 0000 0000
00000120: 0000 0000 0000 0000 0000 0000 0000 0000
00000130: 0000 0000 0000 0000 0000 0000 0000 0000
00000140: 0000 0000 0000 0000 0000 0000 0000 0000
00000150: 0000 0000 0000 0000 0000 0000 0000 0000
00000160: 0000 0000 0000 0000 0000 0000 0000 0000
00000170: 0000 0000 0000 0000 0000 0000 0000 0000
00000180: 0000 0000 0000 0000 0000 0000 0000 0000
00000190: 0000 0000 0000 0000 0000 0000 0000 0000
000001a0: 0000 0000 0000 0000 0000 0000 0000 0000
000001b0: 0000 0000 0000 0000 0000 0000 0000 0000
000001c0: 0000 0000 0000 0000 0000 0000 0000 0000
000001d0: 0000 0000 0000 0000 0000 0000 0000 0000
000001e0: 0000 0000 0000 0000 0000 0000 0000 0000
000001f0: 0000 0000 0000 0000 0000 0000 0000 0000
00000200: 0000 0000 0000 0000 0000 0000 0000 0000
00000210: 0000 0000 0000 0000 0000 0000 0000 0000
00000220: 0000 0000 0000 0000 0000 0000 0000 0000
00000230: 0000 0000 0000 0000 0000 0000 0000 0000
00000240: 0000 0000 0000 0000 0000 0000 0000 0000
00000250: 0000 0000 0000 0000 0000 0000 0000 0000
00000260: 0000 0000 0000 0000 0000 0000 0000 0000
00000270: 0000 0000 0000 0000 0000 0000 0000 0000
00000280: 0000 0000 0000 0000 0000 0000 0000 0000
00000290: 0000 0000 0000 0000 0000 0000 0000 0000
000002a0: 0000 0000 0000 0000 0000 0000 0000 0000
000002b0: 0000 0000 0000 0000 0000 0000 0000 0000
000002c0: 0000 0000 0000 0000 0000 0000 0000 0000
000002d0: 0000 0000 0000 0000 0000 0000 0000 0000
000002e0: 0000 0000 0000 0000 0000 0000 0000 0000
000002f0: 0000 0000 0000 0000 0000 0000 0000 0000
00000300: 0000 0000 0000 0000 0000 0000 0000 0000
00000310: 0000 0000 0000 0000 0000 0000 0000 0000
00000320: 0000 0000 0000 0000 0000 0000 0000 0000
00000330: 0000 0000 0000 0000 0000 0000 0000 0000
00000340: 0000 0000 0000 0000 0000 0000 0000 0000
00000350: 0000 0000 0000 0000 0000 0000 0000 0000
00000360: 0000 0000 0000 0000 0000 0000 0000 0000
00000370: 0000 0000 0000 0000 0000 0000 0000 0000
00000380: 0000 0000 0000 0000 0000 0000 0000 0000
00000390: 0000 0000 0000 0000 0000 0000 0000 0000
000003a0: 0000 0000 0000 0000 0000 0000 0000 0000
000003b0: 0000 0000 0000 0000 0000 0000 0000 0000
000003c0: 0000 0000 0000 0000 0000 0000 0000 0000
000003d0: 0000 0000 0000 0000 0000 0000 0000 0000
000003e0: 0000 0000 0000 0000 0000 0000 0000 0000
000003f0: 0000 0000 0000 0000 0000 0000 0000 0000

weight f4 [8, 300]
-0.13286057 -0.098543614 -0.06236548 0.010328218 -0.12057834 0.08565208 0.011813968 -0.019132696
0.053973556 -0.07154298 0.08529438 -0.115934506 0.012248069 -0.069172725 0.13957061 -0.11374205
0.06979938 -0.12062418 -0.09335689 0.008586168 0.0027615726 -0.020079114 -0.13924883 -0.101305
-0.09263787 -0.07561908 -0.06532947 0.0012585968 0.06138493 -0.056511194 0.021092698 0.026075274
-0.062007338 -0.12253867 -0.115058735 0.09176028 -0.13209145 0.053569004 -0.10388416 -0.123210296
-0.07011221 0.078186706 0.13768266 -0.05399768 -0.055234015 0.13099568 0.11320989 -0.10787665
-0.034973837 -0.13530071 -0.018975377 -0.101009786 0.06630632 -0.09951006 0.10138294 0.078876644
0.0900196 0.029905409 -0.028082967 -0.07898252 -0.027533464 0.12156524 -0.13659021 -0.08436626
-0.096206516 -0.062245384 0.05272834 -0.07864461 -0.04810285 -0.023299038 0.030015707 -0.029280342
-0.011111662 0.08127725 0.059794605 -0.06451489 -0.052189328 -0.056515403 0.13581745 0.06991464
-0.12400229 0.06949848 0.031788245 -0.12649637 0.027724877 0.07070644 -0.027551569 0.022861406
0.0075831413 -0.02084919 -0.039228432 -0.104329005 -0.0038491338 0.016150445 -0.0061440617 0.12797792
-0.008826062 0.075847775 0.09781806 0.11238895 -0.04516182 0.0886012 0.12354989 0.09810117
0.013098225 -0.0727628 0.01389505 -0.01877439 -0.11428322 0.00023189187 0.051804587 0.08464259
-0.065659605 0.07389097 0.07968804 0.093592614 0.12011759 -0.0838158 0.109124735 -0.010617197
0.06565978 -0.10433474 0.1193289 -0.0048590004 -0.0686823 0.13230021 0.13855346 0.059297666
0.13617598 0.13432331 -0.031817496 0.05816777 0.017632663 -0.11903751 0.0152988285 0.06109637
0.06084864 -0.06797152 0.03436619 -0.07781418 0.058388263 -0.057372823 -0.08782003 0.13515
0.038603097 0.02687779 0.0760804 0.13539834 0.13040115 -0.011990547 0.080332935 -0.05348163
-0.011092439 -0.06630208 0.04500197 0.078577325 0.06820771 -0.087577865 -0.08947129 0.05854267
-0.1316935 0.1375766 0.12795861 0.016259015 -0.041172594 0.13861744 0.03177342 0.09732637
0.09234521 -0.08967769 0.015514255 0.019427225 0.0315322 0.023865193 -0.015810244 0.012485206
-0.1168894 -0.06721014 -0.07006115 0.07180081 -0.06324149 -0.012387678 -0.08160809 0.026462391
-0.047048673 0.06058286 0.07901892 0.03677818 0.04100047 0.018151328 -0.013122857 0.056773856
-0.068198085 -0.010477498 0.05508408 0.013238236 0.13380404 -0.04884462 0.06738351 -0.1287347
0.08106297 -0.10677704 0.06373367 0.1308965 0.12701555 -0.0923515 -0.009066269 0.12735634
0.12429614 0.099001884 0.104597986 0.012728155 0.13422225 0.067747205 -0.091232724 -0.035286255
0.06361312 -0.0066987276 -0.03890395 -0.0501993 -0.12956268 0.117505 0.11227657 -0.09981985
-0.0005456358 -0.06335145 -0.014957167 -0.073398985 -0.13448572 0.07683492 -0.042331666 -0.13084541
0.13091777 0.005653739 0.09372555 -0.12356178 0.11385544 -0.12227182 -0.0018903315 0.09684068
0.13150589 0.13903014 -0.11727005 -0.036058657 -0.08292565 -0.100039706 0.004455775 -0.07038839
0.042576045 -0.04912065 0.101907805 0.02848795 -0.057057664 -0.036959976 -0.0652128 0.06379081
00000000: 9a0c 08be 3cd1 c9bd f272 7fbd b037 293c
00000010: c7f1 f6bd 5c6a af3d 608f 413c 2cbc 9cbc
00000020: 6013 5d3d 2085 92bd d2ae ae3d 126f edbd
00000030: 20ac 483c 6eaa 8dbd 99eb 0e3e 98f1 e8bd
00000040: faf2 8e3d cf09 f7bd e631 bfbd 00ad 0c3c
00000050: 80fb 343b f47c a4bc 3f97 0ebe ff78 cfbd
00000060: ecb8 bdbd 2dde 9abd 75cb 85bd 80f7 a43a
00000070: c46e 7b3d 4878 67bd 98ca ac3c d09b d53c
00000080: 68fb 7dbd 8ef5 fabd eaa3 ebbd d0ec bb3d
00000090: fb42 07be 2c6b 5b3d 38c1 d4bd ae55 fcbd
000000a0: fe96 8fbd 5a20 a03d affc 0c3e ac2c 5dbd
000000b0: 103d 62bd bb23 063e 96da e73d 6fee dcbd
000000c0: ba40 0fbd 458c 0abe 4072 9bbc 38de cebd
000000d0: 9ccb 873d eecb cbbd dca1 cf3d 148a a13d
000000e0: 325c b83d 30fc f43c 400e e6bc 96c1 a1bd
000000f0: dc8d e1bc 32f7 f83d 4ede 0bbe 38c8 acbd
00000100: ec07 c5bd 04f5 7ebd acf9 573d 6d10 a1bd
00000110: 7e07 45bd a0dd bebc 80e3 f53c 54dd efbc
00000120: b00d 36bc b074 a63d 30eb 743d 6220 84bd
00000130: 7ac4 55bd b27c 67bd bb13 0b3e 682f 8f3d
00000140: eaf4 fdbd 3855 8e3d 6434 023d 4488 01be
00000150: 481f e33c 8ace 903d d4b3 e1bc d847 bb3c
00000160: 007c f83b eccb aabc fead 20bd 72aa d5bd
00000170: c041 7cbb f04d 843c 2054 c9bb a50c 033e
00000180: 309b 10bc 1456 9b3d d654 c83d 2e2c e63d
00000190: 9afb 38bd 8c74 b53d ba07 fd3d 44e9 c83d
000001a0: f099 563c aa04 95bd 10a8 633c c0cc 99bc
000001b0: 520d eabd 0028 7339 0c31 543d 1859 ad3d
000001c0: 8b78 86bd 2654 973d 7c33 a33d 7cad bf3d
000001d0: 3600 f63d 9ea7 abbd ca7c df3d c0f3 2dbc
000001e0: a278 863d 74ad d5bd b662 f43d 4038 9fbb
000001f0: 4ea9 8cbd b579 073e f5e0 0d3e 1ce2 723d
00000200: b771 0b3e 0d8c 093e 1053 02bd 5441 6e3d
00000210: 6072 903c f0c9 f3bd f0a7 7a3c 3040 7a3d
00000220: 6c3c 793d a734 8bbd 90c3 0c3d 0a5d 9fbd
00000230: 8828 6f3d c4ff 6abd fdda b3bd c364 0a3e
00000240: 481e 1e3d d02e dc3c 0ad0 9b3d dda5 0a3e
00000250: e187 053e 0074 44bc 9885 a43d 8e0f 5bbd
00000260: 10bd 35bc 63c9 87bd fc53 383d 26ed a03d
00000270: 7cb0 8b3d 065c b3bd b93c b7bd 70ca 6f3d
00000280: a9da 06be e1e0 0c3e 9507 033e a031 853c
00000290: 98a4 28bd bbf1 0d3e d824 023d 0c53 c73d
000002a0: 7c1f bd3d f0a8 b7bd 802f 7e3c d825 9f3c
000002b0: e827 013d f080 c33c 7c84 81bc c08e 4c3c
000002c0: b663 efbd 78a5 89bd 387c 8fbd 4e0c 933d
000002d0: c184 81bd b0f5 4abc 2422 a7bd a8c7 d83c
000002e0: 1cb6 40bd bc25 783d acd4 a13d b8a4 163d
000002f0: 1cf0 273d 18b2 943c 4001 57bc b48b 683d
00000300: 70ab 8bbd d0a9 2bbc d89f 613d 30e5 583c
00000310: ed03 093e 4c11 48bd 5e00 8a3d 07d3 03be
00000320: 5804 a63d ecad dabd cc86 823d bb09 063e
00000330: 5d10 023e c922 bdbd b08a 14bc b369 023e
00000340: fa8e fe3d 80c1 ca3d 7837 d63d c089 503c
00000350: 8f71 093e 0cbf 8a3d 39d8 babd 5288 10bd
00000360: 9847 823d 0081 dbbb c059 1fbd c89d 4dbd
00000370: 14ac 04be 76a6 f03d 42f1 e53d 596e ccbd
00000380: 0009 0fba 68be 81bd e80e 75bc 3552 96bd
00000390: a0b6 09be a05b 9d3d f863 2dbd 57fc 05be
000003a0: 4f0f 063e 0043 b93b 2ef3 bf3d f50d fdbd
000003b0: 0a2d e93d a669 fabd 00c5 f7ba 6854 c63d
000003c0: 7ba9 063e eb5d 0e3e 482b f0bd 3eb2 13bd
000003d0: ecd4 a9bd 9ee1 ccbd c001 923b ca27 90bd
000003e0: 3864 2e3d bc32 49bd 0ab5 d03d 905f e93c
000003f0: 4cb5 69bd 5863 17bd 4a8e 85bd c2a4 823d

bias f4 [300]
0.0 0.0 0.0 0.0 0.0 0.0 0.0 0.0
0.0 0.0 0.0 0.0 0.0 0.0 0.0 0.0
0.0 0.0 0.0 0.0 0.0 0.0 0.0 0.0
0.0 0.0 0.0 0.0 0.0 0.0 0.0 0.0
0.0 0.0 0.0 0.0 0.0 0.0 0.0 0.0
0.0 0.0 0.0 0.0 0.0 0.0 0.0 0.0
0.0 0.0 0.0 0.0 0.0 0.0 0.0 0.0
0.0 0.0 0.0 0.0 0.0 0.0 0.0 0.0
0.0 0.0 0.0 0.0 0.0 0.0 0.0 0.0
0.0 0.0 0.0 0.0 0.0 0.0 0.0 0.0
0.0 0.0 0.0 0.0 0.0 0.0 0.0 0.0
0.0 0.0 0.0 0.0 0.0 0.0 0.0 0.0
0.0 0.0 0.0 0.0 0.0 0.0 0.0 0.0
0.0 0.0 0.0 0.0 0.0 0.0 0.0 0.0
0.0 0.0 0.0 0.0 0.0 0.0 0.0 0.0
0.0 0.0 0.0 0.0 0.0 0.0 0.0 0.0
0.0 0.0 0.0 0.0 0.0 0.0 0.0 0.0
0.0 0.0 0.0 0.0 0.0 0.0 0.0 0.0
0.0 0.0 0.0 0.0 0.0 0.0 0.0 0.0
0.0 0.0 0.0 0.0 0.0 0.0 0.0 0.0
0.0 0.0 0.0 0.0 0.0 0.0 0.0 0.0
0.0 0.0 0.0 0.0 0.0 0.0 0.0 0.0
0.0 0.0 0.0 0.0 0.0 0.0 0.0 0.0
0.0 0.0 0.0 0.0 0.0 0.0 0.0 0.0
0.0 0.0 0.0 0.0 0.0 0.0 0.0 0.0
0.0 0.0 0.0 0.0 0.0 0.0 0.0 0.0
0.0 0.0 0.0 0.0 0.0 0.0 0.0 0.0
0.0 0.0 0.0 0.0 0.0 0.0 0.0 0.0
0.0 0.0 0.0 0.0 0.0 0.0 0.0 0.0
0.0 0.0 0.0 0.0 0.0 0.0 0.0 0.0
0.0 0.0 0.0 0.0 0.0 0.0 0.0 0.0
0.0 0.0 0.0 0.0 0.0 0.0 0.0 0.0
00000000: 0000 0000 0000 0000 0000 0000 0000 0000
00000010: 0000 0000 0000 0000 0000 0000 0000 0000
00000020: 0000 0000 0000 0000 0000 0000 0000 0000
00000030: 0000 0000 0000 0000 0000 0000 0000 0000
00000040: 0000 0000 0000 0000 0000 0000 0000 0000
00000050: 0000 0000 0000 0000 0000 0000 0000 0000
00000060: 0000 0000 0000 0000 0000 0000 0000 0000
00000070: 0000 0000 0000 0000 0000 0000 0000 0000
00000080: 0000 0000 0000 0000 0000 0000 0000 0000
00000090: 0000 0000 0000 0000 0000 0000 0000 0000
000000a0: 0000 0000 0000 0000 0000 0000 0000 0000
000000b0: 0000 0000 0000 0000 0000 0000 0000 0000
000000c0: 0000 0000 0000 0000 0000 0000 0000 0000
000000d0: 0000 0000 0000 0000 0000 0000 0000 0000
000000e0: 0000 0000 0000 0000 0000 0000 0000 0000
000000f0: 0000 0000 0000 0000 0000 0000 0000 0000
00000100: 0000 0000 0000 0000 0000 0000 0000 0000
00000110: 0000 0000 0000 0000 0000 0000 0000 0000
00000120: 0000 0000 0000 0000 0000 0000 0000 0000
00000130: 0000 0000 0000 0000 0000 0000 0000 0000
00000140: 0000 0000 0000 0000 0000 0000 0000 0000
00000150: 0000 0000 0000 0000 0000 0000 0000 0000
00000160: 0000 0000 0000 0000 0000 0000 0000 0000
00000170: 0000 0000 0000 0000 0000 0000 0000 0000
00000180: 0000 0000 0000 0000 0000 0000 0000 0000
00000190: 0000 0000 0000 0000 0000 0000 0000 0000
000001a0: 0000 0000 0000 0000 0000 0000 0000 0000
000001b0: 0000 0000 0000 0000 0000 0000 0000 0000
000001c0: 0000 0000 0000 0000 0000 0000 0000 0000
000001d0: 0000 0000 0000 0000 0000 0000 0000 0000
000001e0: 0000 0000 0000 0000 0000 0000 0000 0000
000001f0: 0000 0000 0000 0000 0000 0000 0000 0000
00000200: 0000 0000 0000 0000 0000 0000 0000 0000
00000210: 0000 0000 0000 0000 0000 0000 0000 0000
00000220: 0000 0000 0000 0000 0000 0000 0000 0000
00000230: 0000 0000 0000 0000 0000 0000 0000 0000
00000240: 0000 0000 0000 0000 0000 0000 0000 0000
00000250: 0000 0000 0000 0000 0000 0000 0000 0000
00000260: 0000 0000 0000 0000 0000 0000 0000 0000
00000270: 0000 0000 0000 0000 0000 0000 0000 0000
00000280: 0000 0000 0000 0000 0000 0000 0000 0000
00000290: 0000 0000 0000 0000 0000 0000 0000 0000
000002a0: 0000 0000 0000 0000 0000 0000 0000 0000
000002b0: 0000 0000 0000 0000 0000 0000 0000 0000
000002c0: 0000 0000 0000 0000 0000 0000 0000 0000
000002d0: 0000 0000 0000 0000 0000 0000 0000 0000
000002e0: 0000 0000 0000 0000 0000 0000 0000 0000
000002f0: 0000 0000 0000 0000 0000 0000 0000 0000
00000300: 0000 0000 0000 0000 0000 0000 0000 0000
00000310: 0000 0000 0000 0000 0000 0000 0000 0000
00000320: 0000 0000 0000 0000 0000 0000 0000 0000
00000330: 0000 0000 0000 0000 0000 0000 0000 0000
00000340: 0000 0000 0000 0000 0000 0000 0000 0000
00000350: 0000 0000 0000 0000 0000 0000 0000 0000
00000360: 0000 0000 0000 0000 0000 0000 0000 0000
00000370: 0000 0000 0000 0000 0000 0000 0000 0000
00000380: 0000 0000 0000 0000 0000 0000 0000 0000
00000390: 0000 0000 0000 0000 0000 0000 0000 0000
000003a0: 0000 0000 0000 0000 0000 0000 0000 0000
000003b0: 0000 0000 0000 0000 0000 0000 0000 0000
000003c0: 0000 0000 0000 0000 0000 0000 0000 0000
000003d0: 0000 0000 0000 0000 0000 0000 0000 0000
000003e0: 0000 0000 0000 0000 0000 0000 0000 0000
000003f0: 0000 0000 0000 0000 0000 0000 0000 0000

weight f4 [300, 5]
0.040631764 -0.106997475 0.07324259 0.082372755 0.049416404 0.07541107 0.18876968 -0.18259609
0.027164787 -0.21337062 -0.070302576 -0.13153648 -0.1271747 -0.06626706 0.08269428 -0.017998995
0.1127318 -0.045495335 0.013275194 0.034215573 0.1829112 0.16219358 -0.037827164 -0.0347955
0.0004114283 0.23322003 -0.01737752 -0.17604886 0.08597884 -0.15890762 0.18165408 -0.051724434
0.035213772 -0.040016286 -0.17602678 0.10435781 0.134189 -0.19122033 -0.19425952 0.012701068
-0.09707756 -0.08612791 -0.10695128 -0.023781545 -0.043955095 -0.10379258 0.08118871 0.0071643144
0.091860205 0.086265504 -0.05458895 -0.031848703 0.013898174 -0.021144155 0.06556592 0.04109735
0.043688405 -0.16980988 -0.12628457 -0.0026713556 -0.006916926 0.06861414 -0.054439846 0.045313295
-0.013389414 0.2260455 0.13959518 -0.1754378 -0.16403587 0.035094373 -0.020261474 0.084952086
-0.013085991 0.05767484 0.060011566 -0.103158295 0.08873974 -0.12410912 0.13801311 -0.075687714
0.18542428 -0.0081314165 -0.09786753 -0.17419814 -0.0026766334 0.052607927 -0.0916595 -0.056820348
0.005481394 -0.045473833 -0.1015765 0.0840836 0.12034096 0.067151144 -0.095250025 0.110898726
0.13755977 0.0852279 0.016685849 -0.12079522 -0.043804873 0.032412548 0.009366007 0.026680706
0.11536546 0.07996822 0.08824053 -0.10352755 -0.12895319 0.080274284 0.044103697 -0.12694067
-0.00094679 0.06903592 0.050866798 0.12484646 0.1057092 0.09490093 -0.05263127 -0.064547874
-0.0062553664 -0.026461048 -0.17379819 -0.1720551 -0.041420363 0.109738 0.17321613 -0.21848723
-0.06277687 0.049812797 0.19590989 0.20861688 -0.16239858 -0.015743751 0.08613603 -0.014025345
-0.036617376 0.011684313 -0.058791637 0.11821656 0.15450242 -0.009216794 -0.03829732 -0.19052473
-0.11699332 0.011994553 0.1878606 -0.06318565 0.06196271 -0.11762661 0.16360463 -0.137763
-0.02302009 0.21187991 -0.23998262 0.10316123 0.20415786 -0.20087364 -0.14891084 -0.2224618
0.09925334 -0.005977755 -0.01891779 0.0777035 -0.08546342 0.05674933 -0.13733184 -0.13682018
-0.10674593 -0.029983275 0.020664796 -0.0975838 -0.0528123 0.07629284 0.021107674 0.10395491
0.14234339 -0.15536469 -0.041436482 -0.22080687 0.10561735 0.056206055 0.008560479 -0.08877029
0.0025870074 0.025650233 -0.025310988 -0.13925833 0.04740149 -0.062318575 0.11331538 -0.030306898
0.101675056 0.11579786 -0.0701758 -0.024755267 -0.029602591 -0.18775314 -0.019432724 0.04823534
-0.066240184 -0.1391377 -0.08706394 0.10803193 -0.13619825 -0.08863099 0.102919504 0.07797378
0.062049523 0.049411863 0.1283515 -0.045712262 -0.03666073 0.08487034 0.079717785 0.029640649
-0.012892369 0.024593199 -0.15050676 0.1101258 0.21341075 -0.014625457 -0.21077383 -0.051370297
0.006749132 -0.12178292 0.09484776 -0.064514816 0.06642975 -0.10815861 -0.012042484 -0.0743766
-0.022450438 0.10724425 -0.2812463 0.1042911 0.098156646 0.106676035 0.020455567 -0.12252481
0.15627357 -0.006072829 0.026214957 -0.1269309 -0.15445614 0.1584424 0.15128312 -0.07714021
-0.025674606 0.026611233 0.14532518 -0.006928611 -0.057717994 -0.027052287 -0.12173291 0.12963712
00000000: 7e6d 263d 7e21 dbbd 3600 963d 0cb3 a83d
00000010: db68 4a3d 1e71 9a3d d74c 413e 78fa 3abe
00000020: b088 de3c d47d 5abe ccfa 8fbd 80b1 06be
00000030: 163a 02be 06b7 87bd 9e5b a93d a172 93bc
00000040: eedf e63d 5159 3abd 3380 593c a125 0c3d
00000050: 134d 3b3e 1316 263e a8f0 1abd ba85 0ebd
00000060: f9b4 d739 3bd1 6e3e 4d5b 8ebc 2746 34be
00000070: ad15 b03d aeb8 22be 8703 3a3e 00dd 53bd
00000080: 513c 103d 1ee8 23bd 5d40 34be 8cb9 d53d
00000090: d768 093e 43cf 43be f8eb 46be 2418 503c
000000a0: 9ad0 c6bd d463 b0bd 4609 dbbd 84d1 c2bc
000000b0: 420a 34bd 3491 d4bd 4446 a63d a0c2 ea3b
000000c0: 3421 bc3d f8ab b03d aa98 5fbd c973 02bd
000000d0: 2bb5 633c 8236 adbc 6d47 863d b255 283d
000000e0: 9df2 323d a4e2 2dbe be50 01be e911 2fbb
000000f0: 61a7 e2bb 9285 8c3d 51fc 5ebd 6f9a 393d
00000100: 465f 5bbc 7978 673e 0af2 0e3e f7a5 33be
00000110: 05f9 27be 1ebf 0f3d 64fb a5bc 5cfb ad3d
00000120: a066 56bc 743c 6c3d b0ce 753d a844 d3bd
00000130: 2ebd b53d ec2c febd 4f53 0d3e 2902 9bbd
00000140: dddf 3d3e a239 05bc c66e c8bd ff60 32be
00000150: 756a 2fbb 697b 573d fab7 bbbd 74bc 68bd
00000160: 449d b33b c542 3abd 5707 d0bd 0634 ac3d
00000170: 5275 f63d 8a86 893d 7212 c3bd df1e e33d
00000180: 78dc 0c3e f78b ae3d c3b0 883c 7c63 f7bd
00000190: bd6c 33bd 05c3 043d e173 193c 7f91 da3c
000001a0: ba44 ec3d 61c6 a33d 73b7 b43d 4106 d4bd
000001b0: 4e0c 04be d866 a43d 14a6 343d bcfc 01be
000001c0: 0032 78ba b462 8d3d b459 503d 80af ff3d
000001d0: 117e d83d 6b5b c23d e393 57bd ad31 84bd
000001e0: d1f9 ccbb d7c4 d8bc 27f8 31be 362f 30be
000001f0: 66a8 29bd 51be e03d 925f 313e 1ebb 5fbe
00000200: 2991 80bd 8108 4c3d 9a9c 483e aa9f 553e
00000210: d04b 26be 0af9 80bc 1668 b03d 90ca 65bc
00000220: 1afc 15bd 906f 3f3c 80cf 70bd 861b f23d
00000230: e235 1e3e 0902 17bc a7dd 1cbd ea18 43be
00000240: 329a efbd cd84 443c 875e 403e 7a67 81bd
00000250: 9ccc 7d3d 38e6 f0bd f987 273e be11 0dbe
00000260: a194 bcbc 0cf7 583e 01be 75be 3246 d33d
00000270: c20e 513e d2b1 4dbe 157c 18be 07cd 63be
00000280: 5645 cb3d 0be1 c3bb 7bf9 9abc 0323 9f3d
00000290: 7207 afbd fc71 683d b8a0 0cbe 971a 0cbe
000002a0: 9c9d dabd 7c9f f5bc 3849 a93c 04da c7bd
000002b0: b651 58bd 6c3f 9c3d 00ea ac3c 50e6 d43d
000002c0: 77c2 113e ec17 1fbe 4db9 29bd 321b 62be
000002d0: e94d d83d 5238 663d 4041 0c3c 33cd b5bd
000002e0: c88a 293b 7020 d23c fd58 cfbc bc99 0ebe
000002f0: 1128 423d c341 7fbd e511 e83d 2c46 f8bc
00000300: 033b d03d 6e27 ed3d 54b8 8fbd 8fcb cabc
00000310: 2281 f2bc 5c42 40be 6031 9fbc 6b92 453d
00000320: efa8 87bd 1d7a 0ebe 944e b2bd d83f dd3d
00000330: 8e77 0bbe 2a84 b5bd 76c7 d23d b8b0 9f3d
00000340: a427 7e3d 1864 4a3d 936e 033e c83c 3bbd
00000350: 9029 16bd 80d0 ad3d 1443 a33d f2d0 f23c
00000360: 843a 53bc ad77 c93c 721e 1abe a389 e13d
00000370: 5988 5a3e 9d9f 6fbc 18d5 57be a969 52bd
00000380: d327 dd3b 5369 f9bd 8b3f c23d 5820 84bd
00000390: 520c 883d 4382 ddbd d74d 45bc c252 98bd
000003a0: fbe9 b7bc e0a2 db3d 84ff 8fbe 9296 d53d
000003b0: 5a06 c93d f778 da3d 6f92 a73c 4aee fabd
000003c0: 2e06 203e 95fe c6bb c0c0 d63c 2dfa 01be
000003d0: c029 1ebe b93e 223e f6e9 1a3e b0fb 9dbd
000003e0: 8d53 d2bc cdff d93c 20d0 143e 6709 e3bb
000003f0: b469 6cbd c29c ddbc 1b4f f9bd 98bf 043e

bias f4 [5]
0.06772709 0.087451056 -0.07881743 -0.11535271 0.07995805
00000000: 80b4 8a3d 8a19 b33d 086b a1bd 0b3e ecbd
00000010: 0cc1 a33d

weight f4 [300, 5]
-0.046752382 0.098035626 0.030671008 0.098338455 0.04798371 0.053503107 -0.06778737 -0.17889877
0.15177332 -0.22121449 0.012303203 -0.13362396 -0.033041596 0.13842167 0.03035073 0.026839217
0.07074023 -0.03749544 0.16193548 -0.1421327 -0.034546345 0.025866404 0.05524662 0.035099
-0.19528985 -0.19981539 0.37920022 -0.14236926 0.035747644 -0.18830267 -0.080238365 -0.07897561
-0.03110267 0.14102754 -0.21196686 -0.23304394 -0.048505343 -0.2193135 0.0074470434 -0.15027103
0.13137193 -0.030290708 -0.004853219 0.13477571 0.1240858 0.01078853 -0.07685659 0.013824865
0.014256999 -0.086598516 0.016471548 0.06628584 0.06976049 0.013455186 -0.019224256 -0.14837529
0.09373744 -0.16288464 0.23798418 -0.22538395 -0.11855497 0.034615524 -0.035928726 0.15787397
-0.06348544 -2.4217254e-05 0.2346763 -0.15567562 0.069446474 -0.19070782 -0.075837806 -0.028541714
-0.08295885 -0.075997196 0.06811917 0.01286298 0.004097894 -0.02678553 -0.115636565 0.006957069
-0.13609983 -0.056893185 0.02984668 0.0785437 -0.032021742 0.026552688 -0.07662576 -0.014760853
0.052219447 0.09489928 0.054841593 -0.04723122 -0.13042669 0.05879289 -0.094628595 -0.009284374
-0.007883193 0.024460116 -0.030546727 -0.083576895 0.10344557 -0.12054333 -0.10168658 -0.111247145
0.0154411085 -0.02499422 0.17105116 -0.25929567 0.23786446 -0.35865927 0.13883679 0.07006247
-0.094024986 0.024116278 0.006143123 0.053550404 -0.11803616 -0.101168744 0.07085903 -0.022744864
0.07814928 -0.008519852 -0.16494 0.106142014 0.01044082 -0.16279292 -0.075817786 0.036056545
0.11759451 -0.15558766 -0.19800596 -0.03948564 -0.20518604 0.11031982 -0.055129327 0.024727225
-0.13223925 0.054747686 0.04936357 0.14009373 -0.122721665 0.25257033 -0.22285692 0.03557343
-0.25402468 -0.05207345 -0.060341414 0.022705503 0.17224684 0.041649353 -0.10013821 -0.2784966
0.0022868493 0.018353468 0.14701176 -0.16761285 0.062361836 -0.09785317 0.21669176 -0.06801238
-0.05358076 0.04060558 0.0030983803 0.061597083 -0.07333068 -0.06490083 0.04249032 -0.039495423
-0.05236409 -0.11359552 -0.024469092 -0.10525232 0.12340008 -0.09742367 0.07213591 0.047821995
-0.14911385 -0.18831609 -0.007657177 0.05534176 0.060801778 -0.1354684 -0.11083829 0.11288136
-0.005852942 -0.09872308 0.061526872 -0.18130192 0.20857121 -0.12703873 0.069126725 -0.11502208
-0.0034757373 0.097909026 0.1257469 0.06986727 -0.1833545 -0.17689776 0.059048563 -0.033161618
0.11302282 -0.12864251 -0.10901679 0.10212958 0.06768912 0.12528564 0.06655219 0.017560497
0.029704899 0.13795398 -0.11154707 -0.053493652 0.058112696 -0.053666875 0.09772002 0.098365024
0.08904196 -0.010343064 0.062015392 0.011896755 -0.061527688 0.15955071 -0.22437312 0.22546004
-0.23940782 -0.0905948 0.07811713 0.041277826 -0.06608207 0.11956377 -0.16021606 0.008220512
-0.16704732 -0.045713473 0.060296476 -0.046851005 0.069424294 -0.046396334 0.14322336 0.049448133
-0.09237516 -0.024246095 -0.13450909 0.08686296 -0.027175995 0.016369674 0.06602429 -0.12928724
0.11736582 -0.1272943 0.05373129 0.0018049706 -0.039924067 0.004124084 -0.035391275 0.106780306
00000000: 6d7f 3fbd e7c6 c83d c441 fb3c ac65 c93d
00000010: 918a 443d 1326 5b3d 1bd4 8abd 3d31 37be
00000020: 776a 1b3e 0d86 62be 6093 493c b8d4 08be
00000030: a056 07bd 69be 0d3e 18a2 f83c ebdd db3c
00000040: 41e0 903d d294 19bd 6ad2 253e 3c8b 11be
00000050: 7880 0dbd c8e5 d33c 484a 623d f8c3 0f3d
00000060: 10fa 47be 689c 4cbe 8826 c23e 3fc9 11be
00000070: 1f6c 123d 6ad2 40be 0354 a4bd f7bd a1bd
00000080: 07cb febc 8669 103e d70d 59be 12a3 6ebe
00000090: 8aad 46bd b893 60be 5406 f43b a6e0 19be
000000a0: 5d86 063e 3824 f8bc c007 9fbb a502 0a3e
000000b0: b220 fe3d 60c2 303c fd66 9dbd b081 623c
000000c0: 3096 693c 905a b1bd 57ef 863c dfc0 873d
000000d0: 96de 8e3d 2473 5c3c 307c 9dbc b1ef 17be
000000e0: 6af9 bf3d 3bcb 26be 20b2 733e 0dcb 66be
000000f0: f3cc f2bd 02c9 0d3d 002a 13bd b7a9 213e
00000100: a804 82bd 2826 cbb7 fc4e 703e 6e69 1fbe
00000110: f439 8e3d e948 43be da50 9bbd 50d0 e9bc
00000120: 54e6 a9bd 6ba4 9bbd 1082 8b3d 40bf 523c
00000130: a047 863b 546d dbbc ddd2 ecbd 20f8 e33b
00000140: c15d 0bbe d408 69bd 0681 f43c 85db a03d
00000150: 3b29 03bd 0685 d93c f7ed 9cbd 81d7 71bc
00000160: 0fe4 553d 8e5a c23d 94a1 603d 8675 41bd
00000170: 938e 05be d0d0 703d a3cc c1bd 7d1d 18bc
00000180: 8228 01bc 9560 c83c 213d fabc 5d2a abbd
00000190: 45db d33d 6cdf f6bd 0e41 d0bd 8bd5 e3bd
000001a0: b4fc 7c3c aec0 ccbc 0928 2f3e 67c2 84be
000001b0: be92 733e 30a2 b7be 3b2b 0e3e ea7c 8f3d
000001c0: 2c90 c0bd 808f c53c 404c c93b ab57 5b3d
000001d0: f1bc f1bd 8f31 cfbd 8a1e 913d 7053 babc
000001e0: bb0c a03d d996 0bbc 08e6 28be fc60 d93d
000001f0: f90f 2b3c 30b3 26be 5b46 9bbd 07b0 133d
00000200: 64d5 f03d 5f52 1fbe 13c2 4abe b2bb 21bd
00000210: 4a1c 52be 5cef e13d 4acf 61bd c090 ca3c
00000220: ba69 07be 1c3f 603d 7431 4a3d bb74 0f3e
00000230: 7f55 fbbd e650 813e 9b34 64be 72b5 113d
00000240: 860f 82be f84a 55bd 8f28 77bd e400 ba3c
00000250: 7a61 303e 8398 2a3d 4315 cdbd 1b97 8ebe
00000260: f7de 153b 035a 963c 408a 163e b4a2 2bbe
00000270: 206f 7f3d 3e67 c8bd 72e4 5d3e 134a 8bbd
00000280: 8077 5bbd 0952 263d 320e 4b3b 394d 7c3d
00000290: 652e 96bd baea 84bd 540a 2e3d f4c5 21bd
000002a0: ba7b 56bd c5a4 e8bd 6873 c8bc 878e d7bd
000002b0: 2eb9 fc3d 1086 c7bd febb 933d ffe0 433d
000002c0: 4db1 18be efd5 40be 0ee9 fabb 0bae 623d
000002d0: 490b 793d 3ab8 0abe 2fff e2bd 582e e73d
000002e0: 09ca bfbb 532f cabd 9a03 7c3d 36a7 39be
000002f0: b193 553e 7116 02be 5092 8d3d b290 ebbd
00000300: 32c9 63bb 8784 c83d ccc3 003e 9216 8f3d
00000310: 48c1 3bbe b024 35be e8dc 713d 7ad4 07bd
00000320: 8278 e73d ddba 03be 3244 dfbd 5029 d13d
00000330: 98a0 8a3d e14a 003e 844c 883d 08db 8f3c
00000340: b057 f33c cf43 0d3e ca72 e4bd 291c 5bbd
00000350: 9407 6e3d ccd1 5bbd 6f21 c83d 9a73 c93d
00000360: a25b b63d f475 29bc da03 7e3d 9bea 423c
00000370: 7504 7cbd 4361 233e 11c2 65be ffde 663e
00000380: 5327 75be c489 b9bd e0fb 9f3d f012 293d
00000390: 0956 87bd dadd f43d ae0f 24be 54af 063c
000003a0: 740e 2bbe 0d3e 3bbd 70f9 763d d7e6 3fbd
000003b0: 532e 8e3d 150a 3ebd 25a9 123e 208a 4a3d
000003c0: 302f bdbd bf9f c6bc c0bc 09be 35e5 b13d
000003d0: 31a0 debc b219 863c be37 873d e063 04be
000003e0: 7e5d f03d 7059 02be 5715 5c3d c394 ec3a
000003f0: 6b87 23bd 5323 873b 71f6 10bd a2af da3d

bias f4 [5]
-0.06042079 -0.07863414 -0.041079827 0.05270492 0.092189595
00000000: ca7b 77bd f00a a1bd 5243 28bd 1de1 573d
00000010: e6cd bc3d
