Models/GNNs/Models_20_7_Datasets-improved-Gini/Models_20_7_SecureBillingEmail-improved-Gini/model_RGCN_1000_samples_1000_epochs_32_batchsize.pth (torch, 59982 bytes, 14 tensors)

weight f4 [8, 300]
0.24445367 0.39815912 0.06335317 0.16701636 -0.24082679 0.1071346 0.14539379 -0.089542285
0.004628853 0.16271132 0.2115761 -0.052319273 0.12895454 -0.13074821 -0.042385295 0.32854185
0.04917209 -0.054626197 0.10066149 0.025597556 0.082734615 -0.0005090047 0.4070963 0.0008630831
0.115831 -0.12776464 0.038935382 0.0076509155 0.009459436 0.03954551 0.051752638 0.030959086
0.39772847 -0.026737403 -0.24499485 -0.06544633 0.18621391 0.13499522 0.040510852 0.08534823
0.052154195 -0.032538954 -0.008959914 -0.12747827 -0.090458184 -0.08365837 -0.23868206 -0.066808105
-0.028869625 0.00723131 -0.27840963 -0.18332696 -0.13552631 -0.054622456 -0.089820996 -0.023006879
-0.010175671 0.23852922 0.09724845 0.4564529 -0.007395789 0.03519096 -0.019669978 0.05027315
-0.13548867 0.58211094 -0.22333296 -0.027502567 0.16347153 0.0773917 0.40548176 0.063736334
-0.06154912 -0.13841547 -0.14292197 -0.05403475 0.097196914 -0.019773789 0.03963685 -0.12576276
-0.18663086 -0.12734373 -0.046297066 0.33806717 0.11023091 0.051004898 0.11314644 0.059784006
-0.13989052 -0.13632515 0.062050626 0.07907579 -0.13145307 -0.050116904 -0.023338586 -0.054567337
-0.009943023 0.15224063 -0.04615341 -0.014515504 0.0581312 -0.15085456 0.23036969 -0.02933798
-0.009666969 -0.19445834 -0.0032809675 -0.12822902 0.14406163 -0.030728688 0.021808704 0.10884605
-0.060671207 -0.10848916 -0.036383554 0.18599032 -0.12510593 -0.035046257 0.06912368 0.11365097
-0.033358306 -0.13083543 -0.026863072 -9.970508e-05 0.08971292 0.09552744 0.041117087 -0.008906335
-0.076139405 0.076299354 -0.07868378 0.005648099 -0.029336795 -0.06874395 -0.18240628 0.07019921
-0.15798979 0.05453504 0.0174378 0.5853894 -0.049966894 0.005909756 0.0055176765 -0.028297106
0.084388 0.08441514 0.22238089 0.09675609 -0.13710889 0.06489725 -0.008743367 0.20621184
0.027328065 0.04525703 0.5859927 0.02425296 0.013135627 0.39680415 -0.17246968 -0.04313515
0.0039350837 -0.21486337 0.119472474 0.1161371 0.009206421 0.14482592 0.5163898 0.09327173
0.35709172 0.36530232 -0.09018802 0.46187654 0.07919806 0.039784044 -0.018984016 0.0040345076
0.040258728 -0.025659595 0.0037034005 0.030428588 -0.09433311 -0.17680274 -0.12423374 -0.0052934526
-0.053783324 0.07825981 -0.048341855 -0.05840462 -0.054731287 -0.057394404 0.24508853 -0.052204832
-0.45122537 0.029878259 -0.09742513 -0.07371615 0.005635813 -0.090167 0.12180895 -0.30142117
0.06619091 -0.06781522 -0.024626143 -0.019449823 -0.04066486 -0.08960986 0.4402839 -0.0927372
-0.12069432 -0.030889891 0.07841705 -0.22939248 -0.36819062 -0.102537915 0.03279139 0.055401053
-0.0015047102 -0.112995096 -0.0011111962 0.02318872 -0.026654309 -0.044514008 -0.45129186 0.05875456
-0.22222851 -0.0034721345 0.053085357 -0.12206074 -0.04907507 -0.06179174 0.40341046 -0.0546349
-0.04099737 -0.013368056 -0.109314576 -0.06982096 0.123339236 -0.0900892 -0.04440123 0.0731999
-0.24159339 0.1896596 0.043980844 0.1463431 0.046909574 -0.32726285 0.052170962 -0.32424963
0.068146475 0.014127344 -0.004605619 -0.21808013 0.21215037 0.01272807 -0.11834912 -0.08451359
00000000: 1052 7a3e 83db cb3e 4fbf 813d 5606 2b3e
00000010: 4c9b 76be 6369 db3d 1ce2 143e f261 b7bd
00000020: a2ad 973b cc9d 263e 68a7 583e bc4c 56bd
00000030: a90c 043e dce2 05be 349c 2dbd a336 a83e
00000040: ac68 493d b8bf 5fbd 9c27 ce3d f7b1 d13c
00000050: c470 a93d ba6e 05ba ed6e d03e 8740 623a
00000060: ce38 ed3d bcd4 02be b57a 1f3d 88b4 fa3b
00000070: c0fb 1a3c 79fa 213d 93fa 533d e99d fd3c
00000080: 11a3 cb3e 6608 dbbc eedf 7abe ba08 86bd
00000090: dcae 3e3e 303c 0a3e b5ee 253d 0ecb ae3d
000000a0: a39f 553d 9147 05bd 9acc 12bc aa89 02be
000000b0: 2442 b9bd 1455 abbd 1269 74be b0d2 88bd
000000c0: fe7f ecbc a0f4 ec3b b58b 8ebe 10ba 3bbe
000000d0: 69c7 0abe ccbb 5fbd 12f4 b7bd ec78 bcbc
000000e0: dcb7 26bc 0141 743e 322a c73d 32b4 e93e
000000f0: 6058 f2bb 6524 103d ef22 a1bc 38eb 4d3d
00000100: 8bbd 0abe 3905 153f 65b1 64be 104d e1bc
00000110: 1565 273e 8a7f 9e3d 4e9b cf3e 3288 823d
00000120: ee1a 7cbd c9bc 0dbe 235a 12be 8b53 5dbd
00000130: 2d0f c73d a4fc a1bc 405a 223d f4c7 00be
00000140: 291c 3fbe 6566 02be fea1 3dbd 2417 ad3e
00000150: bec0 e13d 83ea 503d 52b9 e73d 13e0 743d
00000160: 763f 0fbe d298 0bbe cc28 7e3d 7df2 a13d
00000170: a29b 06be 6247 4dbd 9030 bfbc 0082 5fbd
00000180: 10e8 22bc f8e4 1b3e 5c0b 3dbd 70d2 6dbc
00000190: fb1a 6e3d 9e79 1abe 08e6 6b3e 3456 f0bc
000001a0: 3562 1ebc 1620 47be 8005 57bb 784e 03be
000001b0: e484 133e bbba fbbc 2ba8 b23c aeea de3d
000001c0: 5f82 78bd 912f debd ec06 15bd 3f74 3e3e
000001d0: c51b 00be aa8c 0fbd b790 8d3d d7c1 e83d
000001e0: b8a2 08bd b9f9 05be f20f dcbc c218 d1b8
000001f0: 68bb b73d e4a3 c33d 646a 283d e0eb 11bc
00000200: faee 9bbd d642 9c3d f624 a1bd b013 b93b
00000210: b853 f0bc a1c9 8cbd b6c8 3abe 9ac4 8f3d
00000220: 13c8 21be 2260 5f3d b8d9 8e3c 14dc 153f
00000230: 16aa 4cbd a0a6 c13b a0cd b43b 55cf e7bc
00000240: 9ed3 ac3d d8e1 ac3d d1b7 633e 0f28 c63d
00000250: 4666 0cbe d9e8 843d 5740 0fbc 3229 533e
00000260: 1bdf df3c 6f5f 393d 9e03 163f 25ae c63c
00000270: d036 573c ea29 cb3e e49b 30be 7cae 30bd
00000280: e0f1 803b 2505 5cbe fcad f43d 4ad9 ed3d
00000290: 87d6 163c 3f4d 143e 1f32 043f 4005 bf3d
000002a0: bad4 b63e e808 bb3e 7fb4 b8bd 157b ec3e
000002b0: 9832 a23d 98f4 223d 5e84 9bbc e733 843b
000002c0: 56e6 243d 1234 d2bc c0b4 723b 6045 f93c
000002d0: b831 c1bd c70b 35be 426e febd b374 adbb
000002e0: e74b 5cbd ae46 a03d 1c02 46bd af39 6fbd
000002f0: ea2d 60bd 6516 6bbd 7df8 7a3e bcd4 55bd
00000300: 0307 e7be 40c3 f43c d486 c7bd 7ef8 96bd
00000310: a0ac b83b 7aa9 b8bd f976 f93d e053 9abe
00000320: 1a8f 873d b5e2 8abd c4bc c9bc 3c55 9fbc
00000330: 3290 26bd 6085 b7bd e46c e13e 00ed bdbd
00000340: 952e f7bd cc0c fdbc 1e99 a03d dde5 6abe
00000350: 7b83 bcbe 66ff d1bd 4450 063d 37ec 623d
00000360: b239 c5ba f969 e7bd 8fa5 91ba 45f6 bd3c
00000370: 235a dabc 5254 36bd ba0f e7be 9fa8 703d
00000380: df8f 63be c08c 63bb 0870 593d fbfa f9bd
00000390: f102 49bd 5619 7dbd d18b ce3e d8c8 5fbd
000003a0: dcec 27bd b105 5bbc 52e0 dfbd 4bfe 8ebd
000003b0: 4899 fc3d b080 b8bd 10de 35bd d4e9 953d
000003c0: 4264 77be 2036 423e 4225 343d f7da 153e
000003d0: 4124 403d ff8e a7be 38b1 553d 0c04 a6be
000003e0: 6190 8b3d 6076 673c bbea 96bb 6650 5fbe
000003f0: f23d 593e 6589 503c 0661 f2bd 7615 adbd

bias f4 [300]
-0.021528866 0.06760586 -0.0193151 0.30923355 0.18458602 -0.029154647 0.03710339 0.0
-0.0132659245 0.1288289 0.034990273 0.0 0.096420154 -0.025245674 0.0 0.36278844
0.0 0.12935142 -0.072914734 -0.017715992 0.0 0.16077407 0.17095417 0.18849441
0.0 0.0 0.15114763 -0.020810353 0.0 -0.012972909 -0.03070195 -0.021990737
0.07491573 -0.015462493 0.23284778 0.16335367 -0.062301897 0.1510768 0.18795706 0.0
0.09415944 0.11526274 0.11027237 -0.007913245 0.0518073 0.0 0.17331776 0.0
-0.025131857 0.0 0.32453352 0.18972756 0.0 0.0 0.0 0.11907163
0.15248762 0.17545971 0.050983075 -0.15054819 -0.00801897 -0.030116817 0.09839391 0.0
0.0 0.15322168 0.2060321 0.0 0.23125854 0.0 0.08790487 -0.035795193
0.0 0.0 0.15354802 0.17259169 -0.061535787 -0.008462547 0.0 0.113889225
0.19481742 0.0 0.66336334 0.083402485 0.0 -0.02869236 0.0 0.04025006
0.18452013 0.0 0.0 0.4723639 0.065654986 0.10963204 0.0 -0.027881067
0.12529843 0.0046937927 0.0 0.0 -0.032242473 0.10895561 0.16400129 0.0
0.38641277 -0.00027442677 0.0 0.0 0.08626773 0.10948269 0.057069782 0.08361898
-0.013991893 0.16580808 0.0 0.095188074 -0.0083274245 0.08223287 -0.012948025 0.18180884
0.0 0.14126523 -0.031579453 -0.013793681 0.0 0.0 0.08552015 0.0
0.0 0.073942475 0.0 -0.0060046255 -0.006000303 0.21401146 0.16127972 0.053859647
0.13159965 -0.023136746 0.0 0.096893914 0.0 0.0 0.0 0.12281092
-0.007261104 0.0 0.17651793 -0.029465633 0.0 -0.0131415045 0.13984394 0.1419519
-0.00018964037 -0.008120713 0.14001316 -0.014371511 0.0 0.06676705 0.083330125 0.0
0.0 0.07171853 -0.037483085 -0.009821726 -0.031561136 0.24444818 0.14854388 -0.014526899
0.08257621 0.0346866 0.1827491 0.09215717 0.1604551 0.31486267 0.14112811 -0.034103785
0.10733873 -0.013901782 0.0 0.0 0.0 0.14121152 0.0 -0.011710874
0.13845067 -0.04490337 0.0 -0.025877317 0.14369966 0.16817223 0.034994695 0.0
0.15652019 0.0 0.21992715 0.15666442 0.0 0.0 0.10936519 0.22667569
0.0 -0.006502297 0.0 0.0 -0.016401106 0.37185836 0.07805702 0.0
0.7453699 0.0 0.149771 0.13452652 0.1660071 0.0 0.0 0.18249078
-0.026092952 0.0 0.19571924 0.12345027 0.15096754 0.0 0.14579456 0.10750094
-0.0995025 -0.0060029817 -0.015123271 0.515163 0.17442013 -0.014699527 0.043146662 0.0
0.0 -0.020819908 0.0 0.11409446 0.1125377 0.0 0.0 0.12649724
0.13268453 0.21906142 -0.025261898 0.10240026 -0.02184723 0.17656317 0.0 0.17706527
-0.029986799 0.0 0.16183549 0.20671745 0.053788144 -0.019090079 -0.0209054 0.0
00000000: 4e5d b0bc f174 8a3d b33a 9ebc dc53 9e3e
00000010: 1e04 3d3e bad5 eebc b9f9 173d 0000 0000
00000020: 5259 59bc b9eb 033e f651 0f3d 0000 0000
00000030: ee77 c53d 04d0 cebc 0000 0000 68bf b93e
00000040: 0000 0000 b374 043e 5254 95bd 2121 91bc
00000050: 0000 0000 f5a1 243e 9c0e 2f3e ae04 413e
00000060: 0000 0000 0000 0000 72c6 1a3e 797a aabc
00000070: 0000 0000 538c 54bc a882 fbbc eb25 b4bc
00000080: 6b6d 993d 6556 7dbc a66f 6e3e 2f46 273e
00000090: 4630 7fbd e0b3 1a3e d177 403e 0000 0000
000000a0: aad6 c03d df0e ec3d 7bd6 e13d 8ea6 01bc
000000b0: e433 543d 0000 0000 367a 313e 0000 0000
000000c0: 53e1 cdbc 0000 0000 4229 a63e f147 423e
000000d0: 0000 0000 0000 0000 0000 0000 d4db f33d
000000e0: b725 1c3e b6ab 333e a1d3 503d 4e29 1abe
000000f0: ff61 03bc 8bb7 f6bc bf82 c93d 0000 0000
00000100: 0000 0000 25e6 1c3e 14fa 523e 0000 0000
00000110: 0acf 6c3e 0000 0000 7807 b43d fb9d 12bd
00000120: 0000 0000 0000 0000 b13b 1d3e e0bb 303e
00000130: f30c 7cbd 7fa6 0abc 0000 0000 c13e e93d
00000140: 387e 473e 0000 0000 2ed2 293f ecce aa3d
00000150: 0000 0000 3d0c ebbc 0000 0000 3fdd 243d
00000160: d8f2 3c3e 0000 0000 0000 0000 aed9 f13e
00000170: 1f76 863d c386 e03d 0000 0000 d666 e4bc
00000180: 3b4e 003e 63ce 993b 0000 0000 0000 0000
00000190: af10 04bd 1e24 df3d f4ef 273e 0000 0000
000001a0: e5d7 c53e f0e0 8fb9 0000 0000 0000 0000
000001b0: 23ad b03d 7638 e03d 01c2 693d 6e40 ab3d
000001c0: 413e 65bc 98c9 293e 0000 0000 f7f1 c23d
000001d0: c06f 08bc b569 a83d f423 54bc 192c 3a3e
000001e0: 0000 0000 d5a7 103e 7559 01bd e4fe 61bc
000001f0: 0000 0000 0000 0000 3025 af3d 0000 0000
00000200: 0000 0000 276f 973d 0000 0000 73c2 c4bb
00000210: 319e c4bb d225 5b3e 8326 253e ef9b 5c3d
00000220: 0fc2 063e 4689 bdbc 0000 0000 5170 c63d
00000230: 0000 0000 0000 0000 0000 0000 4b84 fb3d
00000240: 8eee edbb 0000 0000 1ec1 343e e961 f1bc
00000250: 0000 0000 774f 57bc 4033 0f3e d75b 113e
00000260: 33da 46b9 bd0c 05bc 9c5f 0f3e 7c76 6bbc
00000270: 0000 0000 2abd 883d fca8 aa3d 0000 0000
00000280: 0000 0000 2ae1 923d dd87 19bd 4eeb 20bc
00000290: 4046 01bd a050 7a3e e31b 183e 3b02 6ebc
000002a0: b71d a93d 8913 0e3d 9422 3b3e e6bc bc3d
000002b0: 574e 243e ae35 a13e e383 103e 69b0 0bbd
000002c0: 68d4 db3d 4dc4 63bc 0000 0000 0000 0000
000002d0: 0000 0000 c199 103e 0000 0000 f7de 3fbc
000002e0: 03c6 0d3e 99ec 37bd 0000 0000 abfc d3bc
000002f0: 0126 133e 5735 2c3e 9956 0f3d 0000 0000
00000300: d446 203e 0000 0000 9534 613e a36c 203e
00000310: 0000 0000 0000 0000 dbfa df3d ac1d 683e
00000320: 0000 0000 3811 d5bb 0000 0000 0000 0000
00000330: 9d5b 86bc 3864 be3e 5cdc 9f3d 0000 0000
00000340: 90d0 3e3f 0000 0000 925d 193e 52c1 093e
00000350: c4fd 293e 0000 0000 0000 0000 ddde 3a3e
00000360: e3c0 d5bc 0000 0000 a06a 483e 7fd3 fc3d
00000370: 3c97 1a3e 0000 0000 2b4b 153e 7429 dc3d
00000380: f7c7 cbbd a9b4 c4bb 99c7 77bc b9e1 033f
00000390: 319b 323e 49d6 70bc 8eba 303d 0000 0000
000003a0: 0000 0000 838e aabc 0000 0000 5baa e93d
000003b0: 2a7a e63d 0000 0000 0000 0000 7e88 013e
000003c0: 74de 073e a351 603e 0af2 cebc 3ab7 d13d
000003d0: f6f8 b2bc facc 343e 0000 0000 9950 353e
000003e0: e0a6 f5bc 0000 0000 34b8 253e bdad 533e
000003f0: f550 5c3d cc62 9cbc cd41 abbc 0000 0000

weight f4 [8, 300]
-0.0787444 -0.102317214 0.081314474 0.08183214 0.08215977 0.09924023 0.06514692 -0.08851142
-0.0411845 0.043824956 0.027835354 0.06845155 -0.056287423 -0.07702781 -0.13758118 0.05871357
0.041289836 0.014465928 -0.047876567 0.034399137 -0.12786433 0.102107 -0.06616368 0.13226874
-0.10935971 0.043478057 -0.030235484 0.024534047 -0.12761092 0.059068546 0.13368155 0.105585575
-0.024748772 0.008258149 -0.11792061 -0.010414973 0.03268595 0.08230151 -0.11431922 0.009492651
-0.06861468 -0.028144605 -0.07160599 -0.056561887 0.020749763 -0.09900165 -0.02838415 -0.0023426265
0.124360874 -0.01270929 0.09465346 0.054713488 -0.08459093 -0.08787725 -0.028309263 -0.06709295
-0.11608214 0.0044339895 0.06623082 0.050871685 0.040575236 0.12928279 0.032403678 -0.0011088252
0.13614292 -0.0035756826 -0.04605282 0.008524671 -0.1291528 -0.072942115 0.0671514 -0.07721919
-0.015198685 0.08586311 -0.054695234 0.11205904 0.07785261 -0.02977743 0.006502837 0.078351796
0.059180662 -0.007158503 -0.09673332 0.013291806 -0.10156827 0.023198724 -0.036943473 0.038089514
0.012657151 0.019191697 -0.12529966 -0.029997721 0.084555164 0.033084318 -0.014551625 -0.01986435
-0.078567445 -0.032240108 -0.016599253 -0.13899268 -0.054156333 -0.03498698 -0.12844312 -0.0690032
0.044649407 -0.0435253 -0.0020701438 0.045762792 0.0014900416 -0.11305363 0.09997921 0.087893546
-0.0570627 0.08815962 0.05677834 0.12980513 0.0045763403 0.12953024 0.016214639 -0.13562943
-0.031400435 -0.04000187 -0.058125712 0.05347827 -0.05737049 -0.051311202 0.009739205 -0.003763646
-0.07533837 -0.024548464 -0.04479453 0.13269217 -0.06548871 0.0074436516 -0.12400837 -0.025465399
0.13190036 -0.022226177 0.10948974 0.03616461 -0.07429085 0.05859174 0.06961946 0.009455413
0.029775128 0.072535604 0.05166325 0.10358803 -0.10513372 0.117508635 0.11708616 -0.07983123
-0.07127008 -0.021751784 -0.09345722 0.037216634 0.13216223 0.03348124 0.051713496 -0.027020834
0.08938153 0.020665586 -0.07580253 -0.019516371 -0.013046011 0.11585282 0.026346698 -0.03879086
-0.117174946 -0.045057714 0.112056896 0.0137972385 0.093006566 -0.046243332 0.1324317 0.08062573
-0.08951643 0.0053327233 -0.04937324 -0.057485417 0.09834224 0.058182016 0.080611765 -0.056018226
-0.10764102 -0.06498868 -0.003188178 -0.07477818 0.13553976 -0.10523603 0.059611127 0.0133726
-0.13094671 0.07685067 0.10725477 0.066395015 0.13181995 0.08697307 0.025413856 0.072859645
-0.1023127 0.1353202 -0.07033414 0.062206164 0.07425293 0.11837302 0.03886929 0.06764203
-0.1303522 0.0697712 -0.09731013 -0.12659933 -0.13667138 0.05313386 0.1320257 0.07077439
0.12265305 -0.11299735 0.043941647 -0.0014510602 0.019356385 0.04412414 0.061651662 0.04811214
0.13780884 0.0073455274 0.012268811 0.07847288 -0.028061055 -0.05300338 -0.07415808 0.06863849
0.045396864 -0.11820954 -0.05810345 0.11542396 0.053715587 0.022888213 0.0999438 -0.04866389
-0.045644745 0.043820813 -0.007838905 -0.13346367 -0.09339779 0.059562147 -0.091558084 0.022901282
0.07784416 0.08832885 -0.10115634 -0.016755618 -0.08452259 0.09813814 0.10093129 0.10163602
00000000: be44 a1bd b08b d1bd 3488 a63d 9c97 a73d
00000010: 6243 a83d 763e cb3d c06b 853d 7a45 b5bd
00000020: 14b1 28bd cc81 333d f806 e43c 5430 8c3d
00000030: a48d 66bd c2c0 9dbd 15e2 0cbe a47d 703d
00000040: 881f 293d 8002 6d3c 381a 44bd 1ce6 0c3d
00000050: deee 02be 7a1d d13d d380 87bd 7571 073e
00000060: fcf7 dfbd 0c16 323d 68b0 f7bc a0fb c83c
00000070: 70ac 02be dcf1 713d d1e3 083e 403d d83d
00000080: f0bd cabc 304d 073c 5c80 f1bd 90a3 2abc
00000090: b4e1 053d b28d a83d 3220 eabd 1087 1b3c
000000a0: da85 8cbd 848f e6bc 29a6 92bd 70ad 67bd
000000b0: 68fb a93c 61c1 cabd e085 e8bc c086 19bb
000000c0: eab0 fe3d a03a 50bc acd9 c13d 401b 603d
000000d0: 023e adbd fdf8 b3bd d4e8 e7bc 0768 89bd
000000e0: 79bc edbd 004b 913b 06a4 873d d45e 503d
000000f0: 3832 263d b562 043e b8b9 043d 0056 91ba
00000100: 0d69 0b3e 0056 6abb e2a1 3cbd 10ab 0b3c
00000110: a240 04be ad62 95bd ac86 893d 1825 9ebd
00000120: e803 79bc 00d9 af3d 1c08 60bd 367f e53d
00000130: 3071 9f3d ccef f3bc c015 d53b e876 a03d
00000140: 6c67 723d e091 eabb 1e1c c6bd e0c5 593c
00000150: 0603 d0bd 400b be3c 0a52 17bd c003 1c3d
00000160: f05f 4f3c e837 9d3c 8e4e 00be c8bd f5bc
00000170: 422b ad3d 6c83 073d f069 6ebc 90ba a2bc
00000180: f8e7 a0bd 340e 04bd 28fb 87bc 1954 0ebe
00000190: 08d3 5dbd 824e 0fbd 9886 03be 8d51 8dbd
000001a0: 4ce2 363d 9647 32bd 40ab 07bb c471 3b3d
000001b0: 804d c33a a988 e7bd e6c1 cc3d 8801 b43d
000001c0: 94ba 69bd 088d b43d 6890 683d a3eb 043e
000001d0: 20f5 953b 93a3 043e 90d4 843c 71e2 0abe
000001e0: be9d 00bd 00d9 23bd 3a15 6ebd 080c 5b3d
000001f0: 52fd 6abd b22b 52bd 3091 1f3c 80a7 76bb
00000200: 014b 9abd dc19 c9bc 787a 37bd 75e0 073e
00000210: f21e 86bd e0e9 f33b 1af8 fdbd d09c d0bc
00000220: e310 073e ac13 b6bc 283c e03d 5821 143d
00000230: cd25 98bd e4fd 6f3d a694 8e3d e0ea 1a3c
00000240: f8ea f33c 8c8d 943d d89c 533d f625 d43d
00000250: 5950 d7bd 5ea8 f03d deca ef3d 8e7e a3bd
00000260: 0cf6 91bd cc30 b2bc 8066 bfbd 7870 183d
00000270: 8955 073e a023 093d 88d1 533d cc5a ddbc
00000280: aa0d b73d e04a a93c 5b3e 9bbd cce0 9fbc
00000290: f0be 55bc 3e44 ed3d 08d5 d73c 2ae3 1ebd
000002a0: 6bf9 efbd 708e 38bd 167e e53d d00d 623c
000002b0: 3a7a be3d a669 3dbd 2d9c 073e 1a1f a53d
000002c0: 6454 b7bd 20be ae3b 983b 4abd d475 6bbd
000002d0: a867 c93d 4450 6e3d c817 a53d 5e73 65bd
000002e0: e572 dcbd c918 85bd c0f0 50bb 4d25 99bd
000002f0: efca 0a3e fd85 d7bd cc2a 743d c018 5b3c
00000300: e516 06be e263 9d3d 64a8 db3d 1cfa 873d
00000310: cffb 063e f01e b23d b830 d03c 7037 953d
00000320: 5289 d1bd 6191 0a3e 580b 90bd e4cb 7e3d
00000330: ec11 983d 8e6d f23d 6835 1f3d e887 8a3d
00000340: 0c7b 05be 34e4 8e3d 894a c7bd 41a3 01be
00000350: 95f3 0bbe e4a2 593d bf31 073e 2af2 903d
00000360: 8631 fb3d 286b e7bd 28fc 333d 8031 beba
00000370: 4891 9e3c 84bb 343d 7486 7c3d 3c11 453d
00000380: c31d 0d3e c0b2 f03b 2003 493c 64b6 a03d
00000390: 4ce0 e5bc 121a 59bd 31e0 97bd 5692 8c3d
000003a0: 10f2 393d d817 f2bd e2fd 6dbd 6663 ec3d
000003b0: e004 5c3d 1080 bb3c 56af cc3d ca53 47bd
000003c0: fcf5 3abd 747d 333d c06e 00bc b3aa 08be
000003d0: 5747 bfbd 70f7 733d ce82 bbbd 789b bb3c
000003e0: c26c 9f3d c2e5 b43d 0e2b cfbd 1443 89bc
000003f0: 2e1a adbd a6fc c83d 10b5 ce3d 8c26 d03d

bias f4 [300]
0.0 0.0 0.0 0.0 0.0 0.0 0.0 0.0
0.0 0.0 0.0 0.0 0.0 0.0 0.0 0.0
0.0 0.0 0.0 0.0 0.0 0.0 0.0 0.0
0.0 0.0 0.0 0.0 0.0 0.0 0.0 0.0
0.0 0.0 0.0 0.0 0.0 0.0 0.0 0.0
0.0 0.0 0.0 0.0 0.0 0.0 0.0 0.0
0.0 0.0 0.0 0.0 0.0 0.0 0.0 0.0
0.0 0.0 0.0 0.0 0.0 0.0 0.0 0.0
0.0 0.0 0.0 0.0 0.0 0.0 0.0 0.0
0.0 0.0 0.0 0.0 0.0 0.0 0.0 0.0
0.0 0.0 0.0 0.0 0.0 0.0 0.0 0.0
0.0 0.0 0.0 0.0 0.0 0.0 0.0 0.0
0.0 0.0 0.0 0.0 0.0 0.0 0.0 0.0
0.0 0.0 0.0 0.0 0.0 0.0 0.0 0.0
0.0 0.0 0.0 0.0 0.0 0.0 0.0 0.0
0.0 0.0 0.0 0.0 0.0 0.0 0.0 0.0
0.0 0.0 0.0 0.0 0.0 0.0 0.0 0.0
0.0 0.0 0.0 0.0 0.0 0.0 0.0 0.0
0.0 0.0 0.0 0.0 0.0 0.0 0.0 0.0
0.0 0.0 0.0 0.0 0.0 0.0 0.0 0.0
0.0 0.0 0.0 0.0 0.0 0.0 0.0 0.0
0.0 0.0 0.0 0.0 0.0 0.0 0.0 0.0
0.0 0.0 0.0 0.0 0.0 0.0 0.0 0.0
0.0 0.0 0.0 0.0 0.0 0.0 0.0 0.0
0.0 0.0 0.0 0.0 0.0 0.0 0.0 0.0
0.0 0.0 0.0 0.0 0.0 0.0 0.0 0.0
0.0 0.0 0.0 0.0 0.0 0.0 0.0 0.0
0.0 0.0 0.0 0.0 0.0 0.0 0.0 0.0
0.0 0.0 0.0 0.0 0.0 0.0 0.0 0.0
0.0 0.0 0.0 0.0 0.0 0.0 0.0 0.0
0.0 0.0 0.0 0.0 0.0 0.0 0.0 0.0
0.0 0.0 0.0 0.0 0.0 0.0 0.0 0.0
00000000: 0000 0000 0000 0000 0000 0000 0000 0000
00000010: 0000 0000 0000 0000 0000 0000 0000 0000
00000020: 0000 0000 0000 0000 0000 0000 0000 0000
00000030: 0000 0000 0000 0000 0000 0000 0000 0000
00000040: 0000 0000 0000 0000 0000 0000 0000 0000
00000050: 0000 0000 0000 0000 0000 0000 0000 0000
00000060: 0000 0000 0000 0000 0000 0000 0000 0000
00000070: 0000 0000 0000 0000 0000 0000 0000 0000
00000080: 0000 0000 0000 0000 0000 0000 0000 0000
00000090: 0000 0000 0000 0000 0000 0000 0000 0000
000000a0: 0000 0000 0000 0000 0000 0000 0000 0000
000000b0: 0000 0000 0000 0000 0000 0000 0000 0000
000000c0: 0000 0000 0000 0000 0000 0000 0000 0000
000000d0: 0000 0000 0000 0000 0000 0000 0000 0000
000000e0: 0000 0000 0000 0000 0000 0000 0000 0000
000000f0: 0000 0000 0000 0000 0000 0000 0000 0000
00000100: 0000 0000 0000 0000 0000 0000 0000 0000
00000110: 0000 0000 0000 0000 0000 0000 0000 0000
00000120: 0000 0000 0000 0000 0000 0000 0000 0000
00000130: 0000 0000 0000 0000 0000 0000 0000 0000
00000140: 0000 0000 0000 0000 0000 0000 0000 0000
00000150: 0000 0000 0000 0000 0000 0000 0000 0000
00000160: 0000 0000 0000 0000 0000 0000 0000 0000
00000170: 0000 0000 0000 0000 0000 0000 0000 0000
00000180: 0000 0000 0000 0000 0000 0000 0000 0000
00000190: 0000 0000 0000 0000 0000 0000 0000 0000
000001a0: 0000 0000 0000 0000 0000 0000 0000 0000
000001b0: 0000 0000 0000 0000 0000 0000 0000 0000
000001c0: 0000 0000 0000 0000 0000 0000 0000 0000
000001d0: 0000 0000 0000 0000 0000 0000 0000 0000
000001e0: 0000 0000 0000 0000 0000 0000 0000 0000
000001f0: 0000 0000 0000 0000 0000 0000 0000 0000
00000200: 0000 0000 0000 0000 0000 0000 0000 0000
00000210: 0000 0000 0000 0000 0000 0000 0000 0000
00000220: 0000 0000 0000 0000 0000 0000 0000 0000
00000230: 0000 0000 0000 0000 0000 0000 0000 0000
00000240: 0000 0000 0000 0000 0000 0000 0000 0000
00000250: 0000 0000 0000 0000 0000 0000 0000 0000
00000260: 0000 0000 0000 0000 0000 0000 0000 0000
00000270: 0000 0000 0000 0000 0000 0000 0000 0000
00000280: 0000 0000 0000 0000 0000 0000 0000 0000
00000290: 0000 0000 0000 0000 0000 0000 0000 0000
000002a0: 0000 0000 0000 0000 0000 0000 0000 0000
000002b0: 0000 0000 0000 0000 0000 0000 0000 0000
000002c0: 0000 0000 0000 0000 0000 0000 0000 0000
000002d0: 0000 0000 0000 0000 0000 0000 0000 0000
000002e0: 0000 0000 0000 0000 0000 0000 0000 0000
000002f0: 0000 0000 0000 0000 0000 0000 0000 0000
00000300: 0000 0000 0000 0000 0000 0000 0000 0000
00000310: 0000 0000 0000 0000 0000 0000 0000 0000
00000320: 0000 0000 0000 0000 0000 0000 0000 0000
00000330: 0000 0000 0000 0000 0000 0000 0000 0000
00000340: 0000 0000 0000 0000 0000 0000 0000 0000
00000350: 0000 0000 0000 0000 0000 0000 0000 0000
00000360: 0000 0000 0000 0000 0000 0000 0000 0000
00000370: 0000 0000 0000 0000 0000 0000 0000 0000
00000380: 0000 0000 0000 0000 0000 0000 0000 0000
00000390: 0000 0000 0000 0000 0000 0000 0000 0000
000003a0: 0000 0000 0000 0000 0000 0000 0000 0000
000003b0: 0000 0000 0000 0000 0000 0000 0000 0000
000003c0: 0000 0000 0000 0000 0000 0000 0000 0000
000003d0: 0000 0000 0000 0000 0000 0000 0000 0000
000003e0: 0000 0000 0000 0000 0000 0000 0000 0000
000003f0: 0000 0000 0000 0000 0000 0000 0000 0000

weight f4 [8, 300]
0.003852427 0.08498758 0.012800276 0.074957326 0.0063796043 0.040940315 0.07342611 0.08612263
0.10819292 -0.099539354 0.04737468 0.13930829 0.049610376 -0.0105020255 -0.015168756 -0.012782469
0.0843506 0.018996 -0.08642426 0.03594713 -0.08605096 0.107588306 -0.11310742 -0.06345459
0.13018467 0.058513373 -0.10397366 0.018590689 0.09572615 0.04459925 0.09581749 0.103783056
0.025249317 0.0031009167 -0.012155727 0.054082334 -0.0010575652 0.06930709 0.0316367 0.08410095
-0.03225866 -0.06680088 0.087580144 0.05822447 -0.06788477 0.1284865 0.13598551 0.1358382
-0.11470377 0.07653256 0.071954966 -0.012999669 -0.08314651 -0.12064529 0.006060958 -0.06268046
-0.13487935 0.1198488 -0.13321629 -0.03926231 0.122681156 0.0423598 -0.013861537 0.1345738
-0.012971401 -0.00064766407 -0.07094267 -0.09339425 0.07593581 -0.04410222 0.07710393 -0.04929269
0.029888019 0.058998615 -0.11489985 0.10746187 -0.040373586 -0.13671514 -0.048036963 -0.10532977
-0.13512738 0.08333881 0.12355502 -0.120336264 -0.06715648 -0.014737792 0.007675782 0.09722972
-0.11497689 -0.0878166 -0.042258292 0.08306153 -0.10080528 -0.008359492 -0.0013945699 -0.10382049
-0.08903876 0.08059785 -0.06906539 -0.10705811 0.1253186 -0.048765272 0.11673124 -0.0721935
-0.11174745 0.0017813295 0.12560095 -0.09069185 -0.050234705 -0.12505011 -0.10261216 -0.023351781
0.10961752 0.09088148 0.066975534 -0.13729702 -0.06843019 -0.08961207 0.10426143 -0.023818918
-0.0224308 0.12084891 0.011795223 0.10923655 -0.08601639 -0.12007809 0.12348981 0.06372954
-0.101679236 -0.029520735 0.049603984 0.017934933 0.032021374 0.046688616 0.014467001 0.035755858
0.03985834 0.042897508 0.08569485 0.10959263 0.13384299 0.0022101253 0.04404752 0.09734294
-0.13766788 -0.008588567 -0.029210359 0.05205828 0.09809144 0.028094843 0.0010276735 -0.055154562
0.108693644 0.061266497 0.020871297 0.036370218 -0.02647297 0.13488625 -0.0498538 -0.04705655
-0.0015103817 0.01084505 -0.002503708 0.13199048 0.11892231 -0.07453229 -0.08136663 -0.019858427
-0.038466647 -0.13606599 -0.08825624 -0.07650262 -0.1301139 -0.010304719 -0.0547525 0.020539567
-0.016409092 -0.06601104 -0.05440183 0.12847926 -0.04218527 -0.019352034 -0.045681432 -0.13289165
-0.0015606135 0.018341139 -0.099486165 0.06848244 0.11791767 0.11711551 0.1284012 0.10009949
0.12142624 -0.09734386 -0.12397637 0.023144528 0.11660002 0.069542736 -0.08471282 0.06854643
0.04884547 0.025239423 -0.110152185 0.04409881 0.06394634 -0.013250634 0.090077385 0.0649873
0.07611978 -0.097492106 -0.120154575 -0.081750326 -0.07592184 -0.034363076 0.10557833 -0.07758926
-0.045832574 0.060895473 0.0026427805 0.09961872 0.04834327 -0.12973882 0.062117502 -0.018856049
0.07722817 0.13658299 0.10015483 -0.068411075 -0.045489594 -0.080798015 0.062078178 -0.122212246
0.11665182 -0.12554364 -0.036239736 -0.02280616 -0.0931301 -0.07171053 0.11548762 -0.07093295
-0.078823656 0.12402992 -0.13722864 0.007015705 -0.0700935 0.045755222 -0.08886018 0.08654001
0.08026439 0.09414981 0.023451984 0.09561765 0.12120329 0.089543775 0.110139534 -0.05981668
00000000: 0079 7c3b f80d ae3d 40b8 513c 3a83 993d
00000010: 000c d13b 08b1 273d 6e60 963d 1061 b03d
00000020: 4094 dd3d 4adb cbbd f40b 423d d5a6 0e3e
00000030: 4034 4b3d b010 2cbc 6086 78bc 906d 51bc
00000040: 02c0 ac3d 809d 9b3c 34ff b0bd 4c3d 133d
00000050: 7c3b b0bd 4257 dc3d dda4 e7bd 7bf4 81bd
00000060: 214f 053e b8ab 6f3d 24f0 d4bd 804b 983c
00000070: 120c c43d b4ad 363d f63b c43d 368c d43d
00000080: a8d7 ce3c c038 4b3b d028 47bc 7085 5d3d
00000090: 009e 8aba e0f0 8d3d 7c95 013d 1e3d ac3d
000000a0: a821 04bd e6ce 88bd 385d b33d c87c 6e3d
000000b0: 2c07 8bbd f791 033e c93f 0b3e 2b19 0b3e
000000c0: cfe9 eabd 1abd 9c3d 205d 933d 90fc 54bc
000000d0: b848 aabd e114 f7bd 009b c63b 9d5e 80bd
000000e0: d01d 0abe 4a73 f53d da69 08be 84d1 20bd
000000f0: 4240 fb3d 7881 2d3d 801b 63bc b7cd 093e
00000100: 0086 54bc 00c8 29ba 644a 91bd 7c45 bfbd
00000110: 3c84 9b3d 88a4 34bd aae8 9d3d 22e7 49bd
00000120: b8d7 f43c 88a8 713d 9d50 ebbd f814 dc3d
00000130: c65e 25bd 0eff 0bbe 68c2 44bd 22b7 d7bd
00000140: d55e 0abe 8aad aa3d 6a0a fd3d dc72 f6bd
00000150: 5689 89bd c876 71bc 2085 fb3b 6020 c73d
00000160: 0179 ebbd 31d9 b3bd 0817 2dbd 2a1c aa3d
00000170: 0073 cebd 40f6 08bc 00ca b6ba d69f d4bd
00000180: f459 b6bd 7c10 a53d 2872 8dbd 4841 dbbd
00000190: 8553 003e 18be 47bd ca10 ef3d 30da 93bd
000001a0: d9db e4bd 807b e93a 899d 003e a6bc b9bd
000001b0: e8c2 4dbd 230d 00be 5326 d2bd 3c4c bfbc
000001c0: 267f e03d 1220 ba3d 782a 893d 9797 0cbe
000001d0: 2125 8cbd 8886 b7bd 0487 d53d e41f c3bc
000001e0: ccc0 b7bc a27f f73d c040 413c 6ab7 df3d
000001f0: 5c29 b0bd 80eb f5bd 3ae8 fc3d a284 823d
00000200: 343d d0bd 78d5 f1bc 8c2d 4b3d 48ec 923c
00000210: d828 033d 903c 3f3d 0007 6d3c bc74 123d
00000220: 8042 233d 4cb5 2f3d c880 af3d 1a72 e03d
00000230: 230e 093e c0d7 103b 2c6b 343d bc5b c73d
00000240: cff8 0cbe 10b7 0cbc 904a efbc 103b 553d
00000250: 2ae4 c83d 2827 e63c 00b3 863a c0e9 61bd
00000260: c69a de3d 94f2 7a3d 48fa aa3c f0f8 143d
00000270: d8dd d8bc 9f1f 0a3e 8033 4cbd 5ebe 40bd
00000280: 00f8 c5ba 70af 313c 4015 24bb 8328 073e
00000290: 8a8d f33d 63a4 98bd 8ca3 a6bd 24ae a2bc
000002a0: 348f 1dbd e254 0bbe b0bf b4bd 68ad 9cbd
000002b0: 943c 05be 20d5 28bc 2844 60bd 9842 a83c
000002c0: 5c6c 86bc cc30 87bd 74d4 5ebd 1190 033e
000002d0: 76ca 2cbd 2888 9ebc 741c 3bbd c014 08be
000002e0: 808d ccba 2840 963c 67bf cbbd 8640 8c3d
000002f0: d27e f13d 42da ef3d 9b7b 033e f600 cd3d
00000300: 52ae f83d 385c c7bd 53e7 fdbd 9899 bd3c
00000310: fecb ee3d 6c6c 8e3d ea7d adbd 1262 8c3d
00000320: 3012 483d e8c2 ce3c 7897 e1bd f4a0 343d
00000330: 4cf6 823d 3019 59bc 7e7a b83d 1018 853d
00000340: b0e4 9b3d f1a9 c7bd 9a13 f6bd b76c a7bd
00000350: e97c 9bbd 4cc0 0cbd 7439 d83d 1ee7 9ebd
00000360: f0ba 3bbd 886d 793d 8032 2d3b e604 cc3d
00000370: 9803 463d 41da 04be ec6e 7e3d 0078 9abc
00000380: ce29 9e3d 69dc 0b3e fa1d cd3d 1b1b 8cbd
00000390: 4c53 3abd 6e79 a5bd b045 7e3d 6a4a fabd
000003a0: 26e7 ee3d 838e 00be 1e70 14bd fcd3 babc
000003b0: feba bebd f8dc 92bd c684 ec3d 4b45 91bd
000003c0: 4c6e a1bd 6603 fe3d aa85 0cbe 00e4 e53b
000003d0: 2e8d 8fbd d469 3b3d 53fc b5bd e43b b13d
000003e0: a861 a43d 9ed1 c03d 601e c03c 30d3 c33d
000003f0: 6e39 f83d ba62 b73d d690 e13d 5602 75bd

bias f4 [300]
0.0 0.0 0.0 0.0 0.0 0.0 0.0 0.0
0.0 0.0 0.0 0.0 0.0 0.0 0.0 0.0
0.0 0.0 0.0 0.0 0.0 0.0 0.0 0.0
0.0 0.0 0.0 0.0 0.0 0.0 0.0 0.0
0.0 0.0 0.0 0.0 0.0 0.0 0.0 0.0
0.0 0.0 0.0 0.0 0.0 0.0 0.0 0.0
0.0 0.0 0.0 0.0 0.0 0.0 0.0 0.0
0.0 0.0 0.0 0.0 0.0 0.0 0.0 0.0
0.0 0.0 0.0 0.0 0.0 0.0 0.0 0.0
0.0 0.0 0.0 0.0 0.0 0.0 0.0 0.0
0.0 0.0 0.0 0.0 0.0 0.0 0.0 0.0
0.0 0.0 0.0 0.0 0.0 0.0 0.0 0.0
0.0 0.0 0.0 0.0 0.0 0.0 0.0 0.0
0.0 0.0 0.0 0.0 0.0 0.0 0.0 0.0
0.0 0.0 0.0 0.0 0.0 0.0 0.0 0.0
0.0 0.0 0.0 0.0 0.0 0.0 0.0 0.0
0.0 0.0 0.0 0.0 0.0 0.0 0.0 0.0
0.0 0.0 0.0 0.0 0.0 0.0 0.0 0.0
0.0 0.0 0.0 0.0 0.0 0.0 0.0 0.0
0.0 0.0 0.0 0.0 0.0 0.0 0.0 0.0
0.0 0.0 0.0 0.0 0.0 0.0 0.0 0.0
0.0 0.0 0.0 0.0 0.0 0.0 0.0 0.0
0.0 0.0 0.0 0.0 0.0 0.0 0.0 0.0
0.0 0.0 0.0 0.0 0.0 0.0 0.0 0.0
0.0 0.0 0.0 0.0 0.0 0.0 0.0 0.0
0.0 0.0 0.0 0.0 0.0 0.0 0.0 0.0
0.0 0.0 0.0 0.0 0.0 0.0 0.0 0.0
0.0 0.0 0.0 0.0 0.0 0.0 0.0 0.0
0.0 0.0 0.0 0.0 0.0 0.0 0.0 0.0
0.0 0.0 0.0 0.0 0.0 0.0 0.0 0.0
0.0 0.0 0.0 0.0 0.0 0.0 0.0 0.0
0.0 0.0 0.0 0.0 0.0 0.0 0.0 0.0
00000000: 0000 0000 0000 0000 0000 0000 0000 0000
00000010: 0000 0000 0000 0000 0000 0000 0000 0000
00000020: 0000 0000 0000 0000 0000 0000 0000 0000
00000030: 0000 0000 0000 0000 0000 0000 0000 0000
00000040: 0000 0000 0000 0000 0000 0000 0000 0000
00000050: 0000 0000 0000 0000 0000 0000 0000 0000
00000060: 0000 0000 0000 0000 0000 0000 0000 0000
00000070: 0000 0000 0000 0000 0000 0000 0000 0000
00000080: 0000 0000 0000 0000 0000 0000 0000 0000
00000090: 0000 0000 0000 0000 0000 0000 0000 0000
000000a0: 0000 0000 0000 0000 0000 0000 0000 0000
000000b0: 0000 0000 0000 0000 0000 0000 0000 0000
000000c0: 0000 0000 0000 0000 0000 0000 0000 0000
000000d0: 0000 0000 0000 0000 0000 0000 0000 0000
000000e0: 0000 0000 0000 0000 0000 0000 0000 0000
000000f0: 0000 0000 0000 0000 0000 0000 0000 0000
00000100: 0000 0000 0000 0000 0000 0000 0000 0000
00000110: 0000 0000 0000 0000 0000 0000 0000 0000
00000120: 0000 0000 0000 0000 0000 0000 0000 0000
00000130: 0000 0000 0000 0000 0000 0000 0000 0000
00000140: 0000 0000 0000 0000 0000 0000 0000 0000
00000150: 0000 0000 0000 0000 0000 0000 0000 0000
00000160: 0000 0000 0000 0000 0000 0000 0000 0000
00000170: 0000 0000 0000 0000 0000 0000 0000 0000
00000180: 0000 0000 0000 0000 0000 0000 0000 0000
00000190: 0000 0000 0000 0000 0000 0000 0000 0000
000001a0: 0000 0000 0000 0000 0000 0000 0000 0000
000001b0: 0000 0000 0000 0000 0000 0000 0000 0000
000001c0: 0000 0000 0000 0000 0000 0000 0000 0000
000001d0: 0000 0000 0000 0000 0000 0000 0000 0000
000001e0: 0000 0000 0000 0000 0000 0000 0000 0000
000001f0: 0000 0000 0000 0000 0000 0000 0000 0000
00000200: 0000 0000 0000 0000 0000 0000 0000 0000
00000210: 0000 0000 0000 0000 0000 0000 0000 0000
00000220: 0000 0000 0000 0000 0000 0000 0000 0000
00000230: 0000 0000 0000 0000 0000 0000 0000 0000
00000240: 0000 0000 0000 0000 0000 0000 0000 0000
00000250: 0000 0000 0000 0000 0000 0000 0000 0000
00000260: 0000 0000 0000 0000 0000 0000 0000 0000
00000270: 0000 0000 0000 0000 0000 0000 0000 0000
00000280: 0000 0000 0000 0000 0000 0000 0000 0000
00000290: 0000 0000 0000 0000 0000 0000 0000 0000
000002a0: 0000 0000 0000 0000 0000 0000 0000 0000
000002b0: 0000 0000 0000 0000 0000 0000 0000 0000
000002c0: 0000 0000 0000 0000 0000 0000 0000 0000
000002d0: 0000 0000 0000 0000 0000 0000 0000 0000
000002e0: 0000 0000 0000 0000 0000 0000 0000 0000
000002f0: 0000 0000 0000 0000 0000 0000 0000 0000
00000300: 0000 0000 0000 0000 0000 0000 0000 0000
00000310: 0000 0000 0000 0000 0000 0000 0000 0000
00000320: 0000 0000 0000 0000 0000 0000 0000 0000
00000330: 0000 0000 0000 0000 0000 0000 0000 0000
00000340: 0000 0000 0000 0000 0000 0000 0000 0000
00000350: 0000 0000 0000 0000 0000 0000 0000 0000
00000360: 0000 0000 0000 0000 0000 0000 0000 0000
00000370: 0000 0000 0000 0000 0000 0000 0000 0000
00000380: 0000 0000 0000 0000 0000 0000 0000 0000
00000390: 0000 0000 0000 0000 0000 0000 0000 0000
000003a0: 0000 0000 0000 0000 0000 0000 0000 0000
000003b0: 0000 0000 0000 0000 0000 0000 0000 0000
000003c0: 0000 0000 0000 0000 0000 0000 0000 0000
000003d0: 0000 0000 0000 0000 0000 0000 0000 0000
000003e0: 0000 0000 0000 0000 0000 0000 0000 0000
000003f0: 0000 0000 0000 0000 0000 0000 0000 0000

weight f4 [300, 5]
-1.7508116 -0.4346265 1.2984294 -1.9139552 -0.40647078 -0.15924533 -0.20397723 0.005172951
0.057580743 0.017742649 -0.05751008 0.045732275 -0.03100925 -0.018963529 -0.103364766 -0.2387976
-0.51660645 -0.015504164 -0.2315882 -0.16068037 0.3165109 0.012320224 -0.22181062 0.41819525
0.080357604 -0.031813554 0.06670451 -0.11403639 0.04975394 0.056371126 0.061867267 -0.1731292
-0.01679248 0.0027514503 -0.18169472 -0.13433717 0.1297258 0.057314724 -0.027668193 -0.06724924
-0.13163097 -0.0974842 -0.0730741 0.13591792 0.12405393 0.036293652 -0.2300991 -0.048296228
-0.020083671 0.103393376 0.09193665 -0.09940226 -0.17143308 -0.12713942 0.0727595 0.09916414
0.12640716 0.08306612 -0.087374315 -0.1206546 -0.089825936 -0.082579575 -0.029673094 -0.044274244
0.06537794 -0.06839645 0.023968542 0.073228344 0.03775011 0.07849902 0.07446979 -0.13281848
-0.07313997 -0.059725583 -0.01091142 0.23100154 -0.30794978 -0.35169196 0.4018905 0.020475768
0.08902657 0.056563035 0.015809685 -0.12215084 -0.07569715 -0.109902434 -0.08176055 -0.040960647
-0.27311188 0.011445875 -0.06048671 0.06211852 -0.11078478 -0.00060352427 0.07906073 -0.045054186
0.109482616 -0.08645245 -0.008027643 -0.110889785 0.032056272 0.090204835 0.11900963 0.13272487
0.029675528 0.039084975 0.020706628 -0.097607486 0.05512076 -0.18139164 -0.056860093 -0.295177
-0.024363773 -0.21575993 0.04814477 0.060324654 -0.33645707 -0.10055827 0.18112443 0.09726706
0.11348866 0.060914725 -0.080405846 -0.04603429 -0.061622195 0.101913184 0.07229127 0.04927294
-0.07549799 -0.108478904 -0.00443143 0.006335722 0.06872315 -0.16093159 0.017767172 -0.02138666
0.11322191 -0.056477427 -0.028491063 -0.11574233 -0.02852548 -0.06686025 0.01377213 -0.14023216
0.030234694 -0.06584189 0.00507314 0.13096921 0.028222755 -0.023335185 -0.06253742 -0.13259134
-0.055674683 -0.091244005 -0.03534022 -0.06083528 -0.07219848 0.09249825 0.020511864 0.016748998
-0.004895698 -0.104922816 -0.111592054 -0.17180322 0.11039461 -0.12529565 -0.14038235 -0.0028768373
-0.053630374 -0.13950744 0.20421796 0.028475864 -0.0333569 0.15974602 0.06936974 0.00085764367
-0.043253 -0.13986504 0.061764404 -0.180496 -0.037465855 0.08962764 -0.12774703 0.15470898
0.029560553 -0.040692784 -0.20858496 0.07360732 0.033253342 0.024215052 0.6966836 0.21859147
-0.56248105 0.9159727 0.258707 -0.0009573996 -0.038676225 -0.087236255 0.076089576 0.029998973
0.08794501 -0.13145064 -0.03384587 0.17649584 -0.17139876 0.15629983 -0.10763574 0.05643346
0.016457045 0.08290205 0.001210956 -0.10523147 -0.10804432 -0.07486807 0.111320965 -0.037793323
-0.06872694 -0.045809194 -0.11649376 -0.095989235 0.101418264 -0.06526573 -0.1331975 0.13269095
-0.087879136 -0.1384808 0.06969102 -0.13042785 0.037830442 -0.07001568 0.19700402 0.009548092
-0.14214334 0.040267352 0.21972907 0.07711719 0.074991256 -0.09905031 -0.098386005 -0.07866593
-0.03761238 -0.092128806 0.11277803 0.08465232 0.05077966 -0.03904572 -0.037387736 -0.004908368
0.012847617 -0.032229237 -0.06777664 -0.21907453 -0.0399171 -0.009419095 0.16638619 0.12805441
00000000: 981a e0bf 5d87 debe ef32 a63f 7cfc f4bf
00000010: f01c d0be 3511 23be 68df 50be dc81 a93b
00000020: c9d9 6b3d 0859 913c b18f 6bbd c451 3b3d
00000030: 1c07 febc 6759 9bbc e8b0 d3bd 5c87 74be
00000040: 5240 04bf 2d05 7ebc 7525 6dbe 6589 24be
00000050: b70d a23e c4da 493c 5322 63be b01d d63e
00000060: 8792 a43d ee4e 02bd 609c 883d e98b e9bd
00000070: caca 4b3d 69e5 663d 8868 7d3d c848 31be
00000080: 6290 89bc ad51 343b 2e0e 3abe af8f 09be
00000090: d7d6 043e d8c2 6a3d 68a8 e2bc f8b9 89bd
000000a0: 45ca 06be cca5 c7bd e0a7 95bd 112e 0b3e
000000b0: fd0f fe3d a7a8 143d 199f 6bbe 44d2 45bd
000000c0: 8386 a4bc e8bf d33d 4849 bc3d 6993 cbbd
000000d0: 278c 2fbe d630 02be ef02 953d 9216 cb3d
000000e0: e170 013e 921e aa3d 4ef1 b2bd c219 f7bd
000000f0: a9f6 b7bd 7b1f a9bd fd14 f3bc e958 35bd
00000100: dfe4 853d 7013 8cbd ad59 c43c bef8 953d
00000110: dc9f 1a3d 18c4 a03d 9e83 983d 9101 08be
00000120: 69ca 95bd d0a2 74bd d0c5 32bc ab8b 6c3e
00000130: 98ab 9dbe f810 b4be 97c4 cd3e ccbc a73c
00000140: 9053 b63d a4ae 673d 5083 813c 382a fabd
00000150: 1b07 9bbd 8714 e1bd 1372 a7bd 5ac6 27bd
00000160: 52d5 8bbe 7b87 3b3c eac0 77bd fd6f 7e3d
00000170: 21e3 e2bd d435 1eba 98ea a13d bd8a 38bd
00000180: 6c38 e03d fb0d b1bd 6086 03bc 2f1a e3bd
00000190: 704d 033d 50bd b83d 52bb f33d 07e9 073e
000001a0: 181a f33c 9117 203d f2a0 a93c 6fe6 c7bd
000001b0: 4ec6 613d bbbe 39be 21e6 68bd 7121 97be
000001c0: 8996 c7bc 2cf0 5cbe 7333 453d fc16 773d
000001d0: 1a44 acbe 7ff1 cdbd af78 393e f433 c73d
000001e0: be6c e83d b881 793d d2ab a4bd 748e 3cbd
000001f0: 8e67 7cbd dcb7 d03d 720d 943d 6cd2 493d
00000200: b19e 9abd 302a debd 8735 91bb e39b cf3b
00000210: b9be 8c3d 40cb 24be 768c 913c 1433 afbc
00000220: e4e0 e73d e054 67bd 1766 e9bc 510a edbd
00000230: 44ae e9bc 07ee 88bd 80a4 613c 0599 0fbe
00000240: c0ae f73c 1dd8 86bd 953c a63b cb1c 063e
00000250: 6833 e73c 6e29 bfbc 9e13 80bd 06c6 07be
00000260: 230b 64bd 23de babd e8c0 10bd 6a2e 79bd
00000270: ccdc 93bd b96f bd3d 7f08 a83c 3235 893c
00000280: 176c a0bb c6e1 d6bd 608a e4bd 2fed 2fbe
00000290: 9216 e23d 814d 00be 64c0 0fbe 5289 3cbb
000002a0: 86ab 5bbd 0adb 0ebe 831e 513e 3746 e93c
000002b0: 3fa1 08bd 7694 233e b911 8e3d 7ed3 603a
000002c0: 0f2a 31bd c838 0fbe acfc 7c3d f2d3 38be
000002d0: cc75 19bd b28e b73d 1ed0 02be 086c 1e3e
000002e0: f928 f23c 7aad 26bd 4c97 55be 6fbf 963d
000002f0: a834 083d a55e c63c db59 323f 71d6 5f3e
00000300: c2fe 0fbf 307d 6a3f 3e75 843e 00fa 7aba
00000310: f66a 1ebd eca8 b2bd dad4 9b3d 68c0 f53c
00000320: 831c b43d ff9a 06be f8a1 0abd 53bb 343e
00000330: 2883 2fbe 100d 203e 2070 dcbd c626 673d
00000340: edd0 863c 8dc8 a93d f1b8 9e3a 9983 d7bd
00000350: 5746 ddbd 6e54 99bd 3ffc e33d 2ccd 1abd
00000360: b6c0 8cbd 6ca2 3bbd 4894 eebd 0196 c4bd
00000370: 61b4 cf3d 0aaa 85bd ed64 08be 23e0 073e
00000380: faf9 b3bd e9cd 0dbe 2aba 8e3d e18e 05be
00000390: 18f4 1a3d 6164 8fbd 6cbb 493e 9a6f 1c3c
000003a0: 068e 11be 61ef 243d a800 613e 9eef 9d3d
000003b0: 0495 993d e4da cabd 9a7e c9bd 9a1b a1bd
000003c0: 700f 1abd 07ae bcbd 2bf8 e63d 325e ad3d
000003d0: 55fe 4f3d 68ee 1fbd e223 19bd 60d6 a0bb
000003e0: d07e 523c ce02 04bd 7bce 8abd 1355 60be
000003f0: 1d80 23bd 8c52 1abc 2461 2a3e b220 033e

bias f4 [5]
0.57291484 0.051405456 -0.41242716 0.64513505 -0.102114394
00000000: 8caa 123f 878e 523d a729 d3be 9227 253f
00000010: 5a21 d1bd

weight f4 [300, 5]
-0.023075124 -0.4355957 -0.54304755 0.082623154 -0.2531954 0.017258858 0.08937818 -0.034292754
0.25076094 0.059303816 -0.15690842 -0.016390583 0.05305141 -0.05080522 -0.046268947 -0.36146536
0.48759466 -0.2906188 0.080032006 -0.15364605 -0.18866375 0.38522696 -0.19860704 0.08341708
-0.37674275 0.078489505 -0.08882355 -0.08079619 0.14345516 0.06154672 0.03628613 0.09647121
-0.15897606 0.032053035 -0.09925603 0.024830863 -0.009091139 -0.009755492 0.0670398 0.110972956
-0.05487239 0.1440264 -0.07599966 0.014938532 -0.086154364 -0.02088929 0.008392346 0.056799382
0.18835129 -0.144725 0.05323089 0.07727857 -0.08529553 0.13745539 -0.12206716 -0.011908054
0.0813598 -0.054717347 0.09962036 0.058818027 -0.13299249 0.09584377 0.13675827 0.04064424
-0.09036912 -0.012313303 0.09864441 0.04121247 0.10131019 0.06920887 -0.10227916 -0.065863736
0.053128213 0.08222887 0.044535518 -0.2534041 0.27062777 -0.32733127 0.11557966 -0.3127641
0.10191119 0.00905031 0.10001013 0.10809523 -0.005383149 -0.15350942 0.016774014 -0.1584931
0.10828436 -0.10209567 0.09690793 -0.2415688 -0.26969475 0.40477416 -0.1085789 0.11283047
-0.008817183 0.08231226 -0.0017327538 0.0111946 0.0711641 0.13361065 0.11859281 -0.05743707
0.09648721 -0.11991794 0.20823286 -0.0903219 0.018865613 -0.10013373 0.03344022 -0.086243615
0.15996756 0.14029372 0.06809823 -0.03628967 0.2846706 -0.11003043 0.32251585 -0.08748248
0.10265784 0.024794847 0.030766621 -0.13397849 -0.060169563 0.032799065 -0.011806667 -0.11937842
-0.07455789 0.013058811 0.08797405 0.062178914 0.1071091 0.11674763 0.07366469 -0.1505795
-0.040032174 0.01697812 -0.048021626 -0.07926301 -0.002129957 -0.110799894 0.06527433 0.06872383
-0.062740244 0.07717951 -0.08434411 0.13991855 0.049411837 -0.07435631 0.072367415 0.13465361
0.027388053 0.10375708 -0.14501335 0.08516031 0.1386925 0.113953 -0.039812002 0.06257126
0.03425675 0.00024197822 0.14591084 0.3104756 0.12767553 -0.114626825 -0.058412146 -0.047980934
0.030874774 0.09064946 -0.06942575 0.2803549 -0.00028308333 0.09240982 0.04228147 -0.19711795
0.17437159 -0.116537526 0.19516513 -0.20755036 -0.021378914 -0.30492425 -0.40875423 0.10483748
-0.37497732 -0.001713265 0.20900257 0.095200166 0.05807623 0.068593234 0.82658964 -0.04265645
1.1854473 0.7879722 1.0771092 0.13030238 0.029345274 -0.05980774 0.07902162 0.055612504
-0.12771037 0.11833526 -0.03730396 0.020756489 0.09433366 0.06793743 0.02744238 0.27959594
0.09762691 0.13373779 0.026612729 0.22997004 0.041969903 0.23298213 0.022089278 0.13221212
-0.090596385 0.12696871 -0.114074625 -0.06706008 -0.1120735 0.051881444 -0.08609005 0.08480819
-0.00065327185 -0.10880455 0.042535335 0.09480946 -0.049697407 0.12725185 -0.033423696 -0.016886797
0.024011618 0.014643349 0.014060236 -0.0334104 -0.10240598 -0.042497642 -0.068933494 -0.09433355
0.10856979 -0.013900986 0.065319546 -0.08283318 0.15188584 0.06946477 0.007741526 0.0033979714
-0.0049985945 -0.056216188 -0.03319258 0.24156277 0.03400964 0.18408284 0.1390778 -0.13879423
00000000: 0b08 bdbc 6606 dfbe 2a05 0bbf 5436 a93d
00000010: d4a2 81be 7362 8d3c e80b b73d 8f76 0cbd
00000020: bd63 803e 8fe8 723d 9aac 20be 8b45 86bc
00000030: 6f4c 593d 2219 50bd 8284 3dbd fd11 b9be
00000040: 02a6 f93e fdcb 94be d2e7 a33d 6455 1dbe
00000050: 1231 41be 783c c53e a55f 4bbe 93d6 aa3d
00000060: 6de4 c0be 1bbf a03d 1fe9 b5bd 7978 a5bd
00000070: e9e5 123e 6a18 7c3d c4a0 143d b392 c53d
00000080: 9fca 22be 0b4a 033d bf46 cbbd 186a cb3c
00000090: 00f3 14bc 80d5 1fbc 2a4c 893d ca45 e33d
000000a0: dfc1 60bd a87b 133e b6a5 9bbd bfc0 743c
000000b0: b371 b0bd 0420 abbc 0d80 093c 78a6 683d
000000c0: 29df 403e ca32 14be a208 5a3d 3a44 9e3d
000000d0: 6caf aebd 1bc1 0c3e 59fe f9bd 001a 43bc
000000e0: f89f a63d 4c1f 60bd c205 cc3d 2ceb 703d
000000f0: 2f2f 08be bd49 c43d 5c0a 0c3e 937a 263d
00000100: 7213 b9bd bcbd 49bc 1506 ca3d 68ce 283d
00000110: b87b cf3d 61bd 8d3d bc77 d1bd 91e3 86bd
00000120: f89c 593d 9c67 a83d e06a 363d 2fbe 81be
00000130: b98f 8a3e f797 a7be 07b5 ec3d 9e22 a0be
00000140: d0b6 d03d c047 143c 1cd2 cc3d 0861 dd3d
00000150: 2065 b0bb 9331 1dbe a869 893c 044c 22be
00000160: 31c4 dd3d 8917 d1bd aa77 c63d d05d 77be
00000170: 6e15 8abe 8f3e cf3e 9d5e debd a913 e73d
00000180: f275 10bc 5593 a83d 921d e3ba 8e69 373c
00000190: 7cbe 913d 3bd1 083e cae0 f23d 2243 6bbd
000001a0: 169b c53d 8997 f5bd ff3a 553e b0fa b8bd
000001b0: 0f8c 9a3c ea12 cdbd 9df8 083d 7ea0 b0bd
000001c0: 89ce 233e 28a9 0f3e 1677 8b3d 7aa4 14bd
000001d0: 58c0 913e a257 e1bd cc20 a53e 042a b3bd
000001e0: 463e d23d 901e cb3c 480a fc3c a831 09be
000001f0: 5c74 76bd 5058 063d c070 41bc ac7c f4bd
00000200: cfb1 98bd a0f4 553c bd2b b43d 51af 7e3d
00000210: 045c db3d 6219 ef3d 83dd 963d 8331 1abe
00000220: c7f8 23bd b315 8b3c 53b2 44bd a554 a2bd
00000230: c096 0bbb 0eeb e2bd 8cae 853d 14bf 8c3d
00000240: f57d 80bd 4a10 9e3d 9bbc acbd cf46 0f3e
00000250: 1164 4a3d 1f48 98bd 5e35 943d a3e2 093e
00000260: e95c e03c 987e d43d 617e 14be 8768 ae3d
00000270: 6805 0e3e 3160 e93d e911 23bd 5c25 803d
00000280: ce50 0c3d 89bb 7d39 a769 153e a8f6 9e3e
00000290: 60bd 023e 78c1 eabd 9341 6fbd a887 44bd
000002a0: 18ed fc3c 6da6 b93d 162f 8ebd ad8a 8f3e
000002b0: cd6a 94b9 5c41 bd3d 562f 2d3d 4ad9 49be
000002c0: 778e 323e 3aab eebd 5ed9 473e 1588 54be
000002d0: d522 afbc 081f 9cbe 3c48 d1be 08b5 d63d
000002e0: 07fd bfbe a28f e0ba c504 563e 4ef8 c23d
000002f0: 57e1 6d3d 9c7a 8c3d 619b 533f 88b8 2ebd
00000300: bdbc 973f 8cb8 493f b7de 893f fd6d 053e
00000310: 8065 f03c f6f8 74bd 16d6 a13d f0c9 633d
00000320: 82c6 02be c259 f23d 0acc 18bd 8309 aa3c
00000330: 0232 c13d c822 8b3d d8ce e03c 3327 8f3e
00000340: 9ef0 c73d 8ff2 083e f002 da3c 447d 6b3e
00000350: a2e8 2b3d de92 6e3e 93f4 b43c 9d62 073e
00000360: 998a b9bd 1604 023e f59f e9bd cc56 89bd
00000370: cb86 e5bd a381 543d fb4f b0bd ebaf ad3d
00000380: 5540 2bba ebd4 debd 8839 2e3d 762b c23d
00000390: 828f 4bbd 4f4e 023e 49e7 08bd 2e56 8abc
000003a0: 03b4 c43c a8ea 6f3c e75c 663c 58d9 08bd
000003b0: 3aba d1bd 0212 2ebd 012d 8dbd f331 c1bd
000003c0: d759 de3d f6c0 63bc 41c6 853d 71a4 a9bd
000003d0: f687 1b3e 8c43 8e3d a0ac fd3b 80b0 5e3b
000003e0: 40cb a3bb f242 66bd f1f4 07bd 3b5c 773e
000003f0: b14d 0b3d 3680 3c3e 696a 0e3e 1320 0ebe

bias f4 [5]
0.854719 -0.1291288 0.68836105 0.5224488 0.5409312
00000000: ddce 5a3f 573a 04be 6e38 303f 34bf 053f
00000010: 787a 0a3f
