Models/GNNs/Models_20_7_Datasets-improved-Gini/Models_20_7_Wordpress-improved-Gini/model_RGCN_1000_samples_1000_epochs_64_batchsize.pth (torch, 59982 bytes, 14 tensors)

weight f4 [8, 300]
0	0xbd114540	-0.035466433
1	0x3e8dfe80	0.2773323
2	0x3ce81480	0.028330088
3	0x3e4e7075	0.20160086
4	0xbd90028c	-0.07031736
5	0xbd513511	-0.051076
6	0x3d08989a	0.033348657
7	0xbd871e4b	-0.06597575
8	0x3df0ccd4	0.11757818
9	0xbdd15b32	-0.10222472
10	0x3dbd3a07	0.092395835
11	0xbd647b45	-0.05578162
12	0xbe0942f8	-0.13404453
13	0xbddae037	-0.10687297
14	0x3e014abf	0.1262617
15	0xbdd7e394	-0.10541454
16	0xbda0cf60	-0.07852054
17	0x3cc00040	0.02343762
18	0xbe11574a	-0.14193454
19	0xbed67c5b	-0.4189175
20	0x3e00d092	0.12579563
21	0x3de21a31	0.11040152
22	0x3bb75cc0	0.0055957735
23	0xbd4f60b8	-0.050629348
24	0x3cdb3a35	0.026761154
25	0xbdc4fe2b	-0.09618791
26	0xbe7f0472	-0.2490404
27	0xbda40bb4	-0.08010045
28	0x3dee570e	0.11637698
29	0x3d1851e0	0.037187457
30	0xbdb8454d	-0.08997593
31	0xbdb55ad0	-0.08855212
32	0xbd5bc934	-0.05365868
33	0xbd85283e	-0.06501816
34	0xbd3357bd	-0.043784846
35	0xbd746fc0	-0.059676886
36	0x3cd9bbd8	0.026578829
37	0xbd327856	-0.043571793
38	0xbdd257df	-0.10270666
39	0xbe5dc61c	-0.21657604
40	0xbd25bc57	-0.040462818
41	0x3e2ceb3b	0.16886608
42	0x3dfd61f6	0.123722
43	0xbe86a889	-0.26300457
44	0xbd8b32af	-0.067967765
45	0xbe0a5b18	-0.13511312
46	0xbda27910	-0.07933247
47	0xbdf76c3e	-0.120811924
48	0xbe39e5e4	-0.18154103
49	0xbce3cae8	-0.027806714
50	0xbdd8e77e	-0.10591029
51	0xbb545177	-0.003239719
52	0x3cf3ce1e	0.02976137
53	0x3f283b43	0.65715426
54	0x3de1d831	0.11027563
55	0x3ddf021e	0.10889076
56	0x3d8eadd8	0.06966752
57	0xbb326940	-0.0027223378
58	0xbdf1040a	-0.117683485
59	0x3c86717a	0.016411532
60	0x3d9267c2	0.071486965
61	0xbf4ea3a2	-0.80718434
62	0x3e8d5ead	0.27611294
63	0xbd08cab3	-0.033396434
64	0x3d17bb2d	0.03704374
65	0x3e18ec97	0.14934002
66	0x3dc08ee5	0.09402255
67	0xbbe7ab80	-0.007070005
68	0xbda1b73a	-0.07896276
69	0xbd91bdc8	-0.07116276
70	0xbd1ef7bf	-0.038810488
71	0x3ce70c90	0.028204232
72	0xbf626938	-0.884418
73	0x3cc49b0d	0.023999715
74	0x3bba1726	0.005679029
75	0xbecdbe66	-0.40184325
76	0x3c761c10	0.015021339
77	0x3d1e44ad	0.038639713
78	0xbc0907bc	-0.00836366
79	0xbdaf90eb	-0.08572563
80	0xbdec5465	-0.115395345
81	0x3eea0fe5	0.45715252
82	0x3df0d14f	0.117586724
83	0xbd294ac4	-0.041331068
84	0xbdad8609	-0.08472831
85	0xbac05052	-0.0014672375
86	0xbce78ab0	-0.028264374
87	0xbd442a96	-0.047892176
88	0xbc8c22e4	-0.01710648
89	0x3da98643	0.082775615
90	0xbf420a96	-0.757974
91	0x3c0d0a98	0.008608483
92	0xbdb7a048	-0.08966118
93	0x3dd5ad62	0.10433461
94	0xbdd4c338	-0.103887975
95	0xbd717c86	-0.058956645
96	0x3c0503e0	0.0081186
97	0x3d850342	0.06494762
98	0xbde0d0b7	-0.10977309
99	0xbdf2e9cb	-0.11860999
100	0xbdf97676	-0.12180798
101	0xbc29f496	-0.010373255
102	0x3dfb48e3	0.122697614
103	0x3e9634f3	0.29337272
104	0x3b12695b	0.0022340629
105	0xbd7c1824	-0.06154646
106	0x3dbfa2c9	0.09357221
107	0x3d94d84d	0.072678186
108	0x3ddc6ab5	0.1076254
109	0xbce1f1f7	-0.027581198
110	0x3d88f3de	0.06687139
111	0xbdf8747e	-0.12131594
112	0xbdd19311	-0.10233129
113	0xbdabaa42	-0.083820835
114	0xbbdb4940	-0.0066920817
115	0xbd4f2ace	-0.05057793
116	0xbd0e1f8c	-0.034698054
117	0x3e090a77	0.13382898
118	0xbde88a44	-0.11354497
119	0xbc0eacce	-0.008708192
120	0x3d3c6387	0.045993354
121	0xbd08b200	-0.03337288
122	0xbdd9f58c	-0.106425375
123	0xbdde3810	-0.10850537
124	0xbc6e084f	-0.014528348
125	0xbdf8a6f4	-0.12141219
126	0xbd3ac1d2	-0.045594998
127	0xbdb7c3f9	-0.08972926
128	0xbe027aba	-0.12742129
129	0xbd4c1c39	-0.049831603
130	0xbdc1b0c7	-0.09457546
131	0xbd61d02d	-0.055130173
132	0xbde1d832	-0.11027564
133	0x3cd601df	0.02612394
134	0xbe038522	-0.12843755
135	0xbdb22c4e	-0.08699857
136	0xbe8d50cc	-0.27600706
137	0x3dadb71b	0.0848219
138	0xbe431422	-0.19050649
139	0x3e1722d2	0.14759377
140	0xbce652b4	-0.028115608
141	0xbcbf3048	-0.023338452
142	0xbdbd71b7	-0.09250205
143	0x3d0d4e00	0.034498215
144	0xbd881e29	-0.066463776
145	0x3e2306b4	0.15920526
146	0x3d9fbbf9	0.07799525
147	0xbe05251c	-0.13002437
148	0xbd62bef8	-0.055357903
149	0xbdb8d90e	-0.09025775
150	0x3d59c82d	0.053169418
151	0x3dcc1e07	0.09966665
152	0xb7f1bbf0	-2.8816954e-05
153	0x3d267094	0.040634707
154	0x3d4f2f80	0.05058241
155	0xbd9e8e2d	-0.07741962
156	0x3e10d87e	0.14145085
157	0xbc302e96	-0.010753294
158	0x3d18f6e7	0.03734484
159	0xbdb5acc5	-0.08870844
160	0x3d4ad262	0.049517043
161	0x3d4736a0	0.04863608
162	0xbde1bb83	-0.11022093
163	0xbca7c686	-0.020480406
164	0xbd12225c	-0.0356773
165	0x3e57a1a6	0.21057758
166	0x3cb68025	0.022277901
167	0x3e074efa	0.13213721
168	0xbd910931	-0.07081831
169	0xbcb81404	-0.022470482
170	0x3dec9b34	0.1155304
171	0xbe125b72	-0.14292696
172	0x3dcc7600	0.09983444
173	0xbcda94d4	-0.026682295
174	0xbf10c584	-0.56551385
175	0x3eaf02e7	0.34181902
176	0x3d9e0cf7	0.077173166
177	0x3db7abec	0.08968338
178	0x3e34f06f	0.17669843
179	0xbd74c13c	-0.059754595
180	0x3e54f2ea	0.2079579
181	0xbca44171	-0.020050736
182	0x3f58b1ae	0.8464612
183	0xbdc8f268	-0.0981186
184	0x3d88229f	0.066472284
185	0x3cfed93b	0.031109443
186	0xbdd5fbbf	-0.104484074
187	0xbcf22177	-0.029556973
188	0xbd852437	-0.06501048
189	0xbe0b69d7	-0.13614593
190	0xbdba6c9b	-0.09102746
191	0x3dad795b	0.08470412
192	0xbdaff48c	-0.085915655
193	0xbd7326c2	-0.059363134
194	0x3dc7a6f2	0.09748639
195	0xbd625f8e	-0.05526691
196	0xbe201ec8	-0.15636742
197	0xbc8b3f60	-0.016997993
198	0xbd528577	-0.051396813
199	0xbdf5d5f7	-0.12003701
200	0xbe5df10f	-0.21673988
201	0xbd4e8f0c	-0.05042939
202	0xbdc0eebe	-0.094205365
203	0xbdc682ec	-0.0969294
204	0x3de565ff	0.11201095
205	0x3d06a91b	0.032876115
206	0xbe890f19	-0.2676933
207	0xbdaac6ff	-0.08338737
208	0xbdeb6610	-0.11494076
209	0xbd820a7f	-0.06349658
210	0xbdb8abee	-0.09017168
211	0x3d930d2b	0.07180246
212	0xbd1d2253	-0.038362812
213	0x3e043673	0.12911396
214	0xbbbe5413	-0.0058083623
215	0x3df253b4	0.11832371
216	0x3e1993bc	0.14997762
217	0xbb817bc4	-0.0039515216
218	0x3e24421f	0.16040848
219	0xbbb5f0a1	-0.005552367
220	0xbe15f64e	-0.14644739
221	0x3ed978da	0.42475015
222	0xbd010814	-0.031501845
223	0xbc135754	-0.008992989
224	0x3c9ab21c	0.018883757
225	0x3e0037fe	0.1252136
226	0x3d93b173	0.0721158
227	0xbd67cfb2	-0.056594558
228	0xbe9e2d33	-0.3089386
229	0x3d09f4bd	0.033680666
230	0xbd70691f	-0.058694
231	0xbe466f4c	-0.19378394
232	0xbf46a468	-0.77594614
233	0xbe539127	-0.2066084
234	0xbd8a5c28	-0.06755859
235	0x3e5b4c67	0.21415864
236	0xbcd4c8b0	-0.025974602
237	0x3c82677c	0.015918486
238	0xbde677a1	-0.11253286
239	0x3c3b5e4e	0.011436058
240	0xbc58156c	-0.013188701
241	0x3e2a86cc	0.16652983
242	0xbe0d791c	-0.13815731
243	0xbd97f558	-0.074198425
244	0x3e149a79	0.14512052
245	0xbdda7a04	-0.10667804
246	0xbc50c7ca	-0.012742946
247	0xbce412b8	-0.027840957
248	0xbd687d30	-0.056760013
249	0xbd354e0a	-0.044263877
250	0xbdb039d4	-0.0860478
251	0xbd99f1e4	-0.0751684
252	0x3dc53063	0.0962837
253	0xbe69fa1d	-0.22849317
254	0xbc4c2b8a	-0.012461552
255	0x3c9c4f01	0.01908064

bias f4 [300]
0	0x3e20f4bc	0.15718359
1	0x3d849411	0.06473554
2	0x00000000	0.0
3	0xbcae1a1b	-0.021252682
4	0xbd0b1384	-0.03395416
5	0xbce70068	-0.028198436
6	0x3e0e145a	0.13874951
7	0x3e99f858	0.30072284
8	0x3e05d0d1	0.13067938
9	0x3e352263	0.17688899
10	0xbd5e6469	-0.054294977
11	0x3e32900e	0.17437765
12	0x00000000	0.0
13	0x3e47eeb8	0.19524658
14	0x3e7c4d4c	0.24638861
15	0x00000000	0.0
16	0x00000000	0.0
17	0xbc415c52	-0.011801796
18	0xbcd8c60c	-0.026461624
19	0x3e843b33	0.25826415
20	0x3de1f4c7	0.11033016
21	0xbc953680	-0.018214464
22	0xbd1ff3fd	-0.039051045
23	0x00000000	0.0
24	0x3e4f7bc2	0.20262054
25	0xbd0da170	-0.034577787
26	0x3e68a9c7	0.22721015
27	0x00000000	0.0
28	0x3e1e4924	0.15457588
29	0x3e33ff2d	0.1757781
30	0x3e4db444	0.20088297
31	0x00000000	0.0
32	0x00000000	0.0
33	0x00000000	0.0
34	0xbcab9a8d	-0.020947719
35	0x00000000	0.0
36	0x00000000	0.0
37	0x00000000	0.0
38	0xbcc9020d	-0.02453711
39	0x3db2e4be	0.08735035
40	0x3ea77d44	0.32712758
41	0x3e2c88ed	0.16849108
42	0xbc2356de	-0.009969441
43	0x3e92dfe6	0.28686446
44	0x00000000	0.0
45	0x00000000	0.0
46	0x00000000	0.0
47	0x00000000	0.0
48	0x3e5397c2	0.2066336
49	0xbc22b67a	-0.009931201
50	0x00000000	0.0
51	0x3e233cbb	0.15941136
52	0x3e33046f	0.1748216
53	0x3d9d1c8a	0.07671459
54	0x3cfbcdfe	0.030737873
55	0xbc8f83ad	-0.017518843
56	0x3e2d47dd	0.16921945
57	0x00000000	0.0
58	0x3e77ca53	0.24198274
59	0x3e89135e	0.26772588
60	0xbd0788cd	-0.033089448
61	0x3ef36a21	0.47541907
62	0x3dd9476e	0.10609327
63	0xbbd469ac	-0.0064823236
64	0x3e376bad	0.17912169
65	0x3e36bee4	0.17846256
66	0x3e160891	0.14651705
67	0x3e0a9507	0.13533412
68	0x00000000	0.0
69	0x00000000	0.0
70	0x3e1ee65d	0.15517564
71	0x3e4d0c34	0.20024186
72	0x3f8e664a	1.1124966
73	0x3e436ff0	0.1908567
74	0x3e42409b	0.18969958
75	0x3f036f49	0.5134168
76	0x00000000	0.0
77	0x3e4c1290	0.19928956
78	0xbc5c10d3	-0.013431746
79	0x00000000	0.0
80	0x00000000	0.0
81	0x3d10fbaa	0.035396256
82	0x3e4151c6	0.1887885
83	0x00000000	0.0
84	0x00000000	0.0
85	0xbcc8eec5	-0.024527917
86	0x00000000	0.0
87	0x00000000	0.0
88	0x3e4f791a	0.2026104
89	0x3e353c7a	0.17698851
90	0x3f6ca0bc	0.9243276
91	0x3e6c570c	0.23080081
92	0x00000000	0.0
93	0xbcc937b6	-0.024562698
94	0x3e2b8a93	0.1675208
95	0x00000000	0.0
96	0x00000000	0.0
97	0x3e4be529	0.19911636
98	0x3e1f4047	0.15551864
99	0x00000000	0.0
100	0x00000000	0.0
101	0xbcfa76d9	-0.03057425
102	0x3cf54a82	0.029942755
103	0x3e16f090	0.14740205
104	0xbc012b0b	-0.007883797
105	0xbc290e76	-0.010318389
106	0x3e12e416	0.1434482
107	0x3e1bb229	0.15204681
108	0x3e2facfa	0.17155829
109	0xbc1ab6a2	-0.009442957
110	0xbd69ce0f	-0.05708128
111	0x3de9b8b5	0.11412183
112	0xbc585de1	-0.013205976
113	0x00000000	0.0
114	0x00000000	0.0
115	0xbc96830f	-0.01837304
116	0x00000000	0.0
117	0x3e3b1538	0.18269813
118	0x00000000	0.0
119	0x3e2cf4d3	0.16890268
120	0x3e5928cb	0.21206968
121	0x00000000	0.0
122	0xbc149885	-0.009069567
123	0xbccf427f	-0.025300262
124	0x3e144824	0.14480644
125	0x00000000	0.0
126	0x00000000	0.0
127	0x3ed341c8	0.41261125
128	0x3e789d1e	0.24278685
129	0x3e23f55d	0.16011567
130	0xbc274fb8	-0.0102118775
131	0xbc8fcf32	-0.017554853
132	0x00000000	0.0
133	0x3e23dae6	0.16001472
134	0x00000000	0.0
135	0x00000000	0.0
136	0x3eb13cfa	0.34616834
137	0x3e82540b	0.25454745
138	0x3e39e4dc	0.18153709
139	0x3dd3eba0	0.10347676
140	0xbccfb6d5	-0.025355736
141	0x00000000	0.0
142	0x3dd70b51	0.10500205
143	0x00000000	0.0
144	0x3e2fb5b0	0.17159152
145	0x3e7b7bda	0.24558964
146	0x3e23b8d2	0.15988472
147	0x00000000	0.0
148	0x00000000	0.0
149	0x00000000	0.0
150	0x3e233f54	0.15942127
151	0x3e790010	0.2431643
152	0xbe812cf1	-0.252296
153	0x3df72d6f	0.12069213
154	0x00000000	0.0
155	0x3e1cee85	0.15325363
156	0x3e450fc1	0.19244291
157	0xbc82723b	-0.01592361
158	0xbceb742a	-0.028741915
159	0x00000000	0.0
160	0x3e56ec82	0.20988658
161	0x00000000	0.0
162	0x00000000	0.0
163	0x3e4f7133	0.20258026
164	0xbc491125	-0.012272154
165	0x3d1f7d1a	0.038937666
166	0x3e39bbcb	0.18138044
167	0x3e1bfd68	0.15233386
168	0x00000000	0.0
169	0x00000000	0.0
170	0x3e1ca1a6	0.15296039
171	0x3e241e0a	0.16027084
172	0x3e2b3a4f	0.16721462
173	0x00000000	0.0
174	0x3ee09dd5	0.43870416
175	0x3d870154	0.0659205
176	0x3e2730dc	0.16327232
177	0x00000000	0.0
178	0x3e3e2d27	0.18571912
179	0x3e5786d0	0.2104752
180	0x3e97abd8	0.29623294
181	0x3e4657eb	0.19369476
182	0x3d75a1a4	0.059968606
183	0x00000000	0.0
184	0x3dc5c8ac	0.09657416
185	0x3e2ae269	0.16687931
186	0x00000000	0.0
187	0xbd04045c	-0.03223072
188	0x00000000	0.0
189	0x00000000	0.0
190	0x3e4cbee9	0.19994701
191	0x3e29f44f	0.16597103
192	0x00000000	0.0
193	0x00000000	0.0
194	0x3e333f4e	0.17504618
195	0x3e436dcf	0.19084857
196	0x3e4543d9	0.19264163
197	0x3e72da13	0.23716001
198	0x3e126e84	0.14299971
199	0xbc2db8f0	-0.010603175
200	0x3e633992	0.2218993
201	0x00000000	0.0
202	0x00000000	0.0
203	0x00000000	0.0
204	0xbc8f7a25	-0.017514298
205	0x3ddeca52	0.10878433
206	0x3e48a51b	0.19594233
207	0xbc545705	-0.0129602
208	0x00000000	0.0
209	0xbc72d0b7	-0.014820269
210	0x00000000	0.0
211	0x3e426e0d	0.18987294
212	0xbced9483	-0.02900148
213	0x3de498f9	0.1116199
214	0x3e2a0276	0.16602501
215	0x3e3cde1c	0.18444103
216	0x3e55db7d	0.2088451
217	0xbc2a1d94	-0.010383029
218	0x3e2f8f7a	0.17144576
219	0xbc3d0feb	-0.01153944
220	0xbdd0c730	-0.10194242
221	0x3d28ebeb	0.041240614
222	0x00000000	0.0
223	0xbc203995	-0.009779354
224	0x3e0e3df5	0.13890822
225	0x3e1b0db7	0.1514195
226	0x3e120a1b	0.14261667
227	0xbc2ab6e0	-0.010419577
228	0x3efdbfdf	0.4956045
229	0x3e7dc39e	0.24781653
230	0xbc3c2fd4	-0.0114860125
231	0x3ea40925	0.32038227
232	0x3eebcf05	0.4605638
233	0x3ddd4993	0.10805049
234	0xbc715d9a	-0.014731789
235	0x3e3caa60	0.18424368
236	0x00000000	0.0
237	0x3dfc3c38	0.12316173
238	0xbd24cc7b	-0.04023407
239	0xbc5948e3	-0.013262006
240	0xbc818765	-0.015811631
241	0x3e1576d9	0.14596118
242	0x3e3b5375	0.18293555
243	0x3e48fd52	0.19627884
244	0x3cfd50e8	0.030922368
245	0x00000000	0.0
246	0x3dd8a652	0.10578598
247	0x00000000	0.0
248	0x00000000	0.0
249	0x00000000	0.0
250	0x00000000	0.0
251	0x3e53ea04	0.20694739
252	0x3e3ebd65	0.18626936
253	0x3e3a144e	0.18171808
254	0xbc729471	-0.014805899
255	0x3e4d2025	0.20031793

weight f4 [8, 300]
0	0x3d5756a8	0.052572876
1	0xbd61e386	-0.055148624
2	0x3df53aa6	0.11974077
3	0xbd5d4cc2	-0.05402828
4	0x3d3cea98	0.046122164
5	0x3db7555a	0.089518264
6	0xbdcb64d8	-0.09931344
7	0xbdc8414f	-0.097780816
8	0x3d4f523c	0.050615534
9	0xbd20973a	-0.03920672
10	0xbc8174d4	-0.015802778
11	0x3da33f6a	0.0797108
12	0xbb806c60	-0.0039191693
13	0xbd647330	-0.055773914
14	0xbcffb5b0	-0.031214565
15	0xbd5dbfe8	-0.054138094
16	0xbda94a10	-0.082660794
17	0xbc7d5908	-0.015463121
18	0x3d431e74	0.047636464
19	0x3c7fd350	0.015614346
20	0x39b4c400	0.00034478307
21	0x3c0dbde0	0.008651227
22	0x3cae1020	0.021247923
23	0x3cffb410	0.03121379
24	0xbdf2bdbe	-0.11852597
25	0xbcdddddc	-0.02708333
26	0xbddf0c10	-0.108909726
27	0x3db91880	0.09037876
28	0x3d82c002	0.06384279
29	0xbbc80e20	-0.0061051995
30	0x3d2ad940	0.041711092
31	0xbd75b062	-0.059982665
32	0x3e04eea5	0.1298166
33	0x3d775d38	0.060391635
34	0xbe023d58	-0.12718713
35	0x3dac5e22	0.08416392
36	0x3d4c7d90	0.049924433
37	0x3d335840	0.043785334
38	0x3d87edf6	0.06637184
39	0x3d39274c	0.045203492
40	0xbd170bec	-0.036876604
41	0xbd647c96	-0.055782877
42	0x3df75dc6	0.12078433
43	0x3d1a6d54	0.03770192
44	0x3dcfec16	0.10152452
45	0xbc8fa7dc	-0.017536096
46	0x3c377300	0.011196852
47	0x3d00fa10	0.03148848
48	0x3d9b3e9e	0.07580303
49	0x3dce6b88	0.10079104
50	0x3c1d0ce0	0.009585589
51	0xbdb9c85a	-0.09071417
52	0x3dd9278c	0.10603246
53	0xbe08da6a	-0.13364568
54	0xbccc472c	-0.024936281
55	0x3d9e80e4	0.07739428
56	0xbd6dc772	-0.058051534
57	0xbd2803b2	-0.04101915
58	0xbda95fe8	-0.08270246
59	0x3c62caf0	0.013842329
60	0x3e0ce871	0.13760544
61	0x3dee8a2a	0.116474465
62	0x3df7c01e	0.1209719
63	0x3df0e176	0.11761753
64	0x3c6e71d0	0.014553502
65	0xbd26d3c2	-0.04072929
66	0xbca5ce68	-0.020240024
67	0x3daf9e9a	0.08575173
68	0xbca60dd8	-0.020270273
69	0x3c3b9e80	0.011451364
70	0xbde2db83	-0.11077025
71	0xbe03de1b	-0.12877695
72	0xbd11a934	-0.035561755
73	0x3d957d96	0.07299344
74	0x3d3fcc8c	0.04682593
75	0x3df9aed6	0.121915504
76	0xbd28350a	-0.041066207
77	0xbde0b538	-0.10972065
78	0xbd7db7fe	-0.061943047
79	0x3d688c60	0.056774497
80	0x3cb903e8	0.02258487
81	0x3d86779c	0.065657824
82	0xbdba9212	-0.09109892
83	0xbdff5289	-0.12466914
84	0xbd8dde5c	-0.06927177
85	0x3d0dd884	0.034630314
86	0xbac9d200	-0.0015397668
87	0xbdca573c	-0.0987992
88	0xbdc0b438	-0.09409374
89	0x3e00742d	0.12544318
90	0xbdb476c0	-0.08811712
91	0x3cc11660	0.02357024
92	0xbb10c980	-0.002209276
93	0xbd70ab8c	-0.05875735
94	0xbdaa2704	-0.08308223
95	0x3d9644ca	0.07337339
96	0xbb95b200	-0.0045683384
97	0xbdad524c	-0.084629625
98	0x3debf29a	0.11520882
99	0x3d4d565c	0.050131187
100	0x3d24e220	0.040254712
101	0xbe037cd0	-0.12840581
102	0xbd8d13a6	-0.06888513
103	0x3dd63f70	0.104613185
104	0x3d891202	0.06692888
105	0x3d7d6084	0.061859623
106	0xbd6e58e2	-0.058190234
107	0x3cf5ccb8	0.030004844
108	0xbd8a17df	-0.06742834
109	0x3d997eee	0.07494913
110	0x3d5dd7e0	0.054160953
111	0x3d0cacdc	0.03434454
112	0xbdd1e712	-0.10249151
113	0xbe009809	-0.12557997
114	0xbe044bb4	-0.12919503
115	0xbc96f864	-0.018428989
116	0xbd793d74	-0.060849622
117	0xbdbf6f3c	-0.09347388
118	0x3dcfbe92	0.1014377
119	0xbc755328	-0.014973439
120	0xbda72ecc	-0.08163223
121	0x3da4b172	0.080416575
122	0xbe0642db	-0.13111441
123	0x3dbbb05e	0.09164499
124	0x3e098045	0.13427837
125	0xbd8e96e3	-0.06962373
126	0x3da36434	0.079780966
127	0x3d0c311c	0.03422652
128	0xbdf0b246	-0.11752753
129	0x3da5f990	0.08104241
130	0x3d855ade	0.06511472
131	0xbbc3b8c0	-0.0059729517
132	0xbd8145cc	-0.06312141
133	0x3ddd3874	0.10801783
134	0x3c4b8290	0.012421265
135	0x3d854b18	0.065084636
136	0x3d93b250	0.07211745
137	0xbd0ef19c	-0.034898385
138	0x3da7ba90	0.08189881
139	0xbdcd43af	-0.10022675
140	0xbd55dc1e	-0.052211873
141	0x3dd28344	0.10278943
142	0x3ddb0d16	0.10695855
143	0x3dd72e6e	0.10506903
144	0xbccc5b50	-0.024945885
145	0xbdad478f	-0.08460914
146	0xbd85dfbd	-0.06536815
147	0x3d3aebf0	0.045635164
148	0xbe03b239	-0.12860955
149	0x3cb1e1e0	0.02171415
150	0xbd6815ca	-0.056661405
151	0xbc3350e0	-0.010944575
152	0xbc80bd24	-0.01571519
153	0x3dcb8d4a	0.09939058
154	0xbdcd2aee	-0.10017954
155	0x3d666098	0.056244463
156	0xbd8699b6	-0.06572287
157	0x3e0193b7	0.12654005
158	0x3dfcd282	0.12344839
159	0x3ca1d1f8	0.019753441
160	0x3d977e82	0.07397176
161	0xbd966d45	-0.0734506
162	0xbdda8a1a	-0.10670872
163	0x3d579090	0.0526281
164	0x3d8537e0	0.06504798
165	0xbd8e0fde	-0.0693662
166	0xbd600ae2	-0.05469788
167	0xbdbff2fb	-0.09372517
168	0x3c933ec0	0.017974257
169	0x3dd92f8a	0.106047705
170	0x3e046add	0.1293139
171	0xbd9173c6	-0.0710216
172	0x3d5fb568	0.05461636
173	0xbdd63ea1	-0.10461164
174	0x3da66972	0.08125581
175	0xbcdbeecc	-0.026847266
176	0xbc165bc0	-0.009177148
177	0x3e0842dd	0.13306756
178	0x3c82b218	0.015954062
179	0xbde56db8	-0.11202568
180	0xba88a280	-0.0010424405
181	0xbce135cc	-0.027491473
182	0xbdee644b	-0.11640223
183	0xbdd5c1a8	-0.104373276
184	0xbc366040	-0.011131346
185	0xbd19e2fc	-0.037569985
186	0x3d94a612	0.07258238
187	0xbd328622	-0.04358495
188	0xbd919b26	-0.0710967
189	0xbe074a74	-0.13211995
190	0xbaad2780	-0.0013210624
191	0x3dfd324a	0.123631075
192	0xbd320006	-0.043457054
193	0x3dfe4222	0.124149576
194	0x3d2075d8	0.039174885
195	0x3d87b5fc	0.06626508
196	0x3c6965f0	0.014245495
197	0x3d43f62c	0.04784219
198	0xbd7344d2	-0.059391804
199	0x3cf42850	0.029804379
200	0x3e0d7bf3	0.13816814
201	0xbd3da80e	-0.046302848
202	0x3e06ca9b	0.13163225
203	0x3d0227cc	0.031776235
204	0x3cdf3c78	0.027250513
205	0xbda2d79c	-0.079512805
206	0xbdf80835	-0.1211094
207	0x3d296398	0.041354746
208	0xbcfe6790	-0.031055242
209	0xbda52afb	-0.080648385
210	0xbd0489c6	-0.032357953
211	0x3cbaff58	0.022826836
212	0x3e00f975	0.1259516
213	0xbc3add90	-0.011405364
214	0xbc8759f4	-0.016522385
215	0x3d369288	0.044573337
216	0xbc53d0d0	-0.012928203
217	0x3d9983ee	0.07495867
218	0x3e07ae4f	0.13250087
219	0xbdd88a89	-0.105732985
220	0x3cba9fb0	0.022781223
221	0xbd4942e0	-0.049136043
222	0xbdeccdbc	-0.11562678
223	0x3d939448	0.07206017
224	0xbd664b6e	-0.05622428
225	0x3d8e2f48	0.06942612
226	0x3e07fac3	0.13279252
227	0x3dbbfdee	0.091792926
228	0x3da79d48	0.08184296
229	0xbd3e01da	-0.046388485
230	0x3db97ffe	0.09057616
231	0xbdc051f6	-0.09390633
232	0xbd332c8e	-0.043743663
233	0x3c72d360	0.014820904
234	0xbcf8a030	-0.03034982
235	0xbdc80513	-0.09766593
236	0xbd7bc94c	-0.06147127
237	0x3da5ec54	0.08101717
238	0x3e083001	0.13299562
239	0x3dbfa2f6	0.09357254
240	0x3bd782e0	0.006576881
241	0xbc8dab1c	-0.017293505
242	0x3da74708	0.08167845
243	0xbd35eb4a	-0.044413842
244	0x3e093b29	0.13401474
245	0xbdca3ff0	-0.09875476
246	0x3d564c20	0.052318692
247	0xbc9ed1e4	-0.019387193
248	0xbdb8989a	-0.090134814
249	0xbcab4338	-0.020906076
250	0x3ddde240	0.108341694
251	0x3df55242	0.1197858
252	0xbcbf7608	-0.023371711
253	0xbdea0a1a	-0.11427708
254	0xbdbc0b2e	-0.0918182
255	0x3d7bb350	0.061450303

bias f4 [300]
0	0x00000000	0.0
1	0x00000000	0.0
2	0x00000000	0.0
3	0x00000000	0.0
4	0x00000000	0.0
5	0x00000000	0.0
6	0x00000000	0.0
7	0x00000000	0.0
8	0x00000000	0.0
9	0x00000000	0.0
10	0x00000000	0.0
11	0x00000000	0.0
12	0x00000000	0.0
13	0x00000000	0.0
14	0x00000000	0.0
15	0x00000000	0.0
16	0x00000000	0.0
17	0x00000000	0.0
18	0x00000000	0.0
19	0x00000000	0.0
20	0x00000000	0.0
21	0x00000000	0.0
22	0x00000000	0.0
23	0x00000000	0.0
24	0x00000000	0.0
25	0x00000000	0.0
26	0x00000000	0.0
27	0x00000000	0.0
28	0x00000000	0.0
29	0x00000000	0.0
30	0x00000000	0.0
31	0x00000000	0.0
32	0x00000000	0.0
33	0x00000000	0.0
34	0x00000000	0.0
35	0x00000000	0.0
36	0x00000000	0.0
37	0x00000000	0.0
38	0x00000000	0.0
39	0x00000000	0.0
40	0x00000000	0.0
41	0x00000000	0.0
42	0x00000000	0.0
43	0x00000000	0.0
44	0x00000000	0.0
45	0x00000000	0.0
46	0x00000000	0.0
47	0x00000000	0.0
48	0x00000000	0.0
49	0x00000000	0.0
50	0x00000000	0.0
51	0x00000000	0.0
52	0x00000000	0.0
53	0x00000000	0.0
54	0x00000000	0.0
55	0x00000000	0.0
56	0x00000000	0.0
57	0x00000000	0.0
58	0x00000000	0.0
59	0x00000000	0.0
60	0x00000000	0.0
61	0x00000000	0.0
62	0x00000000	0.0
63	0x00000000	0.0
64	0x00000000	0.0
65	0x00000000	0.0
66	0x00000000	0.0
67	0x00000000	0.0
68	0x00000000	0.0
69	0x00000000	0.0
70	0x00000000	0.0
71	0x00000000	0.0
72	0x00000000	0.0
73	0x00000000	0.0
74	0x00000000	0.0
75	0x00000000	0.0
76	0x00000000	0.0
77	0x00000000	0.0
78	0x00000000	0.0
79	0x00000000	0.0
80	0x00000000	0.0
81	0x00000000	0.0
82	0x00000000	0.0
83	0x00000000	0.0
84	0x00000000	0.0
85	0x00000000	0.0
86	0x00000000	0.0
87	0x00000000	0.0
88	0x00000000	0.0
89	0x00000000	0.0
90	0x00000000	0.0
91	0x00000000	0.0
92	0x00000000	0.0
93	0x00000000	0.0
94	0x00000000	0.0
95	0x00000000	0.0
96	0x00000000	0.0
97	0x00000000	0.0
98	0x00000000	0.0
99	0x00000000	0.0
100	0x00000000	0.0
101	0x00000000	0.0
102	0x00000000	0.0
103	0x00000000	0.0
104	0x00000000	0.0
105	0x00000000	0.0
106	0x00000000	0.0
107	0x00000000	0.0
108	0x00000000	0.0
109	0x00000000	0.0
110	0x00000000	0.0
111	0x00000000	0.0
112	0x00000000	0.0
113	0x00000000	0.0
114	0x00000000	0.0
115	0x00000000	0.0
116	0x00000000	0.0
117	0x00000000	0.0
118	0x00000000	0.0
119	0x00000000	0.0
120	0x00000000	0.0
121	0x00000000	0.0
122	0x00000000	0.0
123	0x00000000	0.0
124	0x00000000	0.0
125	0x00000000	0.0
126	0x00000000	0.0
127	0x00000000	0.0
128	0x00000000	0.0
129	0x00000000	0.0
130	0x00000000	0.0
131	0x00000000	0.0
132	0x00000000	0.0
133	0x00000000	0.0
134	0x00000000	0.0
135	0x00000000	0.0
136	0x00000000	0.0
137	0x00000000	0.0
138	0x00000000	0.0
139	0x00000000	0.0
140	0x00000000	0.0
141	0x00000000	0.0
142	0x00000000	0.0
143	0x00000000	0.0
144	0x00000000	0.0
145	0x00000000	0.0
146	0x00000000	0.0
147	0x00000000	0.0
148	0x00000000	0.0
149	0x00000000	0.0
150	0x00000000	0.0
151	0x00000000	0.0
152	0x00000000	0.0
153	0x00000000	0.0
154	0x00000000	0.0
155	0x00000000	0.0
156	0x00000000	0.0
157	0x00000000	0.0
158	0x00000000	0.0
159	0x00000000	0.0
160	0x00000000	0.0
161	0x00000000	0.0
162	0x00000000	0.0
163	0x00000000	0.0
164	0x00000000	0.0
165	0x00000000	0.0
166	0x00000000	0.0
167	0x00000000	0.0
168	0x00000000	0.0
169	0x00000000	0.0
170	0x00000000	0.0
171	0x00000000	0.0
172	0x00000000	0.0
173	0x00000000	0.0
174	0x00000000	0.0
175	0x00000000	0.0
176	0x00000000	0.0
177	0x00000000	0.0
178	0x00000000	0.0
179	0x00000000	0.0
180	0x00000000	0.0
181	0x00000000	0.0
182	0x00000000	0.0
183	0x00000000	0.0
184	0x00000000	0.0
185	0x00000000	0.0
186	0x00000000	0.0
187	0x00000000	0.0
188	0x00000000	0.0
189	0x00000000	0.0
190	0x00000000	0.0
191	0x00000000	0.0
192	0x00000000	0.0
193	0x00000000	0.0
194	0x00000000	0.0
195	0x00000000	0.0
196	0x00000000	0.0
197	0x00000000	0.0
198	0x00000000	0.0
199	0x00000000	0.0
200	0x00000000	0.0
201	0x00000000	0.0
202	0x00000000	0.0
203	0x00000000	0.0
204	0x00000000	0.0
205	0x00000000	0.0
206	0x00000000	0.0
207	0x00000000	0.0
208	0x00000000	0.0
209	0x00000000	0.0
210	0x00000000	0.0
211	0x00000000	0.0
212	0x00000000	0.0
213	0x00000000	0.0
214	0x00000000	0.0
215	0x00000000	0.0
216	0x00000000	0.0
217	0x00000000	0.0
218	0x00000000	0.0
219	0x00000000	0.0
220	0x00000000	0.0
221	0x00000000	0.0
222	0x00000000	0.0
223	0x00000000	0.0
224	0x00000000	0.0
225	0x00000000	0.0
226	0x00000000	0.0
227	0x00000000	0.0
228	0x00000000	0.0
229	0x00000000	0.0
230	0x00000000	0.0
231	0x00000000	0.0
232	0x00000000	0.0
233	0x00000000	0.0
234	0x00000000	0.0
235	0x00000000	0.0
236	0x00000000	0.0
237	0x00000000	0.0
238	0x00000000	0.0
239	0x00000000	0.0
240	0x00000000	0.0
241	0x00000000	0.0
242	0x00000000	0.0
243	0x00000000	0.0
244	0x00000000	0.0
245	0x00000000	0.0
246	0x00000000	0.0
247	0x00000000	0.0
248	0x00000000	0.0
249	0x00000000	0.0
250	0x00000000	0.0
251	0x00000000	0.0
252	0x00000000	0.0
253	0x00000000	0.0
254	0x00000000	0.0
255	0x00000000	0.0

weight f4 [8, 300]
0	0x3de50e3e	0.11184357
1	0xbd2fea50	-0.042948067
2	0xbd92cb91	-0.071677335
3	0xbe001457	-0.12507759
4	0xbd8b2b8a	-0.06795414
5	0xbd99eb13	-0.0751554
6	0xbe0187c7	-0.12649451
7	0x3d20f57c	0.039296612
8	0xbde9ba15	-0.114124455
9	0x3e0c969d	0.1372933
10	0xbd6167e2	-0.05503071
11	0xbde5ea8a	-0.112263754
12	0xbdce931c	-0.10086653
13	0xbc1c3900	-0.009535074
14	0xbdb1d7a0	-0.08683705
15	0x3dbe836e	0.09302412
16	0xbdaf767f	-0.08567523
17	0x3e00c62f	0.12575601
18	0xbd89f364	-0.06735876
19	0x3db2eb3a	0.08736272
20	0xbd82dfcf	-0.06390344
21	0x3e0973e3	0.13423114
22	0xbd0b4474	-0.03400083
23	0xbd810298	-0.06299323
24	0xbd3a5b64	-0.045497313
25	0x3d8f18f8	0.06987184
26	0x3d6163c4	0.055026785
27	0x3d9004b0	0.07032144
28	0x3d2a7340	0.041613817
29	0x3e0d2443	0.13783364
30	0xbdffc422	-0.12488581
31	0xbdba955c	-0.09110519
32	0x3d9f2b48	0.07771927
33	0x3e05975d	0.13046022
34	0xbd278d2a	-0.04090611
35	0xbdf6c58d	-0.120493986
36	0x3d3d3b74	0.046199277
37	0x3b4a6780	0.0030884445
38	0x3b935b60	0.0044969767
39	0xbdbda756	-0.092604324
40	0xbdb18667	-0.08668213
41	0xbb95b020	-0.004568115
42	0x3df47222	0.119358316
43	0xbe0b1eac	-0.13585919
44	0xbdabb494	-0.08384052
45	0xbe0d7ad0	-0.1381638
46	0xbe0687fe	-0.13137814
47	0x3db592c6	0.088658854
48	0xbe0ac046	-0.13549909
49	0xbdc59d18	-0.09649104
50	0x3d484214	0.048891142
51	0xbcf0cbcc	-0.029394053
52	0x3d4b6ea8	0.049666077
53	0xbd2e5396	-0.042560183
54	0x3dae6922	0.08516146
55	0x3d89af8a	0.067229345
56	0x3e0b4c4b	0.13603322
57	0xbc36c8a0	-0.011156231
58	0xbd825304	-0.0636349
59	0xbd788c60	-0.060680747
60	0x3dc1f33a	0.0947022
61	0x3d6d2e98	0.057905763
62	0xbdf51988	-0.1196776
63	0x3da0bdb4	0.07848683
64	0x3dfadf36	0.12249605
65	0x3d222294	0.039583758
66	0xbd6002d6	-0.054690205
67	0x3d5dff84	0.054198757
68	0x3d34038c	0.043948695
69	0xbdd3faa9	-0.10350544
70	0xbdfd1444	-0.12357381
71	0xbd733f2c	-0.059386417
72	0x3db03b64	0.08605078
73	0x3c197340	0.009365857
74	0x3dedddea	0.116145924
75	0x3dbc42ac	0.09192404
76	0xbca22fdc	-0.019798212
77	0xbe00b90d	-0.12570591
78	0xbccf9ac8	-0.02534236
79	0xbe09af9d	-0.13445897
80	0x3cc71a98	0.024304673
81	0x3b9ceae0	0.0047887415
82	0xbdabbbaa	-0.083854035
83	0x3d829718	0.06376475
84	0x3dc1cb38	0.09462589
85	0xbc582d20	-0.013194352
86	0x3d11dc60	0.035610557
87	0xbdde2c74	-0.108483225
88	0x3cbf4540	0.02334845
89	0x3d4aa894	0.049477175
90	0xbd5fb14a	-0.054612435
91	0x3d697e10	0.05700499
92	0x3d73b994	0.059503153
93	0xbdd66a12	-0.1046945
94	0xbdd96c97	-0.10616415
95	0xbe07fbf0	-0.132797
96	0x3d7d858c	0.06189494
97	0xbdb8eabf	-0.09029149
98	0xbd821457	-0.06351536
99	0x3e0417c3	0.1289969
100	0x3d0ea298	0.03482303
101	0xbdec25cd	-0.115306474
102	0xbdf39854	-0.11894289
103	0xbd2cf462	-0.04222525
104	0xbc804ef4	-0.015662648
105	0xbdce90ac	-0.10086188
106	0x3dab42fe	0.08362387
107	0x3ccede68	0.025252536
108	0x3d3e76e0	0.046500087
109	0xba98b080	-0.0011649281
110	0x3d3217dc	0.043479785
111	0x3dcb26a2	0.09919478
112	0x3caaeda0	0.020865262
113	0xbda6c121	-0.08142305
114	0xbdf2081b	-0.11817952
115	0xbddf2f19	-0.10897655
116	0xbdb4390b	-0.087999426
117	0xbd41a0f2	-0.04727263
118	0xbdf8ea36	-0.12154047
119	0x3e0e431d	0.13892789
120	0x3dd65b46	0.10466628
121	0xbd8bab32	-0.06819762
122	0xbdc054dd	-0.093911864
123	0x3d93e3b4	0.07221165
124	0xbe016e51	-0.12639739
125	0x3de9738a	0.113989905
126	0x3de6e30e	0.11273776
127	0xbd92a8ba	-0.07161088
128	0x3d1ad838	0.03780386
129	0xbcd8663c	-0.026415937
130	0x3d488220	0.048952222
131	0x3d0de150	0.034638703
132	0xbddebbf5	-0.10875694
133	0x3e05dbb1	0.13072087
134	0xbdab2276	-0.08356182
135	0xbdc40d0c	-0.09572801
136	0x3d84f070	0.06491172
137	0x3dcd3e0e	0.100216016
138	0x3d8ff7ba	0.07029672
139	0xbd77b30a	-0.06047348
140	0xbdf2bfbd	-0.118529774
141	0xbd0fcdde	-0.03510844
142	0xbe06a651	-0.13149382
143	0x3c592a70	0.013254747
144	0xbdc6f138	-0.097139776
145	0xbd7079d4	-0.058709934
146	0xbd48018a	-0.048829593
147	0x3e03ba3f	0.12864016
148	0x3dfbed56	0.123011276
149	0xbd88561c	-0.06657049
150	0x3d93258e	0.07184897
151	0xbc9b6114	-0.018967189
152	0x3d326038	0.043548793
153	0xbdcc14b5	-0.09964887
154	0x3da21b46	0.07915358
155	0x3d456280	0.04818964
156	0x3de388d6	0.11110084
157	0xbcf76604	-0.030200012
158	0x3d9e6532	0.07734145
159	0xbd15c19e	-0.0365616
160	0x3dbe3b2e	0.092886314
161	0xbd2e4c96	-0.042553507
162	0x3cb47f60	0.022033393
163	0xbde241f2	-0.11047734
164	0xbb0f6840	-0.0021882206
165	0xbdf0e91a	-0.117632106
166	0x3c083f70	0.008315906
167	0x3d874ce2	0.06606461
168	0x3d77d7d4	0.060508564
169	0x3da891dc	0.082309455
170	0x3c7558b0	0.014974758
171	0x3c10a7e0	0.008829087
172	0x3d7caec8	0.061690122
173	0xbde5dfcd	-0.11224327
174	0x3cde9ff0	0.027175874
175	0xbde9432f	-0.113897674
176	0xbe07a66f	-0.13247083
177	0xbdb8e12b	-0.090273224
178	0x3d9b4c6a	0.07582934
179	0x3dc3d92c	0.095629066
180	0x3dd23402	0.10263826
181	0x3c883130	0.016625017
182	0xbdff265a	-0.12458487
183	0xbcb7288c	-0.022358201
184	0x3d3a2afc	0.04545115
185	0xbdfb86f2	-0.12281598
186	0x3d0a1288	0.03370908
187	0xbdae424b	-0.08508738
188	0xbe06e53a	-0.1317338
189	0xbdd51304	-0.104040176
190	0x3ce00d40	0.027350068
191	0x3dd18c7e	0.10231875
192	0x3ddae512	0.10688223
193	0xba8f6c80	-0.001094237
194	0xbdfb47cc	-0.122695535
195	0xbde2eb08	-0.11079985
196	0x3d50c6c8	0.050970823
197	0xbde35ca9	-0.11101658
198	0xbdd8e97d	-0.10591409
199	0xbd7c4892	-0.061592646
200	0x3e053367	0.1300789
201	0xbdbf3849	-0.093369074
202	0x3d63b52c	0.0555927
203	0xbe012a11	-0.12613703
204	0x3d4cdf80	0.050017834
205	0xbc7c9e90	-0.015418664
206	0xbe06cbb5	-0.13163646
207	0x3db918ee	0.09037958
208	0xbd6b56c6	-0.0574558
209	0xbcb9f270	-0.022698611
210	0x3e02bb81	0.1276684
211	0x3db77030	0.08956945
212	0x3d872fee	0.06600939
213	0xbd75250a	-0.059849776
214	0x3de6e8be	0.11274861
215	0xbd895fa8	-0.06707698
216	0xbdb6e2ea	-0.08929999
217	0x3d23072c	0.03980176
218	0x3cc69d98	0.024245068
219	0xbd0bad9e	-0.03410112
220	0xbcbd4720	-0.023105204
221	0x3dc57b44	0.09642652
222	0xbd81bdc0	-0.0633502
223	0x3e062039	0.1309823
224	0xbdb39d76	-0.08770268
225	0x3d91c808	0.07118231
226	0xbcc2e1c8	-0.023789302
227	0xbd9f8588	-0.07789141
228	0xbd0fd584	-0.035115734
229	0xbe05f3ea	-0.13081327
230	0x3c6db1b0	0.014507696
231	0xbdf30342	-0.11865856
232	0x3dcca812	0.09992994
233	0xbdd261ea	-0.10272582
234	0xbde475c4	-0.111552745
235	0x3d9fac5c	0.07796547
236	0xbd2c4664	-0.042059317
237	0x3daac926	0.08339147
238	0x3dd25930	0.102709174
239	0xbdaf515e	-0.085604414
240	0xbd0a1c48	-0.033718377
241	0x3e053c9d	0.13011403
242	0xbce6b0d0	-0.028160483
243	0x3db3e6f0	0.08784282
244	0x3e0ecbeb	0.13944976
245	0x3dab3664	0.083599836
246	0x3cda5728	0.026652887
247	0xbda55243	-0.08072331
248	0xbdd4f45b	-0.103981696
249	0x3e01b57d	0.12666889
250	0x3de7a61e	0.11310981
251	0xbdc4b290	-0.096043706
252	0x3dfdbf4e	0.12390004
253	0x3d849e7c	0.06475541
254	0x3d1a2a0c	0.037637755
255	0x3cb00f98	0.02149181

bias f4 [300]
0	0x00000000	0.0
1	0x00000000	0.0
2	0x00000000	0.0
3	0x00000000	0.0
4	0x00000000	0.0
5	0x00000000	0.0
6	0x00000000	0.0
7	0x00000000	0.0
8	0x00000000	0.0
9	0x00000000	0.0
10	0x00000000	0.0
11	0x00000000	0.0
12	0x00000000	0.0
13	0x00000000	0.0
14	0x00000000	0.0
15	0x00000000	0.0
16	0x00000000	0.0
17	0x00000000	0.0
18	0x00000000	0.0
19	0x00000000	0.0
20	0x00000000	0.0
21	0x00000000	0.0
22	0x00000000	0.0
23	0x00000000	0.0
24	0x00000000	0.0
25	0x00000000	0.0
26	0x00000000	0.0
27	0x00000000	0.0
28	0x00000000	0.0
29	0x00000000	0.0
30	0x00000000	0.0
31	0x00000000	0.0
32	0x00000000	0.0
33	0x00000000	0.0
34	0x00000000	0.0
35	0x00000000	0.0
36	0x00000000	0.0
37	0x00000000	0.0
38	0x00000000	0.0
39	0x00000000	0.0
40	0x00000000	0.0
41	0x00000000	0.0
42	0x00000000	0.0
43	0x00000000	0.0
44	0x00000000	0.0
45	0x00000000	0.0
46	0x00000000	0.0
47	0x00000000	0.0
48	0x00000000	0.0
49	0x00000000	0.0
50	0x00000000	0.0
51	0x00000000	0.0
52	0x00000000	0.0
53	0x00000000	0.0
54	0x00000000	0.0
55	0x00000000	0.0
56	0x00000000	0.0
57	0x00000000	0.0
58	0x00000000	0.0
59	0x00000000	0.0
60	0x00000000	0.0
61	0x00000000	0.0
62	0x00000000	0.0
63	0x00000000	0.0
64	0x00000000	0.0
65	0x00000000	0.0
66	0x00000000	0.0
67	0x00000000	0.0
68	0x00000000	0.0
69	0x00000000	0.0
70	0x00000000	0.0
71	0x00000000	0.0
72	0x00000000	0.0
73	0x00000000	0.0
74	0x00000000	0.0
75	0x00000000	0.0
76	0x00000000	0.0
77	0x00000000	0.0
78	0x00000000	0.0
79	0x00000000	0.0
80	0x00000000	0.0
81	0x00000000	0.0
82	0x00000000	0.0
83	0x00000000	0.0
84	0x00000000	0.0
85	0x00000000	0.0
86	0x00000000	0.0
87	0x00000000	0.0
88	0x00000000	0.0
89	0x00000000	0.0
90	0x00000000	0.0
91	0x00000000	0.0
92	0x00000000	0.0
93	0x00000000	0.0
94	0x00000000	0.0
95	0x00000000	0.0
96	0x00000000	0.0
97	0x00000000	0.0
98	0x00000000	0.0
99	0x00000000	0.0
100	0x00000000	0.0
101	0x00000000	0.0
102	0x00000000	0.0
103	0x00000000	0.0
104	0x00000000	0.0
105	0x00000000	0.0
106	0x00000000	0.0
107	0x00000000	0.0
108	0x00000000	0.0
109	0x00000000	0.0
110	0x00000000	0.0
111	0x00000000	0.0
112	0x00000000	0.0
113	0x00000000	0.0
114	0x00000000	0.0
115	0x00000000	0.0
116	0x00000000	0.0
117	0x00000000	0.0
118	0x00000000	0.0
119	0x00000000	0.0
120	0x00000000	0.0
121	0x00000000	0.0
122	0x00000000	0.0
123	0x00000000	0.0
124	0x00000000	0.0
125	0x00000000	0.0
126	0x00000000	0.0
127	0x00000000	0.0
128	0x00000000	0.0
129	0x00000000	0.0
130	0x00000000	0.0
131	0x00000000	0.0
132	0x00000000	0.0
133	0x00000000	0.0
134	0x00000000	0.0
135	0x00000000	0.0
136	0x00000000	0.0
137	0x00000000	0.0
138	0x00000000	0.0
139	0x00000000	0.0
140	0x00000000	0.0
141	0x00000000	0.0
142	0x00000000	0.0
143	0x00000000	0.0
144	0x00000000	0.0
145	0x00000000	0.0
146	0x00000000	0.0
147	0x00000000	0.0
148	0x00000000	0.0
149	0x00000000	0.0
150	0x00000000	0.0
151	0x00000000	0.0
152	0x00000000	0.0
153	0x00000000	0.0
154	0x00000000	0.0
155	0x00000000	0.0
156	0x00000000	0.0
157	0x00000000	0.0
158	0x00000000	0.0
159	0x00000000	0.0
160	0x00000000	0.0
161	0x00000000	0.0
162	0x00000000	0.0
163	0x00000000	0.0
164	0x00000000	0.0
165	0x00000000	0.0
166	0x00000000	0.0
167	0x00000000	0.0
168	0x00000000	0.0
169	0x00000000	0.0
170	0x00000000	0.0
171	0x00000000	0.0
172	0x00000000	0.0
173	0x00000000	0.0
174	0x00000000	0.0
175	0x00000000	0.0
176	0x00000000	0.0
177	0x00000000	0.0
178	0x00000000	0.0
179	0x00000000	0.0
180	0x00000000	0.0
181	0x00000000	0.0
182	0x00000000	0.0
183	0x00000000	0.0
184	0x00000000	0.0
185	0x00000000	0.0
186	0x00000000	0.0
187	0x00000000	0.0
188	0x00000000	0.0
189	0x00000000	0.0
190	0x00000000	0.0
191	0x00000000	0.0
192	0x00000000	0.0
193	0x00000000	0.0
194	0x00000000	0.0
195	0x00000000	0.0
196	0x00000000	0.0
197	0x00000000	0.0
198	0x00000000	0.0
199	0x00000000	0.0
200	0x00000000	0.0
201	0x00000000	0.0
202	0x00000000	0.0
203	0x00000000	0.0
204	0x00000000	0.0
205	0x00000000	0.0
206	0x00000000	0.0
207	0x00000000	0.0
208	0x00000000	0.0
209	0x00000000	0.0
210	0x00000000	0.0
211	0x00000000	0.0
212	0x00000000	0.0
213	0x00000000	0.0
214	0x00000000	0.0
215	0x00000000	0.0
216	0x00000000	0.0
217	0x00000000	0.0
218	0x00000000	0.0
219	0x00000000	0.0
220	0x00000000	0.0
221	0x00000000	0.0
222	0x00000000	0.0
223	0x00000000	0.0
224	0x00000000	0.0
225	0x00000000	0.0
226	0x00000000	0.0
227	0x00000000	0.0
228	0x00000000	0.0
229	0x00000000	0.0
230	0x00000000	0.0
231	0x00000000	0.0
232	0x00000000	0.0
233	0x00000000	0.0
234	0x00000000	0.0
235	0x00000000	0.0
236	0x00000000	0.0
237	0x00000000	0.0
238	0x00000000	0.0
239	0x00000000	0.0
240	0x00000000	0.0
241	0x00000000	0.0
242	0x00000000	0.0
243	0x00000000	0.0
244	0x00000000	0.0
245	0x00000000	0.0
246	0x00000000	0.0
247	0x00000000	0.0
248	0x00000000	0.0
249	0x00000000	0.0
250	0x00000000	0.0
251	0x00000000	0.0
252	0x00000000	0.0
253	0x00000000	0.0
254	0x00000000	0.0
255	0x00000000	0.0

weight f4 [300, 5]
0	0xbe2d01fa	-0.16895285
1	0x3bcdce7e	0.0062807193
2	0x3e5065c9	0.20351328
3	0xbe18d7d8	-0.14926088
4	0x3ce37969	0.027767854
5	0xbe85e61f	-0.2615213
6	0x3d0aa28c	0.033846423
7	0x3dbc5a37	0.091968946
8	0x3bd3af68	0.006460119
9	0x3cb70d6c	0.022345267
10	0x3da7ad3c	0.08187339
11	0x3d757dc0	0.059934378
12	0x39333800	0.00017091632
13	0x3df9cb52	0.121969834
14	0xbd788a90	-0.06067902
15	0xbfc39c76	-1.5282123
16	0xbf95b8c0	-1.1697006
17	0xbf8c6b04	-1.0970159
18	0xbfb84210	-1.4395161
19	0x3fbe7aa5	1.4881178
20	0xbdcc9298	-0.09988898
21	0xbd439aca	-0.04775504
22	0x3d041402	0.032245643
23	0x3c993e73	0.018706536
24	0xbdcb10d1	-0.09915317
25	0x3d995f60	0.074888945
26	0x3d9a853b	0.07544943
27	0xbdd45dcc	-0.10369453
28	0xbdcea4b5	-0.10090009
29	0x3d8d1912	0.068895474
30	0xbea3fac7	-0.32027265
31	0x3d21c79f	0.039497014
32	0xbd1cf2f2	-0.03831763
33	0xbe944211	-0.28956655
34	0x3d6a0c5f	0.057140704
35	0xbded6256	-0.11591022
36	0xbd1cecac	-0.038311645
37	0x3e12da71	0.14341141
38	0xbdc56c30	-0.09639776
39	0xbdf03cdc	-0.11730358
40	0xbe895b35	-0.26827398
41	0xbd79eb56	-0.06101545
42	0x3d95561b	0.07291814
43	0xbd2af8dd	-0.04174124
44	0xbe2219ea	-0.15830198
45	0x3df50b7b	0.1196508
46	0x3e340ab1	0.17582203
47	0x3e13e37b	0.14442246
48	0xbdd4bbff	-0.1038742
49	0xbe724371	-0.2365854
50	0xbf99cff4	-1.2016587
51	0xbf1ccc2c	-0.6124904
52	0xbf288b3d	-0.6583746
53	0xbf5556ae	-0.8333539
54	0x3f6e3372	0.9304725
55	0xbdb1ba8c	-0.08678159
56	0x3df79651	0.120892175
57	0x3d40a0b9	0.047028277
58	0xbc824a23	-0.015904492
59	0xbdfc11fb	-0.12308117
60	0x3dc042cc	0.093877405
61	0x3d941d34	0.072321326
62	0x3d963194	0.07333675
63	0xbb7ca200	-0.0038548708
64	0xbd8f3706	-0.06992917
65	0x3d4fdf8d	0.050750304
66	0x3d03bbbf	0.03216147
67	0x3e2d1a47	0.16904555
68	0xbd94d4a2	-0.07267119
69	0xbe393c3e	-0.18089387
70	0x3e0807e2	0.13284257
71	0x3e6ac2ee	0.22925922
72	0x3d3f0c99	0.046642873
73	0x3dacff3d	0.0844712
74	0xbe93e1dd	-0.28883258
75	0xbdc0bebf	-0.09411382
76	0xbce5b51c	-0.028040461
77	0xbd8705c8	-0.065928996
78	0xbd8da349	-0.0691591
79	0xbdd0d161	-0.10196186
80	0xbca99158	-0.020699188
81	0xbcdef9e8	-0.027218774
82	0x3ca95eb8	0.020675048
83	0xbd9bb291	-0.07602418
84	0xbd02cc5c	-0.031933174
85	0xbb38e236	-0.0028211004
86	0x3de6678a	0.11250217
87	0x3cf74d46	0.030188214
88	0xbd248b1a	-0.04017172
89	0xbdd2a8a5	-0.10286073
90	0xbdb9fa2c	-0.090809196
91	0x3e0632ce	0.13105318
92	0xbd95047f	-0.07276248
93	0xbdda7781	-0.10667325
94	0xbc826663	-0.015917962
95	0x3ede9331	0.43471673
96	0x3ec120a7	0.37720224
97	0x3efa0ca4	0.4883777
98	0x3e42d31c	0.19025844
99	0xbea00dd7	-0.3126056
100	0xbd51cd7a	-0.05122135
101	0x3e7c5819	0.24642982
102	0x3e830d65	0.25596157
103	0xbd88e3e6	-0.06684093
104	0xbe6dbd0c	-0.23216647
105	0xbde8cdb8	-0.11367363
106	0x3b463f5f	0.0030250174
107	0xbbdd4574	-0.006752664
108	0xbd561123	-0.052262437
109	0x3cf12ef0	0.029441327
110	0xbdbc36e0	-0.09190154
111	0xbd866f8e	-0.06564246
112	0xbcd6358a	-0.026148576
113	0x3d91ee89	0.07125575
114	0xbdbc9e58	-0.09209889
115	0xbd88eea6	-0.066861436
116	0xbd7c7eaa	-0.061644234
117	0x3d7bc3f0	0.061466157
118	0xbe03ac4c	-0.12858695
119	0x3deb4b02	0.11488916
120	0xbd6ef29b	-0.058336835
121	0x3d615439	0.05501196
122	0x3e741949	0.2383777
123	0xbc1ec8cd	-0.009691429
124	0x3cabcdd6	0.020972174
125	0x3db9e172	0.090762034
126	0x3d8278a3	0.06370666
127	0x3c835d3e	0.016035672
128	0xbd94fca2	-0.072747484
129	0xbdbb62fd	-0.0914974
130	0xbe376f66	-0.17913589
131	0x3e17b549	0.14815249
132	0x3e03e827	0.12881528
133	0xbcc5a82a	-0.024128038
134	0x3d4ce4cb	0.05002288
135	0x3d630bd4	0.055431202
136	0x3d1775f4	0.036977723
137	0xbb2ef140	-0.002669409
138	0x3d670938	0.056405276
139	0x3c891078	0.016731486
140	0xbd59593a	-0.05306361
141	0x3e0fc0bd	0.14038368
142	0xbc93d805	-0.018047342
143	0xbd8fd456	-0.07022922
144	0xbd8e0735	-0.069349684
145	0xbd330429	-0.04370514
146	0x3de965c0	0.113963604
147	0x3e4e14c5	0.2012511
148	0xbdfcd82d	-0.1234592
149	0xbe3264b1	-0.17421223
150	0xbd7f362e	-0.06230753
151	0x3e2657c0	0.16244411
152	0x3e027dda	0.12743321
153	0xbca9ceb8	-0.020728454
154	0xbdcf578f	-0.10124122
155	0xbcfd0614	-0.030886687
156	0x3d1dcc58	0.038524956
157	0x3a1a8f00	0.00058959424
158	0x3d764a4c	0.06012945
159	0x3d7874e4	0.06065835
160	0xbd6bcfca	-0.05757121
161	0xbb10af80	-0.0022077262
162	0xbd68a3ce	-0.05679684
163	0x3c681f40	0.014167607
164	0xbdd3dbad	-0.10344634
165	0xbd7277a4	-0.05919613
166	0x3d46a270	0.048494756
167	0xbdce356e	-0.10068785
168	0xbdda870e	-0.10670291
169	0xbd9253b4	-0.07144871
170	0xbe0514c5	-0.12996204
171	0xbb6bfb21	-0.0036007839
172	0x3e010930	0.12601161
173	0x3d88088b	0.066422544
174	0xbe006008	-0.12536633
175	0x3c28dd70	0.010306701
176	0x3ac18d00	0.0014766753
177	0xbd3ea12c	-0.046540424
178	0x3df024aa	0.11725743
179	0x3d1250f0	0.03572172
180	0x3bda24c0	0.006657213
181	0xbdb6adfe	-0.08919905
182	0xbd900f6c	-0.070341915
183	0xbd0737c8	-0.03301218
184	0xbdf1c26a	-0.1180466
185	0x3db43704	0.08799556
186	0xbcc91118	-0.024544284
187	0x3d9b2432	0.07575263
188	0x3d87bd8c	0.0662795
189	0x3dc0e4ca	0.09418638
190	0x3cbf77a0	0.023372471
191	0x3db396db	0.08769008
192	0x3de540f9	0.11194033
193	0xbe130fdc	-0.14361519
194	0x3d1a2e44	0.03764178
195	0xbcd09a52	-0.02546421
196	0x3e9ff119	0.3123863
197	0x3e2bbc1f	0.16770981
198	0xbd7c4f71	-0.0615992
199	0xbe6ef4e2	-0.23335603
200	0x3ecd5a91	0.4010816
201	0x3e854767	0.26031038
202	0x3ee343e1	0.44387725
203	0x3e18afbb	0.14910786
204	0xbec09333	-0.37612304
205	0xbe08b35e	-0.13349673
206	0x3e4e259f	0.20131539
207	0x3db81625	0.08988599
208	0x3c8f6f10	0.017509013
209	0xbde38e55	-0.11111132
210	0xbc0bf5cf	-0.008542492
211	0xbd999de2	-0.07500817
212	0x3d624ff2	0.055252023
213	0xbd862966	-0.06550865
214	0xbde965e0	-0.11396384
215	0xbd8fec3a	-0.070274785
216	0x3e4e767f	0.2016239
217	0x3e461d34	0.19347078
218	0xbcf9485a	-0.030430008
219	0xbdef3ff1	-0.11682118
220	0x3de02f36	0.10946505
221	0x3e096933	0.13419037
222	0x3d4e9250	0.050432503
223	0x3dbadb0a	0.0912381
224	0xbdc46ad2	-0.09590687
225	0x3b2516c0	0.0025190562
226	0xbe03f9ec	-0.12888306
227	0xbd89de4c	-0.06731853
228	0xbd897672	-0.06712045
229	0xbd06592e	-0.032799892
230	0x3dda7f88	0.10668856
231	0xbccb6218	-0.024827048
232	0x3ded0be2	0.11574532
233	0xbd433d28	-0.047665745
234	0x3daded4c	0.084925264
235	0xbcb00024	-0.021484442
236	0xbe05d3f3	-0.13069133
237	0xbbdb0520	-0.0066839606
238	0xbd8b3209	-0.06796653
239	0x3ce3a190	0.027787
240	0xbe131e78	-0.14367092
241	0xbcca5273	-0.024697518
242	0x3dacbde1	0.08434654
243	0xbd55e206	-0.052217506
244	0xbe4ffc8d	-0.20311184
245	0xbdd57fe8	-0.10424787
246	0xbd81bf84	-0.06335357
247	0xbd9a3a5f	-0.07530665
248	0x3e0760af	0.13220476
249	0xbdf53b3f	-0.11974191
250	0x3db94c80	0.09047794
251	0xbdb99800	-0.09062195
252	0x3d43823c	0.047731623
253	0x3dcf82b4	0.101323515
254	0xbd0511e8	-0.03248778
255	0x3d6e1446	0.058124803

bias f4 [5]
0	0xbe4118b1	-0.18857075
1	0x3e090e21	0.13384296
2	0x3e1374b8	0.14399993
3	0xbe041e64	-0.12902218
4	0xbe2822f0	-0.16419578

weight f4 [300, 5]
0	0x3e4f360e	0.20235464
1	0x3e672fd4	0.22576839
2	0x3dd36340	0.10321665
3	0x3e653279	0.22382535
4	0xbe889981	-0.26679614
5	0xbdebddb6	-0.115168974
6	0xbe1127f4	-0.14175397
7	0xbc7f1958	-0.015570007
8	0x3d2341e4	0.03985776
9	0xbd1e85df	-0.03870189
10	0x3d956a42	0.07295658
11	0xbdc9e3a0	-0.09857869
12	0xbb8bfbe0	-0.004271969
13	0xbd16e59e	-0.036840074
14	0x3dad1420	0.08451104
15	0x3d80b5d2	0.062846795
16	0x3bf02ceb	0.0073295734
17	0xbcfec02b	-0.031097492
18	0xbda17282	-0.07883169
19	0x3cc81b5e	0.024427112
20	0xbde07289	-0.10959346
21	0x3c4f90b5	0.012668778
22	0xbcfdfc6d	-0.031004155
23	0x3bba3915	0.0056830742
24	0x3db51b59	0.08843107
25	0x3de8ef51	0.11373771
26	0x3b19891a	0.0023427666
27	0x3dda5988	0.10661608
28	0x3d8d9303	0.06912806
29	0x3d305e8d	0.04305892
30	0x3e241326	0.1602293
31	0xbdc0cc2f	-0.09413945
32	0xbe09cfac	-0.13458127
33	0x3e8ea032	0.27856594
34	0xbd91e60c	-0.07123956
35	0x3ea1fc31	0.3163772
36	0x3da25924	0.079271585
37	0x3e5152b0	0.20441699
38	0x3cc74712	0.024325881
39	0xbe515197	-0.2044128
40	0xbd45e6f2	-0.04831595
41	0xbd27c716	-0.040961348
42	0xbdc33f20	-0.095335245
43	0x3ea0b955	0.31391397
44	0xbddf8499	-0.10913963
45	0x3d897c83	0.06713202
46	0xbdd129ee	-0.102130756
47	0xbd6aa6d8	-0.05728802
48	0x3e6807ad	0.22659178
49	0xbe0ca4b3	-0.13734703
50	0xbdf0f9ec	-0.11766419
51	0x3deb2756	0.11482112
52	0x3cbc3490	0.022974283
53	0xbd25ea4a	-0.04050664
54	0xbd5dd5f5	-0.054159123
55	0x3e609378	0.21931255
56	0x3d82f800	0.063949585
57	0x3e5f2e31	0.21794964
58	0x3e98f273	0.29872474
59	0xbdafca30	-0.08583486
60	0xbdab27a6	-0.08357172
61	0x3c8a44d0	0.016878515
62	0x3d8d69ca	0.06904943
63	0x3c9a7498	0.018854424
64	0xbcaabd64	-0.020842262
65	0x3e95eddd	0.29283038
66	0xbd1d2de9	-0.03837386
67	0x3da6b017	0.08139055
68	0x3ed79345	0.42104545
69	0xbea2ac33	-0.31772003
70	0x3d707442	0.058704622
71	0x3dfe4ed2	0.124173775
72	0x3dca16cc	0.098676294
73	0x3ebe8855	0.37213388
74	0xbe4e622c	-0.20154637
75	0xbdcd85ef	-0.100353114
76	0xbd52dc04	-0.051479355
77	0xbbf9cc20	-0.0076232105
78	0xbd050628	-0.032476574
79	0xbdfe666f	-0.124218814
80	0x3b3560c0	0.0027676076
81	0x3d701324	0.058612004
82	0xbe01c0e5	-0.1267124
83	0x3c96ef10	0.01842454
84	0x3df4f8ee	0.11961542
85	0xbcb7bab4	-0.022427894
86	0x3d9823ee	0.07428728
87	0xbd8b4faa	-0.06802304
88	0xbd507fd7	-0.050903168
89	0xbe088c38	-0.13334739
90	0x3d37a77e	0.044837467
91	0xbd93dd5e	-0.07219957
92	0xbbb207f3	-0.0054330765
93	0xbdd9730b	-0.10617646
94	0x3ba49691	0.0050228317
95	0x3ede49fc	0.4341582
96	0x3ce6306c	0.028099261
97	0x3ea763fa	0.32693464
98	0x3e1c8aca	0.15287319
99	0xbe70e2e1	-0.23524047
100	0xbc935a6e	-0.017987456
101	0xbe337ebb	-0.17528813
102	0xbdfea2b1	-0.12433375
103	0x3e87fd40	0.26560402
104	0xbe258188	-0.16162694
105	0x3dbc03fe	0.09180449
106	0x3d43f012	0.04783637
107	0xbe1a3d25	-0.15062387
108	0xbdcee2fd	-0.10101888
109	0x3cf02a42	0.029317025
110	0x3ce2edd1	0.02770129
111	0xbde28d56	-0.11062114
112	0x3cabf511	0.02099088
113	0xbdabad5f	-0.08382677
114	0xbda6f0ed	-0.08151422
115	0xbc56a130	-0.0130999535
116	0x3dbb1dde	0.09136556
117	0x3c123a70	0.008925065
118	0x3cbd83e8	0.023134187
119	0x3de0f98e	0.10985099
120	0x3dd3c7b3	0.10340824
121	0xbbe04ebd	-0.006845324
122	0x3dcbf7de	0.09959386
123	0x3e5b4052	0.21411255
124	0xbe2c10ca	-0.1680328
125	0xbe148057	-0.14502083
126	0x3d7c63b1	0.06161851
127	0xbd8df9bc	-0.06932399
128	0x3c90a342	0.017655972
129	0xbdc5ca86	-0.09657769
130	0xbe57482b	-0.21023624
131	0xbded23f4	-0.11579123
132	0xbcfc8418	-0.030824706
133	0x3e896010	0.26831102
134	0x3df520bb	0.119691335
135	0xbd7bcfc8	-0.061477453
136	0x3acb5780	0.0015513748
137	0xbe08d938	-0.13364112
138	0x3e07ed7b	0.13274185
139	0xbd5b8342	-0.053591974
140	0x3e1d58fe	0.15365979
141	0xbe122d4b	-0.1427509
142	0x3d2bc418	0.041935056
143	0x3e202bf1	0.15641762
144	0xbe28ef9f	-0.16497658
145	0x3e2cbf38	0.16869819
146	0x3d8c5a53	0.068531655
147	0x3e080dcf	0.13286518
148	0x3ddaec94	0.10689655
149	0xbd18f7c9	-0.03734568
150	0x3d3184c7	0.043339517
151	0x3e5c83fa	0.2153472
152	0x3e21f7d6	0.15817198
153	0x3ecf2291	0.4045606
154	0xbe9f2de7	-0.31089708
155	0x3dd8f706	0.10593991
156	0xbd5433f2	-0.05180735
157	0x3d9073b8	0.070533216
158	0xbde562ee	-0.1120051
159	0xbdbe9966	-0.09306602
160	0xbdaf01e3	-0.08545282
161	0xbd5a2270	-0.0532555
162	0x3d0138a0	0.031548142
163	0xbdfc1f2a	-0.123106316
164	0x3cfd32b8	0.030907974
165	0xbe04fd91	-0.12987353
166	0xbdf11d8d	-0.117732145
167	0x3a390c00	0.0007058978
168	0x3dcd1fce	0.10015832
169	0x3d394920	0.045235753
170	0xbd8e196b	-0.06938442
171	0x3d4b979e	0.04970514
172	0x3b661201	0.0035105946
173	0xbdc52cf1	-0.096277125
174	0xbb908aad	-0.0044110627
175	0x3c0648b0	0.008196041
176	0xbdfd02ae	-0.12354027
177	0xbd7448fe	-0.059639923
178	0x3e042133	0.1290329
179	0x3de82a8e	0.11336242
180	0xbc8f0d60	-0.017462432
181	0x3d945b62	0.072439924
182	0xbdefd598	-0.11710662
183	0xbda88676	-0.082287714
184	0x3d5641c8	0.052308828
185	0xbda8976e	-0.08232008
186	0x3d8f55e8	0.06998807
187	0xbdc2c8d2	-0.0951096
188	0x3caa4c40	0.020788312
189	0x3e0889ff	0.13333891
190	0xbdc99341	-0.098425396
191	0x3b665ca1	0.0035150426
192	0xbd72d8bc	-0.059288725
193	0xbc8e4f7b	-0.017371884
194	0x3dc46210	0.095890164
195	0x3ea17822	0.31536967
196	0x3e55097a	0.20804396
197	0x3e20e6dc	0.15713066
198	0x3e7fff06	0.24999627
199	0xbe9085c7	-0.28227064
200	0xbbc6fa60	-0.0060723275
201	0x3e01482a	0.12625185
202	0x3d4258a1	0.047447804
203	0x3eddc23f	0.4331226
204	0xbe86b737	-0.26311657
205	0x3dce68dc	0.10078594
206	0x3c794ccc	0.015216064
207	0x3dd21b7e	0.1025915
208	0x3e91f009	0.28503445
209	0xbe24dca9	-0.160998
210	0x3d7842f8	0.06061074
211	0xbd2ced72	-0.042218633
212	0x3dc28e1a	0.0949976
213	0xbd70a858	-0.058754295
214	0xbd792de4	-0.06083478
215	0x3c9a1b5b	0.018811872
216	0xbe467d40	-0.19383717
217	0xbe39bcaf	-0.18138383
218	0x3e38dd83	0.1805325
219	0xbd926a08	-0.0714913
220	0xbbc04080	-0.005867064
221	0xbd548c02	-0.051891334
222	0xbd86a1e4	-0.06573847
223	0xbd342a68	-0.043985754
224	0xbd92b306	-0.07163052
225	0x3da057a4	0.07829216
226	0xbc94fec8	-0.018187895
227	0xbda9aa84	-0.082844764
228	0x3d2d2a9c	0.042276964
229	0xbdd9b9c1	-0.10631133
230	0xbd66ffee	-0.056396417
231	0x3dabd4b4	0.08390179
232	0xbd854103	-0.065065406
233	0x3c02f220	0.007992297
234	0xbd13e1f4	-0.036104158
235	0x3d97b2b0	0.07407129
236	0xbd858d1a	-0.065210536
237	0x3da23b4c	0.07921466
238	0x3df945ce	0.12171517
239	0x3cf4bef8	0.029876217
240	0x3d08b2df	0.03337371
241	0xbe21c28a	-0.15796867
242	0xbe33101b	-0.17486612
243	0x3ec40846	0.38287562
244	0x3c9a9baa	0.018873055
245	0xbdcdb91d	-0.10045073
246	0x3df7fd7d	0.12108896
247	0x3d9e4bc9	0.077292986
248	0xbd53b72c	-0.05168836
249	0xbe01c617	-0.12673222
250	0x3d8d9ba4	0.06914452
251	0xbdbf5d16	-0.093439266
252	0xbdb68344	-0.08911756
253	0x3d85ace6	0.065271184
254	0x3d81ed68	0.0634411
255	0x3e25b773	0.16183262

bias f4 [5]
0	0xbe4cee09	-0.20012678
1	0xbe16838d	-0.1469862
2	0xbdf3f5d3	-0.119121216
3	0x3e06da35	0.13169177
4	0x3e5f73cf	0.21821521
