Models/GNNs/Models_20_7_Datasets-improved-Gini/Models_20_7_Wordpress-improved-Gini/model_RGCN_1000_samples_100_epochs_32_batchsize.pth (torch, 59964 bytes, 14 tensors)

weight f4 [8, 300]
00000000: f1a7 3a3e f0a2 203d 8101 b1bd 43fa 603d
00000010: deaa 0abe 4713 c73d c849 043e a7ce ec3d
00000020: c048 443e 156f 763d 65d9 ebbd 70c3 9d3c
00000030: e64a 0cbe 8108 323e 7e03 f03b 93be 003e
00000040: d082 0bbe f8c4 563d 76d3 dc3d ee39 b7bd
00000050: 7445 413e ce87 163b 8603 333d e322 803e
00000060: 9786 5e3e 529f f63d 1068 af3d 04ca f33d
00000070: 34fb 893c a1d8 b53c 8234 9a3e c062 413e
00000080: f1da 263e 0bdb bb3d 8ff3 d8bd 5f61 0f3e
00000090: bf31 af3d 7718 be3d ae52 41be 5347 333e
000000a0: 9d66 323e 5262 fe3d 2a7e 533c a81e 223e
000000b0: 963b 5b3e 513e 8abc ec28 853d 5563 733e
000000c0: fa1b b83d a5d6 f9bc a7fe 803d 5cde 09be
000000d0: 0072 713d be14 e63d 3c07 4dbd ab6b a53d
000000e0: 2c08 e63d 5596 ed3c e124 3cbd 9bcc 6b3d
000000f0: 5256 b13d 2cc6 7d3c 232b 223e 0d12 383e
00000100: 2d13 603e 102d a5bc f030 ed3c f39d 3cbd
00000110: 5430 023d 6885 f3bc 1834 7abd 402b bdbb
00000120: 8593 dabd 5ae8 d4bd 5aa7 4c3e ffe8 bc3d
00000130: 6ed8 1d3e 48d3 efba c305 14bd 93ba bdbd
00000140: e082 293e 42a2 09be 915c f7bd 39e0 4e3e
00000150: c422 1c3e e4d4 01be 7cca d1bd 4376 0f3d
00000160: 9de3 b9bd ee5d 75bd 6c14 00be f129 153e
00000170: 0ca8 fbbd 4a51 213e 8928 593e 1efa 803d
00000180: 04b7 403e 5758 8cbe 5c55 cbbd 5ab8 2c3e
00000190: 514d bfbd 307d 24bd f15d acbd 31c5 163e
000001a0: ebd1 00bd c8db b5bd e1ca 993c 838d efbd
000001b0: 896f 303e 1166 6abd 3e69 c23d b4f2 463e
000001c0: 7278 d23d 94bd a13c e5c0 edbd c5c0 0cbe
000001d0: 4f8d 213c b2e8 8abb 1e33 4fbd ebee 0d3e
000001e0: 2553 45bd 4936 5e3d e44c 3cbb 3290 46bd
000001f0: 45a5 f8bd 6a8c 153e b01e 333c 3228 4fbd
00000200: dd2a e73d 18e6 e3bc b4c4 a9bd d492 c1bd
00000210: db53 01be ef1d 8dbb 7a36 153e 63c1 1a3d
00000220: e4ee f2bd ffbb ac3d eae7 073d 3211 0a3e
00000230: fa46 053e 7cc8 38bd 70d1 a8bd 1ac1 f8bd
00000240: 3a64 13bd 91a4 863d 2edb 96bb 792c 6fbd
00000250: e32f 89bd 08d6 c93d f43d 423e 412e 513d
00000260: 3ced 183d 70af 63bc 7a8f 303e 5ab9 823d
00000270: c5f2 30bd acb5 3cbd 48ab fd3d d459 15bd
00000280: 5821 ea3c eb72 a0bd bd98 33be db61 e2bd
00000290: d139 eabd 5550 cdbd 1936 a2bc a9fd 23bd
000002a0: 2daf 813d 120e 52bd 5f88 9bbd 2c4f c6bd
000002b0: 09d2 643c ec1a 2b3d 46e4 da3d 437a 02be
000002c0: 40c3 fdbb 94ef 093d 1caa b2b9 6e91 17be
000002d0: 5d45 8ebd 03a5 cb3d baaf fe3d db38 6e3e
000002e0: dd06 fb3d de7b cc3c e685 61bc 608f 523d
000002f0: 9ac4 3cbd ca01 66bd 330f 603e 844f 52bd
00000300: 7745 603e e0cf 863b c48e b3bd 7684 b6bd
00000310: 3051 9ebd 9d2a 0ebd 0474 823c 245a 3fbd
00000320: 3178 f53d 4d23 cbbd 82e6 07be 0010 b1bd
00000330: 10c0 09be 7816 2d3d 9073 ce3c 3782 88bd
00000340: 5600 4c3d aa96 d6bd b913 87bd b070 d8bc
00000350: e711 acbd c5af a53c 7cb8 f8bd f02a 57bc
00000360: 05a4 3a3e e893 0a3e f8f4 3d3e daf7 f03d
00000370: 12c0 373d 10a5 22bd 33e2 bc3a f046 753d
00000380: 6713 4cbe 3938 2a3e 80ea 213e 0a33 e73b
00000390: d02a f23c 2302 293d a4f0 c53d a136 d93c
000003a0: 49db 273e 2b1a a9be 6ef9 f3bd 9091 513d
000003b0: e0eb d7bb 3eb4 a6bc 957c aabd e02a a0bd
000003c0: 8001 ca3c 8189 853b 8afe fb3d 1481 903d
000003d0: f920 83ba 0a9b 373d 6d2f c1bd 3c4b a6bc
000003e0: 08dd 46bd 3390 d93c 3985 2f3e 8bcf b63b
000003f0: 3790 8a3e 02b3 a3bd dc31 0e3e 9127 be3d
0.18228127 0.03921789 -0.08642865 0.05492617 -0.13541743 0.09720474 0.1291877 0.11562853
0.19168377 0.06016453 -0.11516074 0.01925823 -0.13700446 0.17386056 0.007324635 0.12572698
-0.1362412 0.052433938 0.107825205 -0.08946596 0.1887415 0.002296913 0.043704532 0.25026616
0.2173103 0.12042107 0.0856477 0.11903766 0.016843416 0.022198023 0.30118185 0.18885326
0.16294457 0.091726385 -0.1059333 0.14001988 0.0855441 0.0928201 -0.18879196 0.17507677
0.17421956 0.12421097 0.012908498 0.15832007 0.21409449 -0.016875418 0.06501946 0.23768361
0.08989711 -0.030497858 0.06298571 -0.1346373 0.05894661 0.11234425 -0.050055727 0.08077177
0.112320274 0.029002348 -0.045933608 0.057568174 0.086590424 0.015489142 0.15836768 0.17975636
0.21882315 -0.020163089 0.028954 -0.04604907 0.03178437 -0.029726699 -0.061084837 -0.005772978
-0.10672668 -0.1039588 0.19985715 0.09224128 0.15414593 -0.001829722 -0.036138307 -0.09264102
0.16553831 -0.13440803 -0.120782025 0.20202722 0.15247637 -0.12678868 -0.10243699 0.035024893
-0.09076617 -0.05990403 -0.1250779 0.1456678 -0.12287912 0.15753666 0.21206869 0.06297706
0.18819815 -0.27411148 -0.099283904 0.168672 -0.09340919 -0.04015845 -0.084163554 0.1472366
-0.031450193 -0.088798106 0.018773498 -0.11696913 0.17230047 -0.057226244 0.094927296 0.19428521
0.10276879 0.019743718 -0.11609057 -0.1374541 0.009860351 -0.004239165 -0.05058586 0.13860671
-0.048174996 0.05425099 -0.0028732354 -0.04847736 -0.12140898 0.14604345 0.010932609 -0.050575443
0.112874724 -0.027819678 -0.08289471 -0.09451833 -0.12629645 -0.004306547 0.14571562 0.037782084
-0.11861971 0.08434295 0.033180155 0.13483122 0.13015357 -0.04511307 -0.08243072 -0.12146206
-0.035984255 0.06574357 -0.004603765 -0.05839202 -0.06698587 0.09855276 0.18968946 0.0510695
0.03733562 -0.013896808 0.17242232 0.06383009 -0.043200273 -0.046071693 0.12386185 -0.03646262
0.028580353 -0.07834419 -0.17538734 -0.11053821 -0.11436809 -0.10025088 -0.019801186 -0.04003683
0.0633224 -0.05128295 -0.0759437 -0.096830696 0.013966092 0.04177372 0.10688071 -0.12741952
-0.007744223 0.033675745 -0.00034077547 -0.14801571 -0.06946824 0.09943583 0.12435861 0.23263876
0.122571684 0.024961408 -0.013764834 0.051406264 -0.04608593 -0.05615405 0.21880798 -0.051345363
0.21901499 0.004114136 -0.08767465 -0.08911984 -0.07730329 -0.034708608 0.015924461 -0.046716824
0.11985815 -0.099188425 -0.13271526 -0.0864563 -0.13452172 0.042257756 0.025201589 -0.066654615
0.049805008 -0.10477956 -0.06595559 -0.026420921 -0.08401852 0.020225415 -0.121445626 -0.013132796
0.18226631 0.13532984 0.1855048 0.11766024 0.044860907 -0.039708197 0.0014410674 0.059882104
-0.19929276 0.1662301 0.15812111 0.007055645 0.02956143 0.041261803 0.09665039 0.026515307
0.16392244 -0.33027777 -0.11912809 0.05116421 -0.006589398 -0.020349618 -0.083245434 -0.07820678
0.024658918 0.0040752296 0.12304409 0.0705587 -0.0010004333 0.04482559 -0.09432874 -0.020299546
-0.048550636 0.026558017 0.17140664 0.0055789403 0.27063152 -0.079931274 0.13886207 0.092848904

bias f4 [300]
00000000: 96d4 ec3d 0000 0000 0000 0000 f442 ea3d
00000010: 0000 0000 84c9 f63d c48c ff3d ad4b 1e3e
00000020: 63d0 e23d b8df 393e 32c7 a0bc 1446 6d3e
00000030: 0000 0000 4f8a 103e 3c3a 663e 605c 3a3e
00000040: 0000 0000 0000 0000 0aa6 333e 0000 0000
00000050: 1415 213e 077e 243e 1ecc d23d 9328 963d
00000060: 7ee2 263e 1ad1 da3d 5acd c83d d8bf ff3d
00000070: 553b 23bd 4cbe de3d cb19 fc3d 1176 d33d
00000080: 1df3 003e f1a7 f83d fba0 d6bc c35e f13d
00000090: e463 2b3e 3b3d f23d 41db 7d3e cf37 213e
000000a0: 1664 3a3e 87fb c23d 0184 b4bc 5515 3f3e
000000b0: 6782 ad3d 48f3 a4bc 3fc7 653e 8840 1c3e
000000c0: 96c9 383e 361e 40bc 3ed2 203e 8895 0abc
000000d0: b06c 5ebc 1714 d03d 0000 0000 a976 d53d
000000e0: dc20 c43d 66ce 253e 5725 2abd 6877 203e
000000f0: c637 a43d e581 1cbc 9cdd fc3d cb58 f33d
00000100: c974 ad3d 0000 0000 f0c0 423e 5b56 da3e
00000110: 0000 0000 0000 0000 6af9 e93d 0000 0000
00000120: b7be cabc 0000 0000 792c 163e 61bd 6c3e
00000130: e294 2f3e a675 ff3d 71ec 58bc ffc6 2fbd
00000140: 12ef c3b9 0000 0000 0000 0000 27c2 283e
00000150: bd9c bb3d 0000 0000 0000 0000 9d2c e73d
00000160: 0000 0000 0000 0000 887b b33e 381d b83c
00000170: 85f7 20bc ac67 383e d5d4 ed3d 9fc0 443d
00000180: 684f ce3d cf96 4d3e 0000 0000 f200 59ba
00000190: 0000 0000 0000 0000 0000 0000 b4d3 f33d
000001a0: 5b3f 41bc 0000 0000 fa63 67bc 0000 0000
000001b0: 7df0 dc3d 535a 42bc 364e 4e3e f25a 3f3e
000001c0: 66dd 273e 59e3 b6bd 0000 0000 0000 0000
000001d0: ccc9 02bd 81ec f2bc 0000 0000 6c09 ea3d
000001e0: 1139 873e 6c0a 96bc 2a1d 66bc 0000 0000
000001f0: 0000 0000 5953 dd3d 0000 0000 0000 0000
00000200: ad87 083e 0000 0000 0000 0000 82a0 30bc
00000210: 0000 0000 3760 703e 8e37 aa3d dc3a f43d
00000220: 0000 0000 5469 5e3d e8a9 283e 3a64 f939
00000230: 9bf3 4c3e 0000 0000 0000 0000 c618 9b3e
00000240: 0000 0000 74f6 033e 0793 1a3e 0afe 8abc
00000250: 0000 0000 bf47 a23d b39a 2d3e 88c8 debc
00000260: bc91 9dbc 0000 0000 d3e1 083e 8f9a 0b3e
00000270: f070 e83d acde 3f3e e4bf 253e 0000 0000
00000280: a3ec fcbc 0000 0000 1478 ffbc 0000 0000
00000290: 0000 0000 0000 0000 9959 34bc edb9 7f3e
000002a0: 5e4b f9bc 0000 0000 7339 c03e 0000 0000
000002b0: 0c96 d03d 0000 0000 edde 653e 0000 0000
000002c0: 0000 0000 dd85 183e b132 363e d575 73bc
000002d0: 1c3d ab3e 1243 043e 43f7 473e 7239 c63d
000002e0: 8669 253e 3e35 2fbc 8267 023e 0000 0000
000002f0: 0000 0000 0000 0000 fe9a 3b3e 0000 0000
00000300: 4fe2 b03d 0000 0000 0c0f d03d 0000 0000
00000310: 0000 0000 7b9e 593e 52e9 4b3e 5d77 ccbc
00000320: c109 ef3d 16bb 013f 0000 0000 0000 0000
00000330: 0000 0000 770e 093e 0000 0000 0000 0000
00000340: 7866 7e3e 0000 0000 0000 0000 0ac9 c4bb
00000350: ac11 d43e df59 263e 699b 10bd ec77 a9bc
00000360: 283c 0a3e ffac c23d 2bc1 db3d 40fb 85bc
00000370: 6cfa 1b3e 0000 0000 4453 1d3e b07d ff3d
00000380: 9370 a63e 657b 2a3e 7ad5 b23d 1bec 62bd
00000390: 0000 0000 8217 7ebc 4a27 1abd 4c63 353e
000003a0: e338 d13c 3671 153e 0000 0000 7199 0abc
000003b0: 0000 0000 52d9 a4bc 0000 0000 0000 0000
000003c0: 0000 0000 8b95 1b3e b06f 1c3e 8fcf ea3d
000003d0: c00a 183e ac77 003e 0000 0000 b9a9 093e
000003e0: 0000 0000 14c1 c4bb f361 a23c c913 8b3e
000003f0: 4117 02bc 0000 0000 bc63 543e b3c5 3f3e
0.11563985 0.0 0.0 0.114385515 0.0 0.12050155 0.12478021 0.15458556
0.11074903 0.18151748 -0.019626234 0.23171264 0.0 0.1411526 0.22483152 0.18199301
0.0 0.0 0.17543808 0.0 0.15730697 0.160637 0.102928385 0.07331958
0.16297337 0.10684414 0.09804793 0.12487763 -0.039851505 0.1087614 0.12309607 0.10325254
0.1259274 0.12141407 -0.026199808 0.117856525 0.16737324 0.11828085 0.2479067 0.15743946
0.18202242 0.09520631 -0.0220356 0.18660481 0.08472138 -0.020135537 0.22439288 0.15258992
0.18045649 -0.011725953 0.15705201 -0.008458503 -0.013575718 0.10160082 0.0 0.10423023
0.0957658 0.16192016 -0.041539516 0.1567055 0.080184504 -0.009552454 0.12346956 0.1188217
0.084695406 0.0 0.19018912 0.4264401 0.0 0.0 0.11424525 0.0
-0.024749143 0.0 0.14665402 0.23119117 0.17146638 0.124736115 -0.013239966 -0.042914387
-0.0003737142 0.0 0.0 0.16480313 0.09160755 0.0 0.0 0.11287806
0.0 0.0 0.35055184 0.02247487 -0.009824638 0.18008298 0.1161286 0.04803526
0.10073739 0.2007706 0.0 -0.0008278034 0.0 0.0 0.0 0.119056135
-0.01179489 0.0 -0.014122957 0.0 0.10788057 -0.011862355 0.20147023 0.18687037
0.1639305 -0.08930082 0.0 0.0 -0.03193073 -0.02965379 0.0 0.11427578
0.26410726 -0.018315516 -0.014045039 0.0 0.0 0.10806913 0.0 0.0
0.13333006 0.0 0.0 -0.010780456 0.0 0.23474203 0.083113775 0.11925289
0.0 0.054299667 0.16471064 0.00047567656 0.20014803 0.0 0.0 0.30292338
0.0 0.12886983 0.15095149 -0.016966838 0.0 0.07923841 0.16953544 -0.02719523
-0.01923453 0.0 0.13367395 0.13633178 0.11349666 0.18737286 0.16186482 0.0
-0.030874556 0.0 -0.031185187 0.0 0.0 0.0 -0.01100769 0.24973269
-0.030431446 0.0 0.3754383 0.0 0.10184869 0.0 0.2244832 0.0
0.0 0.14894815 0.17792775 -0.014859636 0.3344506 0.1291621 0.19527917 0.096789256
0.16153535 -0.010693846 0.12734798 0.0 0.0 0.0 0.18320844 0.0
0.08636915 0.0 0.1015912 0.0 0.0 0.21251862 0.19913223 -0.02495926
0.11671782 0.50676095 0.0 0.0 0.0 0.13384424 0.0 0.0
0.24843776 0.0 0.0 -0.006005411 0.41419733 0.1624522 -0.03530446 -0.020687066
0.1349951 0.09505653 0.10730203 -0.016355157 0.15232247 0.0 0.15363795 0.12475145
0.32507762 0.16648634 0.08732124 -0.05540095 0.0 -0.015508534 -0.037635125 0.1771366
0.025539821 0.14593968 0.0 -0.008459435 0.0 -0.020123158 0.0 0.0
0.0 0.15193765 0.1527698 0.1146537 0.14847851 0.12545651 0.0 0.1344365
0.0 -0.006004462 0.019822096 0.27163532 -0.0079401145 0.0 0.2074117 0.1872776

weight f4 [8, 300]
00000000: ca8a 9d3d 5df9 07be 4a76 f83d aa1e e13d
00000010: d8ca 0b3d 5ad1 5dbd 07cc ffbd e039 ffbb
00000020: c018 893d c4ca 14bd b446 2a3d b0c9 843c
00000030: c68e ae3d b6a5 a63d 8606 9c3d 7530 053e
00000040: ea74 ea3d f43c a9bd e36a acbd fc95 803d
00000050: da81 34bd 86cb ff3d 60c9 88bc 580b 623d
00000060: 805f 2f3b 96e8 43bd 5847 f73c 5bf0 e1bd
00000070: b2d4 a03d bcf8 433d a400 bcbd 988e 8dbd
00000080: c8d4 ff3c 32cf 72bd 82e5 b23d 5800 34bd
00000090: 80c3 533b 3ad4 f83d f00e ba3c 6492 093d
000000a0: 74aa 523d 147c eabd b6c6 e73d 7512 023e
000000b0: 647c 62bd 28e1 173d 4ec6 933d 9870 423d
000000c0: 5929 d0bd 864b bebd 66cb 0cbe f405 b63d
000000d0: 6359 f5bd e07b 1d3d 0018 3dba 22e1 efbd
000000e0: 3ada b9bd d65b 04bd 51ef a9bd d4de 9b3d
000000f0: 098c e7bd 4ce4 7b3d b1c4 0d3e c417 413d
00000100: 68c2 c9bd 2680 b93d df86 0e3e b3a4 94bd
00000110: 1009 db3d 20f2 f23c 56ec e1bd c099 a23c
00000120: eb07 0d3e cec1 c6bd 6c07 99bd 6050 cf3c
00000130: bf6b 0cbe 48ab 303d 50d8 323c 71e5 cebd
00000140: 429a 8c3d 2683 de3d e071 de3b d09a 3cbd
00000150: c2bb f13d af56 a1bd 0127 08be c204 d53d
00000160: 8e4e ed3d a2b1 bb3d 07aa 083e 8d8d ffbd
00000170: 0b39 ebbd 90fd 793d 7415 bb3d 94d6 1abd
00000180: a085 5f3c 99ce aebd 58a9 ffbd e006 ab3b
00000190: dc8e 04be b078 143c 2aae c03d e77d 0abe
000001a0: 5ad2 8a3d e052 a53b 80ab 083d 5c26 793d
000001b0: 0e66 26bd 3832 563d ac9b 633d debc 983d
000001c0: 142f b43d 06c6 f13d 80ca 4f3b 0e9c ccbd
000001d0: 726c fc3d 2948 0b3e 00f8 a03a be86 04be
000001e0: 38fa f9bd d482 1d3d 9ce2 95bd 4452 19bd
000001f0: 659c 02be 8532 d2bd 5cd1 59bd c02e 01be
00000200: b001 9d3c 20d8 e43c a443 a73d 8c92 853d
00000210: 3a6a e53d ebe5 99bd d2cf c33d b8e8 f9bd
00000220: 5523 003e 30ce f83c 4c56 c0bd 7a2e d63d
00000230: fa3d 0abe 40b2 2c3d 1a4f b33d c46d 7c3d
00000240: b495 88bd 1a15 76bd 7658 e73d 601d c23c
00000250: 243f 193d 101d 953d baa2 9bbd 5097 62bc
00000260: 4042 243b ec51 1e3d 60c2 763c 789b 463d
00000270: 628b b53d ca62 27bd 182b 07be 289a 39bd
00000280: 086d dbbc 5fdd 88bd 5403 e9bc 4443 373d
00000290: 50c2 2ebd 8d91 003e 00bd 7e3b 5828 0d3d
000002a0: 8053 d43a a73d 01be 7032 14bc 8c28 453d
000002b0: ce62 cb3d 80ca 65bb e055 5fbc dead e23d
000002c0: 5019 b73d 40d2 5cbd a887 1e3d 2caf cebd
000002d0: 401a 243d 38c9 fabc 2873 a1bc ecfc bbbc
000002e0: 60b1 cfbb 887d 51bd d083 6abc c46c 833d
000002f0: f8a0 4e3d add4 9abd 70bb 34bc e48a 6d3d
00000300: 8e72 aa3d d68b bbbd 16d4 f63d e855 df3d
00000310: b811 d1bd a09b e63b a061 d83c 9036 823c
00000320: d64d e53d 1013 babc f2e5 c43d 0725 04be
00000330: 50b6 863c c661 c13d 286a 65bd 506c 923c
00000340: 881a a83c d00d d53c 90dc 3ebc 0070 0abe
00000350: d09b 7f3c 4097 eb3b c0be 87bd c05e 913d
00000360: 0e67 25bd 5afc bb3d d2d0 06be 8845 0abe
00000370: 50c9 0d3c 64ed dabd 0642 cc3d 90d5 9f3c
00000380: 35f8 88bd 50bf db3c 53c9 033e d84b 333d
00000390: a0ab edbc 2e6a dbbd 8ad5 9c3d d56d 003e
000003a0: fee5 963d 1265 a83d 5e04 8abd 82ae d3bd
000003b0: d05d 683c 504c 9c3c 7ae2 b7bd e060 22bc
000003c0: 363a 76bd 6b86 0e3e 0452 54bd 6218 39bd
000003d0: 7802 143d e6b4 a63d ed62 0c3e 4055 07bc
000003e0: fc0f 203d 1c18 683d 5313 063e ca68 e73d
000003f0: b8d5 263d c06a 2d3b 1c3e a43d e35c 063e
0.076924875 -0.13278718 0.12131937 0.10992177 0.034128994 -0.05415473 -0.12490087 -0.0077888817
0.06694174 -0.036326185 0.041571334 0.016209453 0.085233256 0.081370756 0.07618432 0.13006766
0.11448081 -0.08263579 -0.084188245 0.06278607 -0.04406915 0.12489991 -0.016697586 0.0551866
0.0026759803 -0.047829233 0.030185387 -0.11032172 0.078530684 0.047844633 -0.0917981 -0.06911963
0.031229392 -0.059279628 0.087351814 -0.04394564 0.0032312572 0.12149854 0.0227122 0.033586875
0.051432088 -0.11449447 0.11317198 0.12702353 -0.05529441 0.03707996 0.07215558 0.04747066
-0.101641364 -0.09291749 -0.13749465 0.08887854 -0.1197994 0.038448215 -0.0007213354 -0.117128626
-0.090748265 -0.032314144 -0.08297599 0.076108605 -0.113060065 0.061497018 0.13844563 0.047141805
-0.09851533 0.090576455 0.13918637 -0.072579764 0.10695088 0.02965647 -0.11031406 0.019848704
0.13772552 -0.09704934 -0.07472119 0.02530688 -0.13712977 0.043132097 0.010915831 -0.10102356
0.0686536 0.10864858 0.0067884773 -0.04604608 0.1180339 -0.07877862 -0.13296129 0.10401298
0.11587249 0.0916474 0.1334611 -0.124781705 -0.114854895 0.06103283 0.09134951 -0.037802294
0.0136426985 -0.08535499 -0.12483472 0.0052193254 -0.12945122 0.009061977 0.09408219 -0.1352459
0.067784026 0.00504528 0.03336668 0.060827598 -0.04062467 0.052293986 0.055568382 0.074578986
0.08798042 0.11805348 0.0031706393 -0.099907026 0.12325372 0.13601746 0.0012280941 -0.12942025
-0.122059286 0.038454846 -0.07318613 -0.03743197 -0.12754972 -0.10263542 -0.053178176 -0.1261549
0.019165844 0.027935088 0.08167198 0.06522092 0.11201902 -0.075145565 0.09561123 -0.12202591
0.12513478 0.030371755 -0.0939146 0.104580835 -0.13500205 0.04216218 0.08755322 0.06162812
-0.066691786 -0.060078718 0.112961695 0.023695648 0.03741373 0.07280934 -0.07599397 -0.013830021
0.0025063902 0.038652346 0.015060991 0.04848811 0.08864476 -0.040865697 -0.13200033 -0.04531303
-0.026785389 -0.06682848 -0.02844397 0.044741884 -0.04266578 0.12555523 0.0038869977 0.034462303
0.0016199201 -0.12621175 -0.009045228 0.04813437 0.09930955 -0.0035063326 -0.013631314 0.11068319
0.08940375 -0.053911448 0.03870359 -0.10092005 0.040064096 -0.030613527 -0.019708231 -0.022947751
-0.0063382834 -0.051145107 -0.014313653 0.0641723 0.05044648 -0.07560096 -0.011031017 0.057993785
0.08322631 -0.09157531 0.12052171 0.10905057 -0.10208458 0.007037595 0.026413739 0.015895158
0.11196487 -0.022714168 0.09614171 -0.1290475 0.016444355 0.09442477 -0.05600944 0.017873913
0.020520464 0.026007563 -0.011649266 -0.13519287 0.015601113 0.0071896613 -0.066281796 0.0709815
-0.040381484 0.091789916 -0.13165596 -0.13503087 0.008653954 -0.1068981 0.099735305 0.019511014
-0.06687967 0.026824623 0.12869768 0.043773502 -0.029012501 -0.107136115 0.07657917 0.12541898
0.07368086 0.08222403 -0.06739114 -0.10336019 0.014182523 0.019079357 -0.08978744 -0.009910792
-0.060114108 0.13918464 -0.05183603 -0.04518927 0.036135167 0.081399724 0.13709612 -0.008260071
0.039077744 0.056663617 0.13093309 0.11299284 0.04073116 0.0026461333 0.08019659 0.13121371

bias f4 [300]
00000000: 0000 0000 0000 0000 0000 0000 0000 0000
00000010: 0000 0000 0000 0000 0000 0000 0000 0000
00000020: 0000 0000 0000 0000 0000 0000 0000 0000
00000030: 0000 0000 0000 0000 0000 0000 0000 0000
00000040: 0000 0000 0000 0000 0000 0000 0000 0000
00000050: 0000 0000 0000 0000 0000 0000 0000 0000
00000060: 0000 0000 0000 0000 0000 0000 0000 0000
00000070: 0000 0000 0000 0000 0000 0000 0000 0000
00000080: 0000 0000 0000 0000 0000 0000 0000 0000
00000090: 0000 0000 0000 0000 0000 0000 0000 0000
000000a0: 0000 0000 0000 0000 0000 0000 0000 0000
000000b0: 0000 0000 0000 0000 0000 0000 0000 0000
000000c0: 0000 0000 0000 0000 0000 0000 0000 0000
000000d0: 0000 0000 0000 0000 0000 0000 0000 0000
000000e0: 0000 0000 0000 0000 0000 0000 0000 0000
000000f0: 0000 0000 0000 0000 0000 0000 0000 0000
00000100: 0000 0000 0000 0000 0000 0000 0000 0000
00000110: 0000 0000 0000 0000 0000 0000 0000 0000
00000120: 0000 0000 0000 0000 0000 0000 0000 0000
00000130: 0000 0000 0000 0000 0000 0000 0000 0000
00000140: 0000 0000 0000 0000 0000 0000 0000 0000
00000150: 0000 0000 0000 0000 0000 0000 0000 0000
00000160: 0000 0000 0000 0000 0000 0000 0000 0000
00000170: 0000 0000 0000 0000 0000 0000 0000 0000
00000180: 0000 0000 0000 0000 0000 0000 0000 0000
00000190: 0000 0000 0000 0000 0000 0000 0000 0000
000001a0: 0000 0000 0000 0000 0000 0000 0000 0000
000001b0: 0000 0000 0000 0000 0000 0000 0000 0000
000001c0: 0000 0000 0000 0000 0000 0000 0000 0000
000001d0: 0000 0000 0000 0000 0000 0000 0000 0000
000001e0: 0000 0000 0000 0000 0000 0000 0000 0000
000001f0: 0000 0000 0000 0000 0000 0000 0000 0000
00000200: 0000 0000 0000 0000 0000 0000 0000 0000
00000210: 0000 0000 0000 0000 0000 0000 0000 0000
00000220: 0000 0000 0000 0000 0000 0000 0000 0000
00000230: 0000 0000 0000 0000 0000 0000 0000 0000
00000240: 0000 0000 0000 0000 0000 0000 0000 0000
00000250: 0000 0000 0000 0000 0000 0000 0000 0000
00000260: 0000 0000 0000 0000 0000 0000 0000 0000
00000270: 0000 0000 0000 0000 0000 0000 0000 0000
00000280: 0000 0000 0000 0000 0000 0000 0000 0000
00000290: 0000 0000 0000 0000 0000 0000 0000 0000
000002a0: 0000 0000 0000 0000 0000 0000 0000 0000
000002b0: 0000 0000 0000 0000 0000 0000 0000 0000
000002c0: 0000 0000 0000 0000 0000 0000 0000 0000
000002d0: 0000 0000 0000 0000 0000 0000 0000 0000
000002e0: 0000 0000 0000 0000 0000 0000 0000 0000
000002f0: 0000 0000 0000 0000 0000 0000 0000 0000
00000300: 0000 0000 0000 0000 0000 0000 0000 0000
00000310: 0000 0000 0000 0000 0000 0000 0000 0000
00000320: 0000 0000 0000 0000 0000 0000 0000 0000
00000330: 0000 0000 0000 0000 0000 0000 0000 0000
00000340: 0000 0000 0000 0000 0000 0000 0000 0000
00000350: 0000 0000 0000 0000 0000 0000 0000 0000
00000360: 0000 0000 0000 0000 0000 0000 0000 0000
00000370: 0000 0000 0000 0000 0000 0000 0000 0000
00000380: 0000 0000 0000 0000 0000 0000 0000 0000
00000390: 0000 0000 0000 0000 0000 0000 0000 0000
000003a0: 0000 0000 0000 0000 0000 0000 0000 0000
000003b0: 0000 0000 0000 0000 0000 0000 0000 0000
000003c0: 0000 0000 0000 0000 0000 0000 0000 0000
000003d0: 0000 0000 0000 0000 0000 0000 0000 0000
000003e0: 0000 0000 0000 0000 0000 0000 0000 0000
000003f0: 0000 0000 0000 0000 0000 0000 0000 0000
0.0 0.0 0.0 0.0 0.0 0.0 0.0 0.0
0.0 0.0 0.0 0.0 0.0 0.0 0.0 0.0
0.0 0.0 0.0 0.0 0.0 0.0 0.0 0.0
0.0 0.0 0.0 0.0 0.0 0.0 0.0 0.0
0.0 0.0 0.0 0.0 0.0 0.0 0.0 0.0
0.0 0.0 0.0 0.0 0.0 0.0 0.0 0.0
0.0 0.0 0.0 0.0 0.0 0.0 0.0 0.0
0.0 0.0 0.0 0.0 0.0 0.0 0.0 0.0
0.0 0.0 0.0 0.0 0.0 0.0 0.0 0.0
0.0 0.0 0.0 0.0 0.0 0.0 0.0 0.0
0.0 0.0 0.0 0.0 0.0 0.0 0.0 0.0
0.0 0.0 0.0 0.0 0.0 0.0 0.0 0.0
0.0 0.0 0.0 0.0 0.0 0.0 0.0 0.0
0.0 0.0 0.0 0.0 0.0 0.0 0.0 0.0
0.0 0.0 0.0 0.0 0.0 0.0 0.0 0.0
0.0 0.0 0.0 0.0 0.0 0.0 0.0 0.0
0.0 0.0 0.0 0.0 0.0 0.0 0.0 0.0
0.0 0.0 0.0 0.0 0.0 0.0 0.0 0.0
0.0 0.0 0.0 0.0 0.0 0.0 0.0 0.0
0.0 0.0 0.0 0.0 0.0 0.0 0.0 0.0
0.0 0.0 0.0 0.0 0.0 0.0 0.0 0.0
0.0 0.0 0.0 0.0 0.0 0.0 0.0 0.0
0.0 0.0 0.0 0.0 0.0 0.0 0.0 0.0
0.0 0.0 0.0 0.0 0.0 0.0 0.0 0.0
0.0 0.0 0.0 0.0 0.0 0.0 0.0 0.0
0.0 0.0 0.0 0.0 0.0 0.0 0.0 0.0
0.0 0.0 0.0 0.0 0.0 0.0 0.0 0.0
0.0 0.0 0.0 0.0 0.0 0.0 0.0 0.0
0.0 0.0 0.0 0.0 0.0 0.0 0.0 0.0
0.0 0.0 0.0 0.0 0.0 0.0 0.0 0.0
0.0 0.0 0.0 0.0 0.0 0.0 0.0 0.0
0.0 0.0 0.0 0.0 0.0 0.0 0.0 0.0

weight f4 [8, 300]
00000000: 708c 1cbc 3c28 aabc 4080 ba3b 3835 a33c
00000010: 1edd 62bd c09f d4bd 0b88 023e f8c1 4c3d
00000020: 3c16 14bd 8a80 e63d a08c 0dbc de56 ba3d
00000030: d0af 5e3c 7660 af3d 28b4 613d 60e3 543d
00000040: b6e2 efbd 782c 583d 50cd 9bbd 40bb a5bb
00000050: 89ac b6bd 3070 b1bd d0cc 40bd 2416 15bd
00000060: 4eca b13d 80cf 363c ca65 0cbd ec0f cb3d
00000070: 5d25 c6bd be57 04bd f2e2 e73d b81d bcbc
00000080: 0e6c cc3d dc45 9ebc 1de6 9ebd 3044 f0bc
00000090: 6015 89bd 74ae 303d a05a 7a3d b5ca 02be
000000a0: ebe8 95bd 0f09 04be 174c 0b3e 7e73 a23d
000000b0: d63a b53d 445d 313d 3e80 f23d 98ab e8bc
000000c0: 001c 57bb 4ead f03d 96ba 16bd 0b50 9dbd
000000d0: 545f 38bd 121a 933d a084 c2bc 65a4 82bd
000000e0: 2cb1 40bd 4eb1 05be 8aaf 29bd c06e 0abc
000000f0: 307d 303c 3460 293d 0f46 0e3e efe6 043e
00000100: e0b3 7b3c 4000 003b 1cea a13d fad1 c5bd
00000110: c007 f63c 7a30 ab3d a452 e8bd 835d 95bd
00000120: 108b ddbc 3192 8ebd a61b aa3d 4b1e 0dbe
00000130: 1887 c43d c7a5 fcbd 30a8 d9bd 245d d0bc
00000140: 0a85 f43d e0eb 9a3d b0b3 533d 401b 643b
00000150: 75b8 b8bd e4e8 033d 6099 a43c f416 00bd
00000160: 6463 78bd e48d 663d dc65 683d 7af2 cb3d
00000170: df26 0e3e a881 e33c 6c3b acbd 7fbc d2bd
00000180: 5083 8c3d e648 e3bd 53d5 053e 3a58 fb3d
00000190: d835 f7bd 06bf 9b3d 7890 283d 001c df39
000001a0: 0088 c838 a88a 8f3d 4e69 39bd 2c1e b9bc
000001b0: d3d4 013e 6085 263c 0c9b 233d 58eb 833c
000001c0: 26fe e5bd 024f b83d ec98 5a3d e0f6 c7bc
000001d0: 0439 5cbd 9046 a2bd a4fd 1dbd c8e0 8dbc
000001e0: c400 8dbc cc0c 533d 7c44 b2bc 50f3 a73c
000001f0: 403c a73b 4011 ac3c 5629 fcbd 707f 7cbd
00000200: a80f b73c ec18 203d 944f d5bd 6874 8f3c
00000210: cb9b 063e cae6 f23d 283f 903c 8de0 0e3e
00000220: d403 813d 8472 75bd e452 53bd 2fb8 0dbe
00000230: 7c11 35bd a8a5 1a3d 34d7 b8bd 9060 2d3c
00000240: 445e cbbc d457 03be 0430 cdbc 48c5 6f3d
00000250: 46e2 e53d 642e 88bd a0ff 9b3d 1a6e fabd
00000260: 65f1 e5bd 466c d4bd dcf4 d83d 40f6 a4bc
00000270: 94ae 273d 0007 f53c 88f0 743d d05b f23c
00000280: 321f d8bd 8882 9d3d a895 023d 4863 873c
00000290: 3721 94bd 202b 533c 0090 82bb 9f01 0b3e
000002a0: 851e 0abe 2465 133d 1a3b 03bd 00d9 173a
000002b0: 7cb1 e4bd ee97 d2bd 0097 fdbd b8fc 93bc
000002c0: 38c4 033d e0b8 c13c 2f7d 8abd 0070 b9bc
000002d0: f848 08bd 88ae cabd 509b e93c 0489 003d
000002e0: f160 00be 0e56 ae3d 1908 ddbd 4862 a53c
000002f0: 90a4 c1bd d064 55bc 2614 b3bd 5874 f03c
00000300: d43f 3f3d be70 9c3d cc7d a1bc 30d2 483c
00000310: bc46 63bd b2a2 cf3d a377 82bd 2856 19bd
00000320: 5e7f fa3d 3ce0 d6bc 7cea 4ebd 5fff f4bd
00000330: a1a7 043e a0e9 793c 1094 3f3c 5c8a bbbd
00000340: 4873 03be def3 c6bd 0c7e 903d 30ec 09bc
00000350: 54f2 98bd 2813 233d faee ff3d f0c1 29bc
00000360: bcc5 a0bd ce5a 933d f079 033d ac3d 533d
00000370: 7257 853d 5994 a8bd 2f38 8dbd d6ac 65bd
00000380: 5066 8ebc 2853 df3c a706 0bbe b00d 2dbc
00000390: 3af9 f3bd 3c29 c23d cb11 f4bd d45d 893d
000003a0: 908f 3c3c 8068 3dbc 781c 8f3c 6eb0 c7bd
000003b0: 0095 7eba 12d9 bf3d 1e59 eabd 7097 8cbd
000003c0: e07e 553d cc0b d0bc e035 c43b 453a 96bd
000003d0: 1efe ae3d c04b 4fbd 8cd0 013d 4f9e c5bd
000003e0: 80dc 053c 0094 e7ba 8213 823d c0e4 2a3c
000003f0: 6847 623d 79b6 0ebe 6601 bd3d 9a5a c13d
-0.009554967 -0.020771138 0.005691558 0.019922838 -0.055386655 -0.103820324 0.12747209 0.04998967
-0.036154017 0.11254986 -0.008639485 0.090986 0.013591722 0.0856332 0.05510345 0.051974654
-0.117131636 0.052776784 -0.076075196 -0.0050577223 -0.08919627 -0.08663976 -0.047070324 -0.036398068
0.08681165 0.01115787 -0.03427676 0.09915146 -0.09675095 -0.03231024 0.11322583 -0.02296339
0.09981547 -0.01932042 -0.077587344 -0.02932939 -0.0669353 0.04313512 0.061121583 -0.12772639
-0.07319816 -0.1289408 0.13603245 0.07932185 0.08849113 0.043301836 0.118408665 -0.028402135
-0.0032823086 0.11751805 -0.036799036 -0.076812826 -0.045012787 0.07182707 -0.023744881 -0.06379012
-0.047043964 -0.13055918 -0.041427173 -0.008449256 0.0107720345 0.041351512 0.13893913 0.12978719
0.01536271 0.00195314 0.07905981 -0.096591905 0.030032992 0.083588555 -0.113438874 -0.072932266
-0.02704385 -0.069614775 0.08306055 -0.13781087 0.095960796 -0.12336307 -0.10627782 -0.025435038
0.11939438 0.07564521 0.051685035 0.0034806281 -0.090195574 0.032204524 0.020092666 -0.03127189
-0.06064166 0.05628766 0.056737766 0.09958358 0.13882016 0.027771786 -0.08409771 -0.10289859
0.06860983 -0.11097889 0.13069658 0.12272687 -0.12070817 0.07604794 0.0411534 0.00042554736
9.562075e-05 0.070088685 -0.045266442 -0.022597395 0.12678842 0.010163635 0.039942786 0.016103432
-0.112301156 0.089994445 0.053368494 -0.024409711 -0.05376531 -0.07923615 -0.03857197 -0.017319098
-0.01721228 0.051525876 -0.021761172 0.020501763 0.005103618 0.02100432 -0.12312572 -0.06164497
0.022346333 0.039086267 -0.10415569 0.017511562 0.13145368 0.11860426 0.01760824 0.13952847
0.06299558 -0.059923664 -0.051592723 -0.13839792 -0.044206128 0.03775564 -0.09025422 0.010582104
-0.024825223 -0.12826473 -0.02504731 0.05853775 0.11224799 -0.06649473 0.07617116 -0.122280315
-0.11227683 -0.10372214 0.10593578 -0.020136952 0.040937975 0.029910564 0.0597997 0.029584795
-0.10552825 0.076909125 0.031881005 0.016526833 -0.07232898 0.0128887 -0.0039844513 0.13574837
-0.13488205 0.035985127 -0.032038786 0.00057925284 -0.11166665 -0.102828845 -0.123823166 -0.018064842
0.03216955 0.023647726 -0.06762158 -0.022636414 -0.033272713 -0.098965704 0.028516442 0.03138067
-0.1253698 0.085125074 -0.1079256 0.020188466 -0.09455216 -0.013024524 -0.087440774 0.029352352
0.04669173 0.07638691 -0.019713305 0.012257144 -0.05548738 0.101384535 -0.06370475 -0.03743568
0.122313246 -0.02622997 -0.05051659 -0.11962771 0.1295457 0.015253454 0.011693016 -0.09157249
-0.12836945 -0.09714483 0.070552915 -0.008418128 -0.074680954 0.03981319 0.12496753 -0.01036118
-0.07850215 0.07195054 0.03209871 0.051572487 0.065108195 -0.0823142 -0.06895482 -0.056073032
-0.01738277 0.027261332 -0.13576756 -0.010562345 -0.119127706 0.09480521 -0.11917456 0.067073494
0.011508837 -0.011560559 0.01746963 -0.09750448 -0.0009711534 0.09367575 -0.11442779 -0.06864822
0.05212295 -0.02539625 0.0059878677 -0.07335333 0.08544563 -0.05060935 0.031693026 -0.096493356
0.008170247 -0.0017668009 0.06351377 0.010430515 0.05524388 -0.13936795 0.09228782 0.09441109

bias f4 [300]
00000000: 0000 0000 0000 0000 0000 0000 0000 0000
00000010: 0000 0000 0000 0000 0000 0000 0000 0000
00000020: 0000 0000 0000 0000 0000 0000 0000 0000
00000030: 0000 0000 0000 0000 0000 0000 0000 0000
00000040: 0000 0000 0000 0000 0000 0000 0000 0000
00000050: 0000 0000 0000 0000 0000 0000 0000 0000
00000060: 0000 0000 0000 0000 0000 0000 0000 0000
00000070: 0000 0000 0000 0000 0000 0000 0000 0000
00000080: 0000 0000 0000 0000 0000 0000 0000 0000
00000090: 0000 0000 0000 0000 0000 0000 0000 0000
000000a0: 0000 0000 0000 0000 0000 0000 0000 0000
000000b0: 0000 0000 0000 0000 0000 0000 0000 0000
000000c0: 0000 0000 0000 0000 0000 0000 0000 0000
000000d0: 0000 0000 0000 0000 0000 0000 0000 0000
000000e0: 0000 0000 0000 0000 0000 0000 0000 0000
000000f0: 0000 0000 0000 0000 0000 0000 0000 0000
00000100: 0000 0000 0000 0000 0000 0000 0000 0000
00000110: 0000 0000 0000 0000 0000 0000 0000 0000
00000120: 0000 0000 0000 0000 0000 0000 0000 0000
00000130: 0000 0000 0000 0000 0000 0000 0000 0000
00000140: 0000 0000 0000 0000 0000 0000 0000 0000
00000150: 0000 0000 0000 0000 0000 0000 0000 0000
00000160: 0000 0000 0000 0000 0000 0000 0000 0000
00000170: 0000 0000 0000 0000 0000 0000 0000 0000
00000180: 0000 0000 0000 0000 0000 0000 0000 0000
00000190: 0000 0000 0000 0000 0000 0000 0000 0000
000001a0: 0000 0000 0000 0000 0000 0000 0000 0000
000001b0: 0000 0000 0000 0000 0000 0000 0000 0000
000001c0: 0000 0000 0000 0000 0000 0000 0000 0000
000001d0: 0000 0000 0000 0000 0000 0000 0000 0000
000001e0: 0000 0000 0000 0000 0000 0000 0000 0000
000001f0: 0000 0000 0000 0000 0000 0000 0000 0000
00000200: 0000 0000 0000 0000 0000 0000 0000 0000
00000210: 0000 0000 0000 0000 0000 0000 0000 0000
00000220: 0000 0000 0000 0000 0000 0000 0000 0000
00000230: 0000 0000 0000 0000 0000 0000 0000 0000
00000240: 0000 0000 0000 0000 0000 0000 0000 0000
00000250: 0000 0000 0000 0000 0000 0000 0000 0000
00000260: 0000 0000 0000 0000 0000 0000 0000 0000
00000270: 0000 0000 0000 0000 0000 0000 0000 0000
00000280: 0000 0000 0000 0000 0000 0000 0000 0000
00000290: 0000 0000 0000 0000 0000 0000 0000 0000
000002a0: 0000 0000 0000 0000 0000 0000 0000 0000
000002b0: 0000 0000 0000 0000 0000 0000 0000 0000
000002c0: 0000 0000 0000 0000 0000 0000 0000 0000
000002d0: 0000 0000 0000 0000 0000 0000 0000 0000
000002e0: 0000 0000 0000 0000 0000 0000 0000 0000
000002f0: 0000 0000 0000 0000 0000 0000 0000 0000
00000300: 0000 0000 0000 0000 0000 0000 0000 0000
00000310: 0000 0000 0000 0000 0000 0000 0000 0000
00000320: 0000 0000 0000 0000 0000 0000 0000 0000
00000330: 0000 0000 0000 0000 0000 0000 0000 0000
00000340: 0000 0000 0000 0000 0000 0000 0000 0000
00000350: 0000 0000 0000 0000 0000 0000 0000 0000
00000360: 0000 0000 0000 0000 0000 0000 0000 0000
00000370: 0000 0000 0000 0000 0000 0000 0000 0000
00000380: 0000 0000 0000 0000 0000 0000 0000 0000
00000390: 0000 0000 0000 0000 0000 0000 0000 0000
000003a0: 0000 0000 0000 0000 0000 0000 0000 0000
000003b0: 0000 0000 0000 0000 0000 0000 0000 0000
000003c0: 0000 0000 0000 0000 0000 0000 0000 0000
000003d0: 0000 0000 0000 0000 0000 0000 0000 0000
000003e0: 0000 0000 0000 0000 0000 0000 0000 0000
000003f0: 0000 0000 0000 0000 0000 0000 0000 0000
0.0 0.0 0.0 0.0 0.0 0.0 0.0 0.0
0.0 0.0 0.0 0.0 0.0 0.0 0.0 0.0
0.0 0.0 0.0 0.0 0.0 0.0 0.0 0.0
0.0 0.0 0.0 0.0 0.0 0.0 0.0 0.0
0.0 0.0 0.0 0.0 0.0 0.0 0.0 0.0
0.0 0.0 0.0 0.0 0.0 0.0 0.0 0.0
0.0 0.0 0.0 0.0 0.0 0.0 0.0 0.0
0.0 0.0 0.0 0.0 0.0 0.0 0.0 0.0
0.0 0.0 0.0 0.0 0.0 0.0 0.0 0.0
0.0 0.0 0.0 0.0 0.0 0.0 0.0 0.0
0.0 0.0 0.0 0.0 0.0 0.0 0.0 0.0
0.0 0.0 0.0 0.0 0.0 0.0 0.0 0.0
0.0 0.0 0.0 0.0 0.0 0.0 0.0 0.0
0.0 0.0 0.0 0.0 0.0 0.0 0.0 0.0
0.0 0.0 0.0 0.0 0.0 0.0 0.0 0.0
0.0 0.0 0.0 0.0 0.0 0.0 0.0 0.0
0.0 0.0 0.0 0.0 0.0 0.0 0.0 0.0
0.0 0.0 0.0 0.0 0.0 0.0 0.0 0.0
0.0 0.0 0.0 0.0 0.0 0.0 0.0 0.0
0.0 0.0 0.0 0.0 0.0 0.0 0.0 0.0
0.0 0.0 0.0 0.0 0.0 0.0 0.0 0.0
0.0 0.0 0.0 0.0 0.0 0.0 0.0 0.0
0.0 0.0 0.0 0.0 0.0 0.0 0.0 0.0
0.0 0.0 0.0 0.0 0.0 0.0 0.0 0.0
0.0 0.0 0.0 0.0 0.0 0.0 0.0 0.0
0.0 0.0 0.0 0.0 0.0 0.0 0.0 0.0
0.0 0.0 0.0 0.0 0.0 0.0 0.0 0.0
0.0 0.0 0.0 0.0 0.0 0.0 0.0 0.0
0.0 0.0 0.0 0.0 0.0 0.0 0.0 0.0
0.0 0.0 0.0 0.0 0.0 0.0 0.0 0.0
0.0 0.0 0.0 0.0 0.0 0.0 0.0 0.0
0.0 0.0 0.0 0.0 0.0 0.0 0.0 0.0

weight f4 [300, 5]
00000000: bf93 66be 3fc5 9a3d 8539 593e d2bd 9fbd
00000010: bb21 4dbe 7b5c ffbd 18b1 7f3d 70f3 533c
00000020: 5e2d e93d 6485 bbbd 2860 663d 2236 eabd
00000030: c0ec 693c 0539 053e 7ac4 eebd 5ad9 80be
00000040: 84f5 b3b9 86a6 5f3e ae7c 19be 2b02 74be
00000050: b6da acbd 16e0 f93d fc97 b23d 3081 9cbc
00000060: 4edf ea3d 7177 12bc 5471 ff3d 4d78 843e
00000070: 498c 08be 472c c9bd 4ba0 32be 7a9b 2e3c
00000080: 7417 e93d 279d 0abe e83a 79be 8028 41bd
00000090: 9808 263d 3bc7 0c3e ecf6 2bbc 292b 6dbe
000000a0: 1588 903c aa9d d13d 5a4c 543d dc76 33be
000000b0: 0342 47bd f1d6 91bc 37c5 bbbc c5e0 343e
000000c0: 56b3 abbc c9a8 5ebe 756f 043e c618 bcbd
000000d0: b618 093e e4cd 01bc c555 5fbd bf3d 5fbe
000000e0: 73af 14be c4db 833e 76d2 3b3d 7f9a a0be
000000f0: 04c4 623d be65 b13d 2723 05be 3a95 f03d
00000100: 7612 fb3d 1094 4fbe a73d 9b3d 9762 22bd
00000110: 533f 053c 5b36 81bd fdea 25be f093 08bd
00000120: 59cd a63d ab4d 5c3d f3b6 87be 0ddf ebbd
00000130: 3bc8 573d 145c d23d b0e4 6abb 7914 0abe
00000140: 9c01 bbbd ea0e 72bd f005 e8bd 0060 dcb8
00000150: a8f8 3bbd 6b33 0b3e f3fb 0dbe 5c03 aabd
00000160: e0ca c63b 2a3e b13d 482d 69be 0987 793d
00000170: 0090 243e 16fe df3d 57dc f4bd e0f2 103d
00000180: 0801 b1bd d4a2 a9bd 36b6 f03d 0132 073e
00000190: 2173 98bd 4f5b 843d 1475 6e3e ca4e c23c
000001a0: d678 14bd 1e2f 3ebc a08a 0c3e e404 afbb
000001b0: fdc2 a93d bd38 dcbd 8e43 32bd 6ea4 3a3e
000001c0: 4e0a 163e 178b 07be 57cd 29be a477 b9bd
000001d0: 9514 3d3e 20f4 393c 9f3f 4cbe c5a8 08be
000001e0: 09b7 46bb 1b91 a03d 7798 743e b4c5 343d
000001f0: cd6f 08bd 0b72 18be c37f 063e 5dd0 413e
00000200: 735b 21bd 7f8a 1ebe e4e4 3dbd 45de 2b3d
00000210: 8f81 333e 1d6e 38be fbb7 f0bc 0097 efbd
00000220: cdbb 8f3d bc96 9fbc b0c1 d3bd f3e2 d5bd
00000230: 8f0a 2bbe cf62 92bb 91c6 c53d 2c4a 9d3d
00000240: 38d9 053d 6b2b ddbd bd25 af3d 6688 1f3e
00000250: 2dab 18be a46a 83bc 743c 0cbe 29a4 b53d
00000260: 2a60 acbd 4157 5cbe a601 53bd e465 ffbc
00000270: 3caf c23d 3f7e 01bd e387 45be 0698 50bd
00000280: 10d7 aebd 31d6 083e e84a 3b3d b6b9 c4bc
00000290: 0324 cf3b 971d 37be cfdf 793d b711 a83d
000002a0: 78af a3bd 031a d2bd 39db 3f3d e7fe 843c
000002b0: 90d8 da3b 09a0 3dbd c712 5c3d 9f8e ddbd
000002c0: 5bd2 323e 9542 dabb de72 143c 0431 293b
000002d0: d75f 13be aa82 5ebd 2bb9 393e b55d 6cbc
000002e0: 4e0a 63be 50f9 01bd cd60 223e 9296 9abc
000002f0: 8e8a 173d 1065 563c 60f9 a2be f963 75be
00000300: 3370 bf3e 248e 483e 3f66 dbbe 6a70 26be
00000310: 6f37 2bbc 12e9 303e f48e 053d 82d3 55be
00000320: 8780 1b3c b41e 9b3b bfd1 e4bc f4dc 443d
00000330: ba4d 13bd 496a 4cbe 7fc9 1c3e 32aa 333e
00000340: 4b16 c0bd ea65 90bd cec4 b03d c62b 3abd
00000350: f957 243d 29f0 dd3d c3ff 483d c459 02bd
00000360: 8777 633d d19c 8f3d 58df 1c3b 294f a5bd
00000370: 673d 0bbc d061 463e 4ae9 193e dca4 a1bd
00000380: cae2 50be eb8a 043e 0030 75bd d85d a4bd
00000390: 5110 4e3d 6771 093c efae e6bd 0056 16bd
000003a0: 0fe9 a53e 84c9 4c3d 1aa0 61be 2b8a e6bd
000003b0: c400 0abd 263b 523e db11 f9bb 9492 f7bd
000003c0: 766f 59be 1f4a 033d 12eb 0e3e ca02 e63c
000003d0: 35e8 48be f01f 4dbd 3ab6 93bd 6227 c13d
000003e0: 812c 0c3d c3b4 a0bd 67a7 32be c634 62bb
000003f0: 4cc7 363e 3d4e 4bbc 82e3 e0bd 5872 cc3d
-0.22517298 0.07557153 0.21213348 -0.07799877 -0.20032398 -0.12468811 0.06242475 0.012936458
0.11385606 -0.091563016 0.056244045 -0.11436106 0.014277637 0.13010032 -0.11658569 -0.25165826
-0.00034324464 0.21840867 -0.14988968 -0.23828952 -0.08440153 0.12200944 0.08720395 -0.01910457
0.11468373 -0.00893961 0.124727875 0.25873032 -0.13334765 -0.09822898 -0.1744396 0.010657186
0.113814265 -0.13536511 -0.24338877 -0.047157764 0.04053554 0.13747875 -0.0104958825 -0.23160996
0.017643014 0.1023515 0.051830627 -0.1752581 -0.048646938 -0.017802687 -0.022921188 0.17663868
-0.020959537 -0.21744074 0.12933142 -0.09184413 0.13388333 -0.007922623 -0.054525156 -0.21800898
-0.14520054 0.25753605 0.045855008 -0.3136787 0.055362716 0.08661984 -0.13001691 0.11747213
0.122593805 -0.20271325 0.075801186 -0.039644804 0.008132773 -0.063091956 -0.16202922 -0.03334421
0.08144636 0.053785007 -0.26506767 -0.11517153 0.05268119 0.10271469 -0.0035841875 -0.13484372
-0.09131166 -0.059096254 -0.113292575 -0.00010508299 -0.045891434 0.13593833 -0.13865642 -0.08301422
0.006066665 0.08654435 -0.2277118 0.060919795 0.16070557 0.10937135 -0.11956089 0.035387874
-0.08642775 -0.0828301 0.11753504 0.13202669 -0.07443834 0.06462728 0.2328685 0.02371921
-0.03624805 -0.011607913 0.13724756 -0.005341159 0.08289144 -0.107530095 -0.043521456 0.18226787
0.14652368 -0.13236652 -0.16582237 -0.09056023 0.18464883 0.011349708 -0.19946145 -0.1334563
-0.00303215 0.07840177 0.23886286 0.044133857 -0.033309747 -0.14887254 0.13134675 0.1892714
-0.039393853 -0.1548252 -0.046360865 0.04196002 0.17529891 -0.18010755 -0.029384604 -0.11698723
0.07018242 -0.019481055 -0.10339677 -0.10443678 -0.16703247 -0.0044673453 0.09657014 0.07680163
0.03267786 -0.10799297 0.0855212 0.15579376 -0.14909048 -0.016042061 -0.13694936 0.08869202
-0.08416779 -0.2151766 -0.051515244 -0.031176515 0.095060796 -0.03161454 -0.19290118 -0.05092623
-0.08537114 0.13362958 0.045725733 -0.024014335 0.0063214316 -0.17882381 0.061004456 0.08206504
-0.079924524 -0.102588676 0.046839926 0.016234828 0.0066786483 -0.0462952 0.053728845 -0.108182184
0.17463057 -0.006660769 0.00906059 0.002581657 -0.14392029 -0.05432383 0.18137042 -0.014426638
-0.221719 -0.031731904 0.15857239 -0.018870626 0.03699737 0.013085619 -0.31830883 -0.23963918
0.3739029 0.19585472 -0.42851445 -0.1625382 -0.010450228 0.1727641 0.032607034 -0.20881465
0.0094910925 0.0047338847 -0.027932046 0.04806228 -0.035962798 -0.1996242 0.1531124 0.17545393
-0.09379252 -0.070506886 0.086312875 -0.0454519 0.04012296 0.108368225 0.04907204 -0.03182389
0.055533912 0.07012332 0.0023936834 -0.08071739 -0.008498526 0.1937325 0.15030399 -0.078927726
-0.20399013 0.12943618 -0.05986023 -0.08025712 0.05030853 0.008388854 -0.11263835 -0.03670311
0.32404372 0.049996868 -0.2203373 -0.11256822 -0.033692136 0.20530376 -0.0076010055 -0.120885044
-0.21233925 0.03205311 0.1395686 0.028077502 -0.1961983 -0.050079286 -0.07212491 0.0943134
0.03422213 -0.078469776 -0.17446671 -0.0034516319 0.17849463 -0.01240879 -0.10980894 0.09982747

bias f4 [5]
00000000: 7eb8 b8bd 8d11 cb3d 032e c53d 929e e4bd
00000010: 68c1 bdbd
-0.09019564 0.09915457 0.09627917 -0.111630574 -0.09265405

weight f4 [300, 5]
00000000: bd8d a23d 0210 ce3d e947 ecbd b07e 2dbe
00000010: 9725 0dbc 30e6 d83d 9816 b9bc c0e4 6d3b
00000020: 5262 e33d 8012 17bb f7b3 aebd 6e97 3dbd
00000030: 429a a63d a03f 8cbb 2c5a ba3d 857f 483e
00000040: a8dc 203e 4176 33bd 3438 ad3b e10b 173e
00000050: aea9 18bd 482e 823c 4827 dc3c 425b d63d
00000060: c0bc 70bb a00a 8c3e 9743 ac3e 7a8a 143d
00000070: 6c27 debc 7476 8e3e 553e 433d 47c9 74bd
00000080: b041 91bd 891b 1abe 16bc 973d 5e38 213e
00000090: e57a 9f3d 0e89 c43c 053f 19be dc97 573e
000000a0: e283 0e3d a5e1 2e3e 2634 7abd 8379 72be
000000b0: ee08 203e f463 173d 3acb 5c3e 2e92 cb3d
000000c0: 10c0 453d 50a2 703e 7756 d2bb 8b56 ecbd
000000d0: 5a1d 4c3d eaca bebd 0917 41bd e479 3a3e
000000e0: 501f 6a3e 2c0c 0f3e 81bb 71be 89a4 483e
000000f0: f834 1c3d 1edb 67bd ecf0 aebd e8d7 80bd
00000100: 0804 c93c bf57 323e 6cf1 8fbd e16e 4dbe
00000110: 467b ddbd 1a01 7b3d 52d0 043e 1995 803e
00000120: 7b53 503e f0fd 433d 099b ad3e e5f4 973e
00000130: 20d8 cf3d db31 583c 7bbd c1bd 6df3 5b3e
00000140: 44a1 1b3d f88f 6f3d 4359 0c3e d0e1 8d3c
00000150: a844 ba3c 2bd2 013e cea8 5dbd 7a35 c23d
00000160: d4ee ebbc 645b 8fbc 4c46 1b3e 0353 473e
00000170: d118 53bd 250a 9ebd 8ae8 f43d 20f4 1b3c
00000180: 28a4 c9bd 6c94 583d 504c 433c 0676 e93d
00000190: ae28 373e 2df0 e63d 2ca4 0c3e 77c2 25be
000001a0: e370 443e 8f32 063e c344 1a3e e6cd 323e
000001b0: 53e5 39be 891d 093e 0abe 1f3e 2b23 493e
000001c0: 1703 013b e856 d3bd 593f 8e3d fa77 943d
000001d0: 7453 f8bd ddc6 76be 1b6b 26be 9efe cc3d
000001e0: 90d1 293e a0df e3bd 3a68 9ebe 2aee acbe
000001f0: d114 6f3e cddd 0a3e d309 0b3e 9f9c 153d
00000200: a58a 123d 8793 493e c7ae 8e3d 2016 f53c
00000210: 262d 86be 2230 87be 5631 8c3d 9892 f1ba
00000220: 7984 323e fcdb 8dbe 7507 7bbe 81af 273e
00000230: 7675 d7bc 4112 d1bd 32e2 873d b1f0 cebc
00000240: c3dd ee3d 6d9b 663e f2f7 643e 9523 263e
00000250: 31c2 933d ca9b ba3d 3ba1 3bbe d5c2 7dbe
00000260: 76c4 76be 6704 8cbe 3d36 3c3e c083 313d
00000270: f3bc a1bd 598a 9abc 102b 43be 306e 073e
00000280: 84df 343e d1b3 b2bd cd5c 86bd b28f 4abe
00000290: 6d54 e83d 350c 273a 4e28 143e 97ef d3bd
000002a0: 4cf0 f43c ea7e 583e 2c41 cfbd 447e 11bd
000002b0: 9978 dbbc 4fce 6b3d f5b5 77bd d7a4 ecbc
000002c0: 224d b7ba 1893 84bd 7fc2 a6be 36d7 183e
000002d0: 4c82 443e 4787 6dbc c4d9 e8bd 3312 27bd
000002e0: f4bc 2dbb f103 0d3e b32d 28bd f34e 73bd
000002f0: 1c40 04be e536 363e a7be 853e 0843 d43e
00000300: 0db8 b43e ac0e 693d 4c19 673e c3f9 103e
00000310: 79bb ed3d 6a42 12be 7914 bdbd 4b2d d93d
00000320: 4f87 313e d439 a2bd 5f2f 83be 16f6 85bd
00000330: f83a 2a3e c2f6 b1bc 4b44 c93d c1d1 8f3e
00000340: c98f 50be 6e57 703e bac5 13be 173c 663d
00000350: 3b01 62be 574c 98bd 9535 49bd b81d 4f3d
00000360: 3164 893e 5df7 4e3e 666b aebd 4498 3b3e
00000370: 3e91 82bd c429 063d 0386 56be e15e 6bbe
00000380: c1cc 5c3e ba82 ddbd d788 943d e0ce 48bd
00000390: 0c07 b7bc 4f86 c43d 1321 393d 02bd 973d
000003a0: 1c84 18be 4cb1 89be 3d60 193e 3463 a0bd
000003b0: fc09 94bd 02b8 88be fce2 40bd cde0 123e
000003c0: 0624 98bb af47 713e 45de 623e d4a6 f1bd
000003d0: e2c9 c13d bf35 f4bd 7b33 42bd 1ece 2dbd
000003e0: 0811 1e3d 1fd2 febd 8eff 8a3c a529 053e
000003f0: 4192 6bbe 784c d1bd 7eb3 743e ef38 19bd
0.07937191 0.10061647 -0.11537153 -0.16942859 -0.008614919 0.1059078 -0.022593781 0.0036299676
0.111027375 -0.0023051798 -0.08530419 -0.046286993 0.08134891 -0.0042800456 0.0909923 0.19579895
0.15709174 -0.043813948 0.005286241 0.14750625 -0.037271194 0.01589121 0.0268742 0.10466625
-0.0036733598 0.27351856 0.33645317 0.036264874 -0.027118407 0.27824748 0.047666866 -0.059762266
-0.07092607 -0.15049566 0.074089214 0.15744159 0.07787112 0.023991134 -0.14965446 0.21054024
0.034793742 0.17078264 -0.06108489 -0.23679166 0.15628406 0.036960557 0.215619 0.09939991
0.04827887 0.23499417 -0.006418999 -0.11539944 0.04983268 -0.093160465 -0.04714111 0.1821056
0.22863507 0.13969487 -0.23606683 0.19594015 0.038136452 -0.05660545 -0.08542046 -0.06291181
0.024538055 0.17416285 -0.070284694 -0.20061828 -0.10814528 0.061280347 0.12970093 0.25113752
0.20344345 0.047849596 0.33907345 0.29679027 0.101486444 0.01319548 -0.09459969 0.21479578
0.03799559 0.05848691 0.13705926 0.01731959 0.022737816 0.12677829 -0.054116063 0.09482856
-0.028800406 -0.017499633 0.15163535 0.1946526 -0.05153734 -0.07716779 0.11958416 0.009518653
-0.098457634 0.05287592 0.01192005 0.11399464 0.17886612 0.11276279 0.13734502 -0.16187464
0.19183688 0.13105224 0.15065293 0.17461357 -0.18153886 0.13390173 0.15599838 0.19642322
0.001968568 -0.103193104 0.06945676 0.07249446 -0.121252924 -0.24099298 -0.16251795 0.10009502
0.16583848 -0.111266375 -0.30938894 -0.33775455 0.23347785 0.13561173 0.13577966 0.03652632
0.035776753 0.19685183 0.0696693 0.029917777 -0.2620632 -0.2640391 0.068453476 -0.0018430529
0.17433347 -0.27706897 -0.24514563 0.16375543 -0.026301127 -0.1020856 0.0663494 -0.025261255
0.116633914 0.22520228 0.22360209 0.16224511 0.072147734 0.09111746 -0.18323223 -0.24781354
-0.24098381 -0.2734711 0.18380065 0.043338537 -0.07897367 -0.018864797 -0.19059396 0.13225627
0.1766339 -0.087257035 -0.06560669 -0.19781378 0.11344228 0.00063723634 0.144685 -0.103484325
0.029899739 0.21142164 -0.101198524 -0.035520807 -0.026790904 0.057569798 -0.060476262 -0.028887196
-0.0013984779 -0.064733684 -0.32570264 0.14925846 0.1919033 -0.014497585 -0.113696605 -0.04078884
-0.002651033 0.13771035 -0.041059207 -0.059401464 -0.12915081 0.17794378 0.2612202 0.4145739
0.3529667 0.056898758 0.22568244 0.14157777 0.11608023 -0.14283147 -0.092324205 0.10604342
0.17336772 -0.07921186 -0.2562208 -0.06541078 0.16624057 -0.021724109 0.09827479 0.28089717
-0.2036735 0.23470852 -0.14430895 0.05620965 -0.22070782 -0.07436436 -0.049123365 0.05056545
0.26834252 0.20211549 -0.085165784 0.18319803 -0.06375359 0.032754675 -0.20949559 -0.22985412
0.21562482 -0.1081595 0.07252663 -0.049025416 -0.022342227 0.0959593 0.045197558 0.07409097
-0.14894146 -0.2689308 0.14978118 -0.078314215 -0.07228467 -0.26702887 -0.04709147 0.14343567
-0.004642966 0.23562501 0.22155102 -0.11799398 0.09462334 -0.11924314 -0.047412377 -0.042432897
0.03859046 -0.12442421 0.016967561 0.13004167 -0.2300501 -0.102196634 0.23896596 -0.03740781

bias f4 [5]
00000000: 416a a1be d9f6 edbd b322 e2bd 70c2 5fbe
00000010: 5d95 f93d
-0.31526378 -0.11619348 -0.110417746 -0.21851516 0.12186692
