Models/GNNs/Models_20_7_Datasets-improved-Gini/Models_20_7_Wordpress-improved-Gini/model_RGCN_1000_samples_1000_epochs_256_batchsize.pth (torch, 60000 bytes, 14 tensors)

weight f4 [8, 300]
-0.1832886 -0.13624465 0.11539299 -0.053841904 0.14418833 -0.020821696 -0.08678977 -0.05891773
0.07397186 0.14412798 0.039443642 -0.10025981 -0.06385738 0.032335535 -0.12304893 0.023177594
0.22870779 0.15841292 -0.04089549 -0.09736206 -0.12608415 0.0063087763 -0.060753107 0.2668037
-0.054388084 -0.048458323 0.006262082 -0.14700478 0.12231127 0.098756224 -0.1317295 -0.058289118
-0.010707632 -0.13465963 -0.09861663 -0.11716465 -0.05482386 -0.12776344 -0.06967864 0.14181887
0.06980921 0.067396775 0.05875685 -0.028570194 -0.10421907 0.062146463 -0.13110183 0.04875324
-0.1096551 0.18592125 -0.11097515 -0.11806434 -0.128457 -0.07696681 0.0754686 -0.07299275
0.058870897 0.03240248 -0.12376776 0.041932076 0.04580021 -0.0028111858 -0.048765987 0.12190427
-0.042096853 -0.024014499 0.086034626 -0.08992157 0.20357257 -0.16476418 -0.037639953 0.009558625
0.05523303 -0.13262431 -0.0016670823 -0.071210995 -0.0029330403 -0.07314022 -0.19401239 -0.05677928
0.049099673 -0.017072167 -0.13217475 0.17014378 -0.13607422 0.012585297 -0.075599745 0.028111737
-0.13950722 0.073161624 0.0011677773 0.082815975 -0.11519392 0.02654782 0.048357423 0.15263502
0.08013215 -0.03799974 0.01470182 -0.058265574 -0.03995325 0.028712846 -0.05245792 0.01880285
-0.021956429 0.0020557772 0.15382266 -0.12070497 0.17642772 -0.12252221 -0.13791533 -0.065568276
-0.04659032 -0.012592601 -0.20252095 0.1507077 0.058632568 -0.10526244 0.054842815 -0.09143052
-0.21184222 0.13505499 -0.014777772 -0.19110787 -0.060222216 0.038885433 0.045412354 -0.060172692
-0.14467621 0.05920378 -0.02639404 -0.06657385 -0.022019664 -0.05798114 -0.09534789 -0.0776911
-0.032758676 0.122785285 0.12991995 0.061045267 0.07576471 0.0105827935 0.139082 -0.08814521
-0.102449 0.02970315 -0.15553625 -0.024351554 -0.086779885 0.0535734 0.09368889 0.09295446
-0.05925908 -0.09206127 -0.13117309 -0.035600346 0.002918303 -0.08779397 -0.12222913 -0.037801657
-0.020593133 0.112100765 0.10917827 0.057170793 0.05745647 -0.1164583 -0.08996788 -0.031244084
-0.042735107 -0.037304536 0.13785164 -0.05257925 -0.43685243 0.031935323 -0.025631718 0.03669779
-0.12599279 0.032728106 -0.13189894 -0.088068746 0.038617574 -0.052415144 -0.0018085347 -0.10101369
-0.11322106 -0.060754955 -0.109957844 0.10961971 -0.10322382 0.16149263 -0.018521003 0.05441943
0.30028218 0.10064043 0.13896897 -0.001384202 0.05247179 0.0462541 0.114994146 0.02854003
0.013666198 -0.10210908 0.07868747 0.11053477 0.19618216 -0.0041638925 0.18784745 0.14269693
-0.13821338 0.038698655 0.0037797308 -0.10956849 -0.019003658 -0.13373686 -0.35559943 -0.0673274
0.01115188 0.35519162 -0.23386095 0.0066337553 -0.17816101 0.122520044 -0.29180065 0.1123465
0.0071931 0.07088962 0.09588717 0.24789864 -0.06512571 -0.02291207 0.045515817 -0.15446393
-0.011037073 0.07006879 0.11449342 -0.033243064 0.13462746 -0.07691812 -0.0128101725 -0.016185354
0.1154825 -0.09706422 -0.056376502 0.10133729 0.10787761 -0.026329413 0.08746797 -0.025313642
0.07350488 0.09865492 -0.046392195 -0.24578087 0.18675433 0.024948914 -0.019681467 -0.12659018
00000000: 02b0 3bbe b883 0bbe 2953 ec3d 5489 5cbd
00000010: 1ba6 133e 4392 aabc d6be b1bd b853 71bd
00000020: 8f7e 973d 4996 133e a88f 213d 0455 cdbd
00000030: a8c7 82bd 4472 043d 1401 fcbd f0de bd3c
00000040: 6032 6a3e ff36 223e 0882 27bd c265 c7bd
00000050: 341c 01be dab9 ce3b 40d8 78bd 7f9a 883e
00000060: 0ac6 5ebd 3c7c 46bd 2732 cd3b 6c88 16be
00000070: 557e fa3d b440 ca3d 19e4 06be 92c0 6ebd
00000080: 106f 2fbc 37e4 09be 84f7 c9bd 05f4 efbd
00000090: fc8e 60bd 6bd4 02be adb3 8ebd f738 113e
000000a0: 22f8 8e3d 5207 8a3d 06ab 703d 0a0c eabc
000000b0: cf70 d5bd 4a8d 7e3d 8f3f 06be 7ab1 473d
000000c0: da92 e0bd 2462 3e3e f046 e3bd b7cb f1bd
000000d0: 3b8a 03be c6a0 9dbd 488f 9a3d 397d 95bd
000000e0: 9c22 713d 76b8 043d f479 fdbd f8c0 2b3d
000000f0: 0099 3b3d df3b 38bb d8be 47bd f2a8 f93d
00000100: c06d 2cbd 0eba c4bc ec32 b03d cd28 b8bd
00000110: 5475 503e f1b7 28be 5a2c 1abd c79b 1c3c
00000120: 083c 623d abce 07be 0082 daba 12d7 91bd
00000130: 4038 40bb 8aca 95bd 2fab 46be 6491 68bd
00000140: bd1c 493d eeda 8bbc d158 07be 2c3a 2e3e
00000150: 0a57 0bbe 9032 4e3c 0ad4 9abd 964a e63c
00000160: fbda 0ebe c3d5 953d 1b10 993a 6c9b a93d
00000170: caea ebbd d07a d93c 6f12 463d 5b4c 1c3e
00000180: 531c a43d 9ea5 1bbd e7df 703c e2a7 6ebd
00000190: 05a6 23bd 3437 eb3c 1ede 56bd 6f08 9a3c
000001a0: f8dd b3bc 38ba 063b b083 1d3e 2b34 f7bd
000001b0: 78a9 343e edec fabd ad39 0dbe a948 86bd
000001c0: 7ed5 3ebd 3251 4ebc a761 4fbe 1f53 1a3e
000001d0: b428 703d d693 d7bd dca2 603d ed3f bbbd
000001e0: 2bed 58be db4b 0a3e 781e 72bc c8b1 43be
000001f0: 92ab 76bd 5546 1f3d 4e02 3a3d a477 76bd
00000200: 0026 14be aa7f 723d 5038 d8bc df57 88bd
00000210: 9562 b4bc a27d 6dbd c145 c3bd 831c 9fbd
00000220: f62d 06bd da76 fb3d bc09 053e 9a0a 7a3d
00000230: 872a 9b3d 7463 2d3c 836b 0e3e 7a85 b4bd
00000240: c8d0 d1bd 0554 f33c e544 1fbe e97c c7bc
00000250: a7b9 b1bd c86f 5b3d f6df bf3d e85e be3d
00000260: a6b9 72bd 9e8a bcbd 3d52 06be abd1 11bd
00000270: 0041 3f3b 53cd b3bd 4453 fabd e9d5 1abd
00000280: eeb2 a8bc 1695 e53d db98 df3d ec2b 6a3d
00000290: 7a57 6b3d b081 eebd 1441 b8bd 98f3 ffbc
000002a0: 020b 2fbd a4cc 18bd fb28 0d3e 575d 57bd
000002b0: 1fab dfbe 9dce 023d 9cf9 d1bc 6c50 163d
000002c0: 4104 01be e80d 063d 8410 07be 635d b4bd
000002d0: 762d 1e3d 43b1 56bd 5b0c edba 44e0 cebd
000002e0: 71e0 e7bd 30da 78bd 9431 e1bd 4c80 e03d
000002f0: 0367 d3bd 535e 253e 5cb9 97bc e9e6 5e3d
00000300: 96be 993e 921c ce3d e24d 0e3e 1d6e b5ba
00000310: a9ec 563d f074 3d3d 0d82 eb3d c8cc e93c
00000320: 30e8 5f3c 911e d1bd e526 a13d 0e60 e23d
00000330: fae3 483e 4371 88bb 155b 403e 251f 123e
00000340: cf87 0dbe 7b82 1e3d 5cb5 773b 7265 e0bd
00000350: 8fad 9bbc 51f2 08be 2111 b6be f3e2 89bd
00000360: 60b6 363c addb b53e 3f79 6fbe f95f d93b
00000370: d76f 36be caeb fa3d e566 95be ec15 e63d
00000380: 19b4 eb3b 942e 913d 7e60 c43d 24d9 7d3e
00000390: a160 85bd 18b2 bbbc cb6e 3a3d cb2b 1ebe
000003a0: d7d4 34bc 3a80 8f3d 877b ea3d e129 08bd
000003b0: c8db 093e 3f87 9dbd c2e1 51bc 2697 84bc
000003c0: 1782 ec3d 9bc9 c6bd 0ceb 66bd ed89 cf3d
000003d0: f0ee dc3d c8b0 d7bc 6822 b33d 8e5e cfbc
000003e0: ba89 963d 970b ca3d be05 3ebd fbad 7bbe
000003f0: 873c 3f3e aa61 cc3c 073b a1bc dba0 01be

bias f4 [300]
0.3078905 0.0 0.1237073 0.23964106 0.12042908 0.117961586 0.2745815 0.0
0.22046404 0.18102764 -0.01745559 0.0 0.0 0.09690416 0.0 0.18165071
-0.0010586379 0.1420978 0.0 0.0 0.21831723 0.12878203 0.27174434 0.10484942
0.0 0.0 -0.025028307 0.1688342 0.1706329 -0.017909165 0.0 0.0
0.0 0.0 0.09280163 0.0 0.0 0.0 0.20934533 0.13810661
0.25738674 -0.045352276 -0.04584963 0.14564873 -0.020573152 -0.03675659 0.0 0.23153593
0.0 0.099461704 0.20945956 0.0 0.0 -0.021292245 0.16332714 -0.016673543
0.0 -0.003712917 0.0 0.0 0.10546579 0.13483904 0.0 0.10445302
-0.008157861 -0.01474205 0.21680522 0.0 0.09711476 0.18832003 0.21688972 -0.0060051633
0.18718584 0.0 0.0 0.23679815 0.0 -0.010587809 0.5031177 0.0
0.11877777 0.19768289 0.0 0.12972239 -0.019952483 0.0 0.0 -0.019618642
0.0 0.21380009 -0.019134343 -0.029823182 0.0 -0.020241618 0.14661156 0.15664837
0.12211855 -0.019795291 -0.029242437 0.0 0.21128997 0.13675112 0.0 0.21676251
0.022606384 0.053084996 0.19252943 0.33775103 0.10316033 0.0 0.0 0.0
0.0 0.19933999 0.095949516 0.18103504 -0.012694266 0.27179226 0.10748524 0.16420974
0.24724127 0.17966695 0.0 0.25350305 0.2484323 0.13837111 0.15706217 0.0
0.2461153 0.252985 0.0 0.0 0.11579489 0.0 -0.014654253 0.0
0.0 0.14984922 0.20264527 0.14491346 0.13421306 0.25366622 0.16926429 0.0
0.0 -0.0123461895 -0.018373147 0.23870192 0.0 -0.017045112 0.09991619 0.0
0.0 0.22326104 0.0002498235 -0.014483216 0.0 -0.010512956 0.0 0.12623274
0.1375348 0.16304661 0.11192487 0.23494357 0.2115551 0.0 0.11324942 0.0
-0.017043563 0.0 -0.0047116075 0.19916587 0.54002696 0.18778151 0.0 0.08535168
0.0 -0.014831852 0.0 -0.014322534 -0.028196735 -0.022487875 0.1505453 0.2634431
0.0 0.0 -0.022355715 0.12693347 0.2212508 0.13982385 0.0 -0.02149096
0.03987216 0.13043936 0.2076109 -0.016636271 0.10157602 0.0 -0.020970047 0.0
0.0 0.0 -0.019161666 0.13052213 0.10185324 0.14816365 0.13048959 0.10443187
0.0 0.12301312 0.17842466 0.0 0.19791955 0.0 0.20320702 -0.022781963
0.0 0.115381874 0.28502673 -0.009679769 0.30901545 0.12406021 0.3564986 0.07910569
0.40109712 0.0 0.16095501 0.0006285083 0.0 -0.016712256 0.19177108 0.32197827
0.11201966 0.10408347 0.15663703 0.15598936 0.081199415 0.0 0.1675397 0.13615939
-0.023810988 0.18843675 0.22549573 -0.022097096 0.18350965 0.0 -0.04707549 0.12511507
0.0 -0.037382226 0.0 0.26530418 0.15552337 0.13878043 0.19595635 0.0
00000000: d3a3 9d3e 0000 0000 415a fd3d 7764 753e
00000010: 86a3 f63d d895 f13d f295 8c3e 0000 0000
00000020: 53c1 613e 4f5f 393e 07ff 8ebc 0000 0000
00000030: 0000 0000 b075 c63d 0000 0000 a502 3a3e
00000040: fec1 8aba 1682 113e 0000 0000 0000 0000
00000050: 8d8e 5f3e 70df 033e 1322 8b3e 4bbb d63d
00000060: 0000 0000 0000 0000 2a08 cdbc dfe2 2c3e
00000070: 64ba 2e3e 3eb6 92bc 0000 0000 0000 0000
00000080: 0000 0000 0000 0000 c80e be3d 0000 0000
00000090: 0000 0000 0000 0000 9f5e 563e d26b 0d3e
000000a0: 32c8 833e 4fc3 39bd d2cc 3bbd f124 153e
000000b0: 0789 a8bc 148e 16bd 0000 0000 c117 6d3e
000000c0: 0000 0000 94b2 cb3d 917c 563e 0000 0000
000000d0: 0000 0000 136d aebc 3b3f 273e f496 88bc
000000e0: 0000 0000 6954 73bb 0000 0000 0000 0000
000000f0: 73fe d73d 3f13 0a3e 0000 0000 77eb d53d
00000100: 8da8 05bc a488 71bc 3002 5e3e 0000 0000
00000110: 1ae4 c63d f7d6 403e 5718 5e3e f6c6 c4bb
00000120: a5ad 3f3e 0000 0000 0000 0000 377b 723e
00000130: 0000 0000 7d78 2dbc 52cc 003f 0000 0000
00000140: c241 f33d 626d 4a3e 0000 0000 f2d5 043e
00000150: 6473 a3bc 0000 0000 0000 0000 46b7 a0bc
00000160: 0000 0000 69ee 5a3e a0bf 9cbc bf4f f4bc
00000170: 0000 0000 c0d1 a5bc 5721 163e 6e68 203e
00000180: 4a19 fa3d bc29 a2bc d68d efbc 0000 0000
00000190: 665c 583e 7c08 0c3e 0000 0000 fef6 5d3e
000001a0: 0631 b93c a76f 593d 6f26 453e b4ed ac3e
000001b0: b945 d33d 0000 0000 0000 0000 0000 0000
000001c0: 0000 0000 c81f 4c3e 2e81 c43d 4061 393e
000001d0: 9cfb 4fbc 5b28 8b3e 3921 dc3d 9926 283e
000001e0: d12c 7d3e 9dfa 373e 0000 0000 27cb 813e
000001f0: 0965 7e3e 28b1 0d3e e8d4 203e 0000 0000
00000200: a605 7c3e 4087 813e 0000 0000 0000 0000
00000210: df25 ed3d 0000 0000 6418 70bc 0000 0000
00000220: 0000 0000 1372 193e 3e82 4f3e 3264 143e
00000230: 266f 093e 8ae0 813e 9e53 2d3e 0000 0000
00000240: 0000 0000 ac47 4abc 4883 96bc 476e 743e
00000250: 0000 0000 31a2 8bbc dca0 cc3d 0000 0000
00000260: 0000 0000 8b9e 643e befa 8239 034b 6dbc
00000270: 0000 0000 893e 2cbc 0000 0000 2843 013e
00000280: ecd5 0c3e b1f5 263e de38 e53d 0c95 703e
00000290: e6a1 583e 0000 0000 50ef e73d 0000 0000
000002a0: f19e 8bbc 0000 0000 d463 9abb 23f2 4b3e
000002b0: 353f 0a3f cc49 403e 0000 0000 ddcc ae3d
000002c0: 0000 0000 4c01 73bc 0000 0000 10a9 6abc
000002d0: d7fc e6bc 7e38 b8bc 8c28 1a3e 04e2 863e
000002e0: 0000 0000 0000 0000 5523 b7bc d9fa 013e
000002f0: 928f 623e fc2d 0f3e 0000 0000 cf0d b0bc
00000300: fd50 233d e591 053e f497 543e ca48 88bc
00000310: 1707 d03d 0000 0000 60c9 abbc 0000 0000
00000320: 0000 0000 0000 0000 edf8 9cbc 98a7 053e
00000330: 6e98 d03d 36b8 173e 109f 053e 60e0 d53d
00000340: 0000 0000 4dee fb3d f4b4 363e 0000 0000
00000350: 6cab 4a3e 0000 0000 8015 503e 3da1 babc
00000360: 0000 0000 554d ec3d 06ef 913e e597 1ebc
00000370: 4637 9e3e 4813 fe3d fc86 b63e 2a02 a23d
00000380: 9a5c cd3e 0000 0000 64d1 243e 7ac2 243a
00000390: 0000 0000 24e8 88bc a35f 443e 56da a43e
000003a0: 906a e53d b729 d53d 7565 203e adbb 1f3e
000003b0: e14b a63d 0000 0000 878f 2b3e 5e6d 0b3e
000003c0: 430f c3bc 90f5 403e 5ae8 663e f804 b5bc
000003d0: f4e9 3b3e 0000 0000 3bd2 40bd 2a1e 003e
000003e0: 0000 0000 1b1e 19bd 0000 0000 f3d5 873e
000003f0: 8541 1f3e 751c 0e3e c8a8 483e 0000 0000

weight f4 [8, 300]
-0.057883203 -0.10628471 -0.050202705 -0.030348144 -0.06780358 0.10906005 0.011451066 0.053054333
-0.087644145 -0.032908782 0.0040317327 -0.043392144 0.03787583 -0.035340644 0.069947034 -0.094012514
0.10186057 0.0027629882 -0.07193719 0.10869932 -0.08837426 0.028525889 -0.076345205 -0.051599167
-0.110167906 -0.08340759 0.089663684 0.048250318 0.06416999 -0.11146267 -0.06067875 0.043722644
0.036518365 -0.021617249 0.09938204 0.075105265 -0.12846665 0.039170265 -0.07034961 -0.012923643
-0.013075158 0.008058459 0.11760135 -0.13045233 -0.018239394 0.13916425 0.0761022 -0.097292185
0.0458712 0.12359838 -0.028698899 -0.025710814 -0.0040471256 0.092434496 -0.12019993 0.0712592
-0.11311048 0.03458725 0.030360997 -0.06943318 0.11350198 -0.02421493 0.12102224 0.0002374351
-0.133961 -0.08794415 0.021822229 -0.10242718 -0.04550948 0.035278335 -0.05348301 -0.08477375
0.09738445 0.0370052 0.09399445 -0.043245964 0.019643724 0.009043559 -0.10649126 0.040928572
0.0705405 -0.04375553 0.052709028 0.029407337 0.13618584 0.011170462 0.07161319 -0.06273633
0.05232835 0.044702232 -0.10043645 -0.0058532804 0.13388796 0.08317649 -0.049494445 -0.038184494
-0.010457784 0.026136458 0.068951935 0.105937704 -0.001029715 -0.085350946 -0.01843638 0.09469111
-0.02936761 -0.018389493 0.03868416 -0.04123334 0.122203484 -0.12700525 -0.13784327 0.12330349
-0.075885676 0.051497042 -0.014680855 0.043620452 -0.12128765 0.06961824 0.07508215 0.020571947
-0.13866878 -0.092713475 0.054635093 0.12936611 0.105807886 -0.033734463 0.12883382 0.095287114
-0.02120199 -0.025641352 0.027656272 -0.08021053 -0.04139754 -0.05018975 0.035268903 0.021201745
-0.013259158 -0.060809642 -0.08925785 -0.005257547 -0.055370197 0.072674066 0.08885102 0.041697577
-0.022107765 0.0099993795 0.059860736 0.0145995915 0.107359886 0.08971809 0.10291423 -0.091712624
-0.11039743 0.13033913 -0.07762932 0.030211732 -0.09759846 0.049923956 -0.025962822 -0.06767496
-0.1284866 0.10538855 0.008562759 0.07503393 0.0888813 0.027580708 0.08194502 -0.13290249
-0.08574465 -0.066815674 -0.12665823 0.13041987 -0.1107184 0.05704668 -0.0023390204 -0.1029392
-0.13906902 0.0028537214 -0.08876704 0.08282268 0.07620549 0.01720339 -0.09419851 -0.07450507
-0.050664388 -0.09629087 -0.049875 -0.118463956 -0.11535776 -0.0035182685 -0.06828708 -0.124809876
-0.06239759 0.10695198 0.06231478 0.09862131 -0.007811114 0.09069143 0.03009525 0.1389743
0.0005246103 -0.09126362 0.02494523 0.0024030954 -0.058805138 0.13916798 -0.039997056 0.07993673
0.10368006 -0.12722456 0.04544905 0.03799954 -0.09124446 -0.12447755 0.028009683 0.04668273
0.042173058 0.099839896 0.118111834 -0.012669146 -0.015404671 0.015532553 -0.112719715 0.068007946
-0.07504136 0.040065363 0.12336208 -0.09970085 0.06491333 -0.0273671 -0.10852596 0.09832434
-0.0016251653 0.12627803 0.09928344 0.05047311 0.03503999 -0.047887996 0.023194373 -0.034022376
0.1346683 0.098191515 -0.024972692 0.09486756 -0.09079595 -0.035468526 -0.04822512 -0.0061656535
-0.12593715 0.006773725 0.13868882 0.027069375 -0.09076351 0.04722579 -0.046291597 0.07268037
00000000: f016 6dbd ccab d9bd 5aa1 4dbd ac9c f8bc
00000010: 9adc 8abd e05a df3d 409d 3b3c 804f 593d
00000020: c67e b3bd 5ccb 06bd a01c 843b f6bb 31bd
00000030: b023 1b3d 5ac1 10bd 6440 8f3d a289 c0bd
00000040: 469c d03d 4013 353b ce53 93bd c09d de3d
00000050: 90fd b4bd 20af e93c e05a 9cbd a659 53bd
00000060: b69f e1bd 99d1 aabd 98a1 b73d 20a2 453d
00000070: 8e6b 833d 8a46 e4bd 488a 78bd 8416 333d
00000080: 4894 153d a816 b1bc d088 cb3d cad0 993d
00000090: c38c 03be 0071 203d 7513 90bd b0bd 53bc
000000a0: 3039 56bc a007 043c fad8 f03d 4c95 05be
000000b0: c86a 95bc 1381 0e3e 78db 9b3d 2041 c7bd
000000c0: 70e3 3b3d 2621 fd3d f419 ebbc 7c9f d2bc
000000d0: c09d 84bb 4c4e bd3d 622b f6bd 58f0 913d
000000e0: 78a6 e7bd 5cab 0d3d a0b7 f83c fc32 8ebd
000000f0: ba73 e83d 645e c6bc 82da f73d 00f8 7839
00000100: 132d 09be 101c b4bd 88c4 b23c 57c5 d1bd
00000110: 2668 3abd 0480 103d 0011 5bbd dc9d adbd
00000120: 8071 c73d c492 173d 2a80 c03d ae22 31bd
00000130: e0eb a03c 702b 143c 1718 dabd b8a4 273d
00000140: 8a77 903d 0039 33bd 6ce5 573d a8e7 f03c
00000150: 4d74 0b3e 5004 373c f0a9 923d e87b 80bd
00000160: 4056 563d b019 373d a0b1 cdbd e0cc bfbb
00000170: ed19 093e 7058 aa3d b0ba 4abd 5867 1cbd
00000180: 2057 2bbc 201c d63c ac36 8d3d def5 d83d
00000190: 80f7 86ba 7acc aebd e407 97bc 6aed c13d
000001a0: 5894 f0bc 90a5 96bc 4873 1e3d 4ae4 28bd
000001b0: d245 fa3d aa0d 02be c926 0dbe 8a86 fc3d
000001c0: f369 9bbd 90ee 523d f887 70bc 5cab 323d
000001d0: a965 f8bd 0294 8e3d acc4 993d 8086 a83c
000001e0: 30ff 0dbe 90e0 bdbd 0cc9 5f3d 8d78 043e
000001f0: ceb1 d83d 262d 0abd 03ed 033e e425 c33d
00000200: ccaf adbc d00d d2bc 688f e23c 6b45 a4bd
00000210: 7890 29bd c493 4dbd 2076 103d 48af ad3c
00000220: f03c 59bc 8813 79bd d2cc b6bd 8047 acbb
00000230: dccb 62bd 24d6 943d 86f7 b53d 14cb 2a3d
00000240: 581b b5bc 70d4 233c 8830 753d 2033 6f3c
00000250: 80df db3d 1ebe b73d b2c4 d23d d4d3 bbbd
00000260: 0c18 e2bd 9f77 053e 1ffc 9ebd 987e f73c
00000270: b4e1 c7bd 107d 4c3d fcaf d4bc 2b99 8abd
00000280: fe91 03be f4d5 d73d d04a 0c3c 64ab 993d
00000290: 6607 b63d f0f0 e13c cad2 a73d 9717 08be
000002a0: e49a afbd a8d6 88bd b2b2 01be c98c 053e
000002b0: 54c0 e2bd c8a9 693d 404a 19bb cad1 d2bd
000002c0: 1c68 0ebe 8005 3b3b 7ecb b5bd f09e a93d
000002d0: a011 9c3d 20ee 8c3c 26eb c0bd 1d96 98bd
000002e0: 7685 4fbd 2634 c5bd ba49 4cbd 3b9d f2bd
000002f0: b040 ecbd c092 66bb 19da 8bbd 529c ffbd
00000300: 9e94 7fbd a409 db3d c83d 7f3d f8f9 c93d
00000310: 60f4 ffbb 6ebc b93d 508a f63c 474f 0e3e
00000320: 0086 093a 6ce8 babd f059 cc3c 407d 1d3b
00000330: a8dd 70bd 0d82 0e3e f4d3 23bd deb5 a33d
00000340: 3656 d43d 2847 02be c828 3a3d 68a5 1b3d
00000350: 60de babd 16ee febd 9074 e53c 6436 3f3d
00000360: a8bd 2c3d dc78 cc3d 9ee4 f13d 4092 4fbc
00000370: e063 7cbc 407c 7e3c 98d9 e6bd c047 8b3d
00000380: 49af 99bd 941b 243d 42a5 fc3d f62f ccbd
00000390: 48f1 843d f830 e0bc dc42 debd 465e c93d
000003a0: 8003 d5ba 074f 013e 1e55 cb3d e4bc 4e3d
000003b0: 1886 0f3d 3426 44bd 2002 be3c 0c5b 0bbd
000003c0: 7de6 093e a218 c93d 8893 ccbc ec49 c23d
000003d0: 3af3 b9bd 7247 11bd b487 45bd 4009 cabb
000003e0: abf5 00be 20f6 dd3b 7104 0e3e 98c0 dd3c
000003f0: 38e2 b9bd d46f 413d 429c 3dbd 72d9 943d

bias f4 [300]
0.0 0.0 0.0 0.0 0.0 0.0 0.0 0.0
0.0 0.0 0.0 0.0 0.0 0.0 0.0 0.0
0.0 0.0 0.0 0.0 0.0 0.0 0.0 0.0
0.0 0.0 0.0 0.0 0.0 0.0 0.0 0.0
0.0 0.0 0.0 0.0 0.0 0.0 0.0 0.0
0.0 0.0 0.0 0.0 0.0 0.0 0.0 0.0
0.0 0.0 0.0 0.0 0.0 0.0 0.0 0.0
0.0 0.0 0.0 0.0 0.0 0.0 0.0 0.0
0.0 0.0 0.0 0.0 0.0 0.0 0.0 0.0
0.0 0.0 0.0 0.0 0.0 0.0 0.0 0.0
0.0 0.0 0.0 0.0 0.0 0.0 0.0 0.0
0.0 0.0 0.0 0.0 0.0 0.0 0.0 0.0
0.0 0.0 0.0 0.0 0.0 0.0 0.0 0.0
0.0 0.0 0.0 0.0 0.0 0.0 0.0 0.0
0.0 0.0 0.0 0.0 0.0 0.0 0.0 0.0
0.0 0.0 0.0 0.0 0.0 0.0 0.0 0.0
0.0 0.0 0.0 0.0 0.0 0.0 0.0 0.0
0.0 0.0 0.0 0.0 0.0 0.0 0.0 0.0
0.0 0.0 0.0 0.0 0.0 0.0 0.0 0.0
0.0 0.0 0.0 0.0 0.0 0.0 0.0 0.0
0.0 0.0 0.0 0.0 0.0 0.0 0.0 0.0
0.0 0.0 0.0 0.0 0.0 0.0 0.0 0.0
0.0 0.0 0.0 0.0 0.0 0.0 0.0 0.0
0.0 0.0 0.0 0.0 0.0 0.0 0.0 0.0
0.0 0.0 0.0 0.0 0.0 0.0 0.0 0.0
0.0 0.0 0.0 0.0 0.0 0.0 0.0 0.0
0.0 0.0 0.0 0.0 0.0 0.0 0.0 0.0
0.0 0.0 0.0 0.0 0.0 0.0 0.0 0.0
0.0 0.0 0.0 0.0 0.0 0.0 0.0 0.0
0.0 0.0 0.0 0.0 0.0 0.0 0.0 0.0
0.0 0.0 0.0 0.0 0.0 0.0 0.0 0.0
0.0 0.0 0.0 0.0 0.0 0.0 0.0 0.0
00000000: 0000 0000 0000 0000 0000 0000 0000 0000
00000010: 0000 0000 0000 0000 0000 0000 0000 0000
00000020: 0000 0000 0000 0000 0000 0000 0000 0000
00000030: 0000 0000 0000 0000 0000 0000 0000 0000
00000040: 0000 0000 0000 0000 0000 0000 0000 0000
00000050: 0000 0000 0000 0000 0000 0000 0000 0000
00000060: 0000 0000 0000 0000 0000 0000 0000 0000
00000070: 0000 0000 0000 0000 0000 0000 0000 0000
00000080: 0000 0000 0000 0000 0000 0000 0000 0000
00000090: 0000 0000 0000 0000 0000 0000 0000 0000
000000a0: 0000 0000 0000 0000 0000 0000 0000 0000
000000b0: 0000 0000 0000 0000 0000 0000 0000 0000
000000c0: 0000 0000 0000 0000 0000 0000 0000 0000
000000d0: 0000 0000 0000 0000 0000 0000 0000 0000
000000e0: 0000 0000 0000 0000 0000 0000 0000 0000
000000f0: 0000 0000 0000 0000 0000 0000 0000 0000
00000100: 0000 0000 0000 0000 0000 0000 0000 0000
00000110: 0000 0000 0000 0000 0000 0000 0000 0000
00000120: 0000 0000 0000 0000 0000 0000 0000 0000
00000130: 0000 0000 0000 0000 0000 0000 0000 0000
00000140: 0000 0000 0000 0000 0000 0000 0000 0000
00000150: 0000 0000 0000 0000 0000 0000 0000 0000
00000160: 0000 0000 0000 0000 0000 0000 0000 0000
00000170: 0000 0000 0000 0000 0000 0000 0000 0000
00000180: 0000 0000 0000 0000 0000 0000 0000 0000
00000190: 0000 0000 0000 0000 0000 0000 0000 0000
000001a0: 0000 0000 0000 0000 0000 0000 0000 0000
000001b0: 0000 0000 0000 0000 0000 0000 0000 0000
000001c0: 0000 0000 0000 0000 0000 0000 0000 0000
000001d0: 0000 0000 0000 0000 0000 0000 0000 0000
000001e0: 0000 0000 0000 0000 0000 0000 0000 0000
000001f0: 0000 0000 0000 0000 0000 0000 0000 0000
00000200: 0000 0000 0000 0000 0000 0000 0000 0000
00000210: 0000 0000 0000 0000 0000 0000 0000 0000
00000220: 0000 0000 0000 0000 0000 0000 0000 0000
00000230: 0000 0000 0000 0000 0000 0000 0000 0000
00000240: 0000 0000 0000 0000 0000 0000 0000 0000
00000250: 0000 0000 0000 0000 0000 0000 0000 0000
00000260: 0000 0000 0000 0000 0000 0000 0000 0000
00000270: 0000 0000 0000 0000 0000 0000 0000 0000
00000280: 0000 0000 0000 0000 0000 0000 0000 0000
00000290: 0000 0000 0000 0000 0000 0000 0000 0000
000002a0: 0000 0000 0000 0000 0000 0000 0000 0000
000002b0: 0000 0000 0000 0000 0000 0000 0000 0000
000002c0: 0000 0000 0000 0000 0000 0000 0000 0000
000002d0: 0000 0000 0000 0000 0000 0000 0000 0000
000002e0: 0000 0000 0000 0000 0000 0000 0000 0000
000002f0: 0000 0000 0000 0000 0000 0000 0000 0000
00000300: 0000 0000 0000 0000 0000 0000 0000 0000
00000310: 0000 0000 0000 0000 0000 0000 0000 0000
00000320: 0000 0000 0000 0000 0000 0000 0000 0000
00000330: 0000 0000 0000 0000 0000 0000 0000 0000
00000340: 0000 0000 0000 0000 0000 0000 0000 0000
00000350: 0000 0000 0000 0000 0000 0000 0000 0000
00000360: 0000 0000 0000 0000 0000 0000 0000 0000
00000370: 0000 0000 0000 0000 0000 0000 0000 0000
00000380: 0000 0000 0000 0000 0000 0000 0000 0000
00000390: 0000 0000 0000 0000 0000 0000 0000 0000
000003a0: 0000 0000 0000 0000 0000 0000 0000 0000
000003b0: 0000 0000 0000 0000 0000 0000 0000 0000
000003c0: 0000 0000 0000 0000 0000 0000 0000 0000
000003d0: 0000 0000 0000 0000 0000 0000 0000 0000
000003e0: 0000 0000 0000 0000 0000 0000 0000 0000
000003f0: 0000 0000 0000 0000 0000 0000 0000 0000

weight f4 [8, 300]
0.077510074 0.06966691 -0.028819643 -0.010842472 -0.11113769 -0.11567232 0.03629756 0.05624616
-0.08801179 -0.056559026 -0.089475214 0.10303362 0.049921587 -0.0046132356 0.013780862 -0.028129332
-0.0014797002 0.07158846 0.079457045 -0.080785945 -0.03038267 -0.061237432 -0.0076331496 0.13775526
-0.07269705 -0.018273503 0.059846625 0.0033482164 -0.10773216 -0.10302921 0.04881367 -0.08342448
0.08720215 0.104500934 -0.122411355 0.06180519 -0.10833682 -0.119453706 0.085803196 0.02351278
0.030087307 -0.13554758 0.07931821 -0.13238439 -0.13583246 0.08361259 -0.12246643 0.00056034327
0.032755464 0.06141381 0.10281092 -0.08825902 -0.0067331493 0.0062630624 0.13558625 0.03445916
-0.0550164 -0.0671416 -0.11228588 -0.087004684 -0.08456898 -0.13513462 0.08344926 0.101776615
0.03450568 0.09119637 -0.080933884 0.023213044 0.08670889 0.110900566 -0.10641539 -0.0017194897
-0.13721961 0.057373717 0.07571003 0.03555526 0.037777707 0.081073105 0.122721985 -0.12884267
-0.061933383 0.012336656 -0.13242616 -0.056765676 -0.032047935 0.11953242 -0.12874268 -0.038739517
0.077656314 -0.1137836 0.08774468 0.04737319 -0.049556106 0.032594115 -0.006418735 0.009483665
0.043032542 -0.0954369 -0.11721654 0.1285763 0.112351045 0.018926442 0.13935037 -0.013752148
-0.08466209 0.0516506 -0.018418074 0.103513345 -0.08730316 0.11615972 0.10965201 0.037242815
0.02984941 -0.13954924 -0.118302226 0.022336602 -0.10399635 0.014100164 0.11748637 0.08987349
0.06063652 0.10994154 0.053738087 -0.13127029 -0.005360797 0.09651831 -0.034099974 -0.062526174
-0.13080491 -0.01125139 -0.09834981 -0.08548069 -0.04837615 -0.07759733 -0.0028356463 0.030957177
-0.060563393 0.06984864 0.13680117 0.03375584 0.0162296 0.006049916 0.13499273 0.039236188
-0.08586617 -0.009944797 -0.03323581 0.11821936 -0.08049314 0.085210904 -0.07283681 0.09884049
0.12911682 0.013711706 0.054204702 0.13346924 -0.0826553 -0.13283716 0.119180545 0.023554683
-0.0013269186 0.04589267 -0.052343182 0.116408154 0.0139694065 0.069337964 0.0034168363 0.11102839
-0.068990536 -0.06425979 -0.043434426 0.11023311 0.089623526 0.03908059 0.03401774 0.1280611
-0.10727781 0.04046589 -0.03859368 0.10244016 -0.12667654 -0.05079999 0.02733633 -0.08403529
0.023286656 -0.1274203 -0.07185387 0.016101092 0.023655117 0.11135353 0.03889972 -0.13284074
0.041061 0.13398303 -0.09682877 0.12127586 -0.05148647 0.009527698 -0.122510105 0.11224486
0.13730042 -0.068768814 0.10604851 0.07209492 -0.13908674 0.091870666 0.11732973 0.13653423
0.045465887 -0.12067689 0.032787576 -0.014773212 0.08673671 -0.04065354 -0.036275506 0.10681857
-0.04481844 -0.08957032 0.116365835 0.018890306 -0.0568489 -0.11793021 -0.06762897 -0.11747319
-0.1358013 0.01058121 0.13779251 -0.055234343 -0.10558134 0.031051919 -0.08328726 -0.051289424
0.03056553 -0.031057887 0.008477911 0.055136457 -0.049110763 0.12769826 -0.10641238 -0.11799207
-0.13106605 0.073453754 -0.07333423 0.11384131 0.12289439 -0.13295843 -0.118422404 -0.052573077
-0.03637542 0.10080978 -0.06597823 0.13552348 -0.096145585 0.0116454065 0.030554354 -0.1286435
00000000: 9abd 9e3d 86ad 8e3d 2c17 ecbc a0a4 31bc
00000010: 289c e3bd 9ce5 ecbd c0ac 143d 6062 663d
00000020: 863f b4bd 70aa 67bd c83e b7bd 4a03 d33d
00000030: 947a 4c3d a02a 97bb 20c9 613c 7c6f e6bc
00000040: 80f2 c1ba f89c 923d 60ba a23d 1a73 a5bd
00000050: 14e5 f8bc 1ad4 7abd 801f fabb b70f 0d3e
00000060: 31e2 94bd 50b2 95bc bc21 753d c06d 5b3b
00000070: aea2 dcbd fa00 d3bd d8f0 473d 74da aabd
00000080: 0a97 b23d 9604 d63d ceb2 fabd 7027 7d3d
00000090: b2df ddbd 25a4 f4bd 96b9 af3d e09d c03c
000000a0: a879 f63c fccc 0abe 9671 a23d c68f 07be
000000b0: aa17 0bbe 143d ab3d aecf fabd 00e4 123a
000000c0: 982a 063d 0c8d 7b3d 888e d23d 25c1 b4bd
000000d0: c0a1 dcbb 603a cd3b 1fd7 0a3e 0c25 0d3d
000000e0: e058 61bd 8981 89bd 24f6 e5bd 832f b2bd
000000f0: 8032 adbd bb60 0abe 72e7 aa3d 4270 d03d
00000100: d455 0d3d 2ac5 ba3d aac0 a5bd 4829 be3c
00000110: 6e94 b13d d61f e33d 50f0 d9bd 8060 e1ba
00000120: 4c83 0cbe b400 6b3d dc0d 9b3d 64a2 113d
00000130: ccbc 1a3d a809 a63d aa55 fb3d 55ef 03be
00000140: dcad 7dbd b01f 4a3c b99a 07be 2083 68bd
00000150: b244 03bd 6acd f43d 1fd5 03be 54ad 1ebd
00000160: 460a 9f3d 6007 e9bd 7cb3 b33d 640a 423d
00000170: 58fb 4abd 6881 053d 4054 d2bb 6061 1b3c
00000180: e442 303d 6c74 c3bd 3a0f f0bd 81a9 033e
00000190: 4e18 e63d a00b 9b3c ddb1 0e3e b050 61bc
000001a0: 5163 adbd 948f 533d 80e1 96bc cefe d33d
000001b0: 00cc b2bd 26e5 ed3d 3c91 e03d ec8b 183d
000001c0: c086 f43c ffe5 0ebe 7048 f2bd 40fb b63c
000001d0: 0afc d4bd 6004 673c b29c f03d 980f b83d
000001e0: 005e 783d 0829 e13d 781c 5c3d b86b 06be
000001f0: a0a9 afbb 64ab c53d 6aac 0bbd b90d 80bd
00000200: b9f1 05be c057 38bc a06b c9bd 8010 afbd
00000210: 1226 46bd 59eb 9ebd 40d6 39bb e899 fd3c
00000220: 5211 78bd ce0c 8f3d 9b15 0c3e 9043 0a3d
00000230: f0f3 843c 603e c63b 893b 0a3e 20b6 203d
00000240: 9ada afbd 80ef 22bc 4622 08bd fe1c f23d
00000250: 96d9 a4bd 0e83 ae3d 772b 95bd e26c ca3d
00000260: 3337 043e 10a7 603c c005 5e3d 29ac 083e
00000270: 2f47 a9bd 7706 08be ee14 f43d c0f5 c03c
00000280: 00ec adba f4f9 3b3d ce65 56bd 6667 ee3d
00000290: f0df 643c 1001 8e3d 00ed 5f3b da62 e33d
000002a0: e94a 8dbd a39a 83bd 4ce8 31bd e6c1 e13d
000002b0: 8a8c b73d f812 203d 3056 0b3d 7322 033e
000002c0: 78b4 dbbd 90bf 253d 6814 1ebd 26cc d13d
000002d0: 7fb7 01be a613 50bd 70f0 df3c b21a acbd
000002e0: a8c3 be3c 787a 02be 1f28 93bd 70e6 833c
000002f0: 60c8 c13c 520d e43d 5055 1f3d 6707 08be
00000300: 942f 283d d932 093e 2a4e c6bd 7a5f f83d
00000310: 7ae3 52bd 101a 1c3c 94e6 fabd a2e0 e53d
00000320: 7b98 0c3e aad6 8cbd f62f d93d 80a6 933d
00000330: c16c 0ebe b026 bc3d 924a f03d a1cf 0b3e
00000340: 703a 3a3d 7225 f7bd 444c 063d 580b 72bc
00000350: 04a3 b13d 5484 26bd a095 14bd b2c3 da3d
00000360: 8a93 37bd a570 b7bd 3651 ee3d d8bf 9a3c
00000370: 64da 68bd 6585 f1bd 0f81 8abd c995 f0bd
00000380: 7f0f 0bbe d05c 2d3c 7b19 0d3e 683d 62bd
00000390: 083b d8bd 9860 fe3c 8392 aabd dc14 52bd
000003a0: 9064 fa3c 1c6d febc f0e6 0a3c c4d6 613d
000003b0: 5e28 49bd 55c3 023e bcee d9bd d4a5 f1bd
000003c0: 2e36 06be ec6e 963d 4230 96bd a225 e93d
000003d0: 0eb0 fb3d 4126 08be 7287 f2bd de56 57bd
000003e0: 64fe 14bd 5c75 ce3d 981f 87bd abc6 0a3e
000003f0: fae7 c4bd 60cc 3e3c 204d fa3c 1fbb 03be

bias f4 [300]
0.0 0.0 0.0 0.0 0.0 0.0 0.0 0.0
0.0 0.0 0.0 0.0 0.0 0.0 0.0 0.0
0.0 0.0 0.0 0.0 0.0 0.0 0.0 0.0
0.0 0.0 0.0 0.0 0.0 0.0 0.0 0.0
0.0 0.0 0.0 0.0 0.0 0.0 0.0 0.0
0.0 0.0 0.0 0.0 0.0 0.0 0.0 0.0
0.0 0.0 0.0 0.0 0.0 0.0 0.0 0.0
0.0 0.0 0.0 0.0 0.0 0.0 0.0 0.0
0.0 0.0 0.0 0.0 0.0 0.0 0.0 0.0
0.0 0.0 0.0 0.0 0.0 0.0 0.0 0.0
0.0 0.0 0.0 0.0 0.0 0.0 0.0 0.0
0.0 0.0 0.0 0.0 0.0 0.0 0.0 0.0
0.0 0.0 0.0 0.0 0.0 0.0 0.0 0.0
0.0 0.0 0.0 0.0 0.0 0.0 0.0 0.0
0.0 0.0 0.0 0.0 0.0 0.0 0.0 0.0
0.0 0.0 0.0 0.0 0.0 0.0 0.0 0.0
0.0 0.0 0.0 0.0 0.0 0.0 0.0 0.0
0.0 0.0 0.0 0.0 0.0 0.0 0.0 0.0
0.0 0.0 0.0 0.0 0.0 0.0 0.0 0.0
0.0 0.0 0.0 0.0 0.0 0.0 0.0 0.0
0.0 0.0 0.0 0.0 0.0 0.0 0.0 0.0
0.0 0.0 0.0 0.0 0.0 0.0 0.0 0.0
0.0 0.0 0.0 0.0 0.0 0.0 0.0 0.0
0.0 0.0 0.0 0.0 0.0 0.0 0.0 0.0
0.0 0.0 0.0 0.0 0.0 0.0 0.0 0.0
0.0 0.0 0.0 0.0 0.0 0.0 0.0 0.0
0.0 0.0 0.0 0.0 0.0 0.0 0.0 0.0
0.0 0.0 0.0 0.0 0.0 0.0 0.0 0.0
0.0 0.0 0.0 0.0 0.0 0.0 0.0 0.0
0.0 0.0 0.0 0.0 0.0 0.0 0.0 0.0
0.0 0.0 0.0 0.0 0.0 0.0 0.0 0.0
0.0 0.0 0.0 0.0 0.0 0.0 0.0 0.0
00000000: 0000 0000 0000 0000 0000 0000 0000 0000
00000010: 0000 0000 0000 0000 0000 0000 0000 0000
00000020: 0000 0000 0000 0000 0000 0000 0000 0000
00000030: 0000 0000 0000 0000 0000 0000 0000 0000
00000040: 0000 0000 0000 0000 0000 0000 0000 0000
00000050: 0000 0000 0000 0000 0000 0000 0000 0000
00000060: 0000 0000 0000 0000 0000 0000 0000 0000
00000070: 0000 0000 0000 0000 0000 0000 0000 0000
00000080: 0000 0000 0000 0000 0000 0000 0000 0000
00000090: 0000 0000 0000 0000 0000 0000 0000 0000
000000a0: 0000 0000 0000 0000 0000 0000 0000 0000
000000b0: 0000 0000 0000 0000 0000 0000 0000 0000
000000c0: 0000 0000 0000 0000 0000 0000 0000 0000
000000d0: 0000 0000 0000 0000 0000 0000 0000 0000
000000e0: 0000 0000 0000 0000 0000 0000 0000 0000
000000f0: 0000 0000 0000 0000 0000 0000 0000 0000
00000100: 0000 0000 0000 0000 0000 0000 0000 0000
00000110: 0000 0000 0000 0000 0000 0000 0000 0000
00000120: 0000 0000 0000 0000 0000 0000 0000 0000
00000130: 0000 0000 0000 0000 0000 0000 0000 0000
00000140: 0000 0000 0000 0000 0000 0000 0000 0000
00000150: 0000 0000 0000 0000 0000 0000 0000 0000
00000160: 0000 0000 0000 0000 0000 0000 0000 0000
00000170: 0000 0000 0000 0000 0000 0000 0000 0000
00000180: 0000 0000 0000 0000 0000 0000 0000 0000
00000190: 0000 0000 0000 0000 0000 0000 0000 0000
000001a0: 0000 0000 0000 0000 0000 0000 0000 0000
000001b0: 0000 0000 0000 0000 0000 0000 0000 0000
000001c0: 0000 0000 0000 0000 0000 0000 0000 0000
000001d0: 0000 0000 0000 0000 0000 0000 0000 0000
000001e0: 0000 0000 0000 0000 0000 0000 0000 0000
000001f0: 0000 0000 0000 0000 0000 0000 0000 0000
00000200: 0000 0000 0000 0000 0000 0000 0000 0000
00000210: 0000 0000 0000 0000 0000 0000 0000 0000
00000220: 0000 0000 0000 0000 0000 0000 0000 0000
00000230: 0000 0000 0000 0000 0000 0000 0000 0000
00000240: 0000 0000 0000 0000 0000 0000 0000 0000
00000250: 0000 0000 0000 0000 0000 0000 0000 0000
00000260: 0000 0000 0000 0000 0000 0000 0000 0000
00000270: 0000 0000 0000 0000 0000 0000 0000 0000
00000280: 0000 0000 0000 0000 0000 0000 0000 0000
00000290: 0000 0000 0000 0000 0000 0000 0000 0000
000002a0: 0000 0000 0000 0000 0000 0000 0000 0000
000002b0: 0000 0000 0000 0000 0000 0000 0000 0000
000002c0: 0000 0000 0000 0000 0000 0000 0000 0000
000002d0: 0000 0000 0000 0000 0000 0000 0000 0000
000002e0: 0000 0000 0000 0000 0000 0000 0000 0000
000002f0: 0000 0000 0000 0000 0000 0000 0000 0000
00000300: 0000 0000 0000 0000 0000 0000 0000 0000
00000310: 0000 0000 0000 0000 0000 0000 0000 0000
00000320: 0000 0000 0000 0000 0000 0000 0000 0000
00000330: 0000 0000 0000 0000 0000 0000 0000 0000
00000340: 0000 0000 0000 0000 0000 0000 0000 0000
00000350: 0000 0000 0000 0000 0000 0000 0000 0000
00000360: 0000 0000 0000 0000 0000 0000 0000 0000
00000370: 0000 0000 0000 0000 0000 0000 0000 0000
00000380: 0000 0000 0000 0000 0000 0000 0000 0000
00000390: 0000 0000 0000 0000 0000 0000 0000 0000
000003a0: 0000 0000 0000 0000 0000 0000 0000 0000
000003b0: 0000 0000 0000 0000 0000 0000 0000 0000
000003c0: 0000 0000 0000 0000 0000 0000 0000 0000
000003d0: 0000 0000 0000 0000 0000 0000 0000 0000
000003e0: 0000 0000 0000 0000 0000 0000 0000 0000
000003f0: 0000 0000 0000 0000 0000 0000 0000 0000

weight f4 [300, 5]
0.13432074 0.17103921 -0.10957626 -0.13969654 0.23944855 0.044481754 0.0699493 -0.02489353
-0.116074696 -0.10468904 -0.15344658 0.15423815 -0.038526837 0.08839549 0.08397172 0.21330017
0.097421914 -0.13841875 -0.18094645 0.1864089 0.075436585 0.18262888 0.1289091 -0.0014563279
0.16902003 -0.12431929 0.19499774 0.022828676 -0.1247512 0.22915137 0.30259147 0.0116662895
-0.09725017 -0.24525072 0.27712852 -0.064659745 -0.121811405 0.0684043 0.006391734 0.11231433
-0.091721885 0.06628806 0.03959911 -0.014925679 0.1253276 0.11897344 -0.050165012 0.16165538
0.07490204 0.20980453 0.029077964 -0.07827756 -0.09109916 0.12602434 -0.054478176 -0.09627177
0.005604297 0.10157792 -0.07633287 0.068928614 0.12690948 -0.089244425 0.05368729 0.10534118
-0.12831855 -0.063575394 0.18330392 0.04801666 0.11894589 0.19152108 -0.10791463 0.032185793
0.08240253 0.10344197 -0.059437998 0.060848393 0.02825614 0.10109289 0.12931852 0.08772542
-0.01988235 0.03232287 -0.13699201 0.034684077 0.045632638 0.035554856 0.085736975 0.10799694
0.053009406 0.13767211 -0.09555528 0.1070784 0.05289565 0.086890146 0.13530032 0.090733424
-0.052095063 0.028679505 0.12189965 -0.05292844 -0.16394679 -0.03296596 -0.0060153464 -0.08763405
0.19034906 -0.052055802 0.13096228 0.07402999 -0.035740487 0.091194876 0.32549 0.20037536
-0.2084583 -0.26761416 0.32982704 -0.04342413 0.1455621 -0.00861597 0.06877075 0.055241115
0.104321346 -0.08465767 -0.11980735 -0.06649072 -0.06212408 -0.07949017 0.07825841 0.011183605
-0.068170846 -0.025523685 0.012697905 0.016264377 -0.051678356 -0.066036575 0.15097226 0.049909998
0.20841193 0.061404526 -0.0607659 0.24264374 -0.006133153 -0.0533831 0.0954821 0.0013105464
0.06528168 -0.04959859 0.089175224 0.10191059 -0.022958994 0.08816005 -0.0028885603 0.06936316
0.1154121 0.057118 0.103364035 0.012225449 -0.060210876 0.034161583 0.09099783 0.07307531
0.08479564 0.042605847 0.07719405 0.12996455 0.06721708 0.09761858 0.051347494 0.10940254
0.07721496 0.07442485 -0.12281311 0.17175442 0.1761836 0.15890089 0.011659565 -0.05265858
0.0065021366 -0.10565002 -0.067242734 0.009147301 -0.13472103 0.049255952 0.12263651 -0.055372365
0.10488063 -0.121845275 -0.042608112 -0.022925422 0.13410456 -0.13971022 0.18169466 0.12733291
-0.15233201 -0.16682659 0.24840017 -0.029152473 0.22955021 0.16715541 0.09279286 0.030874971
0.1754936 0.041448288 -0.15251593 -0.07415902 0.22193716 -0.08919383 0.0009688131 0.0837311
-0.07506626 -0.07090964 -0.1585308 0.12168398 -0.011579252 0.01208353 -0.1053693 -0.043717925
0.08068697 0.060128473 0.038030885 -0.0072494294 -0.07032223 0.026478566 -0.023226766 0.025331235
-0.033672184 -0.14884114 0.003430709 0.08523892 0.1399422 -0.049177796 -0.116723344 0.0016913265
0.12419446 0.120703265 -0.13141188 0.025096597 0.08455311 -0.04722045 -0.24851911 0.34689653
0.085985735 -0.06960129 0.039157763 -0.108077615 -0.14013326 -0.12825072 0.17639437 0.03356775
0.029189872 0.16734427 0.11572143 0.064304404 0.040254667 -0.027874446 0.30799988 0.07565917
00000000: 608b 093e e724 2f3e 8569 e0bd 9c0c 0fbe
00000010: 0032 753e 8032 363d 9441 8f3d 84ed cbbc
00000020: 92b8 edbd 3567 d6bd 1a21 1dbe 9bf0 1d3e
00000030: 51ce 1dbd b208 b53d 5df9 ab3d 5c6b 5a3e
00000040: 2485 c73d a5bd 0dbe 074a 39be fae1 3e3e
00000050: 7f7e 9a3d 1103 3b3e bf00 043e 41e2 beba
00000060: 9613 2d3e 1d9b febd 7dad 473e 3403 bb3c
00000070: 8f7d ffbd a8a6 6a3e 45ed 9a3e f723 3f3c
00000080: 192b c7bd 0123 7bbe cae3 8d3e 546c 84bd
00000090: 4278 f9bd 8e17 8c3d c071 d13b 0e05 e63d
000000a0: afd8 bbbd 09c2 873d ad32 223d d68a 74bc
000000b0: e155 003e 59a8 f33d d479 4dbd fd88 253e
000000c0: 3e66 993d 00d7 563e e934 ee3c fc4f a0bd
000000d0: 3292 babd 860c 013e 8224 5fbd 222a c5bd
000000e0: 40a4 b73b 1608 d03d 6854 9cbd 722a 8d3d
000000f0: 8ff4 013e c8c5 b6bd 34e7 5b3d 1ebd d73d
00000100: f065 03be d133 82bd 06b4 3b3e 1ead 443d
00000110: e799 f33d 1a1e 443e 5802 ddbd 40d5 033d
00000120: a8c2 a83d 62d9 d33d 4275 73bd 2a3c 793d
00000130: 6c79 e73c ca09 cf3d 136c 043e 63a9 b33d
00000140: 4fe0 a2bc fc64 043d a247 0cbe e410 0e3d
00000150: 4ae9 3a3d f8a1 113d de96 af3d 802d dd3d
00000160: 6420 593d ebf9 0c3e 7db2 c3bd ec4b db3d
00000170: 1ca9 583d 76f3 b13d 2b8c 0a3e 72d2 b93d
00000180: a261 55bd 48f1 ea3c 86a6 f93d 7ecb 58bd
00000190: abe1 27be 5107 07bd 621c c5bb 7b79 b3bd
000001a0: ddea 423e 7738 55bd fa1a 063e 099d 973d
000001b0: 9e64 12bd 61c4 ba3d a0a6 a63e 332f 4d3e
000001c0: 1876 55be b904 89be 17df a83e 80dd 31bd
000001d0: 3b0e 153e ff29 0dbc aed7 8c3d 8244 623d
000001e0: 6ea6 d53d 0061 adbd 8e5d f5bd 492c 88bd
000001f0: d275 7ebd becb a2bd f245 a03d 703b 373c
00000200: 289d 8bbd 0c17 d1bc e00a 503c df3c 853c
00000210: afac 53bd 2f3e 87bd 7998 1a3e 6d6e 4c3d
00000220: f069 553e 5083 7b3d aae5 78bd 9a77 783e
00000230: 9ef8 c8bb 3da8 5abd 1f8c c33d a4c6 ab3a
00000240: 67b2 853d e427 4bbd 80a1 b63d 80b6 d03d
00000250: 8014 bcbc 428d b43d 004e 3dbb 460e 8e3d
00000260: 2e5d ec3d 90f4 693d 86b0 d33d 404d 483c
00000270: ae9f 76bd 04ed 0b3d 125d ba3d 82a8 953d
00000280: 56a9 ad3d 7883 2e3d ea17 9e3d 6d15 053e
00000290: 1ca9 893d 40ec c73d c051 523d 700e e03d
000002a0: e022 9e3d 0e6c 983d 7185 fbbd 64e0 2f3e
000002b0: 7969 343e eab6 223e c307 3f3c 86b0 57bd
000002c0: e00f d53b 0a5f d8bd 8fb6 89bd 90de 153c
000002d0: 4ff4 09be 9cc0 493d da28 fb3d 22ce 62bd
000002e0: a8cb d63d 048a f9bd d885 2ebd 18ce bbbc
000002f0: b552 093e 3210 0fbe 2a0e 3a3e 8f63 023e
00000300: ecfc 1bbe 97d4 2abe 9d5c 7e3e 2bd1 eebc
00000310: 360f 6b3e ca2a 2b3e 2f0a be3d 82ed fc3c
00000320: 98b4 333e aec5 293d 232d 1cbe afe0 97bd
00000330: 7f43 633e 41ab b6bd f2f7 7d3a 367b ab3d
00000340: 57bc 99bd 1339 91bd e655 22be 7335 f93d
00000350: e7b6 3dbc 00fa 453c dccb d7bd 9111 33bd
00000360: 363f a53d 4649 763d 46c6 1b3d 9f8c edbb
00000370: 1a05 90bd 94e9 d83c 0f46 bebc 7383 cf3c
00000380: d8eb 09bd d069 18be bfd5 603b be91 ae3d
00000390: 024d 0f3e a86e 49bd a60c efbd 80af dd3a
000003a0: aa59 fe3d 4633 f73d d690 06be 6197 cd3c
000003b0: 2e2a ad3d 3b6a 41bd cb7b 7ebe 6c9c b13e
000003c0: 4a19 b03d 1f8b 8ebd e463 203d cc57 ddbd
000003d0: 187f 0fbe 2854 03be baa0 343e 567e 093d
000003e0: 991f ef3c 4c5c 2b3e 5bff ec3d 07b2 833d
000003f0: 14e2 243d f358 e4bc 29b2 9d3e 32f3 9a3d

bias f4 [5]
-0.14303468 0.095684156 0.12483384 0.17987098 -0.00662684
00000000: af77 12be 0ef6 c33d e2a8 ff3d 1930 383e
00000010: f725 d9bb

weight f4 [300, 5]
-0.2906483 -0.20014285 -0.08845701 -0.19908589 0.008817839 0.05936852 -0.07965425 0.108759135
-0.1083968 0.088596225 -0.25898397 -0.10432176 -0.24402949 -0.08270305 0.079673894 -0.24078134
-0.2761575 -0.078847356 -0.074525975 0.12165827 -0.19782507 -0.048032984 -0.18767239 0.007546084
-0.043848988 -0.15374821 -0.19979885 -0.26996735 -0.15097755 -0.12970415 -0.1406467 -0.18804042
-0.21453622 -0.2599367 -0.2833268 0.059151888 0.035624042 0.120366976 0.088201806 -0.13738868
-0.28093553 -0.0039978856 -0.11907095 0.08195394 -0.08483995 -0.0654654 -0.20841919 -0.17384681
-0.009406812 -0.07181724 0.081486404 -0.02330354 0.07385245 -0.100134954 0.02584974 -0.10793835
-0.1345381 -0.08473023 0.014863446 -0.056674182 -0.12274754 -0.11994189 0.07339004 0.1332434
0.04466082 -0.13169593 -0.1571219 -0.01399257 -0.14309773 0.07989188 0.11154573 0.009808525
0.027624309 -0.13715832 -0.098329246 -0.07039193 -0.051815182 -0.047133043 -0.03043841 -0.0061321612
0.12736145 0.14972636 -0.9258748 -1.1249015 -1.9363841 -0.24454622 -0.0466279 0.023737915
0.15403764 0.2533552 0.11836471 0.072369516 -0.087992445 -0.1397145 0.10204488 -0.12652381
-0.040273383 -0.07576417 -0.08153223 -0.06565423 -0.11126767 -0.07687039 0.004358683 -0.017096091
0.11056233 -0.17960085 0.026903072 -0.13932939 0.01547308 0.07849913 -0.4188951 -0.36322868
-0.24517135 -0.14536525 -0.17023161 -0.1797568 -0.1125025 0.053669937 0.14187247 0.2779525
0.08980587 0.02889742 0.04583335 -0.069842875 -0.052256815 0.021771818 -0.13419169 0.10174222
-0.0034187585 0.1105638 0.017546613 0.07186868 -0.08329643 -0.08183178 -0.009540207 -0.07412929
-0.27211955 -0.022453468 -0.11433534 -0.18629254 -0.2242774 -0.25290552 -0.22419922 -0.00052185386
-0.077084266 0.0871914 0.089641705 -0.14711525 0.07274973 -0.048183378 -0.11765452 0.11451997
-0.05299381 0.12399213 0.03242944 -0.11602686 -0.010922968 0.082870945 -0.13728473 -0.112917945
-0.037289225 -0.00081411004 0.040090337 0.068797976 -0.12784612 -0.12704538 -0.037632532 -0.04702866
0.078609675 -0.008998096 -0.100032575 -0.053184543 -0.07776976 -0.01388764 0.033735037 0.10403702
0.113869235 -0.089587085 -0.09126586 -0.006971836 -0.11339286 -0.012440726 0.12517552 0.11622472
-0.08667991 0.12477212 -0.012042895 -0.12289867 -0.033978313 0.12815808 -0.18669122 -0.11010485
-0.1417883 -0.23785649 -0.055411298 -0.00981909 -0.036015496 0.00021147096 0.18571156 0.089378245
-0.23114043 -0.15486263 -0.16294917 -0.18686144 0.023854388 -0.046540692 -0.16120064 0.025920697
-0.057944246 0.13772118 0.031149 -0.16656706 -0.0377482 0.121785164 -0.11136598 -0.216151
-0.12558247 -0.08181734 -0.09959792 0.050820913 -0.013962771 0.10178428 -0.10886073 -0.0100009395
0.006033327 0.0071082064 -0.04953249 0.063704886 0.007243352 0.06590026 -0.103191964 0.023518875
-0.13372874 -0.027878277 -0.052169286 -0.15103313 -0.19232428 -0.24184343 -0.16842112 -0.11399839
-0.015620723 -0.026594348 0.09594521 -0.107589304 0.010365799 -0.062193308 -0.09342161 -0.08360637
-0.011581068 -0.04428205 -0.100661054 -0.036024865 -0.20460503 -0.14481413 -0.18765916 0.06261754
00000000: dbcf 94be 3ff2 4cbe f328 b5bd 2cdd 4bbe
00000010: b378 103c 682c 733d c421 a3bd 1cbd de3d
00000020: 24ff ddbd f071 b53d 8c99 84be a6a6 d5bd
00000030: dee2 79be 3760 a9bd 112c a33d 628f 76be
00000040: 8464 8dbe b97a a1bd 13a1 98bd f927 f93d
00000050: a892 4abe 3cbe 44bd 312d 40be 2445 f73b
00000060: ff9a 33bd 2c70 1dbe 1298 4cbe 2939 8abe
00000070: dc99 1abe 2ad1 04be b005 10be ab8d 40be
00000080: 62af 5bbe 6c16 85be 3610 91be 4049 723d
00000090: 84ea 113d f682 f63d 26a3 b43d 9eaf 0cbe
000000a0: c8d6 8fbe b200 83bb 78db f3bd 78d7 a73d
000000b0: 91c0 adbd b912 86bd d76b 55be e604 32be
000000c0: 071f 1abc eb14 93bd 58e2 a63d 11e7 bebc
000000d0: f43f 973d 8e13 cdbd d5c2 d33c c80e ddbd
000000e0: 5bc4 09be 0b87 adbd d085 733c 3023 68bd
000000f0: 1063 fbbd 18a4 f5bd 844d 963d f570 083e
00000100: 44ee 363d 4cdb 06be 90e4 20be 1841 65bc
00000110: 3688 12be 5b9e a33d 1672 e43d f0b3 203c
00000120: 604c e23c 3b73 0cbe d860 c9bd a529 90bd
00000130: 283c 54bd 940e 41bd f959 f9bc 4cf0 c8bb
00000140: 0a6b 023e de51 193e 2206 6dbf c6fc 8fbf
00000150: 6fdb f7bf 536a 7abe e6fc 3ebd 0476 c23c
00000160: 0bbc 1d3e c6b7 813e 3269 f23d 7836 943d
00000170: 6235 b4bd 5111 0fbe e8fc d03d 758f 01be
00000180: b4f5 24bd 3f2a 9bbd 5ffa a6bd ba75 86bd
00000190: 4ee0 e3bd 396e 9dbd 48d3 8e3b 1a0d 8cbc
000001a0: 816e e23d 49e9 37be d563 dc3c 5dac 0ebe
000001b0: cd82 7d3c 27c4 a03d 6b79 d6be 1cf9 b9be
000001c0: 330e 7bbe a1da 14be 3251 2ebe 2b12 38be
000001d0: b667 e6bd 02d5 5b3d 0447 113e ca4f 8e3e
000001e0: 24ec b73d 48ba ec3c c0bb 3b3d c809 8fbd
000001f0: 3e0b 56bd d05a b23c 8c69 09be 3a5e d03d
00000200: 400d 60bb 466f e23d eabd 8f3c e32f 933d
00000210: 5297 aabd 6c97 a7bd 874e 1cbc 19d1 97bd
00000220: 4153 8bbe 56f0 b7bc a628 eabd 79c3 3ebe
00000230: faa8 65be d57c 81be 7b94 65be 05cd 08ba
00000240: 5bde 9dbd 6891 b23d 1296 b73d 61a5 16be
00000250: cffd 943d ef5b 45bd daf4 f0bd 7289 ea3d
00000260: 0a10 59bd 96ef fd3d bcd4 043d 7e9f edbd
00000270: 40f6 32bc 3eb8 a93d 5e94 0cbe 8641 e7bd
00000280: 96bc 18bd 006a 55ba c435 243d f4e5 8c3d
00000290: 18ea 02be 2f18 02be 9224 1abd 20a1 40bd
000002a0: 1cfe a03d c06c 13bc e1dd ccbd 09d8 59bd
000002b0: c045 9fbd fc88 63bc c02d 0a3d 5c11 d53d
000002c0: 4634 e93d 6f79 b7bd 98e9 babd 0074 e4bb
000002d0: 843a e8bd 30d4 4bbc 032e 003e 3a07 ee3d
000002e0: 3d85 b1bd 8688 ff3d 904f 45bc 4cb2 fbbd
000002f0: d82c 0bbd df3b 033e fc2b 3fbe a77e e1bd
00000300: f430 11be a790 73be f5f6 62bd 40e0 20bc
00000310: fc84 13bd 4ebe 5d39 2c2b 3e3e f10b b73d
00000320: 14b0 6cbe 4f94 1ebe 26dc 26be 9b58 3fbe
00000330: 476a c33c 74a1 3ebd c811 25be a457 d43c
00000340: f256 6dbd c806 0d3e 302c ff3c 8e90 2abe
00000350: db9d 1abd 806a f93d d913 e4bd b056 5dbe
00000360: b198 00be d98f a7bd fff9 cbbd 9729 503d
00000370: 1bc4 64bc 4774 d03d 60f2 debd fbda 23bc
00000380: 37b3 c53b f5eb e83b 95e2 4abd b577 823d
00000390: a459 ed3b b7f6 863d 4f56 d3bd a8aa c03c
000003a0: 30f0 08be fc60 e4bc 76af 55bd 6ea8 1abe
000003b0: a8f0 44be cea5 77be 9676 2cbe fd77 e9bd
000003c0: 10ee 7fbc 64dc d9bc ec7e c43d c857 dcbd
000003d0: 50d5 293c 69be 7ebd d453 bfbd d139 abbd
000003e0: 85be 3dbc 1861 35bd 6227 cebd cf8e 13bd
000003f0: fb83 51be 284a 14be b929 40be a03d 803d

bias f4 [5]
-0.09140744 -0.09399729 0.15479785 0.16500416 0.20206168
00000000: d333 bbbd a781 c0bd 5483 1e3e daf6 283e
00000010: 42e9 4e3e
