Models/GNNs/SecureBillingEmail/model_RGCN_100_samples_30_epochs.pth (torch, 10862 bytes, 14 tensors)

weight f4 [8, 10]
0	0xbc90f808	-0.017696396
1	0xbe43bb0a	-0.19114318
2	0xbe682d0d	-0.22673436
3	0x3e57f3d8	0.21089113
4	0xbe9e8c8e	-0.3096661
5	0xbe821bfa	-0.2541197
6	0x3d32c425	0.04364409
7	0xbedff734	-0.4374329
8	0xbee9c1a5	-0.45655552
9	0xbef9508f	-0.48694274
10	0xbd69c06c	-0.057068273
11	0x3e85b8a4	0.26117432
12	0x3d89bb30	0.06725156
13	0x3ecee2a2	0.40407282
14	0xbdb27a04	-0.08714679
15	0xbeb67f3f	-0.35643956
16	0x3ee1b0df	0.44080254
17	0xbf0dc735	-0.5538209
18	0xbea5c504	-0.32376873
19	0x3e8ecb0e	0.27889293
20	0x3e96738d	0.29385033
21	0xbe71f318	-0.23627889
22	0x3d531cea	0.051541246
23	0xbe122a34	-0.14273912
24	0xbeabbcaa	-0.33542377
25	0x3ed80f22	0.42199045
26	0x3e7e2900	0.24820328
27	0x3ecfeab2	0.40608746
28	0xbe8c98a7	-0.27460214
29	0x3e71f5f8	0.23628986
30	0x3f1a0ddb	0.6017739
31	0x3cff89a0	0.031193554
32	0x3e06a954	0.13150531
33	0xbeb3ce18	-0.35118175
34	0xbe70f7c0	-0.23532009
35	0xbee661e4	-0.4499656
36	0x3d22a573	0.039708566
37	0x3df7e180	0.121035576
38	0x3c0dd379	0.008656376
39	0xbe6f6207	-0.23377238
40	0xbef69d04	-0.48166668
41	0xbe337832	-0.1752632
42	0xbe36ac5c	-0.17839187
43	0x3ecb0b12	0.39656883
44	0xbda8f664	-0.0825012
45	0x3e0e4e28	0.13897002
46	0xbaa96a00	-0.0012925267
47	0xbf0065cd	-0.50155336
48	0x3ebba986	0.36652774
49	0xbcba7d20	-0.022764742
50	0x3eaed472	0.34146458
51	0x3e97ec40	0.29672432
52	0xbe3d4e30	-0.18486857
53	0x3dc7cc10	0.09755719
54	0x3df8b030	0.1214298
55	0x3e009b1c	0.1255917
56	0xbefc71ba	-0.49305516
57	0x3e8d3a24	0.2758342
58	0x3cebfd60	0.028807342
59	0x3e618368	0.22022784
60	0xbe77c094	-0.24194556
61	0xbec629bd	-0.3870372
62	0x3eaadf3e	0.33373445
63	0x3ecaad30	0.39585257
64	0x3ed5d176	0.4176137
65	0xbf0b35b7	-0.5437884
66	0xbe8c528d	-0.2740673
67	0xbe7bef7e	-0.24603078
68	0xbea31ffb	-0.31860337
69	0x3e9b54e6	0.3033821
70	0xbe17bcc4	-0.14818102
71	0xbf074e74	-0.52854085
72	0x3ed67c71	0.41891816
73	0x3e4e600c	0.20153826
74	0xbf024198	-0.5088134
75	0xbeac615c	-0.3366803
76	0xbe8b567a	-0.27214414
77	0x3ca72400	0.020402908
78	0x3f0139ea	0.50478995
79	0x3eaec77e	0.34136575

bias f4 [10]
0	0x3d7814b1	0.060566608
1	0x00000000	0.0
2	0x3d7d50bd	0.061844576
3	0x3d855da8	0.06512004
4	0x00000000	0.0
5	0x00000000	0.0
6	0x3d924b6a	0.0714329
7	0x00000000	0.0
8	0x3b2f5795	0.0026755084
9	0xbd61d33f	-0.0551331

weight f4 [8, 10]
0	0xbea276a5	-0.31731144
1	0x3eaa1c7e	0.33224863
2	0x3efedb70	0.49776793
3	0x3eb43f6c	0.35204637
4	0x3e8ee906	0.27912158
5	0x3f0c4474	0.5479195
6	0xbf0c5cb7	-0.5482897
7	0xbdf7cc70	-0.1209954
8	0x3f061c5c	0.5238702
9	0x3ebc9c28	0.36837888
10	0x3e83db0e	0.25753063
11	0x3e5f2594	0.21791679
12	0x3e887a96	0.26656026
13	0x3e9b2e00	0.30308533
14	0x3dd27e30	0.102779746
15	0x3e360da4	0.17778641
16	0xbe5b8184	-0.21436125
17	0x3e8c8ea2	0.2745257
18	0x3f0cfec0	0.5507622
19	0x3e8612aa	0.26186115
20	0x3e0c9aac	0.13730878
21	0x3dd03a60	0.10167384
22	0xbe1b89f0	-0.15189338
23	0x3e9dd962	0.30829912
24	0x3eff5aa8	0.49873853
25	0x3e5c3208	0.2150346
26	0xbde1f63c	-0.110332936
27	0xbeea3153	-0.45740756
28	0xbe4eb026	-0.20184383
29	0x3ef813f0	0.4845271
30	0x3ea90060	0.330081
31	0xbd721520	-0.059102178
32	0xbee2911a	-0.4425133
33	0x3e93cc60	0.28866863
34	0x3eb3e5a6	0.35136145
35	0x3e99bb3e	0.30025667
36	0xbecd6325	-0.40114704
37	0x3d1ad820	0.03780377
38	0x3e8c95fa	0.27458173
39	0x3ee15108	0.44007134
40	0xbe85bafc	-0.2611922
41	0x3ef3dc14	0.47628844
42	0x3efc0e54	0.49229681
43	0x3edadc50	0.4274621
44	0xbe72f54c	-0.23726386
45	0xbead95c6	-0.3390333
46	0x3e23a630	0.15981364
47	0x3d8765d0	0.06611216
48	0xbeef67a4	-0.4675876
49	0x3cc0ba40	0.02352631
50	0xbecf8779	-0.40533045
51	0xbe101532	-0.14070585
52	0x3ebc7ba0	0.36813068
53	0xbe739844	-0.23788553
54	0xbc33fe00	-0.010985851
55	0x3ebbe320	0.3669672
56	0x3eaece50	0.3414178
57	0xbf0d8e19	-0.5529495
58	0x3eb07b4a	0.34469062
59	0x3d197dd0	0.0374735
60	0xbf0f0aa6	-0.55875623
61	0x3ef9b368	0.4876969
62	0xbe8c9e54	-0.27464545
63	0x3e85a83a	0.2610491
64	0x3ec1774e	0.37786335
65	0xbeaac4f8	-0.333534
66	0x3eeed63c	0.46647823
67	0xbf0ddf45	-0.5541881
68	0xbf01c0db	-0.506849
69	0xbf09afbb	-0.5378377
70	0xbee8c549	-0.45463017
71	0xbeafec68	-0.3436005
72	0x3f06f95e	0.52724254
73	0xbea8e858	-0.32989764
74	0x3e0f944c	0.14021415
75	0x3e8b47f2	0.27203327
76	0xbe69162e	-0.22762367
77	0x3ea2b422	0.31778055
78	0x3f0c9c48	0.54925966
79	0x3e136370	0.14393401

bias f4 [10]
0	0x00000000	0.0
1	0x00000000	0.0
2	0x00000000	0.0
3	0x00000000	0.0
4	0x00000000	0.0
5	0x00000000	0.0
6	0x00000000	0.0
7	0x00000000	0.0
8	0x00000000	0.0
9	0x00000000	0.0

weight f4 [8, 10]
0	0x3f0ba59c	0.54549575
1	0xbcd428e0	-0.025898397
2	0xbe8cb828	-0.2748425
3	0x3f067de8	0.5253587
4	0xbe91dcf8	-0.28488898
5	0xbef5d4d4	-0.48013937
6	0xbe3ddda4	-0.1854158
7	0x3edf15c4	0.43571293
8	0x3f0f27b6	0.5591997
9	0xbef52f58	-0.47887683
10	0x3ed2a818	0.4114387
11	0xbe91cb30	-0.28475332
12	0xbcddbfa0	-0.027068913
13	0xbdb31f08	-0.08746153
14	0x3d08d770	0.033408582
15	0x3d695e20	0.05697453
16	0x3e8a9780	0.2706871
17	0x3da67b58	0.08128995
18	0xbeb772ef	-0.35829875
19	0xbeafaaea	-0.34310085
20	0xbdf81f2c	-0.121153206
21	0x3eb85b00	0.36006927
22	0xbee44f37	-0.44591686
23	0x3df23220	0.11825967
24	0xbf0b14ea	-0.5432879
25	0xbeefe507	-0.46854421
26	0x3bb3a200	0.0054819584
27	0x3f100740	0.5626106
28	0x3e8e1458	0.27749896
29	0x3e6dc740	0.23220539
30	0x3a15f800	0.0005720854
31	0xbe242a68	-0.16031802
32	0x3dd17408	0.10227209
33	0xbe75307a	-0.23944274
34	0xbc8115a0	-0.015757382
35	0xbf04662d	-0.5171841
36	0x3ed94530	0.42435598
37	0xbe7f9ef8	-0.24962986
38	0xbf0f8f3a	-0.5607792
39	0xbeb50cee	-0.35361427
40	0xbd5c1640	-0.053732157
41	0xbdfc9bbc	-0.123343915
42	0xbd4891a0	-0.048967004
43	0x3d453360	0.0481447
44	0x3ef0023c	0.46876705
45	0x3adc2000	0.0016794205
46	0xbf0f6f04	-0.5602877
47	0x3ea15b7c	0.3151511
48	0xbe2c519e	-0.1682801
49	0xbeea9848	-0.45819306
50	0x3efa45c8	0.48881364
51	0x3d453020	0.0481416
52	0x3ef08aec	0.4698099
53	0xbe90cb5b	-0.28280148
54	0x3e335ab0	0.17515063
55	0x3f08b076	0.5339426
56	0x3e7bc9e8	0.2458874
57	0x3f068d02	0.5255891
58	0xbed15f29	-0.40892914
59	0xbd40cae0	-0.047068477
60	0x3ee15df8	0.44017005
61	0xbe18a1e0	-0.149055
62	0x3e1fc1b4	0.15601236
63	0x3eb42050	0.35180902
64	0x3ed515a2	0.41618067
65	0x3ea1e028	0.3161633
66	0x3ec97a3a	0.39351064
67	0xbda28794	-0.07936016
68	0x3e53d0c4	0.20685107
69	0xbf03079c	-0.51183486
70	0x3ec50d5c	0.38486755
71	0xbd435360	-0.047686934
72	0x3da5c0e8	0.080934346
73	0xbdfa11f8	-0.122104585
74	0xbc591680	-0.013249993
75	0xbe7b09e2	-0.24515489
76	0xbeff718a	-0.4989131
77	0x3ee6fb84	0.45113766
78	0x3e522044	0.20520121
79	0x3eb209ae	0.3477301

bias f4 [10]
0	0x00000000	0.0
1	0x00000000	0.0
2	0x00000000	0.0
3	0x00000000	0.0
4	0x00000000	0.0
5	0x00000000	0.0
6	0x00000000	0.0
7	0x00000000	0.0
8	0x00000000	0.0
9	0x00000000	0.0

weight f4 [10, 5]
0	0x3f34f145	0.7068065
1	0xbd22550d	-0.039631892
2	0x3f155156	0.58327234
3	0xbf29b277	-0.6628794
4	0xbdd220bc	-0.1026015
5	0x3eba7c64	0.36423028
6	0xbf219dad	-0.6313122
7	0x3edb712a	0.42859775
8	0x3e11e3fc	0.14247125
9	0xbef92356	-0.48659772
10	0x3f327413	0.69708365
11	0xbf0a3f84	-0.5400317
12	0x3e91abe0	0.28451443
13	0x3e86c28d	0.26320305
14	0x3e00cc25	0.12577875
15	0x3f04f085	0.51929504
16	0xbe9a74d8	-0.3016727
17	0x3e29f806	0.1659852
18	0x3e90595d	0.2819318
19	0xbbf2ccf8	-0.007409688
20	0x3e0fd414	0.14045745
21	0x3f0006a1	0.50010115
22	0x3d4013f0	0.046894014
23	0xbee3491c	-0.44391716
24	0xbf1b3bfc	-0.60638404
25	0x3e94294c	0.28937757
26	0xbef6a414	-0.48172057
27	0xbeb3c2ca	-0.3510955
28	0xbec7dbc1	-0.39034846
29	0x3f030a2b	0.5118739
30	0x3e4df142	0.20111564
31	0xbdf293cd	-0.11844597
32	0x3ec7d30e	0.3902821
33	0x3ef27357	0.47353622
34	0x3f3503a7	0.707087
35	0x3e3630c4	0.1779204
36	0xbea0ab5a	-0.3138073
37	0xbf08b2d7	-0.5339789
38	0x3eaef7c6	0.3417341
39	0x3e4be330	0.19910884
40	0xbe278ab7	-0.1636151
41	0x3e26b155	0.16278584
42	0x3e0dd9c3	0.13852601
43	0x3f01ef33	0.50755614
44	0xbe9e6efc	-0.3094405
45	0xbf0208c1	-0.5079461
46	0xbe5c7321	-0.21528293
47	0xbee41122	-0.4454432
48	0xbc9903cc	-0.018678568
49	0xbdda1ccd	-0.106500246

bias f4 [5]
0	0x3d7c56cc	0.061606213
1	0xbd7532ac	-0.059862778
2	0x3d728c4c	0.05921583
3	0xbd4fb918	-0.05071363
4	0x3d8057e1	0.062667616

weight f4 [10, 5]
0	0x3f278ea4	0.6545203
1	0x3e53c6f8	0.2068137
2	0x3f0921ce	0.53567207
3	0x3df7be58	0.12096852
4	0x3f2fd3b0	0.68682384
5	0x3f0c3a7d	0.54776746
6	0xbe2889fa	-0.16458884
7	0xbe1db550	-0.15401196
8	0xbe33dd82	-0.17564967
9	0xbe987ad2	-0.29781204
10	0xbe58434e	-0.21119425
11	0xbe6b7858	-0.22995126
12	0x3e91f9ff	0.28511044
13	0xbe8b6b9f	-0.27230546
14	0xbda7d146	-0.081942126
15	0xbf09ba1a	-0.53799593
16	0xbec1fc1a	-0.3788765
17	0xbeafcf60	-0.34337902
18	0xbec10093	-0.3769575
19	0xbc82ce7b	-0.015967598
20	0x3ee3f822	0.44525248
21	0xbf1a89ed	-0.6036671
22	0x3edcc9da	0.4312275
23	0xbe474e90	-0.19463563
24	0x3cad7ac0	0.021176696
25	0x3e653e7c	0.22387117
26	0xbf07f18d	-0.5310295
27	0xbec9a3b7	-0.39382717
28	0xbe650594	-0.22365409
29	0x3f157fe3	0.58398265
30	0x3e68e990	0.22745347
31	0xbebe7d8a	-0.37205154
32	0xbeb91014	-0.3614508
33	0xbe9cb26c	-0.30604875
34	0xbeeda876	-0.46417588
35	0xbeb7b4f0	-0.35880232
36	0xbea0cdd7	-0.31407043
37	0x3ca88620	0.020571768
38	0x3ecf1c76	0.404514
39	0xbd65d550	-0.056111634
40	0x3f09dcca	0.5385252
41	0x3e9a27a3	0.30108365
42	0xbe356548	-0.17714417
43	0x3ee7ad02	0.45249182
44	0x3eaefaf4	0.34175837
45	0x3ec409fe	0.38288873
46	0xbf0127de	-0.5045146
47	0x3e916f53	0.28405246
48	0xbf20036e	-0.62505233
49	0xbec20d6d	-0.37900868

bias f4 [5]
0	0x3d6667c0	0.056251287
1	0x3d79a680	0.060949802
2	0x3d7015e3	0.058614623
3	0xbd7e2349	-0.06204537
4	0xbd730909	-0.05933479

weight f4 [10, 5]
0	0x3e47551e	0.19466063
1	0x3e2c44f8	0.16823184
2	0xbd8efdd2	-0.06982006
3	0xbe07f8e1	-0.13278534
4	0x3ea7a52e	0.3274321
5	0xbc89c4a0	-0.01681739
6	0x3efef846	0.49798793
7	0x3e9d1fc4	0.30688298
8	0xbf0ed2a8	-0.55790186
9	0x3f05ee23	0.5231649
10	0xbe9298ff	-0.28632352
11	0x3eb0de3e	0.34544557
12	0x3f0dc363	0.5537626
13	0x3e640073	0.22265796
14	0xbf3278ae	-0.6971539
15	0x3e9e5b50	0.3092904
16	0x3e3e6b73	0.18595676
17	0x3ed480bf	0.41504475
18	0xbf21bb9e	-0.63176906
19	0x3d8e4189	0.069460936
20	0xbe973a53	-0.29536685
21	0xbf19d1e8	-0.60085917
22	0x3ec74d56	0.3892619
23	0x3ebc17fe	0.36737055
24	0xbcc600a0	-0.02417022
25	0x3f1cb55b	0.61214226
26	0x3e3e976c	0.1861245
27	0x3e695948	0.22787964
28	0xbf02c02d	-0.51074487
29	0xbcf87220	-0.030327857
30	0x3f03ecb1	0.5153304
31	0x3f2872d6	0.65800226
32	0xbd73b43f	-0.059498068
33	0xbf165ad8	-0.58732367
34	0x3e9522eb	0.29128203
35	0x3ec30366	0.3808853
36	0xbf12dc58	-0.5736747
37	0xbdd91fe8	-0.10601789
38	0xbee0ef2e	-0.4393248
39	0x3e2fe2a0	0.17176294
40	0x3e95c8c4	0.29254735
41	0x3f2d359b	0.6765992
42	0x3ec25938	0.37958694
43	0x3f07d9ad	0.5306652
44	0xbec28789	-0.3799403
45	0x3ee03509	0.43790463
46	0xbe33be43	-0.17553048
47	0xbeebbef2	-0.46044117
48	0xbd8a68a4	-0.0675824
49	0xbf0766e1	-0.52891356

bias f4 [5]
0	0x3d6667c0	0.056251287
1	0x3d79a680	0.060949802
2	0x3d7015e3	0.058614623
3	0xbd7e2349	-0.06204537
4	0xbd730909	-0.05933479

weight f4 [3, 10]
0	0xbe4484af	-0.1919124
1	0x3eb620f2	0.3557201
2	0x3dbb3d9e	0.09142612
3	0xbe9c995b	-0.3058575
4	0xbdda2a5f	-0.10652613
5	0xbebc4c32	-0.36776882
6	0xbd91b3ad	-0.071143486
7	0xbe4a3ad9	-0.19749011
8	0x3e272414	0.16322356
9	0x3e23eacb	0.16007535
10	0xbdcad066	-0.0990303
11	0x3e77139e	0.24128577
12	0x3d02e8a5	0.03196015
13	0x3e64f913	0.2236064
14	0xbd3e2ccc	-0.04642944
15	0xbe9d1f3d	-0.30687895
16	0x3b777bdb	0.0037763033
17	0xbeaf9097	-0.3429
18	0xbe45dd0a	-0.19322601
19	0x3e57a6ef	0.21059774
20	0x3e2ce290	0.16883302
21	0xbe12ee29	-0.14348663
22	0x3eb70099	0.35742643
23	0xbe20b168	-0.15692675
24	0x3df37d26	0.118891045
25	0xbe52508e	-0.20538542
26	0x3e9051dc	0.28187454
27	0x3ec30d4e	0.38096088
28	0xbe7addae	-0.24498627
29	0xbea4287a	-0.3206213

bias f4 [3]
0	0xbe01247c	-0.12611574
1	0x3dc1ba1c	0.09459326
2	0x3e416455	0.1888593
