Models/GNNs/SecureBillingEmail/model_RGCN_1000_samples_100_epochs.pth (torch, 10898 bytes, 14 tensors)

weight f4 [8, 10]
0	0x3f37c2ac	0.7178142
1	0xbeb3a5ba	-0.35087377
2	0x3e37bb8e	0.1794264
3	0xbeaef842	-0.3417378
4	0x3f0c11d1	0.54714686
5	0x3ddb0116	0.106935665
6	0x3f254ed9	0.64573437
7	0xbc54b628	-0.012982883
8	0xbf758df1	-0.9591971
9	0x3ebfcb91	0.37459996
10	0xbe4ff489	-0.20308127
11	0x3eb7b572	0.3588062
12	0x3eed94eb	0.46402678
13	0xbf10ca6a	-0.5655886
14	0x3f092beb	0.5358264
15	0x3ea952d5	0.33071008
16	0x3e754a18	0.23954046
17	0x3f2bdf89	0.6713796
18	0xbdb6e79e	-0.08930896
19	0xbf1e7dd2	-0.61910737
20	0x3ef0651c	0.4695214
21	0x3ea75466	0.32681578
22	0xbe1e72f4	-0.15473539
23	0xbe790126	-0.24316844
24	0xbd20891a	-0.03919325
25	0x3c75dc44	0.015006129
26	0x3e1c776d	0.15279932
27	0x3f3deaf0	0.7418661
28	0xbf081197	-0.5315184
29	0xbef56ecd	-0.47936097
30	0x3f1efe14	0.6210644
31	0x3eae9c34	0.3410355
32	0x3e5259e4	0.20542103
33	0x3eeb1ee4	0.45922005
34	0xbebf49ba	-0.37360936
35	0x3f06a867	0.5260071
36	0x3f047a88	0.5174947
37	0x3ed8d3ca	0.42349082
38	0xbee41841	-0.44549754
39	0xbeec6734	-0.46172488
40	0xbe05befc	-0.13061136
41	0x3da4ed50	0.08053076
42	0xbea00e60	-0.31260967
43	0xbc134e80	-0.008990884
44	0x3ebb98e8	0.36640096
45	0x3f0c8144	0.54884744
46	0x3e9f9958	0.3117168
47	0xbe66a0a2	-0.22522214
48	0x3ebc159e	0.36735243
49	0x3f097eb4	0.5370896
50	0x3e095df0	0.1341474
51	0xbe22793c	-0.1586656
52	0x3ee53d68	0.44773412
53	0x3e8a79b2	0.2704597
54	0xbf04b1e2	-0.5183393
55	0x3e19d08c	0.1502096
56	0x3e92368a	0.28557235
57	0x3c8247a0	0.015903294
58	0x3ed28ce0	0.41123104
59	0x3f10d448	0.56573915
60	0x3e906fee	0.28210396
61	0x3f0a073e	0.539173
62	0xbe39a4ae	-0.18129227
63	0xbe33cff4	-0.17559797
64	0xbe44e60e	-0.19228384
65	0xbecc8af4	-0.39949763
66	0xbe8c317b	-0.273815
67	0xbeba6a46	-0.36409205
68	0xbede95ed	-0.4347376
69	0x3e53b9b4	0.20676309
70	0x3e4da348	0.20081818
71	0x3dbbbbf6	0.0916671
72	0x3e52fbcc	0.20603865
73	0xbed846be	-0.42241472
74	0x3ec34387	0.38137457
75	0xbdd55bc0	-0.104178905
76	0xbe449ca1	-0.19200374
77	0xbe35eeec	-0.17766923
78	0xbe856bbc	-0.26058757
79	0x3e41f787	0.1894208

bias f4 [10]
0	0x3e9ba530	0.30399466
1	0x3ecadff3	0.39623985
2	0x3eec2f73	0.4612995
3	0x00000000	0.0
4	0x3dd00c9b	0.10158654
5	0x3f0a3cb7	0.53998893
6	0x3e9cce1a	0.30625993
7	0x3ec3c2c3	0.3823453
8	0x3f186ee3	0.595442
9	0xbd88a84f	-0.06672727

weight f4 [8, 10]
0	0xbcd2a1c0	-0.025711894
1	0x3e9fb1f4	0.31190455
2	0xbe99995a	-0.2999981
3	0xbe48a3c0	-0.19593716
4	0xbf12c9ea	-0.57339346
5	0xbeacdcb5	-0.33762136
6	0xbdb806a0	-0.089856386
7	0xbf0858a0	-0.5326023
8	0xbe3a01e2	-0.1816478
9	0x3e603d84	0.21898466
10	0x3f103294	0.56327176
11	0xbe59a604	-0.21254736
12	0x3e5033ac	0.20332211
13	0x3eb9435e	0.3618421
14	0x3ed65e12	0.41868645
15	0x3ce74c80	0.02823472
16	0xbdbba768	-0.091627896
17	0xbe84735e	-0.25869268
18	0xbed37164	-0.41297448
19	0x3efdf980	0.49604416
20	0xbf0bbbda	-0.54583514
21	0xbf04bf4d	-0.518544
22	0xbecc530c	-0.3990711
23	0x3e18c048	0.149171
24	0xbe11f570	-0.14253783
25	0x3deeb7d8	0.11656159
26	0x3df11230	0.11771047
27	0x3f06ef74	0.52709126
28	0x3ea0813c	0.31348598
29	0xbea1cbbb	-0.31600747
30	0xbc5e26c0	-0.013559043
31	0x3dc1b5d8	0.09458512
32	0x3ed258fe	0.4108352
33	0x3e7f795c	0.24948639
34	0x3e83e768	0.25762486
35	0xbeb1ccd0	-0.34726572
36	0x3d416820	0.047218442
37	0x3ef6002c	0.48047006
38	0xbe645900	-0.22299576
39	0xbe9b2460	-0.3030119
40	0xbec1268f	-0.3772473
41	0x3eac1c7a	0.33615476
42	0xbe825f34	-0.2546326
43	0x3e899566	0.26871794
44	0x3e773f5c	0.24145263
45	0xbeaccbd8	-0.3374927
46	0x3cf60ba0	0.03003484
47	0x3f0338fc	0.51258826
48	0xbd9a7520	-0.07541871
49	0x3e696858	0.2279371
50	0xbe251420	-0.16120958
51	0x3ee2b224	0.44276536
52	0xbd50ced0	-0.05097848
53	0xbda77184	-0.08175948
54	0xbeffb433	-0.4994217
55	0xbea37bd0	-0.319304
56	0x3f040d9c	0.51583266
57	0xbec7c4cb	-0.3901733
58	0xbf081d88	-0.5317006
59	0x3e14ff1c	0.14550442
60	0xbd14af00	-0.036299706
61	0xbd191ac0	-0.037379026
62	0x3db59330	0.088659644
63	0xbdd8bdc8	-0.10583073
64	0x3eaea0ba	0.34107
65	0xbec21368	-0.3790543
66	0x3f0b9890	0.54529667
67	0xbd117cd0	-0.03551942
68	0xbe83bc9e	-0.2572984
69	0xbe1c78f6	-0.15280518
70	0x3edf8214	0.4365393
71	0x3f0893f8	0.5335078
72	0x3e5753b0	0.21028018
73	0xbe8e5eee	-0.278068
74	0xbeb9ce3f	-0.36290166
75	0x3e06e664	0.13173825
76	0x3e8cef52	0.27526337
77	0x3d309190	0.04310757
78	0x3ddb91a8	0.10721141
79	0x3e4a9fe4	0.19787556

bias f4 [10]
0	0x00000000	0.0
1	0x00000000	0.0
2	0x00000000	0.0
3	0x00000000	0.0
4	0x00000000	0.0
5	0x00000000	0.0
6	0x00000000	0.0
7	0x00000000	0.0
8	0x00000000	0.0
9	0x00000000	0.0

weight f4 [8, 10]
0	0x3eb1e8d2	0.3474794
1	0x3cc0bb00	0.023526669
2	0xbe29c49a	-0.16578904
3	0xbee1e5e9	-0.4412072
4	0xbe3bb55e	-0.18330905
5	0xbf025516	-0.5091108
6	0x3a9c1a00	0.0011909604
7	0xbe47aa72	-0.19498613
8	0x3eb006c2	0.34380156
9	0x3e7a810c	0.2446329
10	0xbe2f2b8e	-0.17106459
11	0x3f02343a	0.5086094
12	0x3dab2bd8	0.08357972
13	0xbe83574d	-0.25652543
14	0x3f04bdae	0.5185193
15	0xbd079170	-0.033097684
16	0x3ef503a4	0.4785434
17	0xbe407704	-0.18795401
18	0xbedf7450	-0.43643427
19	0x3f0dada2	0.5534307
20	0xbde2448c	-0.110482305
21	0xbeb60b7a	-0.3555563
22	0x3ee51d1c	0.4474877
23	0x3e5b3d74	0.21410161
24	0xbf017ff8	-0.5058589
25	0x3e97e942	0.2967015
26	0x3de55788	0.11198336
27	0xbe049c36	-0.12950215
28	0x3eac8d6e	0.33701652
29	0xbf096e42	-0.53683865
30	0xbe06d244	-0.13166147
31	0xbc869700	-0.016429424
32	0x3edb7828	0.4286511
33	0xbec31ddd	-0.3810872
34	0xbd510ee0	-0.051039577
35	0xbe5a1d4c	-0.21300238
36	0x3e9c179a	0.30486757
37	0x3d9bdc18	0.07610339
38	0x3ec4d35a	0.38442498
39	0xbecc93c2	-0.3995648
40	0xbf10b1af	-0.56521124
41	0xbf0bb80f	-0.54577726
42	0xbedf3d08	-0.4360125
43	0xbe8aa6f8	-0.27080512
44	0x3ef41764	0.47674096
45	0x3e031fe4	0.12805134
46	0x3de1f5e8	0.11033231
47	0x3f06c522	0.5264455
48	0x3e841cae	0.2580313
49	0xbd946500	-0.07245827
50	0xbedf65c1	-0.4363232
51	0xbeaefd4d	-0.34177628
52	0x3f036a5e	0.5133418
53	0x3f0877be	0.5330771
54	0x3d831f50	0.06402457
55	0x3d4314d0	0.04762727
56	0x3d8ba170	0.06817901
57	0x3eac157c	0.3361014
58	0xbcfa78c0	-0.030575156
59	0x3e93fdb2	0.28904492
60	0x3f10d92e	0.5658139
61	0xbf0eab0d	-0.5572975
62	0xbee06377	-0.43825886
63	0x3db1f560	0.0868938
64	0x3e760938	0.24026954
65	0xbe8e4927	-0.27790186
66	0xbda704c0	-0.08155203
67	0x3e10a240	0.14124393
68	0x3d6a43c0	0.057193518
69	0x3e25b920	0.16183901
70	0xbe9d97f5	-0.30779997
71	0x3e99dbaa	0.30050403
72	0x3ee3e26c	0.44508684
73	0xbd11cfa0	-0.035598397
74	0xbd7586b0	-0.0599429
75	0xbe9c8808	-0.30572534
76	0xbef41685	-0.4767343
77	0x3f0f311a	0.559343
78	0x3dbf70a0	0.093476534
79	0xbee96cf4	-0.45590937

bias f4 [10]
0	0x00000000	0.0
1	0x00000000	0.0
2	0x00000000	0.0
3	0x00000000	0.0
4	0x00000000	0.0
5	0x00000000	0.0
6	0x00000000	0.0
7	0x00000000	0.0
8	0x00000000	0.0
9	0x00000000	0.0

weight f4 [10, 5]
0	0x3f5ef557	0.8709311
1	0xbf5a7a73	-0.8534309
2	0xbe8a7c5e	-0.2704801
3	0xbf15b5fe	-0.58480823
4	0x3df7bcb9	0.12096543
5	0xbdea1a45	-0.11430792
6	0x3e9f38ec	0.31098115
7	0x3f191e7e	0.5981215
8	0xbf433c17	-0.76263565
9	0x3e4edd2d	0.2020156
10	0x3f348f2b	0.70530957
11	0x3da4b14f	0.080416314
12	0x3f2ae7b1	0.66759783
13	0x3eaf5de0	0.34251308
14	0x3f391543	0.7229807
15	0x3e7af5f4	0.24507886
16	0x3e532d14	0.20622665
17	0x3e432f74	0.1906107
18	0x3eae47da	0.34039193
19	0xbec4cb3c	-0.38436306
20	0xbf38d358	-0.72197485
21	0xbe9448b6	-0.28961724
22	0x3e947ebf	0.2900295
23	0x3ecafa80	0.3964424
24	0xbe86616b	-0.262462
25	0xbeadf87f	-0.3397865
26	0xbf7cc041	-0.98730856
27	0x3f769bdd	0.9633158
28	0xbe39b5ac	-0.18135709
29	0x3e55b5f9	0.20870198
30	0x3f5948b5	0.8487657
31	0xbf693343	-0.91093844
32	0x3f3797dc	0.71716094
33	0xbf25b83e	-0.64734256
34	0x3e5ef60b	0.21773545
35	0xbde9a8ca	-0.11409147
36	0x3e5b2a8e	0.21402952
37	0x3f5ea98f	0.86977476
38	0xbf3f48c3	-0.747204
39	0xbe6f0aeb	-0.23344009
40	0x3e0460db	0.12927572
41	0xbed798aa	-0.4210866
42	0x3d216c05	0.039409656
43	0x3c120fa2	0.00891486
44	0xbe979f57	-0.29613754
45	0xbebce5d4	-0.36894095
46	0x3d2363c0	0.03989005
47	0x3e7a9820	0.24472094
48	0xbe9d71d9	-0.3075092
49	0x3e881ba0	0.26583576

bias f4 [5]
0	0x3e8d1c08	0.2756045
1	0xbe8cf37a	-0.27529508
2	0x3e4ef344	0.20209986
3	0xbe3d4799	-0.18484344
4	0x3e6f22d9	0.23353137

weight f4 [10, 5]
0	0xbe56ff15	-0.20995744
1	0x3dd4b7c8	0.10386616
2	0xbf88c921	-1.068638
3	0xbe4066cb	-0.18789212
4	0xbf0eb3cc	-0.557431
5	0x3dbb5646	0.09147315
6	0x3f40e4e3	0.75349253
7	0xbf2df3e7	-0.6795029
8	0xbe9d6b65	-0.30745998
9	0xbd0d430f	-0.03448778
10	0x3d2c2712	0.042029448
11	0x3f019ad8	0.506269
12	0xbf8bb9e9	-1.091611
13	0xbec8ead3	-0.39241657
14	0xbe4f9b4e	-0.20274088
15	0x3e7da4c8	0.2476989
16	0xbf025887	-0.5091633
17	0x3f0fde6b	0.5619876
18	0xbf0f48eb	-0.5597064
19	0x3dac7ee0	0.08422637
20	0xbecd3767	-0.4008133
21	0xbeacaab9	-0.33724
22	0xbeef9288	-0.46791482
23	0x3eff634b	0.49880442
24	0xbec8edf0	-0.39244032
25	0xbcabb394	-0.020959653
26	0x3ee57974	0.44819224
27	0xbf7e9fa4	-0.9946234
28	0xbdea3eed	-0.114377834
29	0xbf376bc9	-0.7164884
30	0x3f1382ba	0.5762135
31	0x3da3f33c	0.08005378
32	0xbe9f48bf	-0.31110188
33	0xbe84779b	-0.25872502
34	0xbef619ea	-0.48066646
35	0xbe7da5b4	-0.24770242
36	0x3e4b2cb6	0.19841275
37	0xbf9447c6	-1.1584404
38	0x3e9389ee	0.2881617
39	0xbe6a4c0f	-0.22880577
40	0x3fab213c	1.3369517
41	0x3f059b59	0.52190167
42	0xbf3cb40e	-0.7371224
43	0xbf85b5b0	-1.0446072
44	0xbfb55930	-1.4167843
45	0xbeb65b15	-0.35616365
46	0xbee31752	-0.4435373
47	0xbe146a4d	-0.14493676
48	0xbedd84d0	-0.4326539
49	0x3ecfce69	0.40587166

bias f4 [5]
0	0xbe568c7e	-0.20952031
1	0xbe4382cb	-0.19092862
2	0xbe5310bf	-0.20611857
3	0x3e8bfe45	0.2734243
4	0x3e4dfcc6	0.20115957

weight f4 [10, 5]
0	0xbf7299bf	-0.9476585
1	0xbf221e8d	-0.63327867
2	0x3cc59d02	0.024122719
3	0x3f3320e5	0.6997207
4	0x3f2e599a	0.6810547
5	0xbe7365f5	-0.23769362
6	0x3e62cf83	0.22149472
7	0xbf24101b	-0.64087075
8	0x3ed5461c	0.41655052
9	0xbe0a2a91	-0.134928
10	0xbf6ebf7d	-0.9326094
11	0xbe063b7a	-0.13108626
12	0x3da6af2b	0.081388794
13	0x3f6a3692	0.9148952
14	0x3f5d8305	0.86528045
15	0xbe13b0c8	-0.14422905
16	0x3de75b10	0.11296666
17	0x3ed869ae	0.42268127
18	0x3e810c08	0.25204492
19	0xbe8ac0de	-0.2710027
20	0x3e6e4ece	0.23272249
21	0xbecb0c2d	-0.39657727
22	0xbf1864f6	-0.59529054
23	0x3eb9ef34	0.3631531
24	0xbccacd5a	-0.024756122
25	0xbf8909f5	-1.0706164
26	0xbf1dcfee	-0.616454
27	0xbdce2675	-0.10065929
28	0x3f7e5048	0.9934125
29	0xbe27511e	-0.16339538
30	0xbf60d48e	-0.8782433
31	0xbf4e2ea6	-0.8053993
32	0xbf554b54	-0.83318067
33	0x3e065b74	0.13120824
34	0x3ecfda2a	0.40596133
35	0xbf3a5241	-0.7278176
36	0x3d9cbd4f	0.07653295
37	0xbf63f32b	-0.8904292
38	0x3f1fc914	0.62416196
39	0x3f020df2	0.5080253
40	0xbf69f63b	-0.9139134
41	0x3e16d722	0.14730504
42	0xbf31e602	-0.6949159
43	0x3d52e15c	0.05148445
44	0xbe36f60e	-0.178673
45	0x3e54462c	0.20729893
46	0x3e6ed57b	0.23323624
47	0xbe1d0f35	-0.15337832
48	0xbcbc7be2	-0.02300829
49	0xbf03b009	-0.51440483

bias f4 [5]
0	0xbe568c7e	-0.20952031
1	0xbe4382cb	-0.19092862
2	0xbe5310bf	-0.20611857
3	0x3e8bfe45	0.2734243
4	0x3e4dfcc6	0.20115957

weight f4 [3, 10]
0	0xbe90ccb3	-0.28281173
1	0x3f08b4b1	0.53400713
2	0xbf0714cc	-0.5276611
3	0x3eb1b56a	0.3470872
4	0xbec0f503	-0.3768693
5	0x3e088e89	0.13335623
6	0x3e79fbc6	0.2441245
7	0x3f0b339c	0.54375625
8	0xbf01806b	-0.50586575
9	0xbe05f6d0	-0.13082433
10	0xbd6ff50b	-0.0585833
11	0xbe8390d8	-0.25696445
12	0x3e9e82e8	0.3095925
13	0x3d960841	0.07325793
14	0x3e8ac5b9	0.27103975
15	0x3ee0c5ba	0.43900853
16	0x3f1c4f1e	0.61058223
17	0xbeb87c6f	-0.36032435
18	0xbea3a469	-0.31961372
19	0xbecca466	-0.39969176
20	0x3e8c6058	0.27417254
21	0xbe6ba243	-0.23011117
22	0xbc9abb61	-0.018888177
23	0xbefa5ac8	-0.48897386
24	0x3edf1931	0.43573907
25	0xbf217904	-0.6307528
26	0xbf05b71b	-0.5223252
27	0xbe9b6e52	-0.30357605
28	0x3e8cb69a	0.27483064
29	0x3f19e7a7	0.601191

bias f4 [3]
0	0x3d891242	0.066929355
1	0xbe943fe0	-0.28954983
2	0xbdce56b3	-0.1007513
