Models/GNNs/SecureBillingEmail/model_RGCN_50_samples_150_epochs.pth (torch, 10862 bytes, 14 tensors)

weight f4 [8, 10]
000000 a6 6a fc be f2 44 3d be 0f 71 d1 be 48 49 c4 bd
       -0.49300116 -0.18483332 -0.4090657 -0.0958429
000010 ee f4 f7 3e 64 59 08 3e e8 54 b8 3e 30 b6 29 be
       0.48429054 0.1331535 0.36002278 -0.16573405
000020 d6 3e 5a be b1 dc ee 3e f9 dc db 3e e6 7c 0b 3f
       -0.21313033 0.4665275 0.42942026 0.54487455
000030 fc 5b bd 3e 4a ae d7 bd 33 f6 5b be e3 5d 04 bf
       0.3698424 -0.1053129 -0.21480636 -0.5170576
000040 70 9c 0a bf 4a c8 30 be 01 b1 c4 bc e2 bc 4d 3e
       -0.54144955 -0.17263904 -0.024010183 0.20091584
000050 eb 67 00 be 98 6e 99 3d 5f c4 05 3f 7e e6 11 bf
       -0.12539642 0.07491797 0.52252764 -0.5699233
000060 98 12 a1 3e 80 67 85 3d 48 32 02 3e 32 59 04 3f
       0.31459498 0.06513882 0.12714493 0.516986
000070 6a 85 93 bd eb fd 6a be 1d 90 8b 3e 4d 57 02 bf
       -0.07203181 -0.22948425 0.27258387 -0.5091446
000080 6a 22 8e 3e ff dc b2 3e e9 b6 5b be 82 f0 07 3f
       0.2776063 0.34934232 -0.21456493 0.5310136
000090 fa 9a c5 be 60 47 da be 0b cb 37 3f df 92 b7 bd
       -0.385948 -0.4263258 0.71794194 -0.0896356
0000a0 a0 05 49 3d d5 c5 bd be e6 b7 11 be 30 3d b9 be
       0.04907763 -0.37064996 -0.14230308 -0.36179495
0000b0 bc 7a 43 be 28 ad f9 3d 8c 1d a9 be 88 2f 59 3e
       -0.19089788 0.1219123 -0.33030355 0.21209538
0000c0 c0 e4 d3 3d 20 25 97 bd 40 f3 02 3f c4 6c e5 bd
       0.10346365 -0.07380128 0.5115242 -0.11202386
0000d0 64 ec 02 3f 74 c8 60 3e 36 c1 a2 3e 68 6a 52 3e
       0.51141953 0.21951467 0.31788033 0.20548403
0000e0 00 81 11 bc 29 26 d9 be f8 28 e2 3e ff 07 dd be
       -0.008880854 -0.42411926 0.44171882 -0.43170163
0000f0 09 3b 0f bf 6e 0d b6 3e 76 ee b8 be 9c 9a eb be
       -0.55949455 0.3555712 -0.3611943 -0.46016395
000100 c0 38 42 3c 16 a3 9b 3e 7b 80 9d be d8 15 0f 3f
       0.011854351 0.30397862 -0.30762085 0.55892706
000110 40 a3 5f 3e f2 18 9e 3e 4a cd 0a 3e a8 c4 f9 be
       0.21839619 0.30878407 0.13554874 -0.4878285
000120 2e 12 cc 3e bc d4 9e bd 55 58 1b 3e 4e 4e 68 be
       0.3985762 -0.077554196 0.15170415 -0.22686121
000130 76 18 0e bf 60 38 08 bf 22 69 c0 3d ee 70 38 3f
       -0.55506074 -0.5321102 0.093950525 0.7204732

bias f4 [10]
000000 b2 fa b0 bc 00 00 00 00 49 fe 3a 3e 1d d4 e6 bc
       -0.021603916 0.0 0.18261065 -0.028177315
000010 c4 f8 87 bd 00 00 00 00 00 00 00 00 00 00 00 00
       -0.06639245 0.0 0.0 0.0
000020 b6 e9 3b 3e c5 df 20 3e
       0.18350872 0.15710361

weight f4 [8, 10]
000000 50 79 2f 3e e8 04 b3 3e 7f 8a f7 be 8c e0 aa 3e
       0.17136121 0.3496468 -0.48347852 0.3337444
000010 7a 99 07 3f 92 ac ec be 40 c5 69 3d e2 b3 05 bf
       0.5296856 -0.4622541 0.057072878 -0.52227604
000020 68 d0 f4 3e 50 fa 57 bd 48 92 42 3e 83 f8 8a be
       0.4781525 -0.05272895 0.19001114 -0.27142724
000030 60 f3 cb bd 24 62 ad 3e 18 69 29 be 74 d7 3e be
       -0.099585295 0.33863938 -0.16543996 -0.18636876
000040 94 fc d4 be fc 99 16 3e e4 7a 4e be 36 2a 80 be
       -0.41598952 0.14707178 -0.20164067 -0.25032204
000050 88 1c 91 3e 26 c6 22 be f5 a9 ca be f0 62 cb 3d
       0.2834208 -0.158959 -0.39582792 0.0993098
000060 e2 ac 4d be 00 2a 39 bd a4 a8 4e be 3a 5a 0d 3f
       -0.20085481 -0.04520607 -0.20181519 0.552158
000070 50 35 42 be bd 37 0d bf e0 02 e7 3d a8 98 c2 3e
       -0.1896565 -0.55163175 0.11279845 0.38007092
000080 a8 72 bd be d6 62 d5 3e 44 8d fa 3e 38 a0 ef 3e
       -0.37001538 0.41676968 0.48935902 0.46801925
000090 a0 a1 5c 3d 7f 83 a0 be 4b 15 f3 be 60 4d 56 3e
       0.053865075 -0.31350324 -0.47477183 0.20927954
0000a0 96 f9 74 be be bf 8d 3e c0 cd a4 3c 60 7f fd bc
       -0.23923334 0.2768535 0.02011764 -0.030944526
0000b0 40 d9 0a 3c be d3 12 3f c8 29 f3 3e a0 24 13 3f
       0.008474648 0.5735434 0.47492814 0.5747776
0000c0 04 04 98 be 05 d4 c6 be 92 12 ab 3e f3 f1 9e be
       -0.29690564 -0.38833633 0.33412606 -0.31043968
0000d0 60 67 1c 3d 60 a2 10 3f 51 1c e3 be 15 52 ef be
       0.038184524 0.56497765 -0.4435754 -0.4674231
0000e0 10 45 0a 3f 72 ca 72 be 90 8e f6 3d b0 62 f1 3e
       0.5401163 -0.2371004 0.120389104 0.47145605
0000f0 62 82 fc be 26 d8 90 3e 64 ba 12 bf 24 f2 31 3e
       -0.49318224 0.28289908 -0.5731566 0.17377526
000100 ff 5a 97 be f8 9d 68 3e 68 9f f9 3e 7a 52 c2 3e
       -0.29561612 0.2271651 0.4875443 0.3795355
000110 98 d3 03 3f e0 9f 0f 3d 28 20 f5 be 66 41 7a be
       0.5149474 0.035064578 -0.47876096 -0.2443901
000120 54 d3 e1 be f6 23 06 3f 22 40 05 3f f0 71 79 3e
       -0.44106543 0.5239862 0.52050984 0.2435987
000130 60 16 cf 3e a0 45 31 3d ea 72 33 be f8 b9 c1 3e
       0.40446758 0.04327929 -0.17524305 0.37837195

bias f4 [10]
000000 00 00 00 00 00 00 00 00 00 00 00 00 00 00 00 00
       0.0 0.0 0.0 0.0
000010 00 00 00 00 00 00 00 00 00 00 00 00 00 00 00 00
       0.0 0.0 0.0 0.0
000020 00 00 00 00 00 00 00 00
       0.0 0.0

weight f4 [8, 10]
000000 00 5b bf 3c 48 8c 4a 3e e0 f0 a6 3c da f4 49 be
       0.023358822 0.19780076 0.02037853 -0.1972231
000010 5a b6 07 3f fc 79 04 3f 30 9d 82 be 14 d9 0a 3f
       0.5301262 0.51748633 -0.2551055 0.54237485
000020 50 10 50 be 9c 25 a6 bd 40 86 13 be 78 87 d2 3d
       -0.20318723 -0.08112642 -0.14406681 0.10279745
000030 9e 11 99 3e aa 05 03 bf 16 01 05 bf 98 f4 ed 3e
       0.29896253 -0.5118052 -0.5195478 0.46475673
000040 d0 f0 f9 3e 18 3f ab 3d 24 c5 0a bf 06 ab 61 be
       0.48816538 0.083616436 -0.5420706 -0.22037897
000050 10 86 f8 3e 8a 5c 1b be 2a 1d 0d 3f 2b 8b ef be
       0.48539782 -0.1517202 0.55122626 -0.46785864
000060 6a 54 a8 3e c0 ff 16 3e aa 75 74 be 5f 62 c5 be
       0.32876903 0.14745998 -0.2387301 -0.38551614
000070 7e 76 89 3e 78 bf 36 be cc 78 0a 3f ae 4d 0f 3f
       0.26848215 -0.17846477 0.5409057 0.55977905
000080 60 2f 91 3e fc 26 49 be 5c 4a 43 3e 4e 46 29 be
       0.28356457 -0.19643778 0.19071335 -0.16530725
000090 cc cd 09 be ea 1c 23 be 74 b1 dd 3e d8 f7 c7 bd
       -0.13457412 -0.15928999 0.43299448 -0.09764069
0000a0 2a c9 79 be 5b 34 92 be 68 eb ef 3e d9 4d c4 be
       -0.24393144 -0.2855557 0.46859288 -0.38340643
0000b0 4c ba 06 bf d4 85 52 3e 2a 98 c3 3e 16 9b d2 be
       -0.52628016 0.20558864 0.3820203 -0.41133946
0000c0 27 15 04 bf a0 ad e5 3e 60 7d 4b 3e ba 4d 1d be
       -0.51594776 0.44859028 0.19872046 -0.15361682
0000d0 54 56 db 3e 76 97 92 3e ee 19 1a be 80 ec 85 bc
       0.428393 0.2863118 -0.15048954 -0.016348124
0000e0 88 c1 06 3f 00 12 d3 ba 3a 4d ac 3e e8 47 e1 3d
       0.52639055 -0.0016103387 0.3365267 0.11000043
0000f0 e2 73 4c be 72 f2 de be 0a d9 a1 3e cc 8b eb bd
       -0.19966081 -0.43544346 0.316109 -0.115012735
000100 22 f1 97 3e ac 8a b7 bd d0 b3 af bd 86 90 87 3e
       0.29676157 -0.089619964 -0.085792184 0.2647745
000110 af d7 bb be 9c 26 07 3f 80 43 78 3e 4a fd 86 be
       -0.3668799 0.5279329 0.24244499 -0.2636512
000120 c4 b1 ae be 78 95 e5 be 20 05 48 be f4 45 31 be
       -0.3412 -0.44840598 -0.19533205 -0.17311841
000130 ec bd b1 3e 00 be 2d 3e b9 d0 f2 be 70 f6 64 3e
       0.3471521 0.1696701 -0.47424868 0.22359633

bias f4 [10]
000000 00 00 00 00 00 00 00 00 00 00 00 00 00 00 00 00
       0.0 0.0 0.0 0.0
000010 00 00 00 00 00 00 00 00 00 00 00 00 00 00 00 00
       0.0 0.0 0.0 0.0
000020 00 00 00 00 00 00 00 00
       0.0 0.0

weight f4 [10, 5]
000000 bc 58 82 3e c7 ef ee 3d 3e 20 db be 23 fc 25 bf
       0.25458324 0.11666828 -0.42798036 -0.64837855
000010 e4 4e 29 3f 18 b1 06 3e f8 3c fb 3d 42 11 b8 3e
       0.66136 0.13153493 0.12267488 0.35950667
000020 b4 89 14 3e 20 e7 61 3e 68 0c 9d 3e 69 0f f5 be
       0.14505655 0.22060823 0.30673528 -0.4786332
000030 aa d6 59 be c7 08 2b bf 0f 0a 20 be f9 11 4b bc
       -0.21273294 -0.6681027 -0.15628837 -0.012394422
000040 6b bf 46 be 26 11 b7 3d 2a 99 eb 3a aa 2c 50 be
       -0.19408958 0.08938818 0.0017974724 -0.20329538
000050 b4 61 35 3d 51 c9 ee be 05 8a 22 3e 0a 88 13 3f
       0.04428263 -0.46637967 0.15872963 0.57629454
000060 a3 e8 89 3d f2 81 f3 3e 90 f3 fe be d0 43 e6 be
       0.06733825 0.47560078 -0.49795198 -0.44973612
000070 88 0a f3 3d d8 e1 a1 3d 80 57 ae bc a4 a9 34 3e
       0.11867243 0.079044044 -0.021281958 0.17642838
000080 c0 c4 2a 3d b4 7c dd be f2 ee 9d 3e aa 3d fe 3e
       0.04169154 -0.43259203 0.30846363 0.4965642
000090 20 9b 93 bd a5 d0 0e 3f 08 14 ae bd 3b c9 0c bf
       -0.07207322 0.55787116 -0.084999144 -0.54994553
0000a0 5d 1f 8a be 00 88 ea be 8b e4 15 3d 87 84 15 bf
       -0.26977053 -0.45806885 0.03659491 -0.58405346
0000b0 03 77 b6 3e 1d e6 e4 3e 9a f2 14 bf a2 fa c0 3e
       0.35637674 0.44706813 -0.5818268 0.37691218
0000c0 3d f6 95 3e 42 b1 41 3f
       0.29289427 0.756611

bias f4 [5]
000000 d9 bf 1c 3e 47 fb 14 be 43 67 ff 3d 42 47 0d be
       0.15307559 -0.1454898 0.124708675 -0.13796714
000010 d6 ae 1a 3e
       0.15105757

weight f4 [10, 5]
000000 fa 8e ff 3b 0c 74 39 3e e6 11 e0 3e ad 0a 2c be
       0.0077990266 0.18110675 0.43763655 -0.16800947
000010 6e 67 be bd 88 2f 67 be da d4 50 be fb ab b8 be
       -0.092970714 -0.22576725 -0.20393696 -0.3606871
000020 80 04 aa 3e 6d b6 03 3f f0 ec b4 bd f0 0c 1d 3f
       0.33206558 0.51450235 -0.08834255 0.61347866
000030 38 85 49 be 59 38 31 bf b7 87 b1 be 4d 1e 18 bf
       -0.19679725 -0.69226605 -0.34673855 -0.59421235
000040 98 a8 e7 3e 80 30 26 3e 3b c1 8d 3e ea 4d 0d bc
       0.45245814 0.16229439 0.27686486 -0.008624533
000050 37 ee 2e 3c f2 3a 87 3e 7d 71 2b 3e db 94 66 be
       0.010676912 0.2641216 0.16742511 -0.22517721
000060 64 e7 d6 be b1 86 a7 be 62 53 e5 3e 10 08 be be
       -0.41973412 -0.3271995 0.4479018 -0.37115526
000070 f2 98 7d be 50 00 ab 3d 22 9b 5f be e6 c7 be 3e
       -0.24765375 0.08349669 -0.21836522 0.37261885
000080 9c 66 16 bf b7 e3 86 be 34 12 de be fa c9 9b 3e
       -0.5875032 -0.26345608 -0.43373263 0.30427533
000090 2e 50 e7 3e 14 39 5a 3e b0 26 c5 3d a2 b4 5c be
       0.4517836 0.21310836 0.0962652 -0.21553281
0000a0 a7 56 2d 3e c9 50 48 3e 7b 14 50 bf 75 4e 6b be
       0.16927586 0.19562067 -0.8128125 -0.22979148
0000b0 e8 03 0a bf c0 a3 85 be 2c 3e 9c be b2 c5 81 be
       -0.5391221 -0.26101494 -0.30516183 -0.25346142
0000c0 b6 42 0f 3c 1b fb 20 be
       0.0087439325 -0.15720789

bias f4 [5]
000000 4e 07 2b 3e 9a c9 10 be c2 b5 01 3e 88 f7 1f 3e
       0.16702005 -0.14139405 0.12666991 0.1562177
000010 09 b1 08 be
       -0.13348784

weight f4 [10, 5]
000000 f3 34 aa 3e e3 cc d1 be e6 ec e1 be 2b b2 23 3d
       0.33243522 -0.4097663 -0.44126052 0.039964836
000010 3c f0 dc 3e 3c 6f 28 3e ce d6 ed 3e d0 81 7e be
       0.43152034 0.16448683 0.46452945 -0.24854207
000020 a4 f3 91 3e 6a c4 a1 3e aa ee b7 3e 9e 5f ff bb
       0.28506196 0.31595165 0.35924274 -0.007793381
000030 24 07 e2 3e 44 16 d2 be a7 ec c1 be 8b 2f 66 3e
       0.44146073 -0.41032612 -0.37875864 0.22479074
000040 d1 9d 45 bc d5 b6 8f be 70 31 04 be 82 fe b5 3e
       -0.012061552 -0.28069177 -0.12909484 0.35545737
000050 59 a7 03 3f 40 b0 87 3e 5c b9 b5 be 35 96 39 3d
       0.5142723 0.26501656 -0.3549298 0.045309264
000060 56 ba 6c bd 68 14 03 3e 7c 7b ee be 59 38 a9 be
       -0.05779489 0.12800753 -0.46578586 -0.33050802
000070 90 c7 20 bf 90 ff 68 bd 26 ec da be 70 6c 9a bd
       -0.6280451 -0.05688435 -0.42758292 -0.07540214
000080 88 c9 07 be 93 a7 0e bf e0 14 9f 3d 5b 09 04 3f
       -0.13260472 -0.5572445 0.077676535 0.51576775
000090 9c 3c 98 be b9 89 04 3f e7 44 1f bf bd 5d 0b 3f
       -0.2973374 0.5177265 -0.6221451 0.5443991
0000a0 9d ec 32 be 6b c9 0d 3e ee 08 72 bd fd 0f aa 3e
       -0.17473073 0.13846366 -0.059090547 0.33215323
0000b0 cc db 33 be d3 ac 8d 3e e7 10 3e bf e9 23 53 bd
       -0.17564315 0.27670917 -0.7424454 -0.05154792
0000c0 4b c4 19 3f 10 1f bd be
       0.60065144 -0.3693776

bias f4 [5]
000000 4e 07 2b 3e 9a c9 10 be c2 b5 01 3e 88 f7 1f 3e
       0.16702005 -0.14139405 0.12666991 0.1562177
000010 09 b1 08 be
       -0.13348784

weight f4 [3, 10]
000000 f4 91 76 be af 88 2a 3e f9 85 92 be 6e 11 28 bc
       -0.24079114 0.16653703 -0.28617838 -0.010258062
000010 da 2f 8a be c5 ba 8b be e0 28 e1 3e 50 2e 6e 3c
       -0.26989633 -0.2729093 0.43976498 0.014537409
000020 91 8b 9a be c7 58 f9 3e 1a 47 b6 be 5d 0f e8 3d
       -0.30184606 0.48700544 -0.3560112 0.11331055
000030 99 2b 17 be fd 86 b1 3e 7d 7c dd be a8 be d9 be
       -0.14762725 0.346733 -0.4325904 -0.42528272
000040 7b 8f 44 3e 19 7d 6a be e7 3b e6 be fd 07 c6 3c
       0.19195358 -0.22899283 -0.44967577 0.024173731
000050 22 e5 0d 3e a7 99 c9 be 53 2d d2 3d b3 27 c8 be
       0.13856938 -0.3937504 0.10262551 -0.39092788
000060 d9 43 a2 3d d0 1b d2 3c f5 34 83 be 86 b9 1d 3e
       0.07923097 0.025648028 -0.2562634 0.15402803
000070 53 02 e7 3d 75 74 b4 be
       0.1127974 -0.352451

bias f4 [3]
000000 78 6c fa bd 94 7e b0 bc 72 38 2c be
       -0.1222772 -0.021544732 -0.16818407
