Models/GNNs/SecureBillingEmail/model_RGCN_10000_samples_20_epochs.pth (torch, 10898 bytes, 14 tensors)

weight f4 [8, 10]
00000000: d45d babe 4035 1c3d a00b df3e fbac 58bd
00000010: aef1 47be 42d6 debe bb71 923e 1113 30be
00000020: ac93 3b3e bf05 b0be 161f 4dbe dc3e d4be
00000030: 5d98 a0be 9e70 2cbd a4de a0be 12c4 e9be
00000040: 6c9a 1c3f 6728 2b3f 7e10 cbbd 5a7b debe
00000050: 9865 473e 6ce7 853e 23f9 f0be 5e20 34be
00000060: 7ee1 5f3e 6cd8 d5bd 935b 3f3f ece4 f13e
00000070: 22a0 0a3d fed9 36be d016 a03d a4dc 873e
00000080: 631f 8fbe 6fdb 0bbf 154f 703e 20e2 263d
00000090: 4ba3 d03e 0daf 353f 0ff2 d23e e672 aebe
000000a0: c8f3 083e 6c69 a1bd bc23 553e 7e4f ccbe
000000b0: e2df 933e 5883 b9be eb2c 0cbf 001c 583d
000000c0: 9c34 e93e 72b9 adbe 90ac 21bd 178b 9cbe
000000d0: 548e af3e 30f1 ed3d 08df b23d 28c5 09be
000000e0: 60a6 093e 00c5 173e 6438 293e 3ced 173e
000000f0: 5694 b13e 40e6 113e 5cab 3c3e 00c2 4abd
00000100: ce32 0d3f be37 07be 9cdc 10bf 648f b23e
00000110: d771 06bf 6e43 39be 866b d7be c1bd c4be
00000120: a2e2 a0be dae2 efbe aefb 253e a2b4 5ebe
00000130: 959c e73e 57ca c13e 4eab 00be f05e 66bd
-0.3639971 0.03813672 0.43563557 -0.052899342 -0.19525787 -0.4352284 0.28602394 -0.17194773
0.18318051 -0.34379384 -0.2003139 -0.41454208 -0.31366244 -0.042099588 -0.3141986 -0.45657402
0.6117313 0.66858524 -0.09915255 -0.43453485 0.19472349 0.26153123 -0.47065076 -0.17590472
0.21863362 -0.1044167 0.74749106 0.47244966 0.03384412 -0.17856595 0.07816851 0.26535523
-0.27953634 -0.54631704 0.23467667 0.040742993 0.40749583 0.7097023 0.412003 -0.34072036
0.13374245 -0.07881436 0.20814413 -0.39904398 0.28881747 -0.3623302 -0.5475604 0.052761078
0.4554795 -0.33930546 -0.03947121 -0.30574867 0.34288275 0.116182685 0.08733946 -0.13454115
0.13442373 0.14821243 0.16525418 0.14836591 0.34683484 0.1424799 0.18424743 -0.04950142
0.55155647 -0.13204858 -0.56586623 0.34875023 -0.52517456 -0.18092129 -0.4207422 -0.3842602
-0.31422907 -0.46852762 0.1620929 -0.21748593 0.4523665 0.37849686 -0.12565348 -0.056242883

bias f4 [10]
00000000: 0000 0000 0000 0000 0000 0000 6156 f03e
00000010: 54a0 8ebd 0000 0000 2ed4 d8b9 b33d 553f
00000020: 7c6c e93e 0000 0000
0.0 0.0 0.0 0.46940902 -0.06964174 0.0 -0.00041356817 0.8329727
0.4559058 0.0

weight f4 [8, 10]
00000000: fb07 01bf 2429 83be b87c ffbe ce3f b83e
00000010: d603 b03e 3c7b b3bd aaaf 0cbf 2142 d1be
00000020: 1417 e2bd ec92 da3e f629 d13e 5cee 33be
00000030: 8e8c 12bf f4c4 fc3e 8cde 543e 583d 8d3e
00000040: d43d d2be 5c0d f9bd 5843 513e 68a4 003e
00000050: 3383 84be 10f9 003d a86b 86bd 6b45 b1be
00000060: f66e aa3e 805a adbc a906 0dbf e44c eb3e
00000070: 54e3 df3e f628 853e b8fa c6bd 9f9d 9dbe
00000080: 0036 c33a 11d0 b6be 58e6 e03e cc0e 7fbe
00000090: d81c c53e 0035 a23e 8e96 bb3e 2495 3e3e
000000a0: c052 c83c 283f 3cbe 36f4 6dbe badb 80be
000000b0: 5467 813e 787e 76be 42c1 8b3e 3802 a23e
000000c0: c0d0 07bf a821 f13e 4000 db3e 3097 663e
000000d0: a02b c8bc dc89 bd3e 4043 123f a860 92be
000000e0: 6014 6c3e d795 0bbf 4048 14bc 642f d7be
000000f0: f45c d63e b55e dcbe 6cde 12be 0636 91be
00000100: 2cc0 4d3e f8e2 aa3e 7a7a 9d3e f899 42be
00000110: 3051 d83e 260c 69be 844a ee3e 0081 e13d
00000120: 20d9 4ebe 0082 07be 9054 0fbd 2a3f 5cbe
00000130: e02a 5e3e b05c e43e 80c3 3a3d 7d41 f7be
-0.504028 -0.25617325 -0.4989984 0.3598618 0.34377927 -0.087637395 -0.5495554 -0.40870765
-0.11039558 0.42690217 0.40852326 -0.17571396 -0.5724572 0.49369013 0.2078802 0.27585864
-0.41062796 -0.12160751 0.20435846 0.12562716 -0.25881347 0.031487525 -0.065635026 -0.34623274
0.3328778 -0.021161318 -0.5508829 0.459571 0.43728125 0.26007813 -0.097157896 -0.30784318
0.0014893413 -0.35705617 0.43925738 -0.24907988 0.3849857 0.3168106 0.36638302 0.1861158
0.02445352 -0.18383467 -0.2323769 -0.25167638 0.25274146 -0.24071681 0.27295882 0.31642318
-0.530529 0.4709599 0.42773628 0.22518611 -0.024434865 0.3701924 0.57133865 -0.28589368
0.23054647 -0.5452551 -0.009050429 -0.42028344 0.41867793 -0.43041006 -0.1434266 -0.2836153
0.20092839 0.33376288 0.30757505 -0.19004047 0.4224944 -0.2275854 0.46541226 0.11010933
-0.20200014 -0.13233185 -0.034992754 -0.2150847 0.21696043 0.44601965 0.0455966 -0.4829215

bias f4 [10]
00000000: 0000 0000 0000 0000 0000 0000 0000 0000
00000010: 0000 0000 0000 0000 0000 0000 0000 0000
00000020: 0000 0000 0000 0000
0.0 0.0 0.0 0.0 0.0 0.0 0.0 0.0
0.0 0.0

weight f4 [8, 10]
00000000: e84a d33e e8c1 a5bd 90de 173e 7e47 ca3e
00000010: 2d18 0bbf c249 d73e bc24 6e3e ca87 813e
00000020: ba44 b93e 30f4 743d fcf8 a4bd d013 c2be
00000030: 3a71 9e3e 00f4 073d aada dbbe 822b ca3e
00000040: dc66 1abe 0c65 d4bd 10d5 35bd 822b c83e
00000050: 8e35 12bf 34fe e73e 1aa9 08bf b01c 30bd
00000060: b4d9 dc3e 5e83 973e 2286 05bf 35ac 83be
00000070: 1451 0fbf 6817 8a3e d00e e73d 8ab4 a6be
00000080: 4171 0dbf d0b9 22bd 58aa ae3d bc9c 343e
00000090: 5a4b d43e 8bf5 09bf 687b 103e 94f8 ef3e
000000a0: 69ef 05bf 2a52 8abe cc48 e33e 5232 073f
000000b0: ec2d ffbd 383d dd3e 74f5 4a3e 58f1 e4be
000000c0: b1fc a7be 0043 683b 7e3c 923e de93 9dbe
000000d0: 00e4 dcbc 1aaa 813e e4ee 7c3e 1454 3e3e
000000e0: 30c7 753d 6e7a 2bbe 8086 1a3d f804 babe
000000f0: 6ceb 443e 8c6a 0f3e 529b cebe ccf7 0cbf
00000100: 5091 c13e 52e1 8b3e 8804 ee3e d6a0 ce3e
00000110: 032a cbbe 00c8 e73a 0852 a9be bc9f bebd
00000120: 88f9 0d3e 7276 bf3e c686 0c3f 4070 803c
00000130: cbd0 d6be c2f3 d9be ba58 0dbe e8e8 d33d
0.41268086 -0.08093625 0.14830995 0.3950767 -0.54333764 0.4204846 0.232562 0.2529891
0.36185247 0.059803188 -0.080553025 -0.3790574 0.3094576 0.03319168 -0.42940265 0.3948632
-0.150783 -0.10370836 -0.044392645 0.39095694 -0.5711297 0.4531113 -0.5338303 -0.04299611
0.43134844 0.29592413 -0.52157795 -0.2571732 -0.5598309 0.26970983 0.11282122 -0.32559615
-0.55250937 -0.039727986 0.08528584 0.17637914 0.4146374 -0.53890294 0.14109576 0.46869338
-0.52318436 -0.2701581 0.44391477 0.5281116 -0.12459931 0.4321077 0.19820195 -0.4471538
-0.32809976 0.0035440326 0.28561777 -0.30776876 -0.026964188 0.2532509 0.24700505 0.18586761
0.060004413 -0.16745922 0.037725925 -0.36331916 0.19230431 0.14005488 -0.40352875 -0.5506561
0.37806177 0.27320343 0.46487832 0.40357083 -0.3968049 0.0017683506 -0.33070397 -0.09307811
0.1386472 0.37395054 0.5489315 0.015678525 -0.4195617 -0.42568785 -0.13803378 0.10347158

bias f4 [10]
00000000: 0000 0000 0000 0000 0000 0000 0000 0000
00000010: 0000 0000 0000 0000 0000 0000 0000 0000
00000020: 0000 0000 0000 0000
0.0 0.0 0.0 0.0 0.0 0.0 0.0 0.0
0.0 0.0

weight f4 [10, 5]
00000000: 9cf9 b13e fc00 5d3e b866 a6bd f2b9 ec3e
00000010: 7c21 563e 5076 fabd b031 60bd 400e 643e
00000020: d43f b43e 5c5c 10bf a5a3 1b3f 0c80 4d3e
00000030: 000a 54bc c697 02bf f24f e63e bc91 34bf
00000040: 14d5 03bf 7eed ff3d cbc4 223e ea83 2f3f
00000050: 0639 0dbb 7496 973e 12c3 503d 635a 9bbe
00000060: 168d 613e 6839 fe3d df79 9abe 7097 f0bd
00000070: d059 0ebf cc5d 703e 7406 17bf e945 0abe
00000080: 188b 36be 6f2b f13e ab44 bc3e 5e00 38bf
00000090: f901 00bf 207d 72be b973 733e b6a8 ffbe
000000a0: 0b8f a7bf ee06 0fbf a914 073f f358 333f
000000b0: e9dd 173f 78b4 023e 5357 ecbe 5c3a e5be
000000c0: 1a3d 843e 7692 08be
0.3476075 0.21582407 -0.08125061 0.46235615 0.20911211 -0.122295976 -0.054734886 0.22271061
0.35204947 -0.5639093 0.60796577 0.20068377 -0.012941837 -0.5101284 0.44982868 -0.70534873
-0.51497006 0.1249647 0.15895383 0.6856066 -0.0021548881 0.29606974 0.050967284 -0.30342397
0.22026476 0.12413293 -0.30171105 -0.117476344 -0.55605793 0.2347328 -0.5899422 -0.13503231
-0.17826498 0.4710345 0.3677114 -0.7187556 -0.5000301 -0.23680544 0.23774613 -0.49933404
-1.3090528 -0.5586995 0.527659 0.700576 0.59322983 0.12764156 -0.46160373 -0.44771087
0.25827867 -0.1333712

bias f4 [5]
00000000: 047b a7be 80c0 63be 522f 793e e49e 833e
00000010: 9c79 713e
-0.3271104 -0.22241402 0.24334458 0.2570716 0.23581547

weight f4 [10, 5]
00000000: b470 523e c0c7 f3bc 7694 cc3e d1f4 083f
00000010: 87c3 0e3f efd8 023f 40e0 513e b848 d3bd
00000020: 761b 87be 0a18 ed3e 4427 853e 0c09 3b3e
00000030: b83a 9bbd a09a d6be ffe3 0dbf 730c b0be
00000040: df4d 4ebf b56f 913e 9adc a5bf 2052 fe3e
00000050: 291d c4be 9f7c 043f 336a 0bbf f8f3 01bf
00000060: 4ebc 053f 3184 103f 45c2 8abe 2033 773e
00000070: 3016 87bd 6e65 e63e eddf a23d cf62 673f
00000080: 7a79 95be 6297 dd3e cca1 14bf 9ade 7cbf
00000090: 9932 37bf 725c 563f 2cab 97bf 138c 24bd
000000a0: 9a9c 7ebe f845 11bf 0bd6 4f3f b553 c1bf
000000b0: 0fca 1abd 803d 71be 6e75 16be e4a7 493e
000000c0: 587e febe f4aa 1a3e
0.20550805 -0.029758334 0.39957017 0.5349856 0.557671 0.51112264 0.20495701 -0.103166044
-0.2638814 0.46307403 0.2600652 0.1826517 -0.07579559 -0.41914845 -0.5542602 -0.34384498
-0.8058757 0.28405538 -1.2957947 0.4967203 -0.38303497 0.51752657 -0.5445892 -0.5076289
0.52240455 0.5645171 -0.2710134 0.24140596 -0.06596029 0.4499926 0.07952867 0.90385145
-0.29194242 0.43279558 -0.5805938 -0.98777163 -0.7156158 0.8373481 -1.1849113 -0.040172648
-0.24864426 -0.5674739 0.8118598 -1.510367 -0.037790354 -0.23558617 -0.14693233 0.19692951
-0.49705768 0.15104276

bias f4 [5]
00000000: 744f 9f3e 8610 fa3e 6cc8 a4be 7204 73be
00000010: 03d1 95be
0.31115305 0.4884073 -0.3218416 -0.23732165 -0.29261026

weight f4 [10, 5]
00000000: 602d d43d bfcd b9be 10c2 8a3d 2b28 043f
00000010: 10e3 073e 0239 49be fa93 68be c3c8 1b3f
00000020: 50ce cd3d 8b24 213f 2ef9 b83e fb3b 043f
00000030: f2f1 823e 001e 37bd 2e58 f8be 886d 773e
00000040: 719f c9bd 382d 8e3e 8850 573e 4684 d9be
00000050: 9369 1a3f 1c61 c4be 904d ec3e 9995 443d
00000060: c468 9b3d 5ca4 4c3e e84c 023e 87bb 123f
00000070: f461 113e 20af 5d3d 6120 2ebe 0298 973c
00000080: edde 83bd 282d 3b3e 8eb0 bcbe 0e1b 843f
00000090: 6941 963f 8328 76bf 9139 6fbf a8b2 6bbf
000000a0: b037 333e ca4e 033e 27bd 2bbe 742b 13bf
000000b0: 6187 49bf b044 6d3d a1b6 0ebf c635 c83e
000000c0: 1024 11bf 4ec9 25be
0.10360217 -0.36289784 0.06775296 0.5162379 0.13270211 -0.19650653 -0.22712699 0.60853213
0.100491166 0.62946385 0.3612761 0.5165402 0.25575215 -0.044706345 -0.48504776 0.24162877
-0.09844864 0.27768874 0.21026814 -0.4248373 0.60317343 -0.3835534 0.46152925 0.04799423
0.07588342 0.19984573 0.1272465 0.57317394 0.14197522 0.05412209 -0.17004539 0.0185051
-0.06439004 0.18278944 -0.3685345 1.0320756 1.1738712 -0.96155566 -0.93447214 -0.9206948
0.17501712 0.12823024 -0.16771375 -0.5748818 -0.78722197 0.057926834 -0.5574742 0.39103526
-0.5669565 -0.16190073

bias f4 [5]
00000000: 744f 9f3e 8610 fa3e 6cc8 a4be 7204 73be
00000010: 03d1 95be
0.31115305 0.4884073 -0.3218416 -0.23732165 -0.29261026

weight f4 [3, 10]
00000000: 1acc 6a3f 87d9 4c3e dff6 cebe 4718 b8be
00000010: c775 e5be a580 b7be f11b 30bf 0e28 063d
00000020: 09b2 573f 81fa 793e f28f dbbe c2cd 583e
00000030: 6d6b 9fbe 2b83 993d a871 00bf dd47 babe
00000040: a90c 38bf f742 1e3f b379 07bf b46b fb3c
00000050: b6c2 1dbd 0500 c0be d7cb c83e 1500 043f
00000060: fdd2 b23e fb71 0d3f 3c26 dd3e 4861 24bf
00000070: ec53 5ebc cab0 1bbf
0.91717684 0.20004855 -0.40422723 -0.35956022 -0.4481642 -0.35840335 -0.68792635 0.032753043
0.84256035 0.24411966 -0.4288326 0.2117224 -0.31136647 0.074957214 -0.50173426 -0.36382952
-0.7189432 0.6182093 -0.52920073 0.030691005 -0.03851577 -0.37500015 0.39218017 0.51562625
0.34926596 0.55252045 0.43193233 -0.6421094 -0.013569813 -0.60816634

bias f4 [3]
00000000: 9e32 d1be 3562 1d3e 99e8 dd3d
-0.4085893 0.15369494 0.1083538
