Models/GNNs/SecureBillingEmail/model_RGCN_100_samples_500_epochs.pth (torch, 10880 bytes, 14 tensors)

weight f4 [8, 10]
0.053700626 -0.27203366 0.34601897 -0.2813428 0.25030196 -0.043953836 -0.026587665 -0.18158957
0.24339062 -0.016208753 -0.38732377 0.046466947 -0.23830792 0.036271095 -0.4893198 -0.011238396
-0.42853802 0.6449495 0.4926223 0.74904644 -0.2621559 -0.14931965 -0.01154988 0.099408805
-0.24782148 -0.11138123 0.33226597 -0.33246827 0.41322702 -0.3491226 -0.27443945 -0.103655964
0.53977644 -0.5674765 0.39994377 0.5203363 -0.36717033 0.32227835 0.06923795 0.72757995
0.47138095 -0.5098283 -0.032478273 -0.38899562 0.14704615 0.037894428 0.113301754 0.32118624
0.41319168 -0.27326578 -0.06821388 -0.5444132 0.10805941 -0.30444807 0.192415 -0.33461946
0.38970697 0.12829083 -0.14612854 0.04513699 0.2993859 -0.5090869 -0.54231083 0.16435802
-0.09778625 -0.17623386 0.030581594 0.3243388 0.09710413 -0.31604952 0.04663527 -0.4029798
0.57297885 -0.16405532 -0.23185849 -0.50696707 -0.38989133 0.52741915 0.8958527 0.5324317
00000000: 30f5 5b3d ff47 8bbe 6629 b13e 2a0c 90be
00000010: 9427 803e f008 34bd 60ce d9bc 9ef2 39be
00000020: 643b 793e 38c8 84bc 4d4f c6be 2054 3e3d
00000030: fe06 74be 0091 143d 2088 fabe 4021 38bc
00000040: 5669 dbbe 691b 253f fd38 fc3e 82c1 3f3f
00000050: 4c39 86be 40e7 18be b53b 3dbc d896 cb3d
00000060: eac4 7dbe d81b e4bd c41e aa3e 4839 aabe
00000070: 7e92 d33e 33c0 b2be 5483 8cbe 9449 d4bd
00000080: ca2e 0a3f 2446 11bf 6ec5 cc3e c234 053f
00000090: c0fd bbbe ab01 a53e a0cc 8d3d ae42 3a3f
000000a0: d858 f13e 1c84 02bf f007 05bd 6f2a c7be
000000b0: 4493 163e 3037 1b3d c00a e83d 8672 a43e
000000c0: dc8d d33e 7ee9 8bbe b8b3 8bbd aa5e 0bbf
000000d0: 404e dd3d 9ee0 9bbe 7008 453e 3e53 abbe
000000e0: ac87 c73e ac5e 033e b8a2 15be 90e1 383d
000000f0: 1c49 993e 8553 02bf e2d4 0abf 784d 283e
00000100: 2844 c8bd a676 34be 4086 fa3c bc0f a63e
00000110: 88de c63d 3ed1 a1be a004 3f3d 5e53 cebe
00000120: beae 123f 1efe 27be 506c 6dbe 98c8 01bf
00000130: d69f c7be f104 073f 9a56 653f 724d 083f

bias f4 [10]
0.0 0.0 -0.016918827 0.0 0.0 0.0 0.0 0.466944
-0.000110257635 0.6338139
00000000: 0000 0000 0000 0000 5a99 8abc 0000 0000
00000010: 0000 0000 0000 0000 0000 0000 4913 ef3e
00000020: 1e3a e7b8 a141 223f

weight f4 [8, 10]
0.055196285 0.54703057 0.08962822 0.10078585 0.47969377 0.43813694 0.35634738 0.4220659
0.27673423 -0.51904094 -0.44635913 0.29851872 0.5142157 -0.20988554 -0.039432466 -0.36056972
-0.45890224 -0.1283037 -0.494265 0.38394636 0.564608 0.5281848 0.4860021 -0.37791562
0.31107724 0.25251663 -0.29522008 0.22308958 -0.43772098 0.26956278 -0.08292565 0.55156827
-0.4715885 -0.41203249 -0.23684368 0.26309913 0.31458175 -0.122083515 0.34339887 -0.08041999
0.4705212 0.17972082 0.5547073 -0.2382431 -0.51996684 0.57625663 -0.10194647 -0.089972764
-0.33255947 -0.03934151 -0.17487302 0.3838029 -0.46733665 0.3945775 -0.43396282 0.28939867
-0.046268344 0.3324008 0.00974226 0.43905616 -0.28069964 -0.13132349 0.10341096 0.5706459
0.14449131 -0.1033636 -0.24719426 -0.4697559 0.45444512 -0.46227598 0.12356198 -0.071537375
-0.05844766 0.46345866 -0.11314893 -0.3306998 -0.13363665 0.06315291 -0.5040336 -0.16330084
00000000: 8015 623d 320a 0c3f 008f b73d d068 ce3d
00000010: 6c9a f53e 7c53 e03e 2a73 b63e 0619 d83e
00000020: 1cb0 8d3e dedf 04bf 2f89 e4be 72d7 983e
00000030: a4a3 033f 3cec 56be f083 21bd 989c b8be
00000040: 3cf5 eabe 0c62 03be 4d10 fdbe 9e94 c43e
00000050: 268a 103f 1e37 073f 44d5 f83e 287e c1be
00000060: 8445 9f3e dc49 813e 1627 97be 9871 643e
00000070: f71c e0be 2204 8a3e ecd4 a9bd 9433 0d3f
00000080: 0c74 f1be ecf5 d2be 2687 72be eeb4 863e
00000090: dc10 a13e ec06 fabd fad1 af3e 3cb3 a4bd
000000a0: 28e8 f03e bc08 383e 4c01 0e3f 00f6 73be
000000b0: 8c1c 05bf 8e85 133f 50c9 d0bd a443 b8bd
000000c0: 3c45 aabe 9024 21bd ea11 33be d081 c43e
000000d0: c046 efbe 1006 ca3e 6030 debe 102c 943e
000000e0: e083 3dbd 7030 aa3e 009e 1f3c f8cb e03e
000000f0: ddb7 8fbe aa79 06be 20c9 d33d da15 123f
00000100: 88f5 133e 4cb0 d3bd 7e20 7dbe d883 f0be
00000110: 08ad e83e 70af ecbe 100e fd3d 3082 92bd
00000120: d066 6fbd 744a ed3e a0ba e7bd 7c51 a9be
00000130: 0cd8 08be 5056 813d 5908 01bf 5638 27be

bias f4 [10]
0.0 0.0 0.0 0.0 0.0 0.0 0.0 0.0
0.0 0.0
00000000: 0000 0000 0000 0000 0000 0000 0000 0000
00000010: 0000 0000 0000 0000 0000 0000 0000 0000
00000020: 0000 0000 0000 0000

weight f4 [8, 10]
-0.2854404 0.3126198 -0.33183822 0.37360865 0.5731909 -0.29388914 0.41051775 -0.08552444
0.071825266 -0.23314133 0.23567176 -0.17392525 0.4129492 -0.29579437 0.23142064 -0.07972616
-0.2669664 0.056599975 0.44204497 0.22696072 -0.29614228 -0.43288785 0.08157313 0.06811041
0.44354796 -0.3829301 -0.462924 0.41412854 -0.3930298 -0.1479381 -0.010832369 0.0353567
-0.023988605 0.3666227 -0.24547073 -0.44607115 0.032060146 0.039794028 -0.27551845 0.45997417
-0.21099398 0.46438444 -0.10600802 0.18136954 -0.14113635 0.50346315 0.11909032 0.21902943
0.42577636 -0.42076528 -0.4094695 0.43627417 0.25251776 -0.3746024 -0.32219115 -0.16813129
0.09218007 0.326922 -0.50107753 0.058227897 -0.14483723 -0.33265698 0.10288006 0.3897013
-0.103250116 0.044894516 0.347641 -0.43571073 -0.26317114 0.19566888 0.07242495 0.55586386
0.29859823 -0.4945648 -0.24398926 0.4990195 0.16504872 0.4236499 0.14026785 -0.37378332
00000000: 3e25 92be b40f a03e b3e6 a9be a249 bf3e
00000010: a4bc 123f a378 96be 622f d23e 7027 afbd
00000020: 2019 933d 9abc 6ebe f053 713e 7619 32be
00000030: 146e d33e 5c72 97be 88f9 6c3e 7847 a3bd
00000040: d2af 88be 60d5 673d b853 e23e 6468 683e
00000050: f69f 97be 7aa3 ddbe d00f a73d 787d 8b3d
00000060: b818 e33e 6a0f c4be 6004 edbe a808 d43e
00000070: 343b c9be 167d 17be 407a 31bc 30d2 103d
00000080: c083 c4bc f8b5 bb3e ae5c 7bbe 7063 e4be
00000090: 8051 033d 10ff 223d c110 8dbe bc81 eb3e
000000a0: ce0e 58be ccc3 ed3e bc1a d9bd f0b8 393e
000000b0: 0c86 10be f6e2 003f a0e5 f33d 4049 603e
000000c0: 5cff d93e 8c6e d7be fca5 d1be 545f df3e
000000d0: 024a 813e e3cb bfbe 3df6 a4be 9c2a 2cbe
000000e0: e8c8 bc3d 5262 a73e 9e46 00bf 6080 6e3d
000000f0: 3650 14be 0452 aabe c8b2 d23d ee86 c73e
00000100: cc74 d3bd 50e3 373d 00fe b13e 7a15 dfbe
00000110: 5ebe 86be 6c5d 483e 8853 943d 184d 0e3f
00000120: dee1 983e 9937 fdbe 52d8 79be 7c7f ff3e
00000130: 8802 293e a4e8 d83e 60a2 0f3e 8760 bfbe

bias f4 [10]
0.0 0.0 0.0 0.0 0.0 0.0 0.0 0.0
0.0 0.0
00000000: 0000 0000 0000 0000 0000 0000 0000 0000
00000010: 0000 0000 0000 0000 0000 0000 0000 0000
00000020: 0000 0000 0000 0000

weight f4 [10, 5]
-0.15020046 0.10964435 -0.16147 0.038637757 -0.37845972 0.14091337 -0.15305227 0.04184866
-0.6254057 0.3646236 0.062753074 -0.1205726 -0.15490079 -0.28570816 0.49553302 -0.102493525
-0.01751715 -0.3446001 -0.59527385 -0.32020378 0.0208233 0.37796086 0.046901286 0.44246835
0.20152622 0.12964648 0.12960285 -0.4794258 0.07159114 -0.19199365 0.16775835 -0.1293559
-0.29782945 -0.5035524 0.62345535 -0.8653987 0.20740049 -0.34386593 0.55944985 -0.60076714
-0.0074012633 0.8034481 0.30420092 -0.028254231 0.35236067 -0.8475143 -0.7213375 -0.33982146
0.072034076 0.07515584
00000000: 26ce 19be 388d e03d 6458 25be a042 1e3d
00000010: 79c5 c1be 984b 103e bcb9 1cbe 8069 2b3d
00000020: 971a 20bf f2af ba3e af84 803d c4ee f6bd
00000030: 509e 1ebe 5748 92be 81b6 fd3e 20e8 d1bd
00000040: 2080 8fbc 6d6f b0be de63 18bf c0f1 a3be
00000050: a095 aa3c 1684 c13e 901b 403d 368b e23e
00000060: e45c 4e3e 0cc2 043e 9cb6 043e 4c77 f5be
00000070: 609e 923d fc99 44be d8c8 2b3e e075 04be
00000080: 1a7d 98be cfe8 00bf c59a 1f3f c58a 5dbf
00000090: cb60 543e 320f b0be 1b38 0f3f e0cb 19bf
000000a0: 4c86 f2bb c6ae 4d3f 39c0 9b3e 6b75 e7bc
000000b0: 9e68 b43e b2f6 58bf 93a9 38bf 14fd adbe
000000c0: 9a86 933d 4eeb 993d

bias f4 [5]
-0.3188954 -0.2782353 -0.19043355 0.23688318 -0.29450265
00000000: 4246 a3be db74 8ebe 0301 43be 8191 723e
00000010: 0dc9 96be

weight f4 [10, 5]
-0.10581148 0.097854495 0.32464808 -0.5710549 -0.6133332 -0.46824878 -0.5311549 0.1990366
0.42760593 -0.5810687 -0.21794085 0.41868374 -0.7360345 -0.68052596 0.4131362 0.131473
-0.58804345 -0.06439787 -0.25309053 -0.048265636 -0.6197354 -0.43099836 -0.020310223 -0.106286585
-0.025889754 0.20154548 -0.3969847 0.40554923 -0.19802535 -0.19305262 -0.07461667 -0.16567287
-0.3990065 -0.3202472 0.5264979 -0.10372321 -0.027416341 -0.3189346 0.98558694 -0.69484353
0.8330286 -0.6651642 -0.6830288 -1.131612 0.28921264 0.6556742 0.43751016 0.061841495
1.2826959 -0.7064141
00000000: b0b3 d8bd f067 c83d 4638 a63e a730 12bf
00000010: 6803 1dbf 4ebe efbe c4f9 07bf 40d0 4b3e
00000020: 2aef da3e ebc0 14bf e32b 5fbe b75d d63e
00000030: c26c 3cbf f336 2ebf 9786 d33e dca0 063e
00000040: 048a 16bf 08e3 83bd 1595 81be 30b2 45bd
00000050: fba6 1ebf d1ab dcbe a061 a6bc c8ac d9bd
00000060: c016 d4bc f061 4e3e 9441 cbbe 26a4 cf3e
00000070: 28c7 4abe 96af 45be a0d0 98bd 26a6 29be
00000080: 944a ccbe 71f7 a3be 91c8 063f d66c d4bd
00000090: 3c98 e0bc 654b a3be 6d4f 7c3f 44e1 31bf
000000a0: 5d41 553f 3348 2abf fada 2ebf a9d8 90bf
000000b0: ae13 943e 44da 273f 5501 e03e 824d 7d3d
000000c0: 612f a43f 8ed7 34bf

bias f4 [5]
0.40207753 -0.25533685 -0.31474417 -0.2133167 0.17843671
00000000: 1bdd cd3e 83bb 82be 2626 a1be b16f 5abe
00000010: 1db8 363e

weight f4 [10, 5]
-0.42395297 0.14597958 0.6253806 -0.3730816 0.15388125 -0.1577667 -0.02949953 0.07965326
0.011960387 -0.09592098 0.57634014 0.17123047 0.32660794 0.49872217 0.5995482 -0.05958438
-0.18698782 0.3730852 0.40150267 -0.5904259 -0.016180158 -0.32777393 -0.22930416 -0.541058
-0.3736264 0.27891272 0.24925756 -0.52993196 0.10573125 0.60950524 -0.55719584 0.061930776
-0.19077474 0.17506886 -0.40930358 -0.037951387 -0.4179902 -0.44839278 -0.7010453 0.19567296
0.22507173 0.23726176 -0.5803245 0.27379942 0.49810067 0.45587897 -0.037854236 -0.9918738
-0.43613607 0.26111796
00000000: 5d10 d9be ac7b 153e f118 203f 8d04 bfbe
00000010: 0c93 1d3e 988d 21be 00a9 f1bc 4021 a33d
00000020: 80f5 433c 3872 c4bd 078b 133f 0a57 2f3e
00000030: 2839 a73e 8358 ff3e fe7b 193f c00e 74bd
00000040: bc79 3fbe 0605 bf3e c291 cd3e 2726 17bf
00000050: 408c 84bc fcd1 a7be b6ce 6abe c782 0abf
00000060: f64b bfbe a6cd 8e3e 603d 7f3e 9fa9 07bf
00000070: a089 d83d 8908 1c3f 63a4 0ebf 20ab 7d3d
00000080: 745a 43be 4045 333e 3d90 d1be ea72 1bbd
00000090: d002 d6be bd93 e5be b477 33bf 7e5e 483e
000000a0: 3479 663e bff4 723e 2590 14bf 702f 8c3e
000000b0: 0d07 ff3e f868 e93e 0b0d 1bbd 71eb 7dbf
000000c0: 3a4d dfbe 41b1 853e

bias f4 [5]
0.40207753 -0.25533685 -0.31474417 -0.2133167 0.17843671
00000000: 1bdd cd3e 83bb 82be 2626 a1be b16f 5abe
00000010: 1db8 363e

weight f4 [3, 10]
0.5297739 0.28875262 0.3013316 -0.6525399 0.65286374 -0.67094225 0.26163048 0.5184933
0.377668 -0.07345216 0.13414799 0.23626372 0.21607873 0.08290282 -0.12882988 0.25569472
0.38364556 0.008440421 0.672594 -0.7039962 0.008910434 -0.19497828 -0.52461123 0.4373781
-0.2682636 0.31901017 -0.36774606 -0.27841714 -0.41563445 0.53704906
00000000: 439f 073f 62d7 933e 2348 9a3e db0c 27bf
00000010: 1422 273f dfc2 2bbf 6ef4 853e fabb 043f
00000020: b35d c13e 166e 96bd 175e 093e 1eef 713e
00000030: be43 5d3e f4c8 a93d fbeb 03be 6bea 823e
00000040: 316d c43e b149 0a3c 1f2f 2c3f 1839 34bf
00000050: 12fd 113c 63a8 47be ec4c 06bf 06f0 df3e
00000060: d959 89be 4d55 a33e 3649 bcbe b18c 8ebe
00000070: 0ace d4be 0c7c 093f

bias f4 [3]
-0.17325355 0.11904946 -0.11584739
00000000: 6169 31be 34d0 f33d 6541 edbd
