Models/GNNs/SecureWebContainer/1-hidden-layer/FocalLoss-aggreg-sum/model_RGCN_30000_samples_100_epochs_512_batchsize.pth (torch, 11168 bytes, 14 tensors)

weight f4 [8, 10]
000000 ab 50 4c 3e 8d e1 4b 3f 21 7c a3 bd 27 05 7d bd
       0.19952647 0.7964104 -0.0798266 -0.06177249
000010 00 7b e9 bc 90 3a 2c 3d a1 bc da 3e 73 3d 99 be
       -0.028501034 0.042048037 0.42722037 -0.29929695
000020 6d 78 9a bf ef 01 da be 68 3e ef 3e df 1b 4a 3f
       -1.2068001 -0.425796 0.467273 0.7894878
000030 2a 35 cb 3e 9d 8a 43 be 0d 61 e8 be ca 07 e5 be
       0.39688998 -0.19095846 -0.45386544 -0.44732505
000040 44 06 41 3e ad 3c 88 bb 45 b2 4b 3e 19 cd aa be
       0.18850046 -0.0041576237 0.19892223 -0.33359602
000050 d9 95 67 3e ac 86 3f 3f b6 d1 9d be 53 35 71 be
       0.22615756 0.7481487 -0.3082406 -0.23555498
000060 b0 f1 12 3f 30 65 12 3f 94 e4 46 3f 2f e7 96 3e
       0.57400036 0.5718565 0.7769253 0.29473254
000070 3e 87 dc 3e 6e e7 c2 be 07 85 1f 3e 65 1e ac 3e
       0.43071932 -0.38067192 0.1557809 0.3361694
000080 c5 cc 60 3e cc ef c2 be ac bb 16 3e ed aa 08 bf
       0.21953113 -0.38073575 0.14720029 -0.5338581
000090 e8 ac a6 3e d9 4a 99 be e0 9b 21 be 30 09 81 3e
       0.32553792 -0.29939917 -0.15782118 0.25202322
0000a0 cc a9 97 3e 28 ea 39 3e fd c4 0c bf d4 25 33 3e
       0.29621732 0.1815573 -0.5498808 0.17494899
0000b0 89 73 fe be 3d 88 9c be ae c3 24 be 61 01 88 be
       -0.4969752 -0.30572692 -0.16090271 -0.26563552
0000c0 48 7f 99 be 40 1c 16 3c 12 99 5f be 00 fa 2c 3e
       -0.2997992 0.009162009 -0.21835735 0.16892242
0000d0 bc 22 59 3e 70 3f 1f 3e 52 74 01 bf 78 29 5a be
       0.21204656 0.15551543 -0.50568116 -0.21304882
0000e0 e0 c1 90 bd 60 b8 af 3d 90 a1 7b 3e bf 5c 0c bf
       -0.07068229 0.085800886 0.2457335 -0.5482902
0000f0 a6 e7 ed be 68 57 bd 3e c0 49 07 3c 00 a4 9c 3d
       -0.46465796 0.36980748 0.008257329 0.07648468
000100 da 23 0a 3f e0 5e d4 3e 18 8f 02 be 00 f3 0c bc
       0.53960955 0.41478634 -0.12749898 -0.008602858
000110 bc dd 32 3e 58 60 84 3e 27 d6 48 3e 66 5a 76 bf
       0.17467397 0.25854754 0.19612943 -0.9623169
000120 e9 8d 32 3f ae b6 d7 3e 45 bc 03 bf 80 8c 03 3e
       0.6974779 0.4213156 -0.5145915 0.12846565
000130 91 92 95 be 81 a5 8d 3e 6c 37 cd bd 04 ac ad bd
       -0.29213384 0.27665332 -0.100203365 -0.08480075

bias f4 [10]
000000 39 30 a9 3e b9 09 b5 3e 6f 5d 39 3f 10 63 0c 3d
       0.33044603 0.3535898 0.72408193 0.03427416
000010 00 00 00 00 00 00 00 00 9f 98 c3 3e 35 19 a1 3e
       0.0 0.0 0.38202378 0.31464544
000020 fe 9c 81 3f 00 00 00 00
       1.0126035 0.0

weight f4 [8, 10]
000000 e9 a2 a0 be 30 22 46 bd 20 9e cd 3c 64 45 04 bf
       -0.3137429 -0.048372447 0.025099814 -0.5166838
000010 70 6f 0e bd 74 2d 00 3f dc 38 13 3e 36 c8 d4 be
       -0.034774244 0.50069356 0.14377159 -0.41559
000020 0e 47 90 3e 98 92 ad 3d 90 af df 3e 48 d2 20 3e
       0.2817921 0.08475226 0.4368863 0.15705216
000030 06 fb 8f 3e b8 30 f6 3e 00 c7 89 bd 7c e6 d2 be
       0.28121203 0.48084044 -0.06727409 -0.4119147
000040 6c 68 57 3e 06 e5 d0 3e a8 56 06 bf 54 56 ca 3e
       0.21035928 0.4079973 -0.52475977 0.39518988
000050 61 c5 08 bf e0 e7 10 3f 76 05 29 be 44 3b f6 3e
       -0.53426176 0.56603813 -0.1650599 0.4809209
000060 ec 3b 4c be 20 d6 e0 3e da df a9 be 80 67 02 3e
       -0.19944733 0.43913364 -0.33178598 0.12734795
000070 00 76 28 3b 73 6a 8c be 54 5f 26 be 3e 27 10 bf
       0.00257051 -0.27424964 -0.16247302 -0.5630988
000080 2a 8e 0d bf 50 0a 44 be f0 af fa be ea 2a b1 be
       -0.5529505 -0.19144559 -0.48962355 -0.34603053
000090 70 76 b8 3d f6 23 09 3f b3 18 ee be 68 3f 88 3e
       0.09006965 0.535705 -0.4650322 0.26610875
0000a0 c8 fc 3b 3e 82 c4 9b 3e 18 f5 e1 3e 50 c7 59 3d
       0.18358147 0.3042336 0.44132304 0.053168595
0000b0 c8 11 da 3e a3 66 12 bf 34 a9 0d 3f 20 b9 90 be
       0.4259169 -0.5718786 0.5533631 -0.2826624
0000c0 fc d9 ed 3e 73 6f a8 be 00 95 c3 3e a4 bf 6f 3e
       0.4645537 -0.3289753 0.38199615 0.23412949
0000d0 b0 79 cf be 52 1f 03 bf bc 9f 17 3e 00 60 6f 39
       -0.40522528 -0.51219666 0.14807028 0.00022828579
0000e0 12 3e f5 be 00 f4 17 3d 22 1a 91 3e 58 b4 00 3f
       -0.47898918 0.03709793 0.2834025 0.5027518
0000f0 38 75 07 3f 0c 44 c2 be 1e 12 53 be 82 7a b1 3e
       0.52913237 -0.3794254 -0.2061238 0.3466378
000100 5c c1 12 3f c2 1f 9f be 08 7a c0 be 09 2e ff be
       0.57326293 -0.31078917 -0.37593102 -0.4983981
000110 c8 a8 f1 3d e0 65 5d 3d c3 85 ea be 5b 27 04 bf
       0.117997706 0.054052234 -0.45805177 -0.5162255
000120 c9 cb 10 bf 0e da ab 3e df 17 11 bf e0 0a 78 bd
       -0.5656095 0.335648 -0.5667705 -0.060557246
000130 ba 79 9c be 10 76 e1 3d 20 ad 36 3d ae 84 dd be
       -0.3056162 0.11008847 0.0445987 -0.4326529

bias f4 [10]
000000 00 00 00 00 00 00 00 00 00 00 00 00 00 00 00 00
       0.0 0.0 0.0 0.0
000010 00 00 00 00 00 00 00 00 00 00 00 00 00 00 00 00
       0.0 0.0 0.0 0.0
000020 00 00 00 00 00 00 00 00
       0.0 0.0

weight f4 [8, 10]
000000 68 86 eb 3e 90 bd fd 3d 1e 54 c1 3e a8 92 ca 3d
       0.4600098 0.12389672 0.3775949 0.09891254
000010 64 24 2c be 40 2c 15 bd 3d 68 08 bf d0 e1 f2 3e
       -0.16810757 -0.036419153 -0.53284055 0.47437906
000020 a7 eb aa be 30 d0 c4 3d a0 7f f8 3c 2b e7 08 bf
       -0.33382913 0.09610021 0.030334294 -0.53477734
000030 11 4b fe be 26 5d 0b bf ea 2b d7 be f0 71 8d 3d
       -0.49666646 -0.5443901 -0.4202569 0.069064975
000040 d4 98 b1 3e 20 0b 82 3c 4c 50 e8 3e 14 52 6a be
       0.3468691 0.015874445 0.45373762 -0.22882873
000050 3a 3c bd be 70 cb d8 3e 00 d3 96 bb cc c9 fd 3e
       -0.36960012 0.4234271 -0.00460279 0.4956802
000060 d4 c9 89 3e 49 41 97 be 32 f7 ca 3e f8 20 1d 3e
       0.26911795 -0.29541996 0.3964172 0.15344608
000070 67 13 ae be 68 03 f0 3e e7 c5 ba be c6 35 c8 3e
       -0.33999178 0.468776 -0.36479113 0.39103526
000080 46 d0 be 3e f0 68 e2 3d f9 9a 94 be 50 6b e2 3e
       0.37268275 0.110551715 -0.29024485 0.44222498
000090 53 f2 89 be e0 d8 02 3d 00 4a 2b bb bb 18 aa be
       -0.2694269 0.03194511 -0.0026136637 -0.33221993
0000a0 28 1b 9b bd 54 07 f2 3e f4 65 c5 3e cc 6e 96 be
       -0.07573539 0.47271216 0.38554347 -0.29381406
0000b0 6a bf dc be f8 79 2f 3e 6a f0 8d be 6e 6c 96 3e
       -0.43114787 0.17136371 -0.27722484 0.293796
0000c0 74 8a 5e 3e 66 ff b5 be f0 f6 07 bd 34 67 61 be
       0.21732503 -0.35546416 -0.033194482 -0.22012025
0000d0 de 05 83 3e 90 ce 7b be 0c bf 2d 3e 4c 61 82 3e
       0.25590414 -0.24590516 0.1696741 0.25464857
0000e0 50 67 08 3f 20 25 ba 3d 38 b8 e5 bd 68 dc 9a 3d
       0.5328264 0.09089112 -0.112167776 0.075615704
0000f0 38 20 a7 bd 44 33 fb 3e 22 fe c7 be bd c6 0c bf
       -0.08160442 0.4906255 -0.39061075 -0.5499075
000100 40 10 17 bc 20 99 05 bf 32 2d 2d be a8 07 bf 3d
       -0.009220183 -0.52186775 -0.16911772 0.09327632
000110 4f a1 c0 be d8 22 c9 3d 39 1b df be 8a 2d 2e be
       -0.3762307 0.09821099 -0.43575457 -0.1700956
000120 e8 d5 04 bf 98 cc 2f be 88 5d 07 3f 00 7d 15 3c
       -0.51888895 -0.1716789 0.5287709 0.009124041
000130 84 f9 1d 3e 3e aa af be 58 f8 d9 be ce c4 89 be
       0.15427214 -0.34309572 -0.42572284 -0.26907963

bias f4 [10]
000000 00 00 00 00 00 00 00 00 00 00 00 00 00 00 00 00
       0.0 0.0 0.0 0.0
000010 00 00 00 00 00 00 00 00 00 00 00 00 00 00 00 00
       0.0 0.0 0.0 0.0
000020 00 00 00 00 00 00 00 00
       0.0 0.0

weight f4 [10, 5]
000000 5f 87 19 3f bf bd 4e 3f 9a 57 0c bf c0 e0 bb 3e
       0.59972185 0.8075828 -0.5482117 0.36694908
000010 5c 13 eb 3d 88 01 b6 3f f3 52 2e 3f 07 01 46 bf
       0.11478302 1.4219217 0.6809532 -0.7734532
000020 cc 92 20 3f 6b 8e 43 3f 03 d7 87 bf 49 2a 35 3f
       0.62723994 0.7638919 -1.0612491 0.7076765
000030 54 21 c0 3e 91 99 3a bf 02 f5 9a bf 53 ef bf be
       0.37525427 -0.72890574 -1.210602 -0.37487277
000040 12 5b d3 3e 7f ef 14 3f c6 f1 1f bf 58 3c f0 be
       0.4128042 0.5817794 -0.6247829 -0.4692104
000050 94 f6 64 3e 24 fe e2 be 00 76 bb ba 6e 24 83 be
       0.22359687 -0.4433452 -0.0014302135 -0.2561373
000060 c0 92 23 3d 56 bc d3 be 44 e3 0e bf 3f c1 ab be
       0.039934874 -0.41354626 -0.5581553 -0.33545873
000070 b6 df 0d bf b1 ae 08 bf 8e e2 82 3e 40 ca 2a 3e
       -0.5541948 -0.5339156 0.25563473 0.16678715
000080 9b 96 52 bf e2 9c 08 3f 41 b4 20 3f b6 16 c5 3e
       -0.82261056 0.53364384 0.62775046 0.3849389
000090 37 be 1e 3f d8 a2 77 be 88 fe e1 3e 60 c8 be 3e
       0.62008995 -0.24183214 0.44139504 0.3726225
0000a0 28 ce 13 bf 76 b2 64 3f 1f f2 4c 3f 8f c3 f8 bd
       -0.57736444 0.8933481 0.8005695 -0.12146675
0000b0 b6 cd 09 be 80 91 a0 3e 58 44 65 3e 98 00 fd bd
       -0.13457379 0.31361008 0.22389352 -0.12353629
0000c0 f1 ff 19 3f de b8 60 be
       0.6015616 -0.21945521

bias f4 [5]
000000 2e 91 b2 3e 4c 65 a2 3e 6f b5 7c be f7 42 67 3e
       0.34876388 0.31717908 -0.24678586 0.22584139
000010 e4 18 bd 3e
       0.36933053

weight f4 [10, 5]
000000 58 59 40 bf 2b c5 80 bf 68 59 2e bf a6 3d da 3d
       -0.7513633 -1.0060171 -0.68105173 0.1065629
000010 07 8d 45 3f 3c 09 aa be 82 d7 a7 be 81 8a fb 3e
       0.77168316 -0.3321017 -0.32781607 0.49129108
000020 23 a2 29 3f b1 0b 3f 3f 9d 2c 02 bf 40 f9 81 bf
       0.66263026 0.74627215 -0.50849324 -1.015419
000030 57 6a b1 3e 4b f1 d2 3c 25 30 15 3f ab f7 bf 3f
       0.34651443 0.025749823 0.5827659 1.4997457
000040 ad 4c bd bd 99 65 bc 3f 76 6c 8b bf 07 a1 e5 be
       -0.0924314 1.4718505 -1.0892475 -0.44849417
000050 ee 05 e4 3e b8 36 cf bd e8 0c 87 be c5 06 15 bf
       0.44535774 -0.10117859 -0.26377034 -0.58213454
000060 b4 86 49 3e c4 aa 45 3e f6 a9 e4 be fa c7 f2 be
       0.19680291 0.19303423 -0.4466092 -0.47418195
000070 60 6f 94 bc a0 e0 29 3e 9a 47 90 be 73 c8 93 bf
       -0.018119514 0.16589594 -0.28179628 -1.1545547
000080 00 ec bd be 3f 9d d3 3e 0e 84 9f 3e 1a bf 8e bf
       -0.37094116 0.41330907 0.31155437 -1.115207
000090 7a 2e 83 be 26 71 19 be fe 1b 6d 3f f7 cd 5a 3f
       -0.25621396 -0.14984569 0.9262084 0.8547053
0000a0 0e f5 48 bf 02 7d a3 bf 67 cd d2 bf 27 e5 b1 3f
       -0.78498924 -1.2772524 -1.6468934 1.3898057
0000b0 a0 bb be 3f d2 85 cd 3e 43 37 81 be d9 15 b9 be
       1.4901009 0.4014116 -0.25237474 -0.3614948
0000c0 09 23 00 3f 0c bc 1f be
       0.5005346 -0.15599078

bias f4 [5]
000000 01 f1 ed 3e ae 75 59 be 7a 3e a6 3e 85 29 ae be
       0.46472934 -0.21236297 0.3246954 -0.34016052
000010 32 d7 86 3e
       0.26336056

weight f4 [10, 5]
000000 2f 87 db 3e fe 7b 4c be a9 f0 54 3f 36 17 b6 be
       0.42876574 -0.19969174 0.8317972 -0.35564584
000010 26 3b e6 3d a1 08 76 3e bf 1c 64 3e b6 a2 07 3e
       0.112417504 0.24026729 0.22276591 0.13245663
000020 31 2e 33 bf 4d 61 4c 3e 01 71 cc 3f 1c 92 66 bf
       -0.6999236 0.19958992 1.5971986 -0.90066695
000030 8b 8a 3a 3f 6a cc 9b bf 72 6c 64 3f 42 01 c0 be
       0.7286765 -1.2171757 0.89227974 -0.3750096
000040 d9 a8 fb 3e 07 80 04 3f 42 5e c3 3c 5b 80 ae be
       0.49152258 0.51757854 0.023848657 -0.34082302
000050 c2 2b 1a bf be 3d 94 3e 60 a1 fb 3d 47 25 00 3f
       -0.6022302 0.28953356 0.12286639 0.5005688
000060 80 13 f9 3d 69 eb f6 be 20 f4 3b 3d b8 e5 84 be
       0.121619225 -0.4822648 0.045887113 -0.25956511
000070 b2 4e ff 3e a0 44 d1 bd 8b 24 94 3f f6 c9 06 bf
       0.49864727 -0.10218167 1.1573652 -0.5265192
000080 b1 37 9a 3e d5 85 12 bf bf 09 1c 3f a1 7b f4 3e
       0.30120614 -0.5723546 0.6095237 0.4775057
000090 92 01 49 be 76 d1 b2 3c 6d 06 52 be 3f 42 d3 3e
       -0.19629505 0.021828394 -0.20510264 0.4126148
0000a0 e9 9e 5a 3f 50 26 3a bf 31 a8 c0 3f 81 ff c7 bf
       0.8539873 -0.7271471 1.5051328 -1.5624849
0000b0 b3 ba 3a 3f 8a 6a e7 3e 80 8c 4e be 4c f1 37 3e
       0.7294113 0.4519847 -0.20170784 0.17963141
0000c0 76 7a f7 be 50 0e c5 bd
       -0.48335618 -0.096218705

bias f4 [5]
000000 01 f1 ed 3e ae 75 59 be 7a 3e a6 3e 85 29 ae be
       0.46472934 -0.21236297 0.3246954 -0.34016052
000010 32 d7 86 3e
       0.26336056

weight f4 [3, 10]
000000 7e 23 c1 be 45 7d 14 bf b4 94 cf 3d f5 ac f1 be
       -0.3772239 -0.58003646 0.10135785 -0.47202268
000010 f5 99 83 be 97 3b f6 be c5 81 16 3f 19 6a d8 be
       -0.25703397 -0.48092338 0.5879176 -0.42268446
000020 63 97 ea 3e 41 3e 43 bf cb 1a 1a bf 0d 5b 9c be
       0.45818624 -0.76266867 -0.6019713 -0.30538216
000030 a9 0e bd 3e c8 31 0a bf 13 7a 0b bf 76 1a 0e bf
       0.36925247 -0.5398221 -0.54483145 -0.55509126
000040 6c e3 06 bf 4f e3 fc be 9c 21 aa 3e a6 ac 83 3e
       -0.5269077 -0.49392173 0.33228767 0.25717658
000050 49 e7 ec 3d 31 2c ff 3c 88 0b 12 bf 19 64 f1 3e
       0.11567552 0.031149002 -0.57048845 0.4714668
000060 ac 3c a0 3e e3 5d f6 3e 20 f0 09 bf 84 e6 4b 3f
       0.3129629 0.48118505 -0.53882027 0.79648614
000070 4b 20 3b bf 6d 59 87 3e
       -0.7309615 0.26435414

bias f4 [3]
000000 47 82 b8 3d 2c a3 13 bd e6 9c ed 3e
       0.090092234 -0.036044285 0.46408767
