Models/GNNs/model_RGCN_50_samples_100_epochs.pth (torch, 10862 bytes, 14 tensors)

weight f4 [8, 10]
00000000: c978 82be 767b 833e 38a4 3a3e 3eb4 013f
00000010: adbc 913e e047 aa3e e04c b33e 66ab 873e
00000020: 5899 e13e cf2a 0bbf 0cc8 a1bd e277 ac3e
00000030: 9fc3 a33e 9346 0ebf b03c cabe 3425 f8bd
00000040: 5ed9 13bf 15da 703e 0747 a6be 4a1d 6abe
00000050: 4c3c a6be cd39 b0be b2ad 92be ae42 9b3e
00000060: 0b27 5abe a2b2 9ebe 3d2d 02bf a855 7abe
00000070: fedb 1cbd a46f c7be fcd1 e2be bd77 933e
00000080: ef2f 2ebe 2535 18be 1ed8 69be a0e9 67bd
00000090: 0841 033f a0f2 153f 2cf4 8a3d 24cb 3a3e
000000a0: 40ae 133c ece8 eabe a85c 043e 3028 4e3d
000000b0: f056 f1be be06 79be 23e4 99be 84fc bb3e
000000c0: 9cb7 0e3e 0036 ab3a 7d15 8bbe b4c5 9e3e
000000d0: 66c4 bdbe d82d db3e 7a27 fbbe 40d8 0dbd
000000e0: 74d3 7cbe 4650 c23e a49b 2c3e 98e7 95bd
000000f0: 62d3 a9be 4032 9dbe ad54 9fbe 8474 bd3e
00000100: 5cf4 f2bd 70b2 6b3e 7615 73be e811 803e
00000110: 3029 0dbd 7609 02bf 21c3 9cbe 7774 07be
00000120: d66a c8bc 0825 d13e ac86 1a3f b34a 0dbf
00000130: de1d eabd 0066 fa3e a837 38be 7cc7 c9be
-0.25482777 0.2568013 0.18226707 0.5066565 0.2846426 0.3325796 0.35019588 0.26497954
0.44062304 -0.54362196 -0.07899484 0.33685213 0.31985185 -0.5557644 -0.39499426 -0.12116471
-0.5775355 0.23520692 -0.32476065 -0.22862735 -0.32467878 -0.34419098 -0.28648144 0.3032431
-0.21303956 -0.3099566 -0.5085028 -0.24446738 -0.03829574 -0.38952363 -0.4430083 0.2880229
-0.17010473 -0.14864023 -0.22836348 -0.056619287 0.51271105 0.5857334 0.06784853 0.18241554
0.009013712 -0.4588083 0.1292597 0.050331295 -0.4713664 -0.24318978 -0.30056867 0.36716092
0.13937229 0.0013062358 -0.27164832 0.3101021 -0.37063903 0.42808414 -0.49053556 -0.03463006
-0.24690038 0.3795187 0.16856247 -0.073195636 -0.33169085 -0.307024 -0.3111929 0.37002957
-0.11863014 0.23017287 -0.23738655 0.2501366 -0.034463108 -0.50795686 -0.30617622 -0.13228022
-0.024465006 0.40848565 0.6036174 -0.55192107 -0.11431478 0.48905945 -0.17989981 -0.39410007

bias f4 [10]
00000000: 0000 0000 d08e 073e 7646 81bd 286f 84bd
00000010: cf60 ea3d 0000 0000 b500 cfbc 78ad a73d
00000020: 91ac 22bc 0000 0000
0.0 0.13238072 -0.063122675 -0.06466514 0.11444246 0.0 -0.025268892 0.081873834
-0.009928838 0.0

weight f4 [8, 10]
00000000: c468 28be 820c 22be 60f0 96bc 3c07 203e
00000010: 316d 05bf 76cf 90be 28f8 0fbf 2c8b f6bd
00000020: a811 e6be 9e51 41be 2853 7ebe be62 953e
00000030: 7870 e23e 9814 e33d e062 9d3c 1adf d63e
00000040: 8c1a 6bbe 6036 0e3e 0097 673d 89f7 e9be
00000050: f22d 3abe c452 443e 3433 7bbe 747e d93e
00000060: 9870 dd3e e281 b93e 90ef 38bd cc27 fe3e
00000070: 704e 6cbe 0e66 5bbe 28a6 09be 24a8 d6be
00000080: bcce 09be 0e05 aa3e c086 d6bc 60e5 ffbc
00000090: a629 923e 23f8 01bf aca0 ddbe f07f fb3e
000000a0: 6a97 55be 0056 59bc 6828 ce3e 35af 05bf
000000b0: 46d4 38be 4032 08bf f8bd 65be 60cd 76bd
000000c0: 5a02 a43e 09fa 93be 6fdb 0cbf d0be 293e
000000d0: 4c82 953e 59bb 97be c825 613e 807f c73d
000000e0: 3cb4 e7be 44c3 c4be 1003 573e d11e bfbe
000000f0: 2901 eabe 9c4a 013f 4483 71be 24a5 7abe
00000100: 5c93 bbbe 5a15 b2be 8c76 ccbe 7a40 58be
00000110: 9021 933d b09e 513d d8d1 f93d 3495 6a3e
00000120: da15 d23e ea15 0d3f 2dae f8be 280d de3e
00000130: 8024 eebb 7e9d 35be e0e8 ae3e 9536 94be
-0.16446215 -0.15825084 -0.018425167 0.1562776 -0.5211974 -0.2828328 -0.5623803 -0.12038264
-0.44935346 -0.1887879 -0.24836409 0.29176897 0.44226432 0.11087912 0.019212186 0.41967088
-0.22959346 0.1388793 0.05654049 -0.45696667 -0.18181589 0.19172198 -0.24531251 0.4247929
0.43249965 0.36231905 -0.04515034 0.49639738 -0.23076797 -0.2142565 -0.1344229 -0.41925156
-0.13457769 0.3320698 -0.0261873 -0.031237304 0.285474 -0.5076925 -0.43286645 0.49121046
-0.20858541 -0.013265133 0.40265203 -0.5222047 -0.18049726 -0.53201675 -0.22435749 -0.060254455
0.32033044 -0.289017 -0.5502233 0.16576695 0.2920097 -0.29635122 0.21987069 0.097411156
-0.45254695 -0.38430226 0.20997262 -0.373282 -0.4570401 0.5050447 -0.2358523 -0.24477059
-0.36635864 -0.34781915 -0.39934194 -0.21118346 0.07184136 0.051176727 0.12198228 0.22908479
0.41032296 0.55111563 -0.48570386 0.43369412 -0.0072675347 -0.1773586 0.34162045 -0.28947893

bias f4 [10]
00000000: 0000 0000 0000 0000 0000 0000 0000 0000
00000010: 0000 0000 0000 0000 0000 0000 0000 0000
00000020: 0000 0000 0000 0000
0.0 0.0 0.0 0.0 0.0 0.0 0.0 0.0
0.0 0.0

weight f4 [8, 10]
00000000: cca7 4ebe 88ea c13d be04 cabe 50ce 093e
00000010: 625e c23e 57b1 12bf 28a3 c53d 34de 773e
00000020: 3a36 43be bd99 0bbf a4c7 d9be 285e f23e
00000030: d1de 09bf 04fd 403e 4938 90be 8067 d4bb
00000040: 3724 83be 3e5c 40be d321 13bf e8c8 dfbe
00000050: d44d 883e caa9 79be 4006 613c 6059 29bd
00000060: 80ee 283d 8959 8bbe 7084 2e3d 98bd 85bd
00000070: f8e1 703e a8a5 113f 38a2 16be 5cb6 e0be
00000080: fb0e b9be 385c 9f3e 30dc 7a3d 744b 96be
00000090: 448b 113e 5864 7e3e 60b2 013f 50e8 90bd
000000a0: 90ec eabe 2543 97be 2958 f7be 2007 58bd
000000b0: 4c57 b0be 270f 06bf d0b8 88be bc49 e9be
000000c0: f73a 04bf 6ca9 04be d0bf 283d 7429 aa3e
000000d0: 766c f3be 90f3 a03d 4c4c 623e 8cba fc3e
000000e0: 2830 df3e d8d2 763e 6b5d 90be 00d4 e13e
000000f0: a988 a6be 76ae 053f be33 2abe 885d 963d
00000100: 5867 da3d a466 11bf ced3 a63e 7ed3 0f3f
00000110: fa1e 7cbe c8d1 d43e b057 773d 643e 193e
00000120: 8096 c93e a494 0cbf 2072 bc3d 9c24 533e
00000130: 849b 5e3e 6881 443e 9e87 c0be 58bb c0bd
-0.20181197 0.094685614 -0.39456743 0.13457608 0.37962633 -0.5730185 0.0965026 0.24205858
-0.19063655 -0.5453146 -0.42535126 0.4733746 -0.53855616 0.18846518 -0.28167942 -0.0064820647
-0.25613567 -0.18785188 -0.57473487 -0.43707967 0.26621878 -0.24381176 0.0137344 -0.041345
0.041243076 -0.27216747 0.04260677 -0.06530303 0.235237 0.56893396 -0.14710319 -0.4388913
-0.36144242 0.31125045 0.061245143 -0.2935444 0.14213282 0.24842966 0.50662804 -0.0707556
-0.45883608 -0.29543415 -0.48309448 -0.05274117 -0.34441602 -0.5236687 -0.267035 -0.45564067
-0.51652473 -0.12955254 0.04119855 0.3323475 -0.47543687 0.07858956 0.22099417 0.49361074
0.43591428 0.24103868 -0.28196272 0.44107056 -0.32526138 0.5221933 -0.166213 0.073420584
0.106642425 -0.5679724 0.3258347 0.56182086 -0.24621192 0.415663 0.06038636 0.14965206
0.39372635 -0.5491431 0.09201455 0.20619434 0.21739012 0.1918999 -0.37603468 -0.09410733

bias f4 [10]
00000000: 0000 0000 0000 0000 0000 0000 0000 0000
00000010: 0000 0000 0000 0000 0000 0000 0000 0000
00000020: 0000 0000 0000 0000
0.0 0.0 0.0 0.0 0.0 0.0 0.0 0.0
0.0 0.0

weight f4 [10, 5]
00000000: 1dc7 1c3f c89c 00be 8277 ba3e 9ad0 b93e
00000010: e096 b0be 484a b43e 07f3 2f3f 6d28 803e
00000020: be09 313f 284a b33e a040 09bf a4a6 963e
00000030: e0df 66bc 4ae6 9bbe 9121 bbbe 03fa cf3e
00000040: c322 4fbe e974 d7be 51b0 0d3f 25a9 533d
00000050: 0322 ae3e 79fd be3e 7627 433f d373 67bd
00000060: aae9 1ebf 20ed dd3d 5080 4ebe f89b fa3d
00000070: 28ca e3be ef9d 053f fd43 143f e77b 143f
00000080: 8ca5 7bbd a2ea 183f 6b73 de3d 646b ff3e
00000090: c1f2 183f 965b d03e de67 0a3f f1ed 073f
000000a0: 87b7 eebe e6a3 173f c210 14bf e2c9 cabc
000000b0: bb52 643e 2649 fb3e 9835 97bd 2ce2 0cbe
000000c0: ffc7 1fbf 80b0 1a3d
0.6124132 -0.12559807 0.36419302 0.36291963 -0.34490108 0.35212922 0.68730205 0.25030842
0.6915549 0.35017514 -0.53614235 0.29424012 -0.014091462 -0.30449134 -0.36549047 0.4062043
-0.20228104 -0.42081383 0.5534716 0.05167498 0.34010324 0.3730276 0.7623209 -0.056506943
-0.62075293 0.10836244 -0.20166135 0.1223678 -0.4449017 0.5219411 0.5791624 0.5800156
-0.061437175 0.5973302 0.10861858 0.4988662 0.59745413 0.40694875 0.5406474 0.53097445
-0.46624395 0.59234464 -0.5783807 -0.024754468 0.22297184 0.49079245 -0.07383269 -0.13758153
-0.62414545 0.03776598

bias f4 [5]
00000000: 50b2 513d 9fef e73d 504a 003e 5943 053e
00000010: f4a3 9abd
0.051195443 0.11325001 0.12528348 0.13013972 -0.07550803

weight f4 [10, 5]
00000000: 765b 8e3e d68f cb3e cc0e 613e a2d8 74be
00000010: 11ec 1a3f 44db 88be 5092 b4be ab99 6ebe
00000020: 1ecf fc3e c7be 57be 9ca8 c23d 484e 1bbf
00000030: 8633 03be 2757 dfbe 1cc8 ad3c ee42 fd3e
00000040: 7581 d53e b6e1 f4be bd1c 2c3c 9a07 fdbe
00000050: d232 e03e 2713 2ebf ff1e ca3e 1c59 c5be
00000060: 8d7b 4ebe 9a26 e43e 86d5 d43e 3030 413d
00000070: 0292 ed3e 2244 f83e 1efa 3d3e 39f0 dbbe
00000080: 0127 37bd 2a7c 273f c31f 50be a219 31bf
00000090: c0a9 0ebe 0b0e 10bf c0b1 1e3f 92ab 9dbd
000000a0: d1a6 093d 8879 c3be 69e1 2dbf 10bb c1bc
000000b0: d4f5 0fbf 8026 afbb d682 cd3e cce8 393e
000000c0: 7054 723e 28c9 d53d
0.27804154 0.39758176 0.21978301 -0.23910764 0.6051646 -0.26729786 -0.35267878 -0.23300807
0.49376768 -0.2106887 0.09504816 -0.6066632 -0.12812623 -0.4362118 0.021213584 0.49465126
0.4170033 -0.47828454 0.010504899 -0.49419862 0.43788773 -0.67997974 0.39476773 -0.38544548
-0.20164318 0.445607 0.41569155 0.047165096 0.46400458 0.4848948 0.18552443 -0.42956713
-0.04471493 0.65423834 -0.20324616 -0.6917974 -0.13931942 -0.5627143 0.61989975 -0.0769874
0.033606354 -0.38178658 -0.67922074 -0.023648769 -0.5623448 -0.0053451657 0.40138882 0.18155211
0.23665023 0.10438758

bias f4 [5]
00000000: 9636 063e 6446 c7bd 51c2 c53d 055a c93d
00000010: 3480 dabd
0.1310676 -0.09730223 0.096562035 0.09831623 -0.10668984

weight f4 [10, 5]
00000000: efdb 213f a07a 95bc 1ab0 01bf ae0b df3e
00000010: c810 5a3e 6152 9d3e 913f e53d da13 103f
00000020: cac1 f3bd 76d3 01be f264 de3e 3628 b4bd
00000030: a7d7 7dbe 683e babe d1d4 d0be 8da3 a8be
00000040: fde3 aa3d d4e0 fabe dbe0 8dbd 1037 2bbf
00000050: 6c38 52bd 9dd0 74bd 45e4 eb3e 805a 843e
00000060: 6520 18be 4d94 08bf 180b 803d da01 cc3e
00000070: c6af 63be c3c3 a4be f561 df3e a006 89bd
00000080: 5a53 99be 1037 c6bd 37f9 47be 1819 5e3c
00000090: fa65 603e 2acb 92bd 0824 15bb 7c71 9b3e
000000a0: 91cb dcbd 6482 2dbd 60f4 9e3e 5a3b 50bd
000000b0: a8e9 bd3e faed ad3e 6f27 c0be d6ac e73e
000000c0: a5e3 073f 881a 01bf
0.6322622 -0.018246949 -0.50659335 0.43563598 0.21295464 0.30726913 0.11193765 0.5628029
-0.11902197 -0.12678322 0.4343639 -0.08796732 -0.24789296 -0.36375737 -0.40787366 -0.3293728
0.083442666 -0.48999655 -0.069276534 -0.66880894 -0.05132334 -0.05976926 0.46072593 0.25850296
-0.14856108 -0.5335129 0.06252116 0.39845163 -0.22235021 -0.32180604 0.43629423 -0.06690717
-0.29946405 -0.09678471 -0.19528662 0.0135557875 0.21913901 -0.07167657 -0.0022757072 0.3036002
-0.10781015 -0.04236068 0.31045818 -0.050837852 0.37092328 0.33970624 -0.37530085 0.4524905
0.53081733 -0.5043111

bias f4 [5]
00000000: 9636 063e 6446 c7bd 51c2 c53d 055a c93d
00000010: 3480 dabd
0.1310676 -0.09730223 0.096562035 0.09831623 -0.10668984

weight f4 [3, 10]
00000000: a864 c3be cb2b 42be 95a5 b8be b7fd b93d
00000010: 5191 3ebe d09b 273e 80a9 403e 0c30 8bbe
00000020: a9bc 91be ce91 ddbd f6fd 773d cfe2 3b3d
00000030: 0462 ba3d fe50 1c3e a4a5 16be 85b2 26be
00000040: 3caf 92be 2352 69be 1fdc 8a3e c334 483e
00000050: 11c0 42bd c95e 003e e8ed 5c3d df25 b73e
00000060: 9eb2 74be a110 973e 83f4 70be ff68 d53e
00000070: 7cfd 1b3e c81d 8dbe
-0.38162732 -0.18962018 -0.3606383 0.090815954 -0.18610121 0.16368032 0.18814659 -0.27185094
-0.2846425 -0.10818826 0.06054493 0.0458706 0.09100726 0.15265271 -0.14711624 -0.16279037
-0.28649318 -0.22785239 0.27121064 0.19551377 -0.04754645 0.12536158 0.053937823 0.3577108
-0.23896262 0.29504874 -0.23530774 0.41681668 0.15233415 -0.27561784

bias f4 [3]
00000000: 70ce 2dbe 1479 4fbd 483b 053e
-0.16973281 -0.05065258 0.13010895
