Models/GNNs/SecureWebContainer/2-hidden-layers/FocalLoss-aggreg-sum/model_RGCN_1000_samples_1000_epochs_1024_batchsize.pth (torch, 15330 bytes, 20 tensors)

weight f4 [8, 10]
000000 22 4e 1b bf dc d5 10 3f ee 5a 76 bf 18 ef 03 3f
       -0.60666096 0.56576324 -0.962325 0.51536703
000010 5c 36 d1 be 05 e1 f3 bd a1 17 71 be 14 2c 26 3f
       -0.40861785 -0.119081534 -0.2354417 0.6491101
000020 bb 39 9a bc 0e 88 35 3f 10 46 56 be 1c 0a 38 3f
       -0.018826356 0.7091073 -0.20925164 0.71890426
000030 13 37 17 3f 1d d0 df bd 05 d8 81 be ee 52 b2 3e
       0.5906841 -0.10928366 -0.25360122 0.34828895
000040 3c 27 95 be 6d 1d 03 3f 4e ec 17 be e9 6f f8 3e
       -0.29131496 0.51216775 -0.14836237 0.4852288
000050 12 eb e2 bd d7 82 5e 3e 14 06 b3 3e 6f 4c 35 3e
       -0.11079992 0.21729599 0.34965575 0.17704938
000060 18 5c af 3d b5 3f 1f 3f a7 b3 ee 3d 42 ae b4 bb
       0.08562487 0.62206584 0.1165536 -0.005513937
000070 16 69 15 3f 8e bb 99 3e 74 c2 e0 3d f8 a6 fb 3e
       0.58363473 0.30025905 0.10974589 0.49150825
000080 d9 f4 8d be 50 65 9f 3e 2c c9 d5 3e 5d 4f c4 3e
       -0.27725866 0.31131983 0.41755044 0.383418
000090 d7 f5 f7 3e f3 b6 1b 3f 98 bf 00 3e aa eb 15 3f
       0.48429748 0.60826033 0.12573087 0.5856272
0000a0 ad b7 05 bf 28 2a 90 3e 8f 70 02 bf 08 3d 0e bf
       -0.5223339 0.28157163 -0.50953 -0.55561876
0000b0 d8 61 df 3d c0 c8 30 bc 80 5e 9f bc 21 3c f6 be
       0.10907334 -0.01079005 -0.01945424 -0.4809275
0000c0 90 74 e6 be e2 f3 af 3e 88 b0 02 3f e7 49 00 bf
       -0.45010805 0.34365755 0.51050615 -0.50112766
0000d0 36 f9 2c be 90 0c 23 bd 5a 4f 82 3e 8c 13 ef 3e
       -0.16891941 -0.039806902 0.25451165 0.466946
0000e0 d4 5c 14 be b6 c9 97 be a7 d3 f1 be b0 af f3 be
       -0.14488536 -0.2964608 -0.4723179 -0.47594976
0000f0 38 d0 ff be 80 84 d8 3e 50 92 86 3d 28 d5 81 3d
       -0.49963546 0.4228859 0.06570876 0.063394845
000100 49 5e 04 bf ac b0 93 3e 30 cb 45 be 80 1f f0 be
       -0.5170637 0.28845727 -0.19315791 -0.46899033
000110 2e 84 62 be f0 68 e8 be 1f 6a c2 3e 43 ef 28 3f
       -0.22120735 -0.4539256 0.3797159 0.65990084
000120 f6 15 b3 3e ef e5 30 3e d9 f1 a5 be 77 ae 7f 3e
       0.34977692 0.17275213 -0.32411078 0.24968897
000130 45 c2 fb 3e f3 f6 fa 3e 9a 13 28 3f 1e 42 a2 3e
       0.49171653 0.49016532 0.6565491 0.31691068

bias f4 [10]
000000 2e 92 62 3e 3a 15 60 3e 8e 7b 50 3e 25 73 a3 3e
       0.22126076 0.21883097 0.20359632 0.31923786
000010 00 00 00 00 a5 30 71 3e 14 24 73 3e d4 b1 8c 3e
       0.0 0.23553713 0.23744231 0.27479422
000020 cc d5 a0 3e 05 d1 d5 3e
       0.31413114 0.41761032

weight f4 [8, 10]
000000 bc 74 47 3e dc 25 f7 be 7c b8 7f be c0 e7 d8 3d
       0.19478124 -0.48271072 -0.24972719 0.10591078
000010 d8 6a c0 3e c8 49 dd 3e 4a 12 10 be fc e2 30 3e
       0.37581515 0.43220353 -0.14069477 0.17274088
000020 f0 67 5b bd 54 d6 02 3f 5a 9f c4 3e d2 51 4b be
       -0.05356592 0.5110829 0.38402826 -0.1985543
000030 70 16 82 bd 80 06 56 3e b0 1c 67 3d 03 68 a1 be
       -0.06351936 0.20900917 0.056423843 -0.31524667
000040 60 d9 e1 3e c2 96 0b bf 64 eb 56 3e ad a1 fd be
       0.44111156 -0.54526913 0.20988232 -0.4953741
000050 36 f7 ae 3e 21 7c fc be a4 33 33 be 16 83 54 be
       0.34172982 -0.49313453 -0.17500168 -0.2075313
000060 90 f5 65 3d c2 d7 01 3f 3c db de be 36 f4 25 be
       0.05614239 0.50719845 -0.43526638 -0.1620644
000070 00 d7 15 bb 30 a7 09 3e 52 e9 7f be 00 48 6d 3c
       -0.0022863746 0.13442683 -0.24991348 0.014482498
000080 d8 6e c1 3e c4 9e 83 be 70 0e 73 bd 70 fc 3c 3e
       0.3777988 -0.25707066 -0.05933994 0.18455672
000090 c0 b2 09 bc 1c 0e 33 be 18 46 52 3e 40 79 72 bc
       -0.008404434 -0.17485851 0.20534551 -0.014799416
0000a0 80 f2 cf bb 29 68 8f be 5a 91 52 be 80 0d 39 3e
       -0.006346047 -0.28009155 -0.2056326 0.18071556
0000b0 e0 6c e5 bd 78 c1 64 3e 22 5f fb be d0 6f 92 be
       -0.11202407 0.22339427 -0.49096018 -0.2860093
0000c0 08 89 38 3e 91 1c 11 bf 24 42 f9 3e 4a 24 3d be
       0.18021023 -0.56684214 0.48683274 -0.18470874
0000d0 14 1a df bd c6 6e c3 be c0 a7 1e 3c c0 90 d9 bc
       -0.10893646 -0.3817045 0.009683549 -0.02655828
0000e0 04 c1 73 3e 40 2c 0e bf 70 66 fb 3e 59 7a 91 be
       0.23804098 -0.5553627 0.4910159 -0.28413656
0000f0 38 ca 81 be f2 fb b7 be 36 ee d5 be ba 87 ac 3e
       -0.25349593 -0.35934407 -0.41783303 0.336973
000100 40 18 42 3c 74 ec e3 3e 70 9e 88 bd c8 6a 6f be
       0.011846602 0.44516337 -0.066708446 -0.23380578
000110 72 24 bc be b2 86 08 3f 52 d8 0b 3f df ac 9a be
       -0.36746556 0.5333053 0.54626954 -0.30210015
000120 28 44 bc 3d 08 0c e4 3e b0 2d d0 be be 75 ce 3e
       0.09192687 0.4454043 -0.40659857 0.40324205
000130 18 3b 8b 3d f0 42 02 be d8 d5 f9 3e a8 df 0b 3f
       0.067983806 -0.12720847 0.48795962 0.5463815

bias f4 [10]
000000 00 00 00 00 00 00 00 00 00 00 00 00 00 00 00 00
       0.0 0.0 0.0 0.0
000010 00 00 00 00 00 00 00 00 00 00 00 00 00 00 00 00
       0.0 0.0 0.0 0.0
000020 00 00 00 00 00 00 00 00
       0.0 0.0

weight f4 [8, 10]
000000 34 bd c7 3e f0 48 fd 3d dc 9c f4 be f0 52 0b 3f
       0.39011538 0.12367427 -0.47775924 0.5442343
000010 18 57 94 3d 88 ac 84 3d 14 92 a7 3e 8e 27 08 be
       0.07243174 0.0647822 0.32728636 -0.13296339
000020 7c 82 80 3e 8a 1d c6 be 7c 0d bc bd 00 5c 9b 3b
       0.25099552 -0.38694412 -0.091822594 0.004741192
000030 f9 bc 11 bf d2 c1 5e be 80 51 ef 3e 18 3d f9 3d
       -0.56928974 -0.21753624 0.46741867 0.12169856
000040 56 c9 9b be ec 36 b1 be 4e 0a 1f be f8 89 fd 3d
       -0.30427045 -0.34612215 -0.15531275 0.12379831
000050 9a 23 38 be 00 72 dd 3e 60 64 1c be 7c 6e 80 be
       -0.17982331 0.43251038 -0.15272665 -0.25084293
000060 9a 20 a1 be 5e 77 bd 3e cb 4e e7 be 66 99 6b be
       -0.31470186 0.37005132 -0.45177302 -0.23007736
000070 5b 71 c5 be f0 59 eb 3e 95 0d b9 be a0 02 27 be
       -0.38563046 0.45967054 -0.36143175 -0.16309595
000080 72 61 80 3e 16 34 11 3f d8 9b b5 3d 18 90 01 bf
       0.25074345 0.567201 0.088676155 -0.50610495
000090 a8 36 f0 be 40 22 af 3d c6 be 9d 3e 08 59 6f 3e
       -0.469167 0.085514545 0.3080961 0.23373806
0000a0 b1 26 96 be a0 8f a7 be c0 f1 9a bc ae 82 db be
       -0.29326394 -0.32726765 -0.018914104 -0.42873138
0000b0 50 6c a5 bd 18 17 fa 3e 00 ec cb be 10 cf 41 3e
       -0.080772996 0.48845744 -0.3982849 0.18926644
0000c0 40 c2 41 bc 54 b4 f6 3e c8 fe ff bd bf 3d a2 be
       -0.011826098 0.48184454 -0.124997675 -0.31687734
0000d0 6c 06 4a 3e 5c c5 80 3e 00 f0 88 3c a0 d0 90 be
       0.19729012 0.25150573 0.016716003 -0.28284168
0000e0 25 fb 09 bf ff f5 a5 be 20 22 d4 bc 62 19 98 3e
       -0.5389884 -0.32414243 -0.025895178 0.29706866
0000f0 45 89 dc be 14 85 7e be 66 bf d7 be 04 23 53 3e
       -0.43073478 -0.24855453 -0.42138213 0.20618826
000100 ad bc cb be c8 49 ef 3e 74 d8 08 3e 46 00 1e be
       -0.39792386 0.46735978 0.1336382 -0.15429792
000110 c2 71 bb 3e 4c 2b 30 3e df 4e 8c be 16 40 32 be
       0.36610228 0.17204016 -0.27403924 -0.1740726
000120 82 e2 82 3e 62 a4 83 3e d8 ad fd 3e 24 bf 49 3e
       0.25563437 0.25711352 0.49546695 0.1970182
000130 2e 7c f6 be b0 23 57 3d 70 7c 66 be f2 f3 c7 3e
       -0.48141617 0.05252427 -0.22508407 0.39053303

bias f4 [10]
000000 00 00 00 00 00 00 00 00 00 00 00 00 00 00 00 00
       0.0 0.0 0.0 0.0
000010 00 00 00 00 00 00 00 00 00 00 00 00 00 00 00 00
       0.0 0.0 0.0 0.0
000020 00 00 00 00 00 00 00 00
       0.0 0.0

weight f4 [10, 7]
000000 73 ac 95 be d3 51 29 3f 9a 50 40 be f9 f2 2b be
       -0.2923313 0.6614048 -0.18780747 -0.16791905
000010 b5 69 44 bf 77 1c 2a 3f d1 d1 eb 3e f8 7a ad be
       -0.76723796 0.66449684 0.46058515 -0.3388288
000020 60 92 d8 3e e3 eb 24 bf 45 f8 99 be 75 38 d7 3e
       0.42299175 -0.64422435 -0.30072227 0.4203526
000030 2a 40 ad 3e 91 3d 60 3e ad b7 ce 3e 24 34 fb 3d
       0.33838016 0.21898486 0.40374509 0.122658044
000040 e8 92 f2 bd 81 0e fc be 67 58 8e be fa a9 8f be
       -0.118444264 -0.49229816 -0.2780182 -0.2805937
000050 6e 5d 36 3f 4a 6d 17 bf 7a 41 94 be d5 bd 4a 3c
       0.7123631 -0.59151137 -0.28956205 0.012374361
000060 b1 26 50 bf 15 3c 5d be 04 76 35 3e 88 11 e7 3e
       -0.8130904 -0.2160495 0.177208 0.45130563
000070 b8 9a 4b 3e 28 92 3b 3e d8 eb f6 bd 31 04 fb be
       0.1988324 0.18317473 -0.120567024 -0.49026635
000080 ce 51 11 3f 60 c4 c7 3e 3a 86 08 3f 73 65 34 bf
       0.5676545 0.3901701 0.53329813 -0.704673
000090 9e 13 24 3f 9a 03 3a bd 68 cb 33 bf 76 9f 48 bf
       0.64092433 -0.04541359 -0.7023225 -0.7836832
0000a0 61 fe e3 3e 12 1c a7 3e 57 f5 11 be 45 60 c1 3e
       0.44530013 0.32638603 -0.14253746 0.3776876
0000b0 10 b3 ac be 1b 50 10 bf 48 74 8f be 2b c7 11 3f
       -0.33730364 -0.5637223 -0.28018403 0.5694453
0000c0 83 5f 85 3d 23 31 6f bf 39 68 42 3e 6f a6 f6 bd
       0.06512358 -0.9343435 0.1898507 -0.120434634
0000d0 a4 4e 0d bf ed 1f 29 bf f9 c4 92 3e 9e 1d ec 3e
       -0.5519812 -0.6606434 0.28665903 0.46116346
0000e0 cb 16 33 bf 29 e3 09 3f 76 a5 bc 3d 15 b1 53 bf
       -0.69956654 0.53862244 0.09211247 -0.8269208
0000f0 76 4e bc bd 12 db eb 3e 52 50 be 3e 01 3e bc bf
       -0.09194653 0.46065575 0.37170655 -1.4706422
000100 1d 49 82 3e dc ea 48 bf 98 e4 59 bf 55 88 3c 3e
       0.25446406 -0.78483367 -0.8511443 0.18411382
000110 91 2a 04 bf 1b 58 23 bf
       -0.5162745 -0.63806313

bias f4 [7]
000000 8c 16 94 3e 71 8f 00 3e 5d 56 72 be c0 0a 97 be
       0.28923452 0.12554719 -0.23665757 -0.2950039
000010 8a 23 ab be 16 ab 8a 3e 1f 8e 74 3e
       -0.33425552 0.27083653 0.2388234

weight f4 [10, 7]
000000 d0 a1 ac be f0 11 00 bd f0 b5 69 be a2 46 1f be
       -0.33717203 -0.031267107 -0.2282331 -0.15554288
000010 b0 b4 fb 3d 8e 6d 23 be c4 68 00 3f 1c 13 1d 3e
       0.12290323 -0.1595976 0.5015986 0.15339321
000020 15 03 89 be e4 dd e2 3e 20 f2 34 bd 5c 57 4b 3e
       -0.26760164 0.44309914 -0.04417622 0.19857544
000030 72 04 14 3f 60 6b 13 3d 3e c1 10 bf 94 98 e4 3e
       0.57819283 0.035991073 -0.56544864 0.44647658
000040 50 60 b7 bd 5c d8 58 3e 72 c9 7e be 2e 7a 27 be
       -0.08953917 0.21176285 -0.24881533 -0.16355202
000050 ba af 80 3e 50 cd 10 bd 76 9f e6 be 4c cb e8 be
       0.2513407 -0.03535205 -0.45043534 -0.45467603
000060 b8 e9 a5 be f0 5c b5 3e 00 54 1d 3e 16 bc 0e be
       -0.32404876 0.35422468 0.15364075 -0.13938937
000070 94 c9 3f 3e d2 dd b4 be 27 cc bb be 53 4c 80 be
       0.1872924 -0.35325485 -0.36679193 -0.2505823
000080 ea e7 c7 be 1a 28 c8 be 2e 8d b6 3e dc a5 8e 3e
       -0.39044124 -0.39093095 0.35654587 0.27860916
000090 e0 69 16 3f 20 22 55 3e b2 11 14 3f 00 c0 83 3a
       0.587553 0.20813799 0.578395 0.0010051727
0000a0 3c e6 0e 3f 40 24 04 3c f8 7d c8 3d 6c 7a ea be
       0.5582006 0.008065283 0.09789652 -0.45796525
0000b0 5c 80 d1 3e d0 7b 62 be 84 1c 0a bf 88 a8 12 3f
       0.40918243 -0.22117543 -0.5394976 0.5728841
0000c0 08 52 f3 3e b8 42 86 bd e0 fd f9 3c 68 50 aa bd
       0.47523522 -0.06555694 0.030516565 -0.083161175
0000d0 a0 fb f8 3d 3e 09 08 3f 78 77 bd 3d 00 77 b9 3c
       0.12157369 0.531391 0.092513025 0.022639751
0000e0 90 e8 fc 3d 32 3a 40 be 00 f3 10 bb 78 c9 cb 3e
       0.12349045 -0.187722 -0.0022117496 0.39802146
0000f0 58 73 b0 3e 00 a5 20 3b 21 25 9c be 60 ec b9 3d
       0.34463 0.002451241 -0.30497077 0.09078288
000100 e0 a8 ed 3e 00 7c 7e 3d c0 b4 da be 56 f6 01 be
       0.46417904 0.062129974 -0.42716026 -0.12691626
000110 20 82 e2 bd ac 93 fa 3e
       -0.110599756 0.4894079

bias f4 [7]
000000 00 00 00 00 00 00 00 00 00 00 00 00 00 00 00 00
       0.0 0.0 0.0 0.0
000010 00 00 00 00 00 00 00 00 00 00 00 00
       0.0 0.0 0.0

weight f4 [10, 7]
000000 f8 b2 d5 3d 28 ad c6 3d 90 89 87 3e 41 2a c8 be
       0.10434526 0.09700996 0.2647214 -0.39094737
000010 a0 ad f6 be a6 8f d8 be d2 5b be be 08 fc 0d bf
       -0.4817934 -0.42297095 -0.37179428 -0.55462694
000020 98 1b 0f 3f 22 bd 8f 3e e4 19 47 3e cc 6f df 3e
       0.5590148 0.28073984 0.1944347 0.43639982
000030 87 33 ab be a0 20 f8 3d 1e c4 13 bf e0 b2 bb 3d
       -0.3343775 0.12115598 -0.57721126 0.09164977
000040 7e a3 37 be 66 2f a2 3e e6 fd a3 be 04 31 01 3e
       -0.17933461 0.31676787 -0.32029647 0.12616354
000050 24 cb e3 3e 61 28 ab be de ee b9 be 04 cc 50 3e
       0.44490921 -0.33429244 -0.36315054 0.20390326
000060 7a 2a cd be 50 d0 be bd 30 f3 0d 3f f0 4e 2e be
       -0.4007147 -0.09317076 0.554492 -0.170223
000070 80 99 3c be 50 6a 87 3e dc ed 17 3e cb eb 00 bf
       -0.1841793 0.26448298 0.1483683 -0.5035979
000080 c4 57 97 3e 32 d8 03 3f 8e 0a 89 3e 70 eb 07 3e
       0.29559147 0.5150176 0.26765865 0.13273406
000090 c8 52 62 be b0 9e 71 3e 38 c4 06 3f b5 2e c9 be
       -0.22101891 0.2359569 0.52643156 -0.39293447
0000a0 7c 6a 04 bf b0 7e 9a bd 72 bb d5 be 86 39 fd be
       -0.5172498 -0.07543695 -0.41744572 -0.4945795
0000b0 d4 43 3a be 8e b5 ce be 0c 4a f7 3e ac c5 17 be
       -0.18189937 -0.4037289 0.4829868 -0.148215
0000c0 ba 1d 12 be 78 14 61 3e f7 2b fc be 30 29 46 be
       -0.14269152 0.21980464 -0.49252293 -0.1935165
0000d0 c4 3d 4e be 12 96 c8 be 8c 47 f7 3e f8 cf ad be
       -0.20140749 -0.39176995 0.48296773 -0.3394773
0000e0 c3 9a 0f bf 58 6f 80 bd ee a4 d1 be 68 09 65 be
       -0.5609552 -0.06271237 -0.40946144 -0.2236687
0000f0 86 18 0f 3f 1a 6e b2 be be d5 e5 be f0 08 82 bd
       0.55896795 -0.34849626 -0.44889635 -0.06349361
000100 6a 0d 54 be 0f a0 11 bf b0 0f ee 3d 50 34 75 3d
       -0.20708242 -0.56884855 0.11624086 0.059864342
000110 20 b2 4c 3d d0 5b 4f 3e
       0.04997456 0.20249867

bias f4 [7]
000000 00 00 00 00 00 00 00 00 00 00 00 00 00 00 00 00
       0.0 0.0 0.0 0.0
000010 00 00 00 00 00 00 00 00 00 00 00 00
       0.0 0.0 0.0

weight f4 [7, 5]
000000 bd 10 72 bf d2 95 ef be 5e 92 66 3f 34 50 20 3f
       -0.9455679 -0.4679399 0.9006709 0.6262238
000010 0a 06 6b bf 25 9b d4 be d8 ae 35 bf 5d bd 1a 3f
       -0.9180609 -0.41524616 -0.70969915 0.60445195
000020 05 39 8a 3e 20 e0 00 3f 25 88 b1 bd f6 46 25 3f
       0.26996627 0.5034199 -0.08668546 0.645614
000030 90 bf ed be 8c 1d 98 bd a3 23 0e be 35 98 ca 3e
       -0.46435213 -0.074275106 -0.13880782 0.3956925
000040 6d 07 4d be cb d2 b3 be 98 e1 1a bf fd 1e 66 bd
       -0.20022364 -0.3512176 -0.6050048 -0.056181896
000050 6b 3b f1 3e d1 6d 4e be 43 a4 29 bf 92 6d 1a bf
       0.47115645 -0.20159079 -0.6626627 -0.6032344
000060 06 37 18 3f 9e 7b 46 3e c8 a2 17 bf 96 7c f1 be
       0.5945896 0.19383094 -0.5923276 -0.47165364
000070 d6 27 1c 3f 4d a2 f2 be 07 0d 80 bd 2b a0 19 bf
       0.60998285 -0.4738945 -0.06252485 -0.6001002
000080 3b f6 ea be ae 3b cc 3e 81 3f c4 be
       -0.45890984 0.39889282 -0.383297

bias f4 [5]
000000 07 70 4e be 14 df 23 be 7f bf 82 3e 9e 97 48 3e
       -0.20159923 -0.16003066 0.25536725 0.19589087
000010 20 e0 46 be
       -0.19421434

weight f4 [7, 5]
000000 8b 7e 83 3f 42 02 45 bf 17 fc a9 3f eb 50 b2 bf
       1.0272993 -0.7695657 1.3280057 -1.3930944
000010 55 23 a4 3f c1 74 ce 3e 85 20 7e 3e ad 50 5c be
       1.2823282 0.4032345 0.24817093 -0.2151515
000020 e6 53 6f 3e 74 58 ef 3e a2 79 19 bf 7d b2 22 be
       0.23371848 0.46747172 -0.5995122 -0.158884
000030 bb 89 6f bf da da ba 3e 32 80 ab bf b7 16 37 bf
       -0.93569535 0.36495095 -1.3398497 -0.71519035
000040 ad 4c 18 3f 1e 85 5f 3e 25 19 96 3d d1 85 d0 be
       0.59492 0.21828124 0.07329015 -0.40727094
000050 45 06 61 bf 96 d6 29 3f 0a c8 42 bf d5 8b 8a 3e
       -0.8790019 0.6634306 -0.76086485 0.27059808
000060 92 97 41 bf 73 d2 6e 3f f4 58 2a bf 67 c1 c7 3e
       -0.756219 0.9328987 -0.6654198 0.39014742
000070 6d 18 7f bf df 52 26 3f 6d 08 d7 3e aa 3b f8 be
       -0.99646646 0.649702 0.41998616 -0.4848302
000080 00 7a 19 3f 10 01 b1 be 54 6f a1 3f
       0.5995178 -0.34571123 1.26121

bias f4 [5]
000000 e9 02 2f be ff 01 40 3e 7d ce 32 be a8 29 61 3e
       -0.17090954 0.18750761 -0.17461582 0.21988547
000010 c9 e9 43 3e
       0.1913215

weight f4 [7, 5]
000000 42 93 15 3f 4b 7b d8 be c2 01 36 3f c0 5b 5e be
       0.5842782 -0.42281565 0.7109643 -0.21714687
000010 fa de 16 bf c5 38 34 bf f8 67 9f bc e7 da 86 be
       -0.58933985 -0.70399123 -0.019458756 -0.26338884
000020 9a ba 81 3f 9c 14 9d be dc 04 8f bd 1a 66 a6 be
       1.0135071 -0.30679786 -0.06983349 -0.32499772
000030 ec 69 7e 3f 1a 22 24 bf 70 1f 33 bf 14 38 b0 3e
       0.99380374 -0.64114535 -0.69969845 0.34417784
000040 5c ae 7f bf 1b a8 70 3f 0e 84 34 bf 4c ef cb be
       -0.99875426 0.9400651 -0.70514 -0.39831007
000050 fe 1e 86 3e 92 d2 9b be e6 ad 10 3f 2e 11 b6 be
       0.2619552 -0.3043409 0.5651535 -0.35559982
000060 f9 9c b3 bc b3 9d 89 bc f2 c8 59 3e e7 c5 a2 bc
       -0.021925436 -0.01679883 0.21268061 -0.019869758
000070 eb 53 03 3f 27 eb 16 3f 83 b5 a1 3e 04 f6 cf 3e
       0.51299924 0.58952564 0.31583795 0.40617383
000080 16 55 da be 07 84 1c 3f c6 d8 f3 bd
       -0.4264304 0.6113896 -0.119065806

bias f4 [5]
000000 e9 02 2f be ff 01 40 3e 7d ce 32 be a8 29 61 3e
       -0.17090954 0.18750761 -0.17461582 0.21988547
000010 c9 e9 43 3e
       0.1913215

weight f4 [3, 10]
000000 fa 56 93 bc d9 bd cb 3e 3b 95 13 be 9d 7b 39 bd
       -0.01798581 0.3979328 -0.14412396 -0.045283902
000010 85 96 f4 3e 07 19 70 bc 89 da f2 be 32 b9 d7 3e
       0.47771087 -0.0146544045 -0.47432354 0.4213348
000020 d5 68 f5 be 91 cc 08 bf d4 4d 32 bd 26 90 6a 3d
       -0.47931543 -0.53437144 -0.043531254 0.057266377
000030 fd be 4b 3d f5 79 d0 3d 7a ff 3f 3e 20 89 1c 3f
       0.049742687 0.101795115 0.187498 0.61146736
000040 d8 d3 26 bf 28 63 db 3e d5 0a 81 be 0c 74 2d 3f
       -0.65167 0.42849088 -0.25203577 0.677552
000050 63 f7 d2 be 0b af eb be 1f c3 90 3e 56 bd b0 3e
       -0.41204366 -0.46031985 0.28273866 0.34519452
000060 18 e1 31 be fc a4 1e bf b9 76 b1 3e 47 6f 2c bf
       -0.17371023 -0.61970496 0.3466089 -0.67357296
000070 95 90 dc 3e c7 6e aa 3e
       0.43079057 0.3328764

bias f4 [3]
000000 4d 59 19 be f0 ce 8d be f9 02 d8 bc
       -0.14975472 -0.27696943 -0.026368605
