Models/GNNs/SecureWebContainer/model_RGCN_100_samples_50_epochs.pth (torch, 10862 bytes, 14 tensors)

weight f4 [8, 10]
0	0xbeeca515	-0.46219698
1	0x3e6d884c	0.23196524
2	0xbea10076	-0.31445664
3	0xbf01832c	-0.5059078
4	0xbec4a190	-0.38404512
5	0xbecd1410	-0.4005437
6	0x3ebc8e9f	0.3682756
7	0xbea03cf7	-0.31296512
8	0x3e5cb713	0.21554212
9	0x3f2b08dd	0.668104
10	0xbeb773f2	-0.35830647
11	0xbf115475	-0.56769496
12	0xbeb405e6	-0.3516075
13	0xbe4a81d8	-0.19776094
14	0x3da48aef	0.08034312
15	0x3e8e1ff6	0.2775876
16	0x3e8fcb54	0.28084815
17	0x3e2526a9	0.16128029
18	0x3e242bb0	0.1603229
19	0x3ef9dfb1	0.48803475
20	0x3f344d6e	0.7043065
21	0x3ed91a6c	0.4240297
22	0xbe93e6a7	-0.2888691
23	0x3eed8640	0.46391487
24	0x3dd6725d	0.10471032
25	0x3f0390c0	0.51392746
26	0x3e60c72f	0.21950983
27	0x3f14ce3c	0.5812719
28	0xbed731b6	-0.42030114
29	0x3ece31f1	0.40272477
30	0xbed04966	-0.40681
31	0xbf02213a	-0.5083195
32	0x3e48c7e4	0.19607502
33	0xbec1023b	-0.37697014
34	0xbe923858	-0.28558612
35	0xbef60214	-0.4804846
36	0x3d0580ad	0.032593418
37	0x3f1697a0	0.5882511
38	0xbecd0964	-0.40046227
39	0xbe9f770b	-0.3114551
40	0x3dc8eb08	0.09810454
41	0xbe53c05a	-0.20678845
42	0x3e954c98	0.2916
43	0xbe15bc20	-0.14622545
44	0xbed08e24	-0.40733445
45	0x3ea2e276	0.318134
46	0xbe572c1a	-0.21012917
47	0xbee3e402	-0.44509894
48	0xbed69965	-0.41913906
49	0x3ec385fc	0.3818816
50	0xbe9bfdee	-0.3046717
51	0xbecf3c4a	-0.40475684
52	0x3e109bf0	0.14121985
53	0xbda571d8	-0.080783546
54	0xbd9fd3a8	-0.07804042
55	0xbed7bc17	-0.4213569
56	0x3ed260c8	0.41089463
57	0xbea0498c	-0.31306112
58	0xbea1aaa4	-0.315755
59	0x3edd6dac	0.43247736
60	0x3ef365dc	0.4753865
61	0xbea0a6a2	-0.3137713
62	0x3e817d02	0.25290686
63	0xbede6ddd	-0.43443194
64	0xbd7b20d0	-0.06131059
65	0xbed177a4	-0.4091159
66	0x3ee7b318	0.45253825
67	0xbcff5b40	-0.031171441
68	0x3f10fdf6	0.56637514
69	0xbe22c4be	-0.15895364
70	0x3e93bd10	0.2885518
71	0xbd6a4540	-0.05719495
72	0x3f1b0be7	0.60565037
73	0x3e0443d1	0.12916495
74	0x3ebacb03	0.3648301
75	0xbf1122d8	-0.5669379
76	0x3e023dbd	0.12718864
77	0x3f159034	0.5842316
78	0x3ee34be5	0.4439384
79	0xbdf49133	-0.11941757

bias f4 [10]
0	0x3df91037	0.12161296
1	0x00000000	0.0
2	0x3df879da	0.12132616
3	0xbce6b999	-0.028164672
4	0xbd1300dc	-0.03588949
5	0x00000000	0.0
6	0xbd81f59f	-0.06345677
7	0x3ddcbac2	0.10777809
8	0x3e00a36b	0.12562339
9	0x3de61679	0.11234755

weight f4 [8, 10]
0	0x3ec82f94	0.390988
1	0xbef7149e	-0.48257917
2	0x3e61abd8	0.2203821
3	0x3f03b536	0.5144838
4	0x3ef044b8	0.46927428
5	0x3ebfe262	0.37477404
6	0x3df49818	0.11943072
7	0x3cf6cd80	0.030127287
8	0x3d7dca80	0.061960697
9	0x3da022b0	0.07819116
10	0xbdd9984c	-0.106247514
11	0xbeb61d30	-0.35569143
12	0xbdb6f3bc	-0.089332074
13	0xbe80d527	-0.25162622
14	0xbe93d7dd	-0.28875628
15	0xbe3f7bc2	-0.18699554
16	0xbcf36480	-0.029711008
17	0xbd0e13d0	-0.034686863
18	0xbe8c4c11	-0.27401784
19	0xbd896648	-0.06708962
20	0x3e9b5e98	0.30345607
21	0xbe9a5f1a	-0.30150682
22	0xbee52bce	-0.44759983
23	0x3e7282cc	0.23682708
24	0x3d894ae8	0.0670374
25	0xbe810ec5	-0.2520658
26	0x3e253e94	0.16137153
27	0x3e28db74	0.16489965
28	0x3e201100	0.15631485
29	0xbe455280	-0.19269753
30	0xbdda7dbc	-0.10668513
31	0x3eacaeae	0.3372702
32	0x3f02714e	0.5095414
33	0xbf10cd84	-0.5656359
34	0xbd04cbb0	-0.032420814
35	0x3eab3db4	0.33445513
36	0x3ee47a88	0.44624734
37	0x3f024d4c	0.50899196
38	0x3e92d0fc	0.28675067
39	0x3e95af1c	0.2923516
40	0xbdc9c524	-0.09852055
41	0x3d152820	0.03641522
42	0xbe9d57a7	-0.30730936
43	0xbe4b0696	-0.19826731
44	0xbdc3587c	-0.095383614
45	0xbeb3c9fe	-0.35115045
46	0x3e5b2690	0.21401429
47	0x3ee8a2b4	0.45436633
48	0x3eda99e8	0.42695546
49	0xbdded8c4	-0.108811885
50	0x3e107ebc	0.14110845
51	0x3eb35b5a	0.35030633
52	0xbde14c10	-0.11000836
53	0xbe92f277	-0.2870061
54	0xbf110d35	-0.5666078
55	0xbf07c1ec	-0.53030276
56	0xbee813a4	-0.45327485
57	0xbe352f58	-0.17693841
58	0xbef3d6a9	-0.4762471
59	0xbf0de3ae	-0.55425537
60	0x3f00e330	0.5034666
61	0xbe25f956	-0.16208395
62	0xbed9c22a	-0.42530948
63	0xbeb2b6e8	-0.3490517
64	0x3f0b8fca	0.5451628
65	0xbef6559d	-0.48112193
66	0x3d8689b0	0.065692306
67	0x3dd01190	0.101596
68	0x3e9d1ce2	0.30686098
69	0x3da523b0	0.080634475
70	0xbcfc2660	-0.030780017
71	0x3f08c9da	0.53433
72	0xbf0859a9	-0.5326181
73	0xbe78ac5a	-0.24284497
74	0x3e3438d0	0.17599797
75	0xbef985c3	-0.48734865
76	0x3e45860c	0.19289416
77	0xbed75c30	-0.4206252
78	0xbeaef8a6	-0.3417408
79	0xbeb562f7	-0.35427067

bias f4 [10]
0	0x00000000	0.0
1	0x00000000	0.0
2	0x00000000	0.0
3	0x00000000	0.0
4	0x00000000	0.0
5	0x00000000	0.0
6	0x00000000	0.0
7	0x00000000	0.0
8	0x00000000	0.0
9	0x00000000	0.0

weight f4 [8, 10]
0	0x3e11c490	0.14235139
1	0x3e126934	0.14297944
2	0xbe940e73	-0.28917274
3	0xbf07926c	-0.529578
4	0xbd9b0500	-0.07569313
5	0xbe7f75da	-0.249473
6	0xbed9d8fc	-0.42548358
7	0xbf0d3097	-0.5515227
8	0xbd9b60f0	-0.07586849
9	0xbceb6920	-0.028736651
10	0x3f0947a2	0.5362493
11	0xbf04f34b	-0.51933736
12	0xbd0efbb0	-0.034907997
13	0x3eb419ae	0.35175842
14	0xbe966e64	-0.29381096
15	0xbe493d3c	-0.19652265
16	0x3e9c2558	0.3049724
17	0x3eeee630	0.46659994
18	0xbe2cdf8e	-0.16882154
19	0x3d941300	0.072301865
20	0xbe8770d1	-0.2645326
21	0x3e2ca54c	0.16859931
22	0x3e4d6930	0.20059657
23	0xbefe00be	-0.4960994
24	0x3f0f3132	0.5593444
25	0x3efd3e58	0.49461627
26	0xbeb6db8f	-0.35714385
27	0xbe78e3da	-0.24305668
28	0x3bc34380	0.0059589744
29	0xbdabc248	-0.083866656
30	0x3ea8045c	0.32815826
31	0xbdc4d76c	-0.09611401
32	0xbee02a7c	-0.43782413
33	0x3dc3b380	0.09555721
34	0x3f0e107c	0.55493903
35	0x3e7430a4	0.2384668
36	0xbed50086	-0.41601962
37	0x3e223830	0.15841746
38	0x3eaef772	0.3417316
39	0x3ebc7e0c	0.36814916
40	0x3e057c90	0.13035798
41	0xbce7fa60	-0.02831763
42	0xbecb4300	-0.39699554
43	0x3e3549b4	0.17703897
44	0x3e517858	0.20456064
45	0x3ebf2b48	0.37337708
46	0xbe9b7c85	-0.30368438
47	0x3d736b30	0.059428394
48	0xbf094553	-0.53621405
49	0xbdacd818	-0.08439654
50	0x3e1af9d4	0.15134364
51	0x3e34d3bc	0.17658895
52	0x3ed2c3b4	0.41164935
53	0xbf01a7c8	-0.5064664
54	0xbd70d470	-0.058796346
55	0xbe2e64fa	-0.17030707
56	0x3eee7b7c	0.46578586
57	0x3db2f578	0.08738226
58	0xbec3ea72	-0.38264805
59	0x3f03bf5c	0.51463866
60	0x3f008e4a	0.50217116
61	0x3eea7648	0.45793366
62	0x3f0fbe22	0.56149495
63	0xbe53d67e	-0.20687291
64	0xbd83e0c8	-0.06439358
65	0x3f07f7e4	0.53112626
66	0x3e916f72	0.2840534
67	0x3ee92af0	0.4554057
68	0xbef699d7	-0.48164245
69	0x3eeb2e84	0.45933926
70	0x3eeb4e30	0.4595809
71	0xbf134b1f	-0.575365
72	0x3e12de3c	0.14342588
73	0x3d9d1130	0.07669294
74	0x3e9088a0	0.28229237
75	0xbea31fb8	-0.31860137
76	0xbd463ab0	-0.048395813
77	0xbec1b99a	-0.37836915
78	0xbe9013ea	-0.28140193
79	0xbe618194	-0.22022086

bias f4 [10]
0	0x00000000	0.0
1	0x00000000	0.0
2	0x00000000	0.0
3	0x00000000	0.0
4	0x00000000	0.0
5	0x00000000	0.0
6	0x00000000	0.0
7	0x00000000	0.0
8	0x00000000	0.0
9	0x00000000	0.0

weight f4 [10, 5]
0	0xbf2829b9	-0.65688664
1	0x3e16b29b	0.1471657
2	0x3d499e4e	0.049223237
3	0xbd84bc4e	-0.06481229
4	0x3d0a2634	0.03372784
5	0xbdd27750	-0.10276663
6	0xbf1dc601	-0.61630255
7	0x3ddb8088	0.10717875
8	0xbeac1780	-0.3361168
9	0x3e5716a0	0.21004725
10	0xbec4ffe7	-0.38476488
11	0x3eaedd3d	0.34153166
12	0x3edfdad9	0.43721655
13	0xbe616f9a	-0.22015229
14	0xbdf80db8	-0.12111992
15	0x3ef0227a	0.46901304
16	0xbeb598c8	-0.35468125
17	0xbe834866	-0.25641173
18	0xbefcf45c	-0.4940518
19	0xbf1362aa	-0.57572424
20	0x3eb913b8	0.36147857
21	0x3e5b6a71	0.21427323
22	0x3ef1b8e8	0.47211385
23	0xbd7c412e	-0.061585598
24	0x3c4a049e	0.012330202
25	0xbe434c76	-0.19072136
26	0xbde4b8f8	-0.111680925
27	0xbea57cbd	-0.3232173
28	0xbf0c6a78	-0.5484996
29	0xbe998b6d	-0.29989186
30	0x3d6194df	0.055073615
31	0x3d3fc20f	0.046815928
32	0xbe59119c	-0.21198124
33	0xbee7aacd	-0.45247498
34	0x3ebd1187	0.36927435
35	0xbf2ecf46	-0.68285024
36	0xbefb1cf2	-0.4904552
37	0x3f16aa5e	0.5885371
38	0xbf2e463a	-0.6807591
39	0xbcbcf625	-0.02306659
40	0xbf156f78	-0.5837321
41	0x3eb8620d	0.36012307
42	0x3e9010ad	0.28137723
43	0x3effb2ba	0.49941045
44	0xbdbe6451	-0.092964776
45	0xbecd7918	-0.4013145
46	0xbf3bcc33	-0.7335846
47	0x3d55a3c5	0.052158136
48	0xbf3aa88b	-0.72913426
49	0x3c139f89	0.009010204

bias f4 [5]
0	0xbdc5480d	-0.09632883
1	0xbde6ed37	-0.11275714
2	0x3dc0fd92	0.09423365
3	0xbdcf45ab	-0.1012071
4	0x3dd073a0	0.10178304

weight f4 [10, 5]
0	0xbe84246a	-0.25809032
1	0xbf0e6f1d	-0.55638295
2	0x3d52dbf2	0.051479287
3	0xbd51a229	-0.05118004
4	0xbdbc787a	-0.092026666
5	0xbeaab5a6	-0.33341712
6	0x3f155405	0.5833133
7	0xbee34518	-0.44388652
8	0x3f1b2a79	0.60611683
9	0x3e4ffcf8	0.20311344
10	0xbf3f4e8d	-0.74729234
11	0x3efd39db	0.49458203
12	0xbf0b40a1	-0.5439549
13	0x3ee3ebff	0.44515988
14	0x3f06b3c6	0.5261806
15	0xbf151894	-0.5824063
16	0xbe1f7f73	-0.15575962
17	0xbd0d0227	-0.03442588
18	0x3ec92c05	0.39291397
19	0xbd005bd6	-0.03133758
20	0x3e90c61f	0.28276154
21	0xbebcdb28	-0.36885953
22	0xbf08574c	-0.53258204
23	0xbf04227d	-0.51615125
24	0xbe3a0fe6	-0.18170127
25	0xbf0b56ae	-0.5442914
26	0xbf136583	-0.5757677
27	0xbe3743d8	-0.17896974
28	0x3da8a770	0.08235061
29	0x3f127d29	0.5722223
30	0xbe997bb9	-0.29977205
31	0x3ef0f0e0	0.47058773
32	0x3dcfcc05	0.101463355
33	0x3f084591	0.5323115
34	0x3e3eb5f8	0.18624103
35	0xbe68181c	-0.22665447
36	0xbe3a697d	-0.18204303
37	0xbe8fb6d0	-0.28069162
38	0xbe5d87e1	-0.21633865
39	0x3f0c5488	0.54816484
40	0xbe05f9fe	-0.13083646
41	0xbf1e0760	-0.61730003
42	0x3e993083	0.29919824
43	0x3e3009f2	0.17191294
44	0x3d00c3be	0.031436674
45	0xbf1e55f9	-0.61849934
46	0xbf336bc7	-0.7008633
47	0x3dcadd28	0.099054635
48	0x3e9d7955	0.30756631
49	0xbcd4d6eb	-0.025981387

bias f4 [5]
0	0xbdd67f54	-0.10473505
1	0x3da76996	0.08174436
2	0x3dc4de0b	0.09612664
3	0xbdcea4b3	-0.10090008
4	0xbdbe3ae6	-0.09288578

weight f4 [10, 5]
0	0xbdae4e31	-0.085110076
1	0xbe5b214b	-0.21399419
2	0x3ee097fe	0.4386596
3	0xbf1ced8a	-0.61299956
4	0x3ecfac8b	0.40561327
5	0x3ea4d10c	0.3219074
6	0xbc6d2700	-0.01447463
7	0xbe821ee9	-0.25414208
8	0x3f06a2a3	0.52591914
9	0xbd74b4e0	-0.05974281
10	0xbe8a597c	-0.27021396
11	0x3e73177c	0.23739427
12	0xbe4007c5	-0.18752964
13	0xbf2ac5a1	-0.6670781
14	0x3ef30f83	0.47472772
15	0xbf05ba15	-0.52237064
16	0x3ea17294	0.3153273
17	0xbe71d91b	-0.23617975
18	0xbd060bc3	-0.03272606
19	0x3dc4968a	0.095990255
20	0xbf07e5ba	-0.5308491
21	0xbe82b11d	-0.25525752
22	0x3bf0bcb7	0.0073467153
23	0xbf070554	-0.52742505
24	0xbe9f4545	-0.31107536
25	0xbde02dc8	-0.10946232
26	0x3f056b45	0.52116805
27	0x3e6ee108	0.2332803
28	0x3ea31d16	0.31858128
29	0x3f09f681	0.5389176
30	0xbf041ea6	-0.51609266
31	0x3e84ba7d	0.2592353
32	0xbea17fea	-0.31542903
33	0x3e813c6a	0.25241405
34	0x3db03906	0.08604626
35	0xbf24839b	-0.64263314
36	0xbeebdd59	-0.46067312
37	0xbeb1db06	-0.34737414
38	0xbf10d3f6	-0.56573427
39	0xbd3887bb	-0.045051318
40	0xbf204e22	-0.6261922
41	0xbf01fac2	-0.5077325
42	0xbe94d232	-0.29066616
43	0x3ef48a90	0.47761965
44	0x3ec7ac7b	0.3899878
45	0x3ef2b3e8	0.47402883
46	0xbe6db0ac	-0.23211926
47	0x3f35b8e6	0.7098526
48	0x3e8580f2	0.2607494
49	0xbec3e915	-0.38263765

bias f4 [5]
0	0xbdd67f54	-0.10473505
1	0x3da76996	0.08174436
2	0x3dc4de0b	0.09612664
3	0xbdcea4b3	-0.10090008
4	0xbdbe3ae6	-0.09288578

weight f4 [3, 10]
0	0x3e854fd6	0.26037472
1	0x3e2d3e70	0.1691835
2	0xbd903afd	-0.07042501
3	0xbe3e110f	-0.18561195
4	0x3e0baea0	0.13640833
5	0x3ed850b4	0.42249072
6	0x3e7fb0b4	0.2496975
7	0x3d75090e	0.05982309
8	0x3dcfb812	0.101425305
9	0x3e94032b	0.28908667
10	0x3d4473db	0.04796205
11	0x3e684650	0.22683072
12	0xbe2d1095	-0.16900857
13	0x3ea1ec1c	0.3162545
14	0xbe745abb	-0.23862736
15	0xbe1ee778	-0.15517986
16	0xbe919609	-0.2843478
17	0x3e45b2f4	0.19306546
18	0x3eaa2530	0.33231497
19	0xbbee524c	-0.007272994
20	0xbeaffa9a	-0.3437088
21	0xbdd962cd	-0.10614548
22	0x3ece04d6	0.40238065
23	0xbe825f72	-0.25463444
24	0x3eaa4c72	0.33261448
25	0x3db078b2	0.08616771
26	0x3ea182a2	0.31544977
27	0x3eadebaa	0.3396886
28	0xbe4292e0	-0.19001341
29	0xbec8dcfa	-0.39231092

bias f4 [3]
0	0xbe68f570	-0.22749877
1	0x3e2dd429	0.16975464
2	0x3e84c315	0.25930086
