Models/GNNs/SecureWebContainer/model_RGCN_50_samples_300_epochs.pth (torch, 10862 bytes, 14 tensors)

weight f4 [8, 10]
0	0x3e0bae87	0.13640796
1	0x3edc97ad	0.4308447
2	0x3ea91049	0.33020237
3	0xbc45f655	-0.012082656
4	0x3eeb00d3	0.45899066
5	0xbea1673a	-0.31524068
6	0xbf0eb577	-0.55745643
7	0xbdeed498	-0.11661643
8	0x3e990746	0.29888362
9	0x3e605e04	0.21910864
10	0x3f02ce49	0.51096016
11	0x3eb39500	0.35074615
12	0x3eaa4bf7	0.33261082
13	0xbea4f05d	-0.32214633
14	0x3e872aa4	0.2639972
15	0x3f16e44b	0.589421
16	0xbefa02b6	-0.48830193
17	0xbf091145	-0.53541976
18	0xbe828337	-0.25490734
19	0x3e727fbd	0.23681541
20	0x3cc7d4d8	0.024393484
21	0x3ee75617	0.4518287
22	0x3f294b20	0.66130257
23	0xbe86a06c	-0.26294267
24	0x3f20e0eb	0.628432
25	0x3f19b6af	0.6004438
26	0xbebe4b5f	-0.3716688
27	0x3df710d4	0.120637566
28	0xbec0f482	-0.37686545
29	0x3f451a79	0.7699352
30	0xbd23d205	-0.039995212
31	0xbe4b9bc7	-0.19883643
32	0x3f3324a7	0.699778
33	0xbeb003e5	-0.3437797
34	0x3f412f8a	0.75463164
35	0x3ebe0753	0.37114963
36	0x3f10308c	0.56324077
37	0xbf05a57c	-0.52205634
38	0xbe805fda	-0.2507313
39	0x3f02898f	0.5099115
40	0x3da82750	0.08210623
41	0x3f0fc79c	0.56163955
42	0xbf0a7627	-0.54086536
43	0x3dcc6f40	0.09982157
44	0x3e0ca7d8	0.13735902
45	0x3effaab0	0.49934912
46	0xbf0f97bc	-0.56090903
47	0x3ea480f4	0.32129633
48	0xbdfe4ec4	-0.12417367
49	0x3f015154	0.5051472
50	0xbeda30a2	-0.4261523
51	0x3e494ea0	0.196589
52	0xbe0459e4	-0.12924916
53	0x3ed5954c	0.41715467
54	0xbeb5961d	-0.3546609
55	0xbef9f335	-0.48818365
56	0x3f0fcac8	0.56168795
57	0xbeabc068	-0.33545232
58	0xbba61400	-0.005068302
59	0x3e1d1548	0.1534015
60	0x3e51bc8c	0.20482081
61	0xbe878e85	-0.2647592
62	0xbde005f8	-0.109386384
63	0xbe8782c4	-0.26466954
64	0xbeb556a4	-0.35417664
65	0xbdc9b7b8	-0.09849495
66	0x3e6b4474	0.22975332
67	0xbe744210	-0.23853326
68	0x3e4ac590	0.19801927
69	0x3efb836c	0.49123704
70	0x3e5d4594	0.21608573
71	0xbdf8cf51	-0.121489175
72	0x3e543baa	0.20725885
73	0x3f253b84	0.6454394
74	0x3d24e2e5	0.040255446
75	0x3f27bb73	0.655204
76	0xbecc20f2	-0.39868885
77	0x3e9af95c	0.3026837
78	0xbebd56c6	-0.36980265
79	0x3f1fafde	0.6237773

bias f4 [10]
0	0x3e6fcd42	0.23418143
1	0x3d764674	0.060125783
2	0x3e7025e7	0.23451959
3	0x3e8eb766	0.27874297
4	0x3e88d31b	0.2672356
5	0x3e7f7a25	0.24948938
6	0x00000000	0.0
7	0xbd5c3e82	-0.05377055
8	0x00000000	0.0
9	0x3e834fed	0.25646916

weight f4 [8, 10]
0	0xbf0f567f	-0.5599136
1	0x3f109af6	0.5648645
2	0x3ea86a82	0.3289376
3	0x3e89f652	0.2694574
4	0xbef6327c	-0.48085392
5	0xbe0b0b32	-0.1357849
6	0xbd94ccd0	-0.072656274
7	0xbd0c4910	-0.034249365
8	0x3a0bec00	0.0005337596
9	0x3ca45280	0.02005887
10	0xbd6e0af0	-0.0581159
11	0xbf024ca9	-0.50898224
12	0xbd292c90	-0.041302264
13	0x3eabfac2	0.3358975
14	0xbe7e3536	-0.24824986
15	0xbd72c4f0	-0.059269845
16	0xbedf9c12	-0.4367376
17	0x3efcb76c	0.4935869
18	0x3e36fd38	0.17870033
19	0xbed30d90	-0.41221285
20	0x3ea04dc2	0.31309325
21	0x3ecd28ba	0.40070134
22	0xbc0afe80	-0.008483529
23	0x3e9ac31e	0.30226988
24	0x3dc2d420	0.09513116
25	0x3d9680e8	0.07348806
26	0x3e24d6f8	0.16097629
27	0xbe175962	-0.1478019
28	0x3f0638ba	0.5243031
29	0xbe9d76d7	-0.3075473
30	0xbe837b6c	-0.256801
31	0xbe8e1d16	-0.27756566
32	0x3e459d18	0.19298208
33	0x3ebfde70	0.37474394
34	0x3e71eecc	0.2362625
35	0x3f0ecae6	0.5577835
36	0x3e72f4c4	0.23726183
37	0xbf0c9dea	-0.5492846
38	0xbf02d2aa	-0.511027
39	0xbd322120	-0.04348862
40	0xbe281794	-0.16415244
41	0x3d82cac8	0.06386334
42	0x3ea2e1f0	0.31813002
43	0x3dd10be8	0.10207349
44	0xbd544f70	-0.05183357
45	0xbdf2890c	-0.11842546
46	0xbe35a4e4	-0.17738682
47	0x3c145000	0.009052277
48	0x3d214c10	0.03937918
49	0xbeb44c0d	-0.35214272
50	0xbd70d3b0	-0.05879563
51	0xbd7dbe80	-0.061949253
52	0x3efb5a98	0.49092555
53	0xbf019979	-0.50624806
54	0x3ea8951a	0.32926255
55	0xbe2221ba	-0.15833178
56	0xbebe5e76	-0.37181443
57	0xbe50297c	-0.20328325
58	0x3f10ddc8	0.5658841
59	0xbef8a0b5	-0.4856011
60	0xbd9407e0	-0.072280645
61	0x3f0fa3d6	0.5610937
62	0xbed8cc11	-0.4234319
63	0x3d807850	0.06272948
64	0x3f08236e	0.5317906
65	0xbd1023a0	-0.035190225
66	0x3e27c614	0.16384155
67	0x3e15c10c	0.14624423
68	0x3e88c87c	0.26715457
69	0x3ee80e14	0.4532324
70	0xbeaa8ca9	-0.3331044
71	0x3f08ac5a	0.5338799
72	0x3eb8d8c2	0.36102873
73	0xbeaea734	-0.3411194
74	0xbeaad9ba	-0.33369237
75	0x3e8f61fe	0.2800445
76	0x3cf56600	0.029955864
77	0xbcd4b940	-0.02596724
78	0xbde47b64	-0.111563474
79	0xbe82c15a	-0.2553814

bias f4 [10]
0	0x00000000	0.0
1	0x00000000	0.0
2	0x00000000	0.0
3	0x00000000	0.0
4	0x00000000	0.0
5	0x00000000	0.0
6	0x00000000	0.0
7	0x00000000	0.0
8	0x00000000	0.0
9	0x00000000	0.0

weight f4 [8, 10]
0	0x3e86fa54	0.2636286
1	0xbed3eb02	-0.41390234
2	0xbeb10f36	-0.34581918
3	0x3f08c070	0.53418636
4	0x3ef19dc4	0.47190678
5	0xbbb50000	-0.0055236816
6	0xbe1b3ba2	-0.15159467
7	0x3efaa598	0.48954463
8	0x3eed4534	0.4634186
9	0x3e15a000	0.14611816
10	0x3f0ec324	0.5576651
11	0x3ea0b8f2	0.31391102
12	0xbebb3846	-0.3656637
13	0xbed52b05	-0.41634384
14	0xbf018f73	-0.5060951
15	0xbe738844	-0.2378245
16	0xbc944de0	-0.01810354
17	0x3f0d7df6	0.55270326
18	0x3e1377f4	0.14401227
19	0x3ea7a13a	0.32740194
20	0xbe283dd8	-0.16429842
21	0x3ee4819c	0.44630134
22	0xbf01f07e	-0.50757587
23	0x3c949480	0.018137217
24	0x3f0a7db8	0.5409808
25	0xbe897cc5	-0.26853004
26	0x3efb51ac	0.49085748
27	0x3ea50f88	0.32238412
28	0xbd814ee0	-0.06313872
29	0x3df1adf0	0.11800754
30	0xbef4b193	-0.47791728
31	0xbd467320	-0.048449636
32	0xbe6f82ba	-0.23389712
33	0xbd7b92a0	-0.06141913
34	0xbdc15250	-0.09439528
35	0x3f02a4c2	0.5103265
36	0x3e48c85c	0.19607681
37	0xbe8487fb	-0.25884995
38	0xbd09d750	-0.033652604
39	0xbe987629	-0.2977765
40	0x3edae22c	0.4275068
41	0xbc952d00	-0.018209934
42	0x3e2e91d0	0.1704781
43	0xbec42a70	-0.38313627
44	0xbe9b5eb7	-0.303457
45	0x3ef0ea20	0.47053623
46	0x3e04d46c	0.12971658
47	0x3f0d9730	0.5530882
48	0xbed59f72	-0.4172321
49	0xbd2e5810	-0.04256445
50	0x3dff92b0	0.1247915
51	0x3d77e3c0	0.060519934
52	0xbbf1d580	-0.0073801875
53	0x3eb0e9aa	0.34553272
54	0xbd7b5d50	-0.061368287
55	0x3e4d8d00	0.20073318
56	0x3f01ebee	0.50750625
57	0x3cf2bac0	0.029630065
58	0x3e16f0b0	0.14740252
59	0x3d9d8ba8	0.07692653
60	0xbe877bf7	-0.26461765
61	0x3cd62040	0.026138425
62	0x3f0065bc	0.50155234
63	0xbc8a45a0	-0.016878903
64	0xbf0e6723	-0.55626124
65	0x3ef0e068	0.47046208
66	0xbef69a74	-0.48164713
67	0xbc8774c0	-0.016535163
68	0xbebc5c1d	-0.36789027
69	0xbeedb459	-0.46426657
70	0x3f0997e6	0.53747404
71	0x3e9e29f0	0.3089137
72	0x3eeef074	0.46667826
73	0x3e6ae66c	0.22939461
74	0x3ef7e4b4	0.48416674
75	0x3e8ddc44	0.27707112
76	0xbefc308f	-0.49255797
77	0x3efe7ee0	0.49706173
78	0xbe08b1cc	-0.13349074
79	0xbe9db62d	-0.30803052

bias f4 [10]
0	0x00000000	0.0
1	0x00000000	0.0
2	0x00000000	0.0
3	0x00000000	0.0
4	0x00000000	0.0
5	0x00000000	0.0
6	0x00000000	0.0
7	0x00000000	0.0
8	0x00000000	0.0
9	0x00000000	0.0

weight f4 [10, 5]
0	0x3f4f0e62	0.8088132
1	0xbe30881e	-0.17239425
2	0xbebeb154	-0.37244666
3	0xbf345ce5	-0.70454246
4	0xbe801f7a	-0.25024015
5	0x3e05774e	0.13033792
6	0xbe95c0e2	-0.2924872
7	0x3def35e4	0.11680201
8	0x3e80b794	0.2514006
9	0x3e2445b2	0.16042212
10	0xbba5f97b	-0.005065141
11	0x3f2471df	0.64236253
12	0x3daf6bb2	0.08565463
13	0xbed3a8f3	-0.41339836
14	0xbf156176	-0.5835184
15	0x3e064ee9	0.1311604
16	0x3ddb845f	0.10718607
17	0xbf5950d4	-0.8488896
18	0xbd7f3eb1	-0.062315647
19	0xbf2b2528	-0.6685357
20	0x3ec999eb	0.39375243
21	0x3f4753f2	0.77862465
22	0x3e69eb0a	0.22843567
23	0xbf36eeb1	-0.71457964
24	0xbea17426	-0.31533927
25	0x3e324ed7	0.17412888
26	0xbe9d6451	-0.30740598
27	0xbe0f0984	-0.13968474
28	0xbedefbc7	-0.43551466
29	0x3ec943d9	0.39309576
30	0x3e7c4034	0.24633867
31	0xbe16e5b2	-0.1473606
32	0x3f0d1b03	0.5511934
33	0x3eb492ac	0.35268152
34	0x3dd37e40	0.10326815
35	0xbdab6d69	-0.08370478
36	0xbf05debd	-0.52292997
37	0x3f01f61a	0.50766146
38	0x3ee9413d	0.45557585
39	0x3d625d8c	0.055264995
40	0xbf19fba9	-0.6014963
41	0xbd1387d0	-0.036018193
42	0x3ec8b73e	0.39202303
43	0x3ea353b4	0.31899798
44	0x3ee097a6	0.438657
45	0x3e2cdca2	0.1688104
46	0x3e4ef00c	0.20208758
47	0x3d47dddf	0.048795577
48	0xbf57aaa6	-0.84244764
49	0xbf11caa6	-0.5694984

bias f4 [5]
0	0x3e16cb58	0.14726007
1	0x3e27cf7d	0.16387744
2	0xbdfe1421	-0.12406183
3	0xbe5dd775	-0.21664222
4	0xbe1fece6	-0.15617713

weight f4 [10, 5]
0	0xbf00c333	-0.5029785
1	0xbe0f736a	-0.1400887
2	0xbf0c441e	-0.5479144
3	0x3e3923d8	0.1808008
4	0xbe75a4b2	-0.23988608
5	0x3dda17be	0.1064906
6	0xbf26b44b	-0.65118855
7	0x3e7accbd	0.24492164
8	0xbef27c11	-0.4736028
9	0xbf2f2543	-0.6841623
10	0x3dafaa2f	0.08577382
11	0x3e89a61c	0.26884544
12	0xbed709fb	-0.41999802
13	0xbefad8e4	-0.489936
14	0xbdbc3a23	-0.09190776
15	0xbe3ff02a	-0.18743959
16	0x3eaa25a8	0.33231854
17	0xbf7cd6a8	-0.9876504
18	0xbf8cae50	-1.0990696
19	0xbf0e6a5c	-0.5563104
20	0xbf0e03eb	-0.5547473
21	0x3eec8e35	0.46202245
22	0xbdb2bdc1	-0.08727599
23	0xbf001ff0	-0.5004873
24	0xbec38369	-0.38186195
25	0xbf3ba89f	-0.7330417
26	0xbeb6d4ab	-0.35709128
27	0xbf27163c	-0.652683
28	0x3e8105c0	0.251997
29	0xbe91e23c	-0.28492916
30	0x3d303070	0.043014944
31	0x3eda23e2	0.426055
32	0xbd40e750	-0.047095597
33	0x3e4f8dc8	0.20268929
34	0xbe080e88	-0.13286793
35	0x3d451ae6	0.048121355
36	0xbdbe0646	-0.0927854
37	0xbd280bab	-0.041026752
38	0x3e73e2de	0.23817012
39	0xbf019af7	-0.5062708
40	0xbe8171af	-0.25282046
41	0x3eae27c6	0.3401472
42	0x3e822adc	0.25423324
43	0x3e712104	0.2354775
44	0x3e636210	0.22205377
45	0x3e1b3c7a	0.15159789
46	0xbf097cac	-0.5370586
47	0x3e5f3924	0.21799141
48	0xbf5b6b91	-0.8571101
49	0xbece3530	-0.40274954

bias f4 [5]
0	0x3e053db1	0.13011815
1	0xbe1fd0b8	-0.15606964
2	0x3dfe8f54	0.124296814
3	0x3e348369	0.17628254
4	0x3df8c7de	0.12147497

weight f4 [10, 5]
0	0x3e28464b	0.16433065
1	0xbf411538	-0.75423
2	0x3e38c5fd	0.18044277
3	0x3f0cece2	0.55048954
4	0x3f264973	0.64955825
5	0x3eb7748e	0.35831112
6	0xbe5f5740	-0.21810627
7	0xbee035ec	-0.4379114
8	0xbd1c126e	-0.038103513
9	0xbdab7fd9	-0.083739944
10	0x3ec29702	0.38005835
11	0x3d324341	0.04352117
12	0x3f3790cb	0.7170531
13	0x3f0fd49f	0.5618381
14	0x3dc25db3	0.09490528
15	0x3e9a2093	0.30102977
16	0xbe80e8e6	-0.25177687
17	0x3f127052	0.5720264
18	0xbe72e4af	-0.23720048
19	0x3e50afad	0.20379515
20	0xbe4a6784	-0.1976605
21	0x3e1be0d0	0.15222478
22	0x3e5611ee	0.20905277
23	0x3f0a8c16	0.54120004
24	0x3f2dce69	0.6789308
25	0xbccd60e8	-0.025070623
26	0xbf25df7b	-0.6479413
27	0x3ed30dfd	0.4122161
28	0xbe3cf4a6	-0.18452701
29	0x3db0b6be	0.08628605
30	0xbed4ba0e	-0.41548198
31	0x3f1a2d3f	0.6022529
32	0xbf0a404a	-0.5400435
33	0xbeffb83a	-0.4994524
34	0x3ee359a6	0.44404334
35	0x3f2699d8	0.65078497
36	0x3e0a4925	0.13504465
37	0xbf0e3e40	-0.55563736
38	0x3ecd0fdc	0.40051162
39	0x3e4ed4ff	0.20198439
40	0xbf1d47cc	-0.6143768
41	0xbefe9c52	-0.49728638
42	0x3cabd060	0.020973384
43	0x3e855982	0.26044852
44	0x3f06a5ab	0.5259654
45	0x3e3568df	0.17715786
46	0x3e54657d	0.2074184
47	0xbe9b22bd	-0.3029994
48	0x3eadb007	0.3392336
49	0x3f26ec11	0.6520396

bias f4 [5]
0	0x3e053db1	0.13011815
1	0xbe1fd0b8	-0.15606964
2	0x3dfe8f54	0.124296814
3	0x3e348369	0.17628254
4	0x3df8c7de	0.12147497

weight f4 [3, 10]
0	0xbe9ddb43	-0.30831346
1	0xbf043821	-0.51648146
2	0x3ee7751b	0.45206532
3	0x3f030a0d	0.5118721
4	0x3ece5981	0.4030266
5	0x3d828efc	0.06374928
6	0x3ec4cb0e	0.38436168
7	0xbe57e241	-0.21082403
8	0x3e1b6a7c	0.1517734
9	0xbebfdea0	-0.37474537
10	0xbd503d17	-0.05083951
11	0x3d519885	0.051170845
12	0x3bf58716	0.00749291
13	0xbea0e1db	-0.31422314
14	0xbe114a49	-0.14188494
15	0xbe32f829	-0.17477478
16	0xbd3f9a5b	-0.046778064
17	0xbea5b062	-0.32361132
18	0xbd94a20b	-0.0725747
19	0xbefc1617	-0.49235603
20	0x3ecdc1f0	0.40187025
21	0x3e9c0ce6	0.3047859
22	0xbe7563e1	-0.23963882
23	0xbe1aed10	-0.15129495
24	0xbee30d84	-0.4434625
25	0x3f02a511	0.5103312
26	0xbed9f2e5	-0.42568126
27	0x3f0d8ea5	0.55295783
28	0x3ed11060	0.40832806
29	0x3ead1ba9	0.33810166

bias f4 [3]
0	0xbed8f014	-0.42370665
1	0xbe22b539	-0.15889443
2	0x3ead17cc	0.33807218
