Models/GNNs/Models_40_36_Datasets/SecureWebContainer/1hiddenlayer/FocalLossAggregSum/model_RGCN_30000_samples_10_epochs_512_batchsize.pth (torch, 11150 bytes, 14 tensors)

weight f4 [8, 10]
00000000: 7450 243e 202b e13e 0fb7 2a3f ce64 1cbd
00000010: 2077 e4be 2f0e 1fbf 3b2c 99be 409c c1bd
00000020: 5e64 1bbe d2d9 d73e 3629 13bf 81a0 db3e
00000030: caef 183f ca6f 293e 12ca d2be 5d73 d83d
00000040: 5417 78be 340f 26be affd e83e b2a6 debe
00000050: f0e5 21be d88f 0c3e d3b0 57be b900 513f
00000060: 3c70 b93e 0b00 0b3e 102e 2e3d 68bc 8b3d
00000070: 18ba f73d c084 433c 1472 023e 9811 213f
00000080: 0c1e 363f 5957 1e3f 40f1 8c3c fc11 8d3e
00000090: 86db 05be 0a65 f6be eaca f03b 1089 b2bd
000000a0: 2977 96be dafa 5abe f0fd db3e 6801 66be
000000b0: 280e 5f3e 0081 81bd de8e 103f a134 05bf
000000c0: e8b2 063f 804c a13d feed d6be f403 1f3e
000000d0: e891 393e ceba 133f a0bd 213e be9f 94be
000000e0: f05c 8c3d a476 a53e 4622 c5be 00d4 4f3a
000000f0: 8c26 b23e c09d 21bc e053 fe3c 4bd2 ffbe
00000100: 2c6f ecbe 8cce 07bf d64c a8be 0074 05bd
00000110: 0901 babe 4ee6 01bf 609f 963c 47cf 6f3e
00000120: 1aec 333e 0d8d 2c3f f0c0 09bd 9840 113e
00000130: 5e6f c9be 50c3 ecbe b810 10bf ce37 34be
0.16046315 0.43978214 0.66685575 -0.038182072 -0.44622135 -0.6213102 -0.29916558 -0.094536304
-0.15175006 0.4215837 -0.5748476 0.42895892 0.5974089 0.1654655 -0.41169792 0.10568879
-0.24227649 -0.16216737 0.45506045 -0.43486553 -0.1581037 0.13726747 -0.21063547 0.8164173
0.3621844 0.13574235 0.042524397 0.06823045 0.120960414 0.011933506 0.1273883 0.6291747
0.711396 0.6185203 0.01720488 0.27552783 -0.13072023 -0.48123962 0.007348408 -0.08717549
-0.29387787 -0.21384755 0.42967176 -0.22461474 0.21782744 -0.06323433 0.56468 -0.5203343
0.5261674 0.07875919 -0.4197845 0.15528852 0.18122065 0.57706916 0.15794992 -0.29028124
0.06853664 0.32317078 -0.3850271 0.0007928014 0.34795034 -0.009864271 0.031045854 -0.49965128
-0.46178567 -0.5304954 -0.3287112 -0.03258133 -0.36328915 -0.5074204 0.018386543 0.23418914
0.17570534 0.67402726 -0.033631265 0.14184797 -0.3934278 -0.46242762 -0.5627551 -0.17599413

bias f4 [10]
00000000: 0000 0000 29af ad3e 3769 8a3e 3baf 9a3e
00000010: 0000 0000 c7b0 f7bd 0000 0000 0000 0000
00000020: e888 a9bd 0000 0000
0.0 0.339227 0.27033398 0.30211815 0.0 -0.120942645 0.0 0.0
-0.08278066 0.0

weight f4 [8, 10]
00000000: 9af7 29be c412 d6bd 2400 623e d485 163e
00000010: 20fe a73c b4bc e1be 32cd 8b3e c494 3abe
00000020: 1813 f1bd e058 b7bc 3096 b7be 43c9 fdbe
00000030: 883f c7bd 9461 e3bd bc84 bf3e ae0c dfbe
00000040: b0f2 a53e 6284 ca3e 3e88 1fbe eeff 963e
00000050: 8a0f ddbe 003a 69bb 0ad1 873e a0ca 983c
00000060: 394d 0abf 30cc 8c3e 60d9 263d 542b a53e
00000070: 9cc1 d53e b609 ae3e 90dc 87bd 02f8 813e
00000080: ca5c e0be c811 e83d bc3e e43e f040 7bbd
00000090: b4d7 153e 68f6 7c3e e0b3 8a3d c2c1 bebe
000000a0: 2a63 e6be a10d 00bf ee9c 34be a8af 12be
000000b0: f062 db3d c025 ca3d 4d77 9fbe d84e 893e
000000c0: 4e0b b23e beae 863e 980e 343e 00b7 f13c
000000d0: eab9 71be b519 babe 4ea0 083f a02e e43d
000000e0: 8c0f 5dbe 60a5 523e bd11 e8be 6e9e 0dbf
000000f0: ea66 d53e 94ca f73e b00f 8ebd da44 4abe
00000100: 3045 a53d c20d 9a3e ccb5 453e 8622 29be
00000110: 00ac 653c 617a d6be 9039 483d 18a8 cbbd
00000120: 0be4 b0be aeab bcbe 7026 a2bd 106f dfbd
00000130: a6d1 893e 9ee6 0dbf baf4 863e fc91 ec3e
-0.16598359 -0.10452798 0.22070366 0.14699489 0.020506918 -0.44089282 0.2730499 -0.18220812
-0.1177122 -0.022381246 -0.3585677 -0.49567613 -0.097289145 -0.11102596 0.37405956 -0.4356436
0.32411718 0.39554125 -0.15579316 0.29492134 -0.43175918 -0.003558755 0.26526672 0.018651307
-0.5402408 0.27499533 0.04073465 0.3225962 0.41749275 0.33991784 -0.06633866 0.25384527
-0.43820792 0.113315165 0.44579113 -0.061341226 0.14633065 0.24703372 0.0677259 -0.372572
-0.4499753 -0.50020796 -0.17637989 -0.1432482 0.1071223 0.098704815 -0.31145707 0.26817966
0.3477425 0.26305193 0.17583692 0.029506207 -0.23606077 -0.36347738 0.53369606 0.111417055
-0.21587962 0.20570898 -0.45326033 -0.5531987 0.4168008 0.48396742 -0.06936586 -0.19752827
0.08069837 0.3008862 0.19307631 -0.16517076 0.014018059 -0.41890243 0.04888302 -0.09944171
-0.34548983 -0.3684973 -0.079174876 -0.10909855 0.26917762 -0.5543002 0.26358587 0.46205127

bias f4 [10]
00000000: 0000 0000 0000 0000 0000 0000 0000 0000
00000010: 0000 0000 0000 0000 0000 0000 0000 0000
00000020: 0000 0000 0000 0000
0.0 0.0 0.0 0.0 0.0 0.0 0.0 0.0
0.0 0.0

weight f4 [8, 10]
00000000: ac20 ee3e 28a6 9dbd 5c62 be3e 9073 e8bd
00000010: bcc6 933e f028 97be 3c68 b83e cc03 b23e
00000020: c014 063f c8b9 8ebd 20be 263e 98f8 d6be
00000030: 6067 083f 2649 3cbe 70d4 25bd 001f 54be
00000040: baad 15be 86b3 9f3e 768e a4be bcfe 043e
00000050: 3006 6ebd 8204 aa3e 3c54 6f3e f6c6 0b3f
00000060: 6a13 a93e 0b16 9dbe 4a58 093f 6cbb ccbd
00000070: 3d8e 07bf 1034 29be 022f a73e ec2e 0c3f
00000080: 706c 93bd 0811 bebe a82c 1e3e 943e ec3e
00000090: e8dc a9bd 30bc 55be 78d2 f53e 68e1 f6be
000000a0: 2030 603d 90e3 de3e b0ea 433d ea4b 063f
000000b0: a0a7 6f3d a00d d83d 3f7a 09bf 407c 6b3c
000000c0: 10f3 763d 288f d33e f632 53be 38ad e83d
000000d0: 07c1 85be fc29 47be 0c2d edbd 1c7a 96be
000000e0: 90f0 aebe ccf8 02bf 9c55 603e 103e 663d
000000f0: 780a 3e3e 14c1 673e ad00 96be 8e80 1cbe
00000100: bcaa 073e e258 0e3f fa4a d23e ac32 e13e
00000110: 60bb 6dbd b830 fe3d 984d f4be 34e8 143e
00000120: 059b 0bbf 083c 933d 6e53 07be 7a4b 063f
00000130: d8e1 a5be 447e b0be 004f 61bc 961a 0a3f
0.46509302 -0.076977074 0.37184417 -0.11350167 0.2886256 -0.2952342 0.36017025 0.34768522
0.5237541 -0.06969029 0.16283464 -0.41986537 0.5328274 -0.18387279 -0.0404858 -0.2071495
-0.14617053 0.31191653 -0.3213994 0.12987798 -0.05811137 0.33206564 0.23371977 0.54600465
0.33022624 -0.3068088 0.53650343 -0.099966854 -0.52951413 -0.16523767 0.32653052 0.547591
-0.07198417 -0.3712237 0.15446723 0.46141493 -0.08294088 -0.20872569 0.48012137 -0.48218846
0.054733396 0.4353299 0.047831237 0.52459586 0.05850947 0.10549474 -0.5370216 0.014372885
0.060290396 0.41320157 -0.20624909 0.11361164 -0.2612383 -0.1944961 -0.11580858 -0.29390037
-0.3416791 -0.51160884 0.21907657 0.05621153 0.18558681 0.22632247 -0.2929739 -0.15283415
0.13248724 0.55604374 0.41072828 0.43983972 -0.058040023 0.12411636 -0.4771545 0.14541703
-0.54533416 0.071891844 -0.1321542 0.5245892 -0.32398868 -0.34471333 -0.013751745 0.53946817

bias f4 [10]
00000000: 0000 0000 0000 0000 0000 0000 0000 0000
00000010: 0000 0000 0000 0000 0000 0000 0000 0000
00000020: 0000 0000 0000 0000
0.0 0.0 0.0 0.0 0.0 0.0 0.0 0.0
0.0 0.0

weight f4 [10, 5]
00000000: 7406 a13e ac47 3d3e 0e4f ad3e 676d a7be
00000010: 12be 913e 2661 873e e085 443e 02e8 55bf
00000020: d613 85be bb75 3a3f 7c5c dcbc 0d3b 063f
00000030: 8971 1abe 034c 443f 6838 a73e e7bb 503f
00000040: 315a 113e eaa9 a53d da4f fc3e 37a8 4a3f
00000050: 709b d93d 5a78 82be fdd0 183f 3286 2dbe
00000060: 706c 3dbd 818d c3be 8a74 dbbe 30ee 183d
00000070: b368 55be a7da 21be 02a5 c23e e8ff 94bd
00000080: a273 963e 947e b7be daa3 52be fc07 843e
00000090: 44a9 59be aa81 cd3e 1a9f dcbe 8ce3 fdbe
000000a0: 6c80 803e 6ffb c8be 513b dabe 67b2 d7be
000000b0: 773b b1be 7f22 173f d451 703e f02b de3d
000000c0: 50ca dcbd a07a 5dbd
0.31450236 0.18484372 0.33849376 -0.32700655 0.28465325 0.26441306 0.19191694 -0.8355714
-0.25991696 0.7283589 -0.026899569 0.52433854 -0.15082373 0.76678485 0.32660222 0.81536716
0.14194562 0.08089049 0.49279672 0.79162925 0.106253505 -0.25482446 0.5969389 -0.16945723
-0.046245992 -0.38193896 -0.4286235 0.03733653 -0.20840721 -0.15806065 0.38016516 -0.07275373
0.29385096 -0.3583876 -0.20570317 0.25787342 -0.21255976 0.40137988 -0.43090135 -0.49587667
0.25097978 -0.3925433 -0.4262338 -0.42128298 -0.3461568 0.5903701 0.23468715 0.10848224
-0.107807755 -0.054072022

bias f4 [5]
00000000: 1bdb 6c3e 9b96 2b3e c0a2 82be bb4f 603e
00000010: 23de 753e
0.23130457 0.1675667 -0.25514793 0.21905415 0.2401052

weight f4 [10, 5]
00000000: d41d 323e d68c 9abe 48c6 803d ad97 babe
00000010: e699 cd3e 627b 363f e0fc ef3e 69c3 613f
00000020: 0c8e ae3e 8463 babe df10 ddbe d432 673f
00000030: 466a 523f 63a3 213e 0e72 31be 0c2b 143d
00000040: 6b7f 403f 399c 0d3f bdcb 423f 0b9d 183f
00000050: 40c4 c63c 20e0 4dbd 00dc 503d b8a8 b13d
00000060: e806 95bd 9a9a 0e3f 3878 2ebe eada 32be
00000070: 74ff 533e c261 5cbe e65d e23e 51f1 0fbf
00000080: 10f1 4cbd 02e4 a23e 6868 903e 66b0 e7be
00000090: 403d 8e3c 00c9 1c3d 7cbd 0e3e 5a92 f9be
000000a0: d6d4 453e 5362 ffbe b530 00be b11b f0be
000000b0: 9576 f53d f2b0 c23e e040 70be 68fa 853d
000000c0: 7864 afbd 96ae afbe
0.17394191 -0.30185574 0.06287819 -0.36443844 0.40156478 0.7128202 0.46872616 0.881888
0.34092748 -0.3640405 -0.43176934 0.9031193 0.8219341 0.15784983 -0.17328665 0.036173865
0.75194424 0.553165 0.7609213 0.5961463 0.024263501 -0.05026257 0.05099106 0.08674759
-0.07276708 0.55704653 -0.17038047 -0.17466322 0.20702916 -0.21521667 0.44212264 -0.56227595
-0.050034583 0.3181458 0.28204656 -0.4525177 0.01736319 0.038277626 0.1393947 -0.4874447
0.19319472 -0.49879703 -0.1251858 -0.46896127 0.11985508 0.38025624 -0.23462248 0.06541902
-0.08564085 -0.34312886

bias f4 [5]
00000000: 95f3 58be b967 5cbe 5c76 3fbe 9259 7abe
00000010: 35ec 923e
-0.21186669 -0.21523942 -0.18697494 -0.24448231 0.28695837

weight f4 [10, 5]
00000000: bba0 0d3f 3d4f 16bf 9843 b6bd 2d25 87be
00000010: 40da 493e 230c ffbe f851 84be 378e 983e
00000020: 347e 00bf 9514 5c3f 2523 51bf ce91 47be
00000030: 14ef ac3e 4d2a 673e 38cf 1fbd 399a 423e
00000040: 5cca fabe 62d5 2c3e cad1 b8be a415 5dbe
00000050: f0d6 103e 8ec6 c0be 6c44 44be 4efc 10be
00000060: 4051 493d ffed 3ebe 64f1 babe bf09 28bf
00000070: d217 c7be 6fd4 2abe 483f eabe 1731 21bf
00000080: b0bb fabd 297e 0b3f 28a4 80be 87da 0f3f
00000090: 802b e6bd eb19 193f f09a 4b3e 588a ce3d
000000a0: d595 003f c17d e5bd 4a64 9e3e a1a7 8c3e
000000b0: b126 8f3c f2bd ca3e 43e9 adbe 59f7 153f
000000c0: dfe1 1a3f 72d0 e13e
0.5532338 -0.5871466 -0.08899611 -0.2639555 0.19712162 -0.49813947 -0.25843787 0.29796
-0.5019257 0.85968906 -0.8169425 -0.19489214 0.33776152 0.2257473 -0.03901598 0.19004144
-0.48982513 0.16878274 -0.36097556 -0.21590286 0.14144492 -0.37651485 -0.19166726 -0.14158747
0.04914975 -0.18645476 -0.3651229 -0.6563987 -0.3888536 -0.166826 -0.45751405 -0.6296553
-0.1224283 0.5448938 -0.2512524 0.5619282 -0.11238766 0.5980517 0.19883323 0.10084981
0.50228626 -0.11205626 0.3093589 0.2747164 0.017474504 0.39598042 -0.33967027 0.5858055
0.605009 0.44104344

bias f4 [5]
00000000: 95f3 58be b967 5cbe 5c76 3fbe 9259 7abe
00000010: 35ec 923e
-0.21186669 -0.21523942 -0.18697494 -0.24448231 0.28695837

weight f4 [3, 10]
00000000: 13f4 94be 4d70 61be 05bf e73e 5097 07be
00000010: 73c0 a9bb 7249 ab3e 3b1a 9bbc 2992 76be
00000020: 52ec 993d 5210 12bf fcf8 463d 531a a3be
00000030: 5c6e bc3e a34e f9bd 9337 043d 8f76 86bd
00000040: ae56 8a3e e99d d73e 440d df3e 851e e7bd
00000050: 607a cf3e 069e 003f f031 bcbd fedf ad3e
00000060: 1f62 e83e 2aec 00bf 556d 08bf c24b 17bf
00000070: b47f b0be 2cff 413e
-0.29092464 -0.22015496 0.45262924 -0.13241315 -0.0051804124 0.33454472 -0.018933406 -0.24079193
0.07515778 -0.5705615 0.048577294 -0.3185602 0.36802948 -0.12173202 0.032279562 -0.06565582
0.27019256 0.42112663 0.43564808 -0.11285118 0.40523052 0.50241125 -0.09189212 0.33959955
0.4538736 -0.5036036 -0.5329183 -0.5909997 -0.3447243 0.18944997

bias f4 [3]
00000000: 1fbf 1bbe 7987 fe3d 7537 d43e
-0.15209626 0.12428183 0.4144856
