Models/GNNs/Models_20_7_Datasets/SecureWebContainer/model_RGCN_10298_samples_100_epochs_32_batchsize.pth (torch, 59982 bytes, 14 tensors)

weight f4 [8, 300]
-0.05952603 0.7683884 0.95494306 0.91759205 0.006785905 -0.11376116 -0.08090766 0.86164063
-0.6958565 -0.24025017 1.0492125 0.28582683 -0.7812389 -0.120940045 0.25073364 0.6442269
0.63671416 0.6660012 0.09729888 -0.005310663 -0.004763782 -0.029792372 -0.035943117 0.20818454
0.95986366 0.40603572 -0.039718762 0.029375985 0.5836415 -0.11625483 0.034465108 -0.046630368
0.123874605 0.67331356 -0.2484476 -0.07211238 0.67205113 0.11255936 0.020862184 0.7837983
-0.015570752 0.6337458 -0.10022065 -0.017654873 -0.07821372 0.003630355 0.5469068 -0.50358474
0.18377703 0.8670765 -0.26346326 0.80119663 0.008053839 0.6639254 0.001095274 1.0887645
-0.008163945 0.5338117 -0.115312666 -0.12682623 0.08656124 0.54551154 -0.052767426 0.08510258
0.62336826 -0.052670375 -0.011879414 0.2475103 0.6708771 -0.22271374 -0.1161239 0.022945821
0.7082334 0.029529765 -0.018411368 -0.07260675 0.041533835 0.7926942 1.1444528 0.9586665
0.8437564 0.71203876 -0.10482119 0.922852 -0.22589734 0.5201355 0.748395 -0.12962325
-0.051737666 0.80502546 -0.1105155 0.65302306 -0.037036885 -0.054621458 0.88281035 -0.026249932
0.45112392 -0.11535679 0.6965211 -0.09932005 0.32513127 0.2628186 0.76335776 0.5747981
0.76597834 0.031254336 -0.12968768 0.9879241 -0.13184391 0.70246136 1.2664316 0.24705896
-0.5462491 0.86236244 0.9338632 -0.13437393 0.3056557 1.0518937 -0.7433135 0.04680897
0.46762136 -0.95815754 1.6781167 0.08959821 0.93208396 0.81406164 1.0846189 -0.54755086
0.99135315 -0.13407968 -0.36113572 -0.09818094 -0.13633072 0.78193784 -0.07530108 -0.16912024
0.84271127 -0.019246534 0.08309228 -0.020346075 -0.1081765 -0.01889385 0.22932985 1.005643
0.114283085 0.005203889 -0.021783382 -0.118186906 1.2167037 -0.44532442 0.2836286 0.6682438
0.05789561 0.7989266 -0.123862535 0.7254694 0.86067694 -0.13005793 0.03234182 -0.13815923
0.053801015 -1.8651904 0.57267874 1.0081292 -2.2866166 -0.7388348 -0.039705172 0.79453534
-0.09571491 -0.7547354 0.24679598 -0.13423029 0.7578597 -0.031657033 0.030606493 0.2494689
-0.10132159 0.783079 -0.12368332 0.9036028 -0.115927346 -0.10148288 0.7650156 0.055337884
-0.13156816 0.6159929 0.08261744 -0.08798223 0.06426743 1.1377636 0.04022059 -0.12958826
0.5367381 1.0581727 0.030795116 1.3265185 0.1475836 0.72853255 0.0011353387 0.80494237
-0.12003124 0.836674 0.3727772 -0.06060855 -0.017794088 0.62044567 -0.469883 1.0002594
0.6212724 0.8439928 0.5778729 0.39461955 -0.3544019 1.3036462 0.16803667 0.12551868
0.08323756 0.8437507 1.0209814 -0.10822056 0.037873015 0.8990608 0.060303286 0.86130124
0.32129726 0.7759154 0.8779644 0.10190139 0.0053934664 0.5399114 -0.09234751 0.17161328
0.45131811 0.013851723 -0.03140884 1.1901718 -0.016205058 -0.4109225 0.9296447 0.027685225
0.041835513 -0.56023526 1.1666385 0.6725263 -0.004659623 0.27510336 0.26616624 -0.027218629
0.9072768 -0.031121776 0.05425623 -0.036141053 0.8520807 0.7146609 -0.30152392 0.635505
00000000: 91d1 73bd 1ab5 443f 2677 743f 50e7 6a3f
00000010: 4c5c de3b 9cfb e8bd eab2 a5bd 7b94 5c3f
00000020: a723 32bf 2404 76be 984c 863f e557 923e
00000030: 46ff 47bf 6aaf f7bd 2960 803e 0eec 243f
00000040: b3ff 223f 0e7f 2a3f a344 c73d 1205 aebb
00000050: 8019 9cbb 220f f4bc 1739 13bd 542e 553e
00000060: a0b9 753f eae3 cf3e 24b0 22bd e8a5 f03c
00000070: 8869 153f 0317 eebd 492b 0d3d 7cff 3ebd
00000080: f8b1 fd3d 475e 2c3f 0c69 7ebe a8af 93bd
00000090: 8b0b 2c3f 8685 e63d 2ce7 aa3c 01a7 483f
000000a0: 781c 7fbc 2a3d 223f 7c40 cdbd f4a0 90bc
000000b0: 842e a0bd 40eb 6d3b 1602 0c3f eeea 00bf
000000c0: 0c30 3c3e baf8 5d3f a8e4 86be 391b 4d3f
000000d0: 40f4 033c 04f7 293f 4c8f 8f3a a35c 8b3f
000000e0: 11c2 05bc e2a7 083f 0c29 ecbd bcde 01be
000000f0: 0547 b13d a5a6 0b3f a822 58bd 434a ae3d
00000100: 1095 1f3f e4bc 57bd e0a1 42bc 5773 7d3e
00000110: 9abe 2b3f 120f 64be 5ed2 edbd e0f8 bb3c
00000120: c94e 353f 68e8 f13c 70d3 96bc d9b2 94bd
00000130: 621f 2a3d 02ee 4a3f 6e7d 923f 2b6b 753f
00000140: 6b00 583f 2c48 363f 7eac d6bd 0740 6c3f
00000150: a251 67be 9a27 053f d196 3f3f f5bb 04be
00000160: e0ea 53bd 2616 4e3f f355 e2bd 852c 273f
00000170: fdb3 17bd c0ba 5fbd dcff 613f 190a d7bc
00000180: b7f9 e63e 2e40 ecbd 354f 323f 4f68 cbbd
00000190: 9b77 a63e 2990 863e 6a6b 433f f825 133f
000001a0: 2817 443f 8c04 003d d9cc 04be 98e8 7c3f
000001b0: 1702 07be 82d4 333f 6e1a a23f 06fd 7c3e
000001c0: fbd6 0bbf c9c3 5c3f a911 6f3f 5299 09be
000001d0: e77e 9c3e 74a4 863f cb49 3ebf c3ba 3f3d
000001e0: 116c ef3e d049 75bf 87cc d63f 447f b73d
000001f0: 0e9d 6e3f 5866 503f cbd4 8a3f 4b2c 0cbf
00000200: 52c9 7d3f 2f4c 09be c8e6 b8be 1713 c9bd
00000210: 489a 0bbe 142d 483f 7437 9abd db2d 2dbe
00000220: edbb 573f e8aa 9dbc 492c aa3d d0ac a6bc
00000230: a48b ddbd 46c7 9abc 72d5 6a3e e9b8 803f
00000240: 400d ea3d 6385 aa3b 1073 b2bc fa0b f2bd
00000250: f2bc 9b3f 9001 e4be c537 913e 0712 2b3f
00000260: f223 6d3d 7486 4c3f a4ab fdbd 5db8 393f
00000270: 5355 5c3f e82d 05be db78 043d 9d79 0dbe
00000280: 745e 5c3d 8fbe eebf 139b 123f 610a 813f
00000290: ed57 12c0 4724 3dbf e4a1 22bd ab66 4b3f
000002a0: 2e06 c4bd 5736 41bf 16b8 7c3e aa73 09be
000002b0: 1803 423f ceaa 01bd 78ba fa3c c674 7f3e
000002c0: b281 cfbd de77 483f ae4d fdbd 8352 673f
000002d0: 516b edbd 42d6 cfbd 10d8 433f faa9 623d
000002e0: ceb9 06be b6b1 1d3f 5533 a93d 0730 b4bd
000002f0: a49e 833d 3da2 913f 58be 243d c9b2 04be
00000300: ab67 093f 3472 873f 0a46 fc3c 5ccb a93f
00000310: 2820 173e 1c81 3a3f a5cf 943a b410 4e3f
00000320: f0d2 f5bd 4430 563f a7dc be3e ac40 78bd
00000330: e8c4 91bc 87d5 1e3f 8194 f0be 8008 803f
00000340: b50b 1f3f ea0f 583f 7aef 133f 930b ca3e
00000350: 2a74 b5be e1dd a63f ce11 2c3e f887 003e
00000360: 7478 aa3d 0c00 583f 85af 823f bea2 ddbd
00000370: bc20 1b3d d928 663f 9400 773d 3d7e 5c3f
00000380: 1381 a43e 64a2 463f 46c2 603f adb1 d03d
00000390: adbb b03b a237 0a3f b120 bdbd 64bb 2f3e
000003a0: 2b13 e73e 56f2 623c 8ea6 00bd 8d57 983f
000003b0: 78c0 84bc 6f64 d2be 32fd 6d3f 20cc e23c
000003c0: b75b 2b3d 946b 0fbf 6954 953f af2a 2c3f
000003d0: c0af 98bb 59da 8c3e f146 883e 9af9 debc
000003e0: 4b43 683f 18f3 febc c83b 5e3d a408 14bd
000003f0: f621 5a3f 04f4 363f 5861 9abe 75b0 223f

bias f4 [300]
-0.030299084 -0.000767151 0.051727645 -0.011753101 -0.0083110025 0.0 0.0 -0.00026792436
0.37675184 0.24249516 0.0015633508 0.0029560754 0.24931009 0.0 -0.0005279846 -0.00027326136
-0.00047914963 0.013768389 -0.014380827 -0.026374707 0.0 -0.012385713 -0.006005343 -0.004489988
0.07449204 0.07309381 -0.0053461064 0.0 2.0806918e-05 0.0 -0.03605408 -0.021697111
-0.0077563818 -0.0044399505 0.12712342 -0.1198026 -0.007987705 -0.014911553 -0.014899099 0.059089016
0.0 -0.00550841 -0.019368047 0.0 0.22925366 0.0 0.038352516 0.26512834
0.049449828 0.1004588 0.16369331 0.25065893 0.0 0.037913863 0.16807093 -0.0075790337
0.11181905 -0.00047358085 0.0 0.0 0.035170764 -0.018420525 0.0 0.09335492
0.024525838 -0.015892047 0.0 0.00016325693 -0.007739179 0.09898553 0.0 -0.009646593
-0.00045819933 -0.042361993 0.0 0.0 -0.0117450515 0.09411316 -0.0002463131 0.107557625
-0.0011109767 0.059296146 0.0 -0.0002895193 0.16824232 0.21515363 -0.0006277494 -0.033849616
-0.016365577 0.0053592725 0.0 0.14252128 0.13141128 0.0 -0.003032853 -0.01178623
0.038145334 0.0 0.022697225 0.0 0.062472075 -0.0024545514 -0.06865838 0.08626597
-0.0007640637 0.0 -0.0348518 -0.0049089626 -0.024508564 0.018619373 -0.0007616638 0.07003739
0.2120646 -0.0005476366 0.056257367 0.0 -0.0011939037 0.03413398 0.3385482 -0.0133898435
-0.0008654315 0.21114531 0.07033811 0.0 0.060916394 -0.0038035924 0.031583708 0.20934935
0.12474236 0.2132278 -0.0032463027 -0.022100829 0.0 -0.00044467807 -0.012412304 -0.038323972
0.009444439 0.0 -0.013774357 0.0 0.11042722 -0.013507623 -0.020189777 -0.00019901078
0.00032717813 0.07918324 0.0 0.0 -0.00054301426 0.33884797 0.030811477 0.02819706
0.0014718398 -0.00023364762 -0.008676607 0.08767571 0.0789165 0.0 -0.018220745 0.0
0.0 0.5086543 0.021485044 0.09547217 0.63330436 0.3515195 0.0 -0.001408437
0.0 0.2877372 0.0013493189 -0.013961007 0.014042641 0.0 0.0 -0.0011146315
0.0 -0.0005688423 0.0 -0.00033892225 0.36202282 0.0 -0.0002979395 -0.019304795
0.0 -0.0005417217 0.007514811 -0.013537182 0.0 -0.010780301 0.0 0.0
0.00037615892 -0.00402147 0.11534585 -0.0002721316 0.034507 0.011099718 -0.026332797 0.044142384
0.11871429 -0.00022303846 0.042510893 0.0 -0.0055584307 0.012061889 0.13162348 -0.0066669174
0.017859442 0.029255103 -0.00025189432 0.10330055 0.19753991 -0.0001498283 0.059606798 -0.03756964
0.0 -0.0005622384 -0.00069618295 -0.032331433 0.0 -0.000528579 0.0 -0.0005925598
-0.055182587 0.018929077 0.003303853 -0.013814589 -0.033816382 0.09015051 0.0 0.07359387
-0.021665862 -0.010679122 0.0 -0.005974473 0.0 0.6083903 0.06738022 0.0
-0.020469131 0.3563723 -0.0033375155 -0.00022487661 0.0 0.19993864 0.025785804 -0.020305015
0.008070624 0.0 0.0 0.0 0.037767928 0.012640743 -0.046136383 -0.0007586473
00000000: c935 f8bc a21a 49ba 5ee0 533d 1490 40bc
00000010: df2a 08bc 0000 0000 0000 0000 3378 8cb9
00000020: 9ee5 c03e a750 783e 59e9 cc3a b7ba 413b
00000030: 254b 7f3e 0000 0000 7268 0aba 8544 8fb9
00000040: 6036 fbb9 cf94 613c 8f9d 6bbc c50f d8bc
00000050: 0000 0000 72ed 4abc 78c8 c4bb c020 93bb
00000060: 488f 983d 35b2 953d 642e afbb 0000 0000
00000070: 848a ae37 0000 0000 71ad 13bd 24be b1bc
00000080: 3f29 febb 017d 91bb a42c 023e 115b f5bd
00000090: ddde 02bc 964f 74bc 5a1b 74bc 5307 723d
000000a0: 0000 0000 e47f b4bb bda9 9ebc 0000 0000
000000b0: 79c1 6a3e 0000 0000 8717 1d3d e7be 873e
000000c0: e78b 4a3d 58bd cd3d 389f 273e 5e56 803e
000000d0: 0000 0000 914b 1b3d c91a 2c3e 8b59 f8bb
000000e0: 6301 e53d f24a f8b9 0000 0000 0000 0000
000000f0: 380f 103d a4e6 96bc 0000 0000 dd30 bf3d
00000100: 69ea c83c 0a30 82bc 0000 0000 f32f 2b39
00000110: f098 fdbb edb8 ca3d 0000 0000 be0c 1ebc
00000120: 793a f0b9 c583 2dbd 0000 0000 0000 0000
00000130: 516e 40bc 67be c03d 9623 81b9 2c47 dc3d
00000140: 319e 91ba 84e0 723d 0000 0000 9fca 97b9
00000150: b747 2c3e 3c51 5c3e 8d8f 24ba e5a5 0abd
00000160: 1a11 86bc d69c af3b 0000 0000 19f1 113e
00000170: ae90 063e 0000 0000 d4c2 46bb 081b 41bc
00000180: 483e 1c3d 0000 0000 88ef b93c 0000 0000
00000190: b8e2 7f3d 8adc 20bb c49c 8cbd 36ac b03d
000001a0: 724b 48ba 0000 0000 c3c0 0ebd 5ddb a0bb
000001b0: 2fc6 c8bc a887 983c 64aa 47ba c36f 8f3d
000001c0: 7627 593e 458f 0fba 206e 663d 0000 0000
000001d0: c37c 9cba 12d0 0b3d 3156 ad3e 1361 5bbc
000001e0: 20de 62ba 7a36 583e 6d0d 903d 0000 0000
000001f0: 7883 793d b145 79bb eb5d 013d ad5f 563e
00000200: ec78 ff3d 6358 5a3e ecbf 54bb cc0c b5bc
00000210: 0000 0000 ae23 e9b9 fa5c 4bbc 99f9 1cbd
00000220: d9bc 1a3c 0000 0000 d7ad 61bc 0000 0000
00000230: ab27 e23d 144f 5dbc 0865 a5bc 8dad 50b9
00000240: 1b89 ab39 d32a a23d 0000 0000 0000 0000
00000250: 1259 0eba 7b7d ad3e 5a68 fc3c 85fd e63c
00000260: c0ea c03a 4eff 74b9 5428 0ebc 538f b33d
00000270: f99e a13d 0000 0000 ac43 95bc 0000 0000
00000280: 0000 0000 2b37 023f 6701 b03c ea86 c33d
00000290: 3c20 223f 5dfa b33e 0000 0000 4e9b b8ba
000002a0: 0000 0000 4a52 933e a1db b03a b5bc 64bc
000002b0: 1b13 663c 0000 0000 0000 0000 d418 92ba
000002c0: 0000 0000 5c1e 15ba 0000 0000 60b1 b1b9
000002d0: 0e5b b93e 0000 0000 c334 9cb9 1725 9ebc
000002e0: 0000 0000 5402 0eba ce3e f63b 0ecb 5dbc
000002f0: 0000 0000 dc9f 30bc 0000 0000 0000 0000
00000300: 3237 c539 89c6 83bb 723a ec3d e3ac 8eb9
00000310: 3657 0d3d 97db 353c e1b7 d7bc a5ce 343d
00000320: 7a20 f33d 6edf 69b9 e71f 2e3d 0000 0000
00000330: 7f23 b6bb 3b9f 453c 4ec8 063e 2876 dabb
00000340: f74d 923c 66a8 ef3c af10 84b9 3d8f d33d
00000350: e747 4a3e 3a1b 1db9 4226 743d 9fe2 19bd
00000360: 0000 0000 2e63 13ba 0c80 36ba f76d 04bd
00000370: 0000 0000 5690 0aba 0000 0000 0456 1bba
00000380: 2307 62bd 2711 9b3c 7585 583b 9656 62bc
00000390: 0c83 0abd d5a0 b83d 0000 0000 62b8 963d
000003a0: 9b7c b1bc 7cf7 2ebc 0000 0000 83c5 c3bb
000003b0: 0000 0000 77bf 1b3f a4fe 893d 0000 0000
000003c0: e1ae a7bc 6e76 b63e 38ba 5abb dbcc 6bb9
000003d0: 0000 0000 b7bc 4c3e c03c d33c b456 a6bc
000003e0: a73a 043c 0000 0000 0000 0000 0000 0000
000003f0: 8bb2 1a3d 1e1b 4f3c 81f9 3cbd f5df 46ba

weight f4 [8, 300]
0.052289337 0.025374353 0.029326022 0.08303267 0.05275856 -0.12512213 0.060340777 0.046855286
-0.0016028285 -0.12549008 -0.0751653 0.10733938 -0.07246385 -0.03080184 0.00080290437 -0.06407374
0.0897966 0.069498286 0.030944094 -0.04675018 0.09533182 0.036662728 -0.006182015 0.042558283
0.07591462 -0.004500121 -0.047133863 -0.11846316 0.12711476 0.04450196 -0.10853952 0.041575998
-0.037291378 -0.062289923 -0.025070593 -0.028508492 -0.10001125 -0.07266691 -0.050847873 -0.030035555
0.06773269 0.08110581 -0.021211341 0.028287664 0.06736988 -0.11630058 0.0023364574 0.102957845
-0.022972658 0.0057254434 -0.13785087 0.059435904 0.019754782 0.06787506 -0.009556785 -0.13305086
0.048458517 0.0470313 0.033679605 -0.02308292 -0.12635723 0.02038084 -0.12322515 -0.12695679
0.10044487 0.13161905 -0.069109306 0.102947846 -0.02177094 0.010623977 -0.059483163 -0.12972331
0.046979904 -0.052117914 0.13554458 -0.11171577 0.12438993 -0.12471375 -0.085099876 -0.09250289
0.104275316 0.1060476 0.10919614 -0.10337259 0.07160731 0.13287203 0.107641056 0.07585743
0.1353781 0.11224274 -0.12772313 -0.023078099 0.035927534 0.018498987 0.071980014 -0.111023664
0.08315034 0.084526 0.0025452524 0.089052886 0.06630564 0.044035047 0.12113793 0.018197581
0.11476852 0.08476168 0.01709652 0.10532051 0.0045615435 0.11541338 0.05729595 0.0024076402
0.07739413 0.088771045 -0.12618017 -0.054575548 0.041113213 0.06255436 -0.091684535 0.088341564
0.09729038 0.13007708 -0.004947126 -0.052925542 -0.118256226 0.06691864 0.08281469 0.08012341
0.09692986 0.11147703 -0.13928899 0.086449325 0.020281151 0.07049568 0.07014467 -0.03784068
-0.07384291 0.039126128 0.12121977 0.007559076 0.06924535 -0.112023234 -0.12172227 0.035762325
0.06070514 -0.021484189 -0.08883579 -0.0028570443 -0.0071220845 -0.0021734089 0.09268972 -0.0015916526
-0.077631116 -0.010818422 0.09306179 0.012601092 0.095139444 -0.070976175 -0.103070796 -0.018640697
-0.12930599 -0.031070583 -0.10013048 -0.01078172 -0.041289806 0.03989865 0.0438108 0.058509454
0.07609324 -0.10169843 -0.02314701 0.0116763115 -0.055835105 -0.06585775 0.11270012 -0.111185625
-0.018446408 -0.061958537 0.12485592 0.0067628026 0.13321812 0.066404864 -0.07709679 0.13745756
-0.015484937 -0.011081561 0.016089916 0.022459432 0.023581028 -0.046992637 -0.013689607 -0.049892716
0.11481948 -0.07866052 0.08141786 -0.12699741 -0.059401542 0.004486397 0.044182003 0.04677111
-0.03733643 0.03179878 -0.0002888292 0.08335824 -0.04844337 -0.0992212 -0.1291747 -0.057145894
-0.1074314 -0.06934319 0.04319468 0.084269226 0.10357614 -0.13951705 -0.08510788 -0.09191559
-0.004594788 0.06343314 0.052067652 0.10802707 -0.1212616 -0.06363367 -0.11565335 -0.09598693
-0.11482726 -0.12984148 0.12797837 0.06903963 0.04515633 0.12741993 -0.13615797 -0.06929615
-0.03553009 0.1119027 -0.0068415105 -0.039571516 0.006278783 0.10357568 0.10090716 0.027385727
-0.1394636 0.024962008 0.086969554 -0.033003606 0.13480912 -0.032926723 0.013374746 -0.07725759
-0.08256026 -0.052943215 0.08142029 -0.07289175 -0.1364258 -0.11000049 -0.06010501 0.107525885
00000000: 582d 563d e0dd cf3c 203d f03c 080d aa3d
00000010: 5c19 583d 0420 00be e427 773d 54eb 3f3d
00000020: 0016 d2ba 7980 00be 44f0 99bd c0d4 db3d
00000030: ed67 94bd 2454 fcbc 007a 523a 1839 83bd
00000040: 48e7 b73d 1e55 8e3d 787e fd3c 1e7d 3fbd
00000050: 543d c33d a82b 163d 8092 cabb 9851 2e3d
00000060: 2079 9b3d c075 93bb 700f 41bd d09c f2bd
00000070: 5f2a 023e b047 363d f849 debd 984b 2a3d
00000080: d8be 18bd b823 7fbd d860 cdbc a48a e9bc
00000090: b3d2 ccbd 64d2 94bd dc45 50bd 200d f6bc
000000a0: 70b7 8a3d ce1a a63d 68c3 adbc 88bb e73c
000000b0: 38f9 893d 002f eebd 401f 193b 90db d23d
000000c0: 2831 bcbc 809c bb3b c728 0dbe 1073 733d
000000d0: c8d4 a13c 1402 8b3d 1094 1cbc 7c3e 08be
000000e0: 707c 463d e4a3 403d a0f3 093d 6418 bdbc
000000f0: ca63 01be b8f5 a63c 785d fcbd f600 02be
00000100: 0ab6 cd3d 25c7 063e 2e89 8dbd 52d6 d23d
00000110: f858 b2bc 3010 2e3c 9ea4 73bd 30d6 04be
00000120: 006e 403d 9879 55bd 33cc 0a3e 3dcb e4bd
00000130: 26c0 fe3d ec69 ffbd d848 aebd 2872 bdbd
00000140: 4c8e d53d 7c2f d93d 3aa2 df3d 02b5 d3bd
00000150: daa6 923d 9b0f 083e ea72 dc3d 245b 9b3d
00000160: 8fa0 0a3e 86df e53d dac9 02be 480e bdbc
00000170: c028 133d 308b 973c 426a 933d 6060 e3bd
00000180: ba4a aa3d f81b ad3d 40ce 263b 5c61 b63d
00000190: 40cb 873d 185e 343d 2a17 f83d 1813 953c
000001a0: c20b eb3d 8897 ad3d 000e 8c3c 48b2 d73d
000001b0: 0079 953b da5d ec3d 28af 6a3d 80c9 1d3b
000001c0: d080 9e3d 98cd b53d 6035 01be 9c8a 5fbd
000001d0: 5466 283d 801c 803d 1ac5 bbbd 6cec b43d
000001e0: 2e40 c73d ed32 053e 801b a2bb 74c8 58bd
000001f0: 5230 f2bd a40c 893d c09a a93d be17 a43d
00000200: 2a83 c63d 124e e43d c6a1 0ebe 580c b13d
00000210: a824 a63c 0a60 903d 02a8 8f3d d4fe 1abd
00000220: f43a 97bd b842 203d 1242 f83d 20b2 f73b
00000230: 82d0 8d3d 706c e5bd 8749 f9bd 847b 123d
00000240: f4a5 783d 9cff afbc 8aef b5bd 403d 3bbb
00000250: 6060 e9bb c06f 0ebb 1cd4 bd3d 009f d0ba
00000260: 10fd 9ebd c03f 31bc 2e97 be3d d074 4e3c
00000270: 78d8 c23d f55b 91bd c816 d3bd 60b4 98bc
00000280: ca68 04be bc87 febc 3611 cdbd d0a5 30bc
00000290: 801f 29bd c46c 233d f472 333d 9ca7 6f3d
000002a0: c6d6 9b3d 4447 d0bd cc9e bdbc 004e 3f3c
000002b0: 5ab3 64bd 6ee0 86bd 52cf e63d 4ab5 e3bd
000002c0: ec1c 97bc 3cc8 7dbd 76b4 ff3d 809a dd3b
000002d0: 556a 083e 46ff 873d ece4 9dbd adc1 0c3e
000002e0: 88b4 7dbc 708f 35bc 00cf 833c d8fc b73c
000002f0: 002d c13c 5a7b 40bd 604a 60bc 4e5c 4cbd
00000300: 7a26 eb3d c418 a1bd 68be a63d 9c0b 02be
00000310: 084f 73bd a002 933b 30f8 343d 1093 3f3d
00000320: 16ee 18bd 703f 023d 006e 97b9 bab7 aa3d
00000330: 8e6c 46bd 7c34 cbbd 5f46 04be d011 6abd
00000340: fe04 dcbd cd03 8ebd e8ec 303d 5895 ac3d
00000350: ba1f d43d 8fdd 0ebe 0a4d aebd 3e3e bcbd
00000360: e08f 96bb 3ce9 813d e444 553d 4c3d dd3d
00000370: 0058 f8bd 5f52 82bd aadb ecbd cc94 c4bd
00000380: 8e2a ebbd 2af5 04be c30c 033e a664 8d3d
00000390: d8f5 383d 5f7a 023e ff6c 0bbe 24eb 8dbd
000003a0: 0088 11bd 3e2d e53d c02e e0bb be15 22bd
000003b0: 40be cd3b 7c1f d43d 6aa8 ce3d 0858 e03c
000003c0: 8ccf 0ebe 207d cc3c 181d b23d ca2e 07bd
000003d0: 670b 0a3e 2cde 06bd c021 5b3c 3a39 9ebd
000003e0: 5b15 a9bd fcda 58bd aebf a63d 4548 95bd
000003f0: 34b3 0bbe f047 e1bd ac30 76bd 8836 dc3d

bias f4 [300]
0.0 0.0 0.0 0.0 0.0 0.0 0.0 0.0
0.0 0.0 0.0 0.0 0.0 0.0 0.0 0.0
0.0 0.0 0.0 0.0 0.0 0.0 0.0 0.0
0.0 0.0 0.0 0.0 0.0 0.0 0.0 0.0
0.0 0.0 0.0 0.0 0.0 0.0 0.0 0.0
0.0 0.0 0.0 0.0 0.0 0.0 0.0 0.0
0.0 0.0 0.0 0.0 0.0 0.0 0.0 0.0
0.0 0.0 0.0 0.0 0.0 0.0 0.0 0.0
0.0 0.0 0.0 0.0 0.0 0.0 0.0 0.0
0.0 0.0 0.0 0.0 0.0 0.0 0.0 0.0
0.0 0.0 0.0 0.0 0.0 0.0 0.0 0.0
0.0 0.0 0.0 0.0 0.0 0.0 0.0 0.0
0.0 0.0 0.0 0.0 0.0 0.0 0.0 0.0
0.0 0.0 0.0 0.0 0.0 0.0 0.0 0.0
0.0 0.0 0.0 0.0 0.0 0.0 0.0 0.0
0.0 0.0 0.0 0.0 0.0 0.0 0.0 0.0
0.0 0.0 0.0 0.0 0.0 0.0 0.0 0.0
0.0 0.0 0.0 0.0 0.0 0.0 0.0 0.0
0.0 0.0 0.0 0.0 0.0 0.0 0.0 0.0
0.0 0.0 0.0 0.0 0.0 0.0 0.0 0.0
0.0 0.0 0.0 0.0 0.0 0.0 0.0 0.0
0.0 0.0 0.0 0.0 0.0 0.0 0.0 0.0
0.0 0.0 0.0 0.0 0.0 0.0 0.0 0.0
0.0 0.0 0.0 0.0 0.0 0.0 0.0 0.0
0.0 0.0 0.0 0.0 0.0 0.0 0.0 0.0
0.0 0.0 0.0 0.0 0.0 0.0 0.0 0.0
0.0 0.0 0.0 0.0 0.0 0.0 0.0 0.0
0.0 0.0 0.0 0.0 0.0 0.0 0.0 0.0
0.0 0.0 0.0 0.0 0.0 0.0 0.0 0.0
0.0 0.0 0.0 0.0 0.0 0.0 0.0 0.0
0.0 0.0 0.0 0.0 0.0 0.0 0.0 0.0
0.0 0.0 0.0 0.0 0.0 0.0 0.0 0.0
00000000: 0000 0000 0000 0000 0000 0000 0000 0000
00000010: 0000 0000 0000 0000 0000 0000 0000 0000
00000020: 0000 0000 0000 0000 0000 0000 0000 0000
00000030: 0000 0000 0000 0000 0000 0000 0000 0000
00000040: 0000 0000 0000 0000 0000 0000 0000 0000
00000050: 0000 0000 0000 0000 0000 0000 0000 0000
00000060: 0000 0000 0000 0000 0000 0000 0000 0000
00000070: 0000 0000 0000 0000 0000 0000 0000 0000
00000080: 0000 0000 0000 0000 0000 0000 0000 0000
00000090: 0000 0000 0000 0000 0000 0000 0000 0000
000000a0: 0000 0000 0000 0000 0000 0000 0000 0000
000000b0: 0000 0000 0000 0000 0000 0000 0000 0000
000000c0: 0000 0000 0000 0000 0000 0000 0000 0000
000000d0: 0000 0000 0000 0000 0000 0000 0000 0000
000000e0: 0000 0000 0000 0000 0000 0000 0000 0000
000000f0: 0000 0000 0000 0000 0000 0000 0000 0000
00000100: 0000 0000 0000 0000 0000 0000 0000 0000
00000110: 0000 0000 0000 0000 0000 0000 0000 0000
00000120: 0000 0000 0000 0000 0000 0000 0000 0000
00000130: 0000 0000 0000 0000 0000 0000 0000 0000
00000140: 0000 0000 0000 0000 0000 0000 0000 0000
00000150: 0000 0000 0000 0000 0000 0000 0000 0000
00000160: 0000 0000 0000 0000 0000 0000 0000 0000
00000170: 0000 0000 0000 0000 0000 0000 0000 0000
00000180: 0000 0000 0000 0000 0000 0000 0000 0000
00000190: 0000 0000 0000 0000 0000 0000 0000 0000
000001a0: 0000 0000 0000 0000 0000 0000 0000 0000
000001b0: 0000 0000 0000 0000 0000 0000 0000 0000
000001c0: 0000 0000 0000 0000 0000 0000 0000 0000
000001d0: 0000 0000 0000 0000 0000 0000 0000 0000
000001e0: 0000 0000 0000 0000 0000 0000 0000 0000
000001f0: 0000 0000 0000 0000 0000 0000 0000 0000
00000200: 0000 0000 0000 0000 0000 0000 0000 0000
00000210: 0000 0000 0000 0000 0000 0000 0000 0000
00000220: 0000 0000 0000 0000 0000 0000 0000 0000
00000230: 0000 0000 0000 0000 0000 0000 0000 0000
00000240: 0000 0000 0000 0000 0000 0000 0000 0000
00000250: 0000 0000 0000 0000 0000 0000 0000 0000
00000260: 0000 0000 0000 0000 0000 0000 0000 0000
00000270: 0000 0000 0000 0000 0000 0000 0000 0000
00000280: 0000 0000 0000 0000 0000 0000 0000 0000
00000290: 0000 0000 0000 0000 0000 0000 0000 0000
000002a0: 0000 0000 0000 0000 0000 0000 0000 0000
000002b0: 0000 0000 0000 0000 0000 0000 0000 0000
000002c0: 0000 0000 0000 0000 0000 0000 0000 0000
000002d0: 0000 0000 0000 0000 0000 0000 0000 0000
000002e0: 0000 0000 0000 0000 0000 0000 0000 0000
000002f0: 0000 0000 0000 0000 0000 0000 0000 0000
00000300: 0000 0000 0000 0000 0000 0000 0000 0000
00000310: 0000 0000 0000 0000 0000 0000 0000 0000
00000320: 0000 0000 0000 0000 0000 0000 0000 0000
00000330: 0000 0000 0000 0000 0000 0000 0000 0000
00000340: 0000 0000 0000 0000 0000 0000 0000 0000
00000350: 0000 0000 0000 0000 0000 0000 0000 0000
00000360: 0000 0000 0000 0000 0000 0000 0000 0000
00000370: 0000 0000 0000 0000 0000 0000 0000 0000
00000380: 0000 0000 0000 0000 0000 0000 0000 0000
00000390: 0000 0000 0000 0000 0000 0000 0000 0000
000003a0: 0000 0000 0000 0000 0000 0000 0000 0000
000003b0: 0000 0000 0000 0000 0000 0000 0000 0000
000003c0: 0000 0000 0000 0000 0000 0000 0000 0000
000003d0: 0000 0000 0000 0000 0000 0000 0000 0000
000003e0: 0000 0000 0000 0000 0000 0000 0000 0000
000003f0: 0000 0000 0000 0000 0000 0000 0000 0000

weight f4 [8, 300]
-0.1038886 -0.03756909 0.06728418 -0.013146684 0.06733559 0.057273865 -0.099499494 -0.053493924
0.00674206 -0.07607187 -0.05060289 0.04299502 0.023702651 -0.043394595 -0.072196916 -0.00898388
0.09927726 0.028094083 0.019241884 0.118646935 0.09395403 -0.10478347 -0.08948593 -0.10640835
0.024044931 -0.12617531 -0.040231325 -0.0566321 -0.11192922 0.13389926 0.015158087 -0.10927371
0.11243512 0.057787478 -0.0013443828 0.026249751 0.09348656 -0.11261368 0.046491846 -0.09476882
-0.12311161 -0.05380054 -0.024994433 0.09188287 0.03222999 -0.07916995 0.013584733 -0.052044958
-0.0525069 0.11155234 0.014027804 0.09498434 -0.10430811 -0.13219011 0.078853846 -0.054635763
-0.06936803 0.11139627 -0.12432229 0.022427842 0.1390775 0.12954588 0.10990775 -0.036903337
-0.10665102 -0.043965206 -0.0068894923 -0.07628972 -0.060682625 0.049912542 -0.08282974 -0.018312775
-0.06528345 -0.09559928 -0.028849423 0.070388764 -0.10174361 -0.07595256 -0.011515051 0.05208245
0.05237271 -0.12586038 -0.039457195 0.13114683 0.10233393 0.115556344 -0.031777397 0.07130048
-0.074659325 -0.10360214 -0.03758771 -0.12796973 0.08729428 0.037226245 -0.015733592 -0.12712984
0.019401118 0.10461916 -0.08221091 -0.117543556 -0.10425006 0.10713124 -0.1325611 -0.04015199
0.12830122 0.1031217 0.06674379 0.046077445 0.10490331 0.050631925 -0.060341574 -0.0070878267
-0.0781627 0.13806973 -0.027560703 0.11625953 0.112348124 -0.11238763 0.064376175 -0.06623952
-0.05676148 0.07741222 0.13523488 0.08697891 0.036816582 0.04559046 -0.03289336 -0.068421654
-0.111815885 0.007874161 -0.1394318 0.017450854 0.021592826 -0.0071364045 -0.10620031 0.08377245
0.018711299 0.072639525 -0.06656422 -0.11229898 -0.01968833 -0.10620077 0.10293892 0.03922279
-0.031131707 -0.073818475 -0.13593948 0.040722057 0.056010425 0.114984855 0.06271471 -0.020502515
0.07382749 0.029812634 -0.10536598 0.0038831234 0.0379145 -0.1105502 -0.13059324 0.07669385
0.078999996 -0.046678774 -0.107956715 0.001985371 -0.13016593 0.05779618 -0.12868866 0.13780107
0.11331107 0.086724356 -0.02271019 -0.12218298 -0.027969025 0.07878657 -0.02472338 0.11894928
0.03393443 -0.12700027 0.12072565 0.007619038 0.06339641 -0.024713099 0.0014334917 0.010870263
-0.10130798 -0.062175117 -0.072152875 0.092690736 0.036854148 -0.080932036 0.029244497 -0.053976506
-0.05592324 0.013722733 -0.028862223 0.0022470057 0.007597238 -0.12194092 -0.04953987 -0.12573601
0.10095267 0.11156793 0.02429311 0.041702867 0.042089075 0.050183922 0.03523642 -0.07453971
-0.03191331 0.11773886 0.0037499964 0.043338 0.00864175 0.09948537 -0.045921795 -0.09813742
-0.13017474 -0.04328789 -0.12457094 0.06251165 0.02026309 0.023194373 -0.12551464 0.10147621
-0.058712594 -0.030810058 -0.010453135 -0.10539311 -0.0005571395 0.101795 -0.054325595 0.107603595
-0.07435438 -0.084691904 -0.07335245 0.094382286 0.040458947 0.10045542 0.0951457 0.07258122
-0.1326759 -0.09258576 0.05774577 0.038993135 0.13530271 0.02991952 0.1133907 0.09335148
0.045403555 -0.12718022 -0.084134564 -0.10420573 0.030525044 -0.11586278 -0.024491511 0.09724659
00000000: 8cc3 d4bd 0ce2 19bd 4acc 893d 3065 57bc
00000010: 3ee7 893d 0098 6a3d 64c6 cbbd 721c 5bbd
00000020: 80ec dc3b 92cb 9bbd fa44 4fbd 8c1b 303d
00000030: 102c c23c 88be 31bd fadb 93bd 2031 13bc
00000040: e051 cb3d 9025 e63c 28a1 9d3c 2afd f23d
00000050: f86a c03d b798 d6bd 6644 b7bd 9fec d9bd
00000060: e0f9 c43c 1a34 01be 9ac9 24bd 10f7 67bd
00000070: 263b e5bd e31c 093e a059 783c e5ca dfbd
00000080: 6244 e63d 90b2 6c3d 0036 b0ba b809 d73c
00000090: e275 bf3d 00a2 e6bd 3c6e 3e3d 2816 c2bd
000000a0: f121 fcbd f45d 5cbd 20c1 ccbc 162d bc3d
000000b0: 9803 043d db23 a2bd 8092 5e3c 182d 55bd
000000c0: 7a11 57bd 8e75 e43d e0d4 653c 2687 c23d
000000d0: 7e9f d5bd d85c 07be 207e a13d c0c9 5fbd
000000e0: d310 8ebd ba23 e43d af9c febd 98ba b73c
000000f0: 556a 0e3e ada7 043e 5017 e13d f427 17bd
00000100: da6b dabd dc14 34bd 40c1 e1bb c93d 9cbd
00000110: 588e 78bd 1871 4c3d a4a2 a9bd ac04 96bc
00000120: 54b3 85bd 8ec9 c3bd a055 ecbc fc27 903d
00000130: f45e d0bd 048d 9bbd a0a9 3cbc 6854 553d
00000140: c484 563d 8be1 00be de9d 21bd 5b4b 063e
00000150: 7494 d13d cea8 ec3d 0429 02bd fc05 923d
00000160: fde6 98bd 5c2d d4bd 92f5 19bd 7f0a 03be
00000170: 58c7 b23d 8c7a 183d bce3 80bc 532e 02be
00000180: 18ef 9e3c 9242 d63d 325e a8bd adba f0bd
00000190: 0e81 d5bd a067 db3d 19be 07be 6a76 24bd
000001a0: 6561 033e 7831 d33d f8b0 883d b4bb 3c3d
000001b0: 8cd7 d63d 6c63 4f3d ba28 77bd 0041 e8bb
000001c0: c413 a0bd 2762 0d3e fcc6 e1bc 7a19 ee3d
000001d0: c616 e63d 7c2b e6bd a8d7 833d 96a8 87bd
000001e0: ba7e 68bd 4c8a 9e3d 037b 0a3e 0022 b23d
000001f0: fccc 163d 10bd 3a3d 30bb 06bd a720 8cbd
00000200: baff e4bd a002 013c 36c7 0ebe 18f5 8e3c
00000210: 70e3 b03c 80d8 e9bb 8c7f d9bd e490 ab3d
00000220: 7048 993c 08c4 943d d252 88bd 02fd e5bd
00000230: 6c49 a1bc ca7f d9bd a4d1 d23d 14a8 203d
00000240: ec07 ffbc 242e 97bd b833 0bbe 2ccc 263d
00000250: 306b 653d 2e7d eb3d 9270 803d e4f4 a7bc
00000260: de32 973d a039 f43c 1eca d7bd 007c 7e3b
00000270: 3c4c 1b3d 2568 e2bd 3cba 05be aa11 9d3d
00000280: c0ca a13d 3e32 3fbd 6918 ddbd 001d 023b
00000290: 384a 05be b0bb 6c3d f6c6 03be b91b 0d3e
000002a0: a20f e83d 8a9c b13d b80a babc 123b fabd
000002b0: 4c1f e5bc da5a a13d b088 cabc ae9b f33d
000002c0: d4fe 0a3d 5c0c 02be 023f f73d 20a9 f93b
000002d0: fad5 813d 2073 cabc 00e4 bb3a 3019 323c
000002e0: 8f7a cfbd 56ab 7ebd e3c4 93bd a4d4 bd3d
000002f0: 60f4 163d b2bf a5bd 2892 ef3c 7816 5dbd
00000300: c40f 65bd 50d5 603c 7870 ecbc 8042 133b
00000310: 40f2 f83b 29bc f9bd 52ea 4abd f1c0 00be
00000320: 46c0 ce3d ba7d e43d 5802 c73c a0d0 2a3d
00000330: 9865 2c3d a88d 4d3d 1054 103d 47a8 98bd
00000340: 88b7 02bd 1221 f13d 80c2 753b 3083 313d
00000350: 2096 0d3c fcbe cb3d 7e18 3cbd 46fc c8bd
00000360: 874c 05be a44e 31bd 0d1f ffbd 1c06 803d
00000370: c8fe a53c 2002 be3c e986 00be c2d2 cf3d
00000380: 9e7c 70bd 6065 fcbc a043 2bbc 58d8 d7bd
00000390: 000d 12ba e679 d03d 8484 5ebd 465f dc3d
000003a0: 1c47 98bd f372 adbd cf39 96bd 804b c13d
000003b0: 48b8 253d 92bb cd3d c0db c23d 76a5 943d
000003c0: 31dc 07be 9a9d bdbd d486 6c3d 44b7 1f3d
000003d0: cb8c 0a3e c819 f53c 6239 e83d 102f bf3d
000003e0: 14f9 393d 883b 02be be4e acbd d069 d5bd
000003f0: a80f fa3c 7749 edbd 6ca2 c8bc 3829 c73d

bias f4 [300]
0.0 0.0 0.0 0.0 0.0 0.0 0.0 0.0
0.0 0.0 0.0 0.0 0.0 0.0 0.0 0.0
0.0 0.0 0.0 0.0 0.0 0.0 0.0 0.0
0.0 0.0 0.0 0.0 0.0 0.0 0.0 0.0
0.0 0.0 0.0 0.0 0.0 0.0 0.0 0.0
0.0 0.0 0.0 0.0 0.0 0.0 0.0 0.0
0.0 0.0 0.0 0.0 0.0 0.0 0.0 0.0
0.0 0.0 0.0 0.0 0.0 0.0 0.0 0.0
0.0 0.0 0.0 0.0 0.0 0.0 0.0 0.0
0.0 0.0 0.0 0.0 0.0 0.0 0.0 0.0
0.0 0.0 0.0 0.0 0.0 0.0 0.0 0.0
0.0 0.0 0.0 0.0 0.0 0.0 0.0 0.0
0.0 0.0 0.0 0.0 0.0 0.0 0.0 0.0
0.0 0.0 0.0 0.0 0.0 0.0 0.0 0.0
0.0 0.0 0.0 0.0 0.0 0.0 0.0 0.0
0.0 0.0 0.0 0.0 0.0 0.0 0.0 0.0
0.0 0.0 0.0 0.0 0.0 0.0 0.0 0.0
0.0 0.0 0.0 0.0 0.0 0.0 0.0 0.0
0.0 0.0 0.0 0.0 0.0 0.0 0.0 0.0
0.0 0.0 0.0 0.0 0.0 0.0 0.0 0.0
0.0 0.0 0.0 0.0 0.0 0.0 0.0 0.0
0.0 0.0 0.0 0.0 0.0 0.0 0.0 0.0
0.0 0.0 0.0 0.0 0.0 0.0 0.0 0.0
0.0 0.0 0.0 0.0 0.0 0.0 0.0 0.0
0.0 0.0 0.0 0.0 0.0 0.0 0.0 0.0
0.0 0.0 0.0 0.0 0.0 0.0 0.0 0.0
0.0 0.0 0.0 0.0 0.0 0.0 0.0 0.0
0.0 0.0 0.0 0.0 0.0 0.0 0.0 0.0
0.0 0.0 0.0 0.0 0.0 0.0 0.0 0.0
0.0 0.0 0.0 0.0 0.0 0.0 0.0 0.0
0.0 0.0 0.0 0.0 0.0 0.0 0.0 0.0
0.0 0.0 0.0 0.0 0.0 0.0 0.0 0.0
00000000: 0000 0000 0000 0000 0000 0000 0000 0000
00000010: 0000 0000 0000 0000 0000 0000 0000 0000
00000020: 0000 0000 0000 0000 0000 0000 0000 0000
00000030: 0000 0000 0000 0000 0000 0000 0000 0000
00000040: 0000 0000 0000 0000 0000 0000 0000 0000
00000050: 0000 0000 0000 0000 0000 0000 0000 0000
00000060: 0000 0000 0000 0000 0000 0000 0000 0000
00000070: 0000 0000 0000 0000 0000 0000 0000 0000
00000080: 0000 0000 0000 0000 0000 0000 0000 0000
00000090: 0000 0000 0000 0000 0000 0000 0000 0000
000000a0: 0000 0000 0000 0000 0000 0000 0000 0000
000000b0: 0000 0000 0000 0000 0000 0000 0000 0000
000000c0: 0000 0000 0000 0000 0000 0000 0000 0000
000000d0: 0000 0000 0000 0000 0000 0000 0000 0000
000000e0: 0000 0000 0000 0000 0000 0000 0000 0000
000000f0: 0000 0000 0000 0000 0000 0000 0000 0000
00000100: 0000 0000 0000 0000 0000 0000 0000 0000
00000110: 0000 0000 0000 0000 0000 0000 0000 0000
00000120: 0000 0000 0000 0000 0000 0000 0000 0000
00000130: 0000 0000 0000 0000 0000 0000 0000 0000
00000140: 0000 0000 0000 0000 0000 0000 0000 0000
00000150: 0000 0000 0000 0000 0000 0000 0000 0000
00000160: 0000 0000 0000 0000 0000 0000 0000 0000
00000170: 0000 0000 0000 0000 0000 0000 0000 0000
00000180: 0000 0000 0000 0000 0000 0000 0000 0000
00000190: 0000 0000 0000 0000 0000 0000 0000 0000
000001a0: 0000 0000 0000 0000 0000 0000 0000 0000
000001b0: 0000 0000 0000 0000 0000 0000 0000 0000
000001c0: 0000 0000 0000 0000 0000 0000 0000 0000
000001d0: 0000 0000 0000 0000 0000 0000 0000 0000
000001e0: 0000 0000 0000 0000 0000 0000 0000 0000
000001f0: 0000 0000 0000 0000 0000 0000 0000 0000
00000200: 0000 0000 0000 0000 0000 0000 0000 0000
00000210: 0000 0000 0000 0000 0000 0000 0000 0000
00000220: 0000 0000 0000 0000 0000 0000 0000 0000
00000230: 0000 0000 0000 0000 0000 0000 0000 0000
00000240: 0000 0000 0000 0000 0000 0000 0000 0000
00000250: 0000 0000 0000 0000 0000 0000 0000 0000
00000260: 0000 0000 0000 0000 0000 0000 0000 0000
00000270: 0000 0000 0000 0000 0000 0000 0000 0000
00000280: 0000 0000 0000 0000 0000 0000 0000 0000
00000290: 0000 0000 0000 0000 0000 0000 0000 0000
000002a0: 0000 0000 0000 0000 0000 0000 0000 0000
000002b0: 0000 0000 0000 0000 0000 0000 0000 0000
000002c0: 0000 0000 0000 0000 0000 0000 0000 0000
000002d0: 0000 0000 0000 0000 0000 0000 0000 0000
000002e0: 0000 0000 0000 0000 0000 0000 0000 0000
000002f0: 0000 0000 0000 0000 0000 0000 0000 0000
00000300: 0000 0000 0000 0000 0000 0000 0000 0000
00000310: 0000 0000 0000 0000 0000 0000 0000 0000
00000320: 0000 0000 0000 0000 0000 0000 0000 0000
00000330: 0000 0000 0000 0000 0000 0000 0000 0000
00000340: 0000 0000 0000 0000 0000 0000 0000 0000
00000350: 0000 0000 0000 0000 0000 0000 0000 0000
00000360: 0000 0000 0000 0000 0000 0000 0000 0000
00000370: 0000 0000 0000 0000 0000 0000 0000 0000
00000380: 0000 0000 0000 0000 0000 0000 0000 0000
00000390: 0000 0000 0000 0000 0000 0000 0000 0000
000003a0: 0000 0000 0000 0000 0000 0000 0000 0000
000003b0: 0000 0000 0000 0000 0000 0000 0000 0000
000003c0: 0000 0000 0000 0000 0000 0000 0000 0000
000003d0: 0000 0000 0000 0000 0000 0000 0000 0000
000003e0: 0000 0000 0000 0000 0000 0000 0000 0000
000003f0: 0000 0000 0000 0000 0000 0000 0000 0000

weight f4 [300, 5]
0.03221721 0.03219667 -0.14592369 -0.12571585 0.023912363 -0.11308409 -0.13057026 0.14479421
0.0452183 -0.04880015 0.052350406 -0.14422852 0.050413605 -0.11361356 -0.050842054 -0.044844415
0.13581203 0.20950489 -0.08290682 -0.039267723 -0.04025036 0.013206537 0.012573322 0.12373728
-0.07509122 -0.03157538 0.055647224 0.12138449 0.07144326 0.021677569 0.041498676 -0.1231273
0.089674026 -0.042099558 0.07855438 -0.0090124 0.077769555 0.1898932 -0.093088664 -0.06281397
0.069110274 0.037548993 0.56749356 0.21837805 -0.3873265 0.06325986 -0.08712308 0.33062908
0.070490636 -0.10124455 -0.040515095 -0.06895553 -0.013182067 -0.05701695 0.038768373 0.07931594
-0.014175604 0.17734331 0.0768606 -0.15187527 0.20914045 0.22320937 0.50230104 0.21980634
-0.34022808 -0.08316389 0.07221824 -0.08279879 0.1304013 -0.13714294 -0.11142467 -0.11748323
0.27635533 -0.14079525 -0.07205484 -0.015631221 -0.030481936 0.010263404 0.021241466 0.05024326
-0.14541268 0.005109825 0.14858525 -0.115282916 -0.024641676 -0.1326195 -0.16857329 0.099269725
-0.09444419 0.10836513 -0.004954798 -0.038206775 0.016304068 -0.0005734701 -0.12435874 0.11366795
-0.13440262 0.049591728 0.04247198 0.005910562 0.05387093 -0.011651292 0.1333024 -0.056850426
-0.084064335 0.11810417 0.10051333 0.09723852 0.03931948 -0.07314443 0.03149511 0.056122407
0.024169803 -0.13960806 -0.04778877 -0.08952385 -0.007981177 0.21163242 -0.107205644 -0.040293388
-0.24612595 -0.19985735 -0.088804334 -0.10323683 0.05136805 -0.12458518 -0.22933255 -0.08312579
-0.09240608 -0.009824781 0.03641859 0.06322651 0.06796505 0.08503329 -0.044821866 -0.086964116
-0.049831547 -0.069061466 0.0927697 -0.052210987 0.07563918 0.12793143 0.35939053 -0.0273345
-0.21940976 0.13495402 -0.07766851 -0.028829262 -0.03313089 -0.10845137 -0.09744861 -0.018099893
-0.011651782 0.0830343 0.026141817 0.039415576 0.046320643 0.14795229 -0.06343853 0.11055946
0.014844492 0.011305973 0.0002989024 0.09368168 -0.010767043 -0.04362627 -0.07440276 0.19172026
0.08008233 0.018927956 0.013386144 0.12349083 0.23551303 -0.118940584 -0.09961062 0.71846974
0.6571825 0.9268105 0.7352394 -0.8746097 -0.10560424 -0.104782425 0.30090964 -0.022442752
-0.10546207 -0.07721424 0.12419066 0.013972847 0.043779023 -0.049782243 -0.041102078 0.01570776
-0.017609268 0.047093987 -0.040667206 -0.047566283 -0.4050432 -0.7198263 -0.23711826 0.60245335
0.11033712 -0.13258931 -0.034000486 0.12724023 0.06860101 0.06335704 0.0792834 -0.030982975
-0.055022098 0.027627867 0.038607445 0.12106753 0.13229705 -0.055381127 -0.020354504 0.035203487
-0.13922334 0.08725689 0.13573493 0.023398846 -0.030811176 -0.089019634 0.11555805 -0.0094500305
-0.21797557 -0.09889962 -0.052959993 0.066762954 -0.0983824 -0.084665 -0.027969731 -0.22537896
0.13215984 -0.22268635 0.16004372 -0.10277772 -0.17870948 0.16199704 -0.15303019 -0.12477225
-0.16117239 -0.0227336 0.1644565 0.045191236 -0.13392533 0.0005285799 0.0047407746 -0.08497496
-0.23651275 0.16198996 -0.17790076 -0.21294893 -0.018868487 -0.04161422 -0.07461728 -0.5568291
00000000: 31f6 033d a8e0 033d 056d 15be a8bb 00be
00000010: dce3 c33c a298 e7bd 36b4 05be ef44 143e
00000020: d336 393d abe2 47bd 616d 563d a4b0 13be
00000030: 7f7e 4e3d 3aae e8bd c23f 50bd c7ae 37bd
00000040: 4f12 0b3e 7388 563e 0dcb a9bd 31d7 20bd
00000050: 90dd 24bd 3b60 583c 5600 4e3c f969 fd3d
00000060: 6dc9 99bd 3055 01bd 58ee 633d 6e98 f83d
00000070: d850 923d 2895 b13c 84fa 293d 2a2a fcbd
00000080: 04a7 b73d 9670 2cbd 1ee1 a03d bfa8 13bc
00000090: a545 9f3d 5d73 423e 45a5 bebd 9ca4 80bd
000000a0: b089 8d3d f9cc 193d 4247 113f 7f9e 5f3e
000000b0: a94f c6be 638e 813d 966d b2bd 3748 a93e
000000c0: 655d 903d 4d59 cfbd 28f3 25bd 8f38 8dbd
000000d0: 99f9 57bc 9b8a 69bd 96cb 1e3d 6570 a23d
000000e0: cb40 68bc 7c99 353e 1769 9d3d 3185 1bbe
000000f0: ea28 563e ff90 643e cd96 003f ea14 613e
00000100: 6032 aebe d451 aabd 28e7 933d 6992 a9bd
00000110: eb87 053e 336f 0cbe 9e32 e4bd 0c9b f0bd
00000120: 727e 8d3e a12c 10be 7d91 93bd 0c0d 80bc
00000130: 41b5 f9bc d627 283c 9502 ae3c e0cb 4d3d
00000140: 10e7 14be 5270 a73b bb26 183e 7319 ecbd
00000150: 57dd c9bc 68cd 07be 7a9e 2cbe ed4d cb3d
00000160: f56b c1bd 8aee dd3d dc5b a2bb b57e 1cbd
00000170: 1c90 853c ed54 16ba ccaf febd beca e83d
00000180: d7a0 09be b220 4b3d 19f7 2d3d 63ad c13b
00000190: c4a7 5c3d 10e5 3ebc 6d80 083e fedb 68bd
000001a0: ec29 acbd 99e0 f13d efd9 cd3d fd24 c73d
000001b0: 770d 213d bfcc 95bd 0401 013d 9ce0 653d
000001c0: c0ff c53c 6af5 0ebe 28be 43bd 4858 b7bd
000001d0: 7cc3 02bc 2bb6 583e a28e dbbd ae0a 25bd
000001e0: 7108 7cbe 68a7 4cbe 0cdf b5bd d56d d3bd
000001f0: 4e67 523d 8426 ffbd 27d6 6abe db3d aabd
00000200: 663f bdbd 1ef8 20bc a92b 153d e77c 813d
00000210: 4331 8b3d ef25 ae3d 2297 37bd 3e1a b2bd
00000220: 2a1c 4cbd 1970 8dbd 0afe bd3d 30db 55bd
00000230: b7e8 9a3d 7500 033e 0902 b83e 9aec dfbc
00000240: f4ac 60be 6331 0a3e ab10 9fbd 582b ecbc
00000250: 42b4 07bd c01b debd 2393 c7bd 3a46 94bc
00000260: 1ee7 3ebc e30d aa3d 5d27 d63c 3a72 213d
00000270: b7ba 3d3d ce80 173e 0fec 81bd 006d e23d
00000280: 5036 733c b03c 393c 00b6 9c39 2edc bf3d
00000290: 4068 30bc 76b1 32bd 7960 98bd 5152 443e
000002a0: 3402 a43d cd0e 9b3c 8f51 5b3c c3e8 fc3d
000002b0: 542a 713e 1f97 f3bd a700 ccbd a2ed 373f
000002c0: 1d3d 283f 7443 6d3f a638 3c3f 6ce6 5fbf
000002d0: 0947 d8bd 2b98 d6bd d410 9a3e ddd9 b7bc
000002e0: 7ffc d7bd 8022 9ebd ac57 fe3d 5eee 643c
000002f0: a251 333d 77e8 4bbd a75a 28bd 8fad 803c
00000300: 5041 90bc a0e5 403d a892 26bd ddd4 42bd
00000310: d361 cfbe 8946 38bf 21cf 72be 623a 1a3f
00000320: 6ef8 e13d 7ec5 07be 1844 0bbd 434b 023e
00000330: b07e 8c3d 56c1 813d 565f a23d 02d0 fdbc
00000340: da5e 61bd d653 e23c d722 1e3d 41f2 f73d
00000350: e178 073e 52d7 62bd 7dbe a6bc 8831 103d
00000360: 9090 0ebe beb3 b23d 19fe 0a3e f0ae bf3c
00000370: b867 fcbc ed4f b6bd b3a9 ec3d 4dd4 1abc
00000380: fd34 5fbe e28b cabd 94ec 58bd 04bb 883d
00000390: b67c c9bd d864 adbd c720 e5bc bec9 66be
000003a0: e954 073e e407 64be 80e2 233e 207d d2bd
000003b0: 9eff 36be 8de2 253e f2b3 1cbe 9888 ffbd
000003c0: 600a 25be d13b babc 4967 283e 721a 393d
000003d0: b923 09be 6690 0a3a 8058 9b3b 5a07 aebd
000003e0: 6630 72be b2e0 253e 9e2b 36be 490f 5abe
000003f0: 1692 9abc ac73 2abd f2d0 98bd 5a8c 0ebf

bias f4 [5]
0.16198044 0.33289748 0.7713325 0.3138041 -0.41696715
00000000: 33de 253e 8a71 aa3e 0c76 453f eeaa a03e
00000010: b87c d5be

weight f4 [300, 5]
0.0503921 -0.123778045 -0.049929835 -0.083058976 0.087614626 -0.19676912 -0.18608928 -0.22756468
0.15825039 -0.006435056 0.08599424 -0.17117545 -0.1768971 -0.10134357 -0.11664151 -0.08285274
0.009681248 -0.118057996 0.038147707 0.0037706029 0.124721386 0.043242864 -0.11107873 0.13292527
0.05889605 0.11322768 -0.13747326 0.12137748 -0.07195451 -0.06282052 -0.1344475 -0.13875893
-0.040266797 -0.0794994 -0.12805732 -0.10308552 -0.14385255 0.015647065 -0.064553715 -0.076377295
-0.8043707 0.61389285 0.43825093 0.7549041 -0.78698957 -0.48601937 0.07722264 -0.04447268
0.22233926 -0.34115922 -0.14147384 -0.022487694 -0.14519225 0.020830527 -0.05304921 -0.1518715
-0.15322405 -0.045783497 -0.012908237 -0.2060661 -0.091942884 0.22505377 0.32459694 0.42447
-0.44246215 0.092269406 -0.022262707 0.016946465 -0.13208187 0.078149244 -0.18990481 -0.14664619
-0.017390389 0.08258355 -0.06930477 -0.19497763 -0.19326521 -0.12844591 -0.08197662 -0.11332267
0.04270445 -0.007712236 -0.18698063 0.033847056 -0.117336005 -0.13052653 -0.15251769 -0.08872563
0.1976272 -0.14605635 0.026997233 0.003148945 0.10127371 0.11357717 0.11146258 -0.080578424
0.004632976 -0.024284514 0.00042152446 -0.06481167 -0.10417676 0.124947175 -0.10327401 -0.12420554
0.012150094 -0.11404488 0.0040789684 -0.035725765 0.11555118 0.0018092257 -0.062701136 0.10453016
0.062545665 0.030175783 -0.073464654 -0.21583293 -0.13635884 -0.06696036 0.141792 -0.18477981
0.021035854 -0.11866863 -0.15524468 -0.03458119 0.06585895 -0.2266674 -0.14480324 -0.034794006
0.26531133 -0.10725117 -0.010770023 0.043634783 -0.07335999 0.047833063 -0.11626873 -0.03998266
0.015293032 -0.13972858 0.13716422 0.031470373 -0.001028587 -0.18050691 -0.1971101 0.08142849
-0.22760734 0.110397026 0.053164914 0.101053074 -0.008116886 0.005000815 -0.051564295 0.049689397
-0.011544969 0.04030615 -0.07062494 -0.09928704 -0.12834896 0.0210844 -0.014347482 0.053698596
0.05406004 -0.13286954 0.06871209 -0.09158771 0.031628657 -0.16534057 -0.14640473 -0.19246314
0.11607236 -0.12955244 -0.24097908 0.03996419 0.020906305 0.11278833 -0.08406747 -0.0007857501
-0.09507387 0.03248357 -0.061625272 0.089119695 -0.028351504 -0.018939165 -0.0898307 0.10440426
-0.20124935 0.08987889 0.057890937 0.041837543 0.037697617 -0.03247555 0.1020812 -0.07567101
-0.06264724 -0.10936253 0.11488701 0.2752832 -0.17413785 -0.20407017 -0.11294473 0.08552346
-0.13492875 0.031594783 0.08411236 0.012312368 -0.07995345 -0.2276603 -0.17255925 -0.11913307
0.2037975 0.016479602 -0.06572097 0.0012752336 0.08907188 -0.05842014 -0.06562368 0.08963315
0.034971207 0.11343734 0.0806192 -0.086799294 -0.3851679 0.0968081 -0.056851022 0.35690817
-0.18065228 -0.10600643 -0.13226685 0.04199262 -0.12377517 0.058194563 -0.019312106 -0.22070844
-0.09227355 0.1786094 -0.053817242 -0.44372377 0.22975038 0.080089025 0.15505551 -0.28766236
-0.22637552 -0.12504394 -0.04565441 0.041530926 -0.102465555 -0.15164278 -0.067000985 -0.20297723
0.01530453 0.01056198 -0.26303577 -0.01820813 0.012752225 0.24183436 -0.09321912 -0.21621688
00000000: f267 4e3d 587f fdbd 3a83 4cbd d31a aabd
00000010: 4c6f b33d d87d 49be 308e 3ebe b706 69be
00000020: 640c 223e 2add d2bb c01d b03d 9e48 2fbe
00000030: 8324 35be 388d cfbd bee1 eebd b3ae a9bd
00000040: 199e 1e3c 64c8 f1bd c540 1c3d 381c 773b
00000050: ed6d ff3d 6e1f 313d 3f7d e3bd 901d 083e
00000060: fc3c 713d eae3 e73d cac5 0cbe c294 f83d
00000070: e35c 93bd 0ba8 80bd 9bac 09be d216 0ebe
00000080: ccee 24bd 95d0 a2bd 7521 03be 801e d3bd
00000090: 154e 13be 462e 803c bd34 84bd b36b 9cbd
000000a0: 3deb 4dbf 1528 1d3f 6d62 e03e 6541 413f
000000b0: 2678 49bf 88d7 f8be e726 9e3d fc28 36bd
000000c0: e7ac 633e 6cac aebe 85de 10be 1d38 b8bc
000000d0: 47ad 14be c8a4 aa3c 214a 59bd 3484 1bbe
000000e0: c4e6 1cbe 7a87 3bbd 127d 53bc fe02 53be
000000f0: 8d4c bcbd 7f74 663e 9231 a63e 2254 d93e
00000100: 668a e2be bef7 bc3d 4860 b6bc 50d3 8a3c
00000110: 7840 07be b60c a03d 6876 42be 6b2a 16be
00000120: 4a76 8ebc 9021 a93d a9ef 8dbd 37a8 47be
00000130: 51e7 45be 5387 03be 5ce3 a7bd b715 e8bd
00000140: ddea 2e3d edb6 fcbb da77 3fbe 36a3 0a3d
00000150: dc4d f0bd bfa8 05be 992d 1cbe c8b5 b5bd
00000160: c95e 4a3e cc8f 15be 4d29 dd3c 885e 4e3b
00000170: 9768 cf3d 269b e83d 7e46 e43d 4d06 a5bd
00000180: 38d0 973b 51f0 c6bc 0e00 dd39 fbbb 84bd
00000190: a05a d5bd 4ee4 ff3d 5381 d3bd 795f febd
000001a0: 3011 473c 5d90 e9bd dea8 853b 2e55 12bd
000001b0: 19a6 ec3d 8a23 ed3a 7469 80bd e913 d63d
000001c0: f117 803d 3433 f73c a374 96bd 4f03 5dbe
000001d0: a7a1 0bbe 8322 89bd ec31 113e eb36 3dbe
000001e0: 6253 ac3c 8a08 f3bd 76f8 1ebe 02a5 0dbd
000001f0: 0fe1 863d 801b 68be 4d47 14be 2984 0ebd
00000200: e3d6 873e 80a6 dbbd c074 30bc 63ba 323d
00000210: c33d 96bd 9aec 433d 4d1e eebd dcc4 23bd
00000220: a08f 7a3c 0215 0fbe c774 0c3e 14e7 003d
00000230: a7d1 86ba ced6 38be 3bd7 49be fbc3 a63d
00000240: e611 69be d617 e23d 74c3 593d eaf4 ce3d
00000250: b0fc 04bc e0dd a33b 1535 53bd 1c87 4b3d
00000260: 1c27 3dbc 1018 253d cfa3 90bd 0157 cbbd
00000270: e96d 03be 31b9 ac3c b311 6bbc 0ff3 5b3d
00000280: 0f6e 5d3d f40e 08be edb8 8c3d 5692 bbbd
00000290: 0d8d 013d 0a4f 29be 1feb 15be 0f15 45be
000002a0: 58b7 ed3d 65a9 04be 38c3 76be 7eb1 233d
000002b0: b343 ab3c 91fd e63d 912b acbd ccfa 4dba
000002c0: 17b6 c2bd 7e0d 053d c86a 7cbd 6384 b63d
000002d0: 6a41 e8bc 4f26 9bbc 28f9 b7bd e7d1 d53d
000002e0: 4f14 4ebe 6c12 b83d 0c1f 6d3d d85d 2b3d
000002f0: d168 1a3d 1505 05bd f30f d13d 67f9 9abd
00000300: 324d 80bd 76f9 dfbd e149 eb3d ebf1 8c3e
00000310: 3151 32be c5f7 50be 914f e7bd ec26 af3d
00000320: c32a 0abe 8869 013d 1a43 ac3d d0b9 493c
00000330: a2be a3bd c81f 69be 5fb3 30be 0afc f3bd
00000340: 4bb0 503e 3b00 873c b798 86bd bd25 a73a
00000350: 516b b63d f549 6fbd b565 86bd 9691 b73d
00000360: f83d 0f3d d651 e83d ae1b a53d d4c3 b1bd
00000370: ba34 c5be 5343 c63d 9edc 68bd abbc b63e
00000380: e9fc 38be e619 d9bd f670 07be 7400 2c3d
00000390: d67d fdbd 6c5d 6e3d 6c34 9ebc 6501 62be
000003a0: eaf9 bcbd 62e5 363e 786f 5cbd c32f e3be
000003b0: af43 6b3e b705 a43d dfc6 1e3e 7b48 93be
000003c0: fcce 67be 850b 00be 1e00 3bbd 551c 2a3d
000003d0: 76d9 d1bd 3f48 1bbe d037 89bd 43d9 4fbe
000003e0: dabf 7a3c 280c 2d3c a0ac 86be 3729 95bc
000003f0: b5ee 503c 6da3 773e aae9 bebd f567 5dbe

bias f4 [5]
-0.47733146 0.3495504 0.2689915 0.15187667 -0.3736905
00000000: ca64 f4be 45f8 b23e 41b9 893e 8f85 1b3e
00000010: 5c54 bfbe
